PPO_preTrained/AutoDrive-v1/PPO_AutoDrive-v1_0_0.pth (torch, 52610 bytes, 11 tensors)

actor.0.weight f4 [64, 26]
000000 ea c7 fe be c9 4e 07 3f 8a 89 2f bc 65 9d 5d be
       -0.49761897 0.5285459 -0.010713944 -0.21642072
000010 fc fa 46 3e bc 6a c7 be 3f bb 65 3d e1 65 a1 bd
       0.1943168 -0.3894862 0.056086775 -0.0788076
000020 4b 76 1b be 40 72 51 be ed bf 7a bd 36 e9 d6 3d
       -0.15181844 -0.20453739 -0.06121819 0.104937
000030 13 a5 03 bd 8f 3e bc 3c 04 3c c1 bc 4a 2d bd bd
       -0.03213985 0.022979049 -0.023588188 -0.09237154
000040 e6 20 5b bd 36 b5 9f 3d 3c 71 8e bd 3d c4 97 bd
       -0.05349817 0.07798235 -0.069551915 -0.07410476
000050 af 04 18 3d 86 33 18 3e 56 2f bb bd 62 8f 6b 3a
       0.03711384 0.14863405 -0.09139888 0.0008985904
000060 72 3c 51 be 78 0f f3 3d 84 5a 15 3f 7e b0 d2 be
       -0.20433214 0.11868185 0.5834124 -0.41150278
000070 19 2c f9 bc a8 e1 32 bc 27 31 7a 3e 8a 9d b8 be
       -0.030416535 -0.010918058 0.24432813 -0.36057693
000080 ac a5 91 3d 47 56 9c be e9 76 02 3e 58 aa fb be
       0.071116775 -0.30534574 0.12740673 -0.491534
000090 1f aa a7 3d ca 2c 8f be 48 7d 12 3e 6b 4d c2 be
       0.08186745 -0.2796386 0.14305604 -0.3794969
0000a0 bf 56 14 3e 70 0b 2d bf 0f f4 86 bd d6 19 7c be
       0.14486216 -0.6759558 -0.06589519 -0.2461923
0000b0 0a 56 22 3e 2b ef 75 be 82 9c 36 3e 2f 8a 07 bf
       0.15853134 -0.24017017 0.1783314 -0.52945226
0000c0 17 07 f1 3d 44 b4 d3 be 76 49 ad bd 7d 1d 8c be
       0.117689304 -0.4134847 -0.08461277 -0.27366248
0000d0 0e 34 16 3e 25 b6 60 be 69 52 b3 3e a3 23 9c 3e
       0.14668295 -0.21944483 0.3502381 0.3049594
0000e0 a9 b9 cc 3a a1 fe 91 be c5 b5 4a bc 22 c3 31 bd
       0.0015619296 -0.2851458 -0.012372439 -0.043398984
0000f0 68 4a 15 3d cb 89 a3 3d 71 e0 da 3c 7e 60 9e bd
       0.036447912 0.07985266 0.02671835 -0.07733248
000100 1e df a0 3b 8e 0f bd 3c 69 12 3f be 51 4c ab 3d
       0.00490941 0.023078706 -0.18659367 0.083641656
000110 b7 65 70 3d b3 1a ca 3d fa 40 c1 3d 35 4d 45 bc
       0.058690753 0.09868374 0.094362214 -0.012042333
000120 b1 22 70 bd 56 c6 59 3e 8e 33 eb bc 0c 3f 77 3e
       -0.058626834 0.21267065 -0.028711107 0.24145144
000130 f9 7d 34 3d 0d 35 76 3e 05 3c 8e 3e e5 fe db be
       0.04406545 0.24043675 0.27780166 -0.42967907
000140 34 3d 1a 3e 5d 7e 64 3d 81 ac b4 3d 56 ba 66 3e
       0.1506241 0.055784572 0.08821965 0.22532019
000150 31 b5 7b 3d 69 10 b5 3d e5 a2 e8 3d 65 e1 ee 3d
       0.061452094 0.088410206 0.11359195 0.11664084
000160 4d 92 1c bd e1 de 4f 3d e8 5e 00 be 0d 4d 36 be
       -0.03822546 0.050749663 -0.12536204 -0.1780283
000170 6c ac ec 3d f5 4d 01 3e a4 9a 93 bc 80 18 d3 bc
       0.11556324 0.12627394 -0.018018074 -0.025768518
000180 42 d3 2f 3e a0 2e 1d 3d 81 40 ec 3c f6 67 11 be
       0.17170432 0.038374543 0.028839352 -0.14199814
000190 6e 71 68 3e 8e 6b 6d bd ea cc 77 3d 37 0c 20 bd
       0.2269952 -0.0579639 0.060498156 -0.03907415
0001a0 e3 a5 3b be 19 49 32 be 10 d6 4f be df bb 39 3e
       -0.18325 -0.17410697 -0.20296502 0.18138073
0001b0 28 7b 46 3e dc 38 9e 3e 3c e2 f4 3c c9 6a 15 3e
       0.19382918 0.30902755 0.029893033 0.14591517
0001c0 43 cb 34 3d 20 32 b1 3e 76 7e c6 bd 7d 1b 6a 3e
       0.044139158 0.34608555 -0.09692089 0.22862048
0001d0 5b 9f 64 bc 6b 72 91 3e 27 7c ec 3d 65 c5 31 3e
       -0.013954009 0.28407606 0.11547118 0.17360456
0001e0 07 f7 31 bb 9d 89 61 3e 62 f8 06 be e5 45 04 3e
       -0.0027155296 0.22025152 -0.13180688 0.12917288
0001f0 55 73 47 3e 44 8a 2d 3e f3 1f 00 3e 55 cf 6f 3e
       0.1947759 0.16947275 0.12512188 0.23418935
000200 19 95 67 3e 2c da 3e 3e 3c ae 4c 3e 49 73 fa bc
       0.2261547 0.18637913 0.1998834 -0.03057255
000210 fa a0 e1 be 16 bd 7d 3e 1a 18 09 3f a5 88 42 be
       -0.44068128 0.24779162 0.535524 -0.18997438
000220 42 9f 78 3d f6 19 56 3e 84 0c 43 be e0 e6 4c 3e
       0.060698755 0.20908341 -0.19047743 0.20009947
000230 54 5d e7 3d a3 93 10 be 07 7a 78 bd 41 1a 8f 3c
       0.11297098 -0.14118819 -0.06066325 0.017468574
000240 36 ac f9 bd ab 75 a9 be c1 43 a6 bc 02 60 5a bc
       -0.1219105 -0.33097586 -0.02029598 -0.013328554
000250 ac 0a 1e 3e fa 7d 8c bd 02 61 52 be 78 0b 29 be
       0.15433758 -0.068599656 -0.20544818 -0.16508281
000260 bd 43 bb 3d 50 93 19 3e e2 0f b8 bb b8 aa 15 be
       0.091437794 0.14997602 -0.0056171278 -0.14615905
000270 1e 06 80 3c 7b 58 6f be cc 40 e4 be e2 ba de bd
       0.015627917 -0.23373596 -0.44580686 -0.10875489
000280 a6 86 10 bd 91 2c d8 3d 8d 08 1b 3e 38 fd bf 3e
       -0.03528466 0.10555375 0.1513998 0.37497878
000290 ee 3e 0d 3d a8 2d 12 bd 1a 07 10 3e 97 2d 33 3e
       0.034483843 -0.035688072 0.14065209 0.1749786
0002a0 74 47 6c 3d 40 f9 13 be 0f 74 1c be 1e 35 04 3e
       0.05768533 -0.1445055 -0.15278648 0.12910888
0002b0 a7 3f de 3c f6 28 56 bd 66 0e 7e bd 41 76 5c be
       0.027129961 -0.052285157 -0.06202545 -0.21529485
0002c0 7f e7 d6 bd ce 6c 27 3e bb e1 62 be 20 79 42 3d
       -0.10493373 0.163501 -0.22156422 0.047478795
0002d0 84 ae 85 3d 19 bd af 3d b6 bc 15 3d 7f 77 a4 be
       0.06527427 0.085809894 0.036556922 -0.32122418
0002e0 ad 7a 92 3d db 96 38 3d 66 0d 00 3d 0b ab 9c 3d
       0.07152305 0.045065742 0.031262778 0.07649811
0002f0 6e 14 53 be a8 42 81 3d 64 6f 5b be 90 b0 c4 3d
       -0.20613262 0.06311542 -0.21429211 0.09603989
000300 11 14 e1 3d d3 46 24 be 96 01 cc 3d 8a b7 54 be
       0.109901555 -0.16042642 0.0996124 -0.2077314
000310 bb a6 4d be b1 94 fb 3c 26 9e 2a be 89 58 19 be
       -0.20083134 0.03071055 -0.16661891 -0.1497518
000320 ac 73 07 3e 8c 61 32 bd 95 a8 95 bd 66 a6 3c 3d
       0.13227719 -0.04355006 -0.07307545 0.046057127
000330 2f 85 36 3d 76 75 62 bd 12 de 09 be 05 ed af 3d
       0.044560608 -0.0552878 -0.1346362 0.0859013
000340 6c 90 b1 3e 21 9b e5 3c d8 ed c8 bd c1 49 02 be
       0.34680498 0.028028073 -0.0981099 -0.12723447
000350 c3 87 08 bd f9 b8 a6 3e c1 4f f3 bd 62 6c b4 bd
       -0.033332597 0.32562998 -0.11880446 -0.08809735
000360 05 ee 4e bc 07 a8 01 bc 97 14 39 be c4 28 bd 3b
       -0.0126299905 -0.007913596 -0.1807426 0.005772682
000370 b9 a8 3f 3e 54 43 36 3e cd 9c 0c 3c 8d 60 b8 3d
       0.18716706 0.17799121 0.008582306 0.090027906
000380 0e ec 41 3e 14 43 55 bd 0b 80 33 be 71 d2 1e be
       0.18937704 -0.052065924 -0.17529313 -0.15509965
000390 0c 1d 49 bd 04 0f 29 be 5e 0e 1b be e9 ae b6 3d
       -0.049099967 -0.16509634 -0.151422 0.0892008
0003a0 50 04 73 be 1c 99 9a bd b1 14 a4 be 32 ad a9 3e
       -0.23732114 -0.075487345 -0.32047036 0.3313995
0003b0 1e 76 c3 be 53 f6 d7 be fb 31 82 bd 08 d0 10 3f
       -0.38176054 -0.42180118 -0.06357189 0.5656743
0003c0 22 d5 df bd 6f 45 3e bd 9e 5f 69 3e 6b bb 39 3e
       -0.10929324 -0.046452936 0.22790381 0.181379
0003d0 79 25 b5 bd c0 9a f7 bd f7 79 9b 3d 77 41 4c 3d
       -0.08845038 -0.12090063 0.07591622 0.04986712
0003e0 c2 38 97 3d 0b d2 91 be b9 50 09 be 94 7a cb be
       0.073838726 -0.28480563 -0.134097 -0.39741957
0003f0 9d a8 50 3c 40 ef 8d bd b2 c7 ab 3d e4 35 8b be
       0.012735513 -0.06930399 0.08387698 -0.27189553

actor.0.bias f4 [64]
000000 da 2e bc 3c 83 ee ef bd 5a 96 22 be b0 bc 5b 3c
       0.02297156 -0.117154144 -0.15877667 0.013411686
000010 39 98 01 3e dd 02 4e bd 00 a5 df 3d 79 b8 8e 3d
       0.12655725 -0.0502957 0.10920143 0.06968779
000020 09 3d e0 bd 3a 89 0e 3d f6 c0 c7 bd 62 6e 7e bd
       -0.109491415 0.03479884 -0.09753601 -0.062116988
000030 48 7e 67 be 97 01 b1 bd 82 42 b2 bd ca fb 13 be
       -0.22606766 -0.08642881 -0.087040916 -0.14451519
000040 2d be 56 be 81 70 bd 3d 8a 92 08 be 08 18 51 3d
       -0.20970984 0.09249974 -0.1333715 0.05104831
000050 2a e0 ea 3d 5d 94 5b bd 53 95 64 3d f2 d1 e1 bd
       0.11468537 -0.053608287 0.05580647 -0.11026372
000060 2b 4f 03 3e 19 54 1a be 36 55 42 3e a0 41 f3 3d
       0.12823169 -0.15071143 0.18977818 0.11877751
000070 0f c9 0f be a6 35 2c be fb 68 25 be ba 3d 94 bc
       -0.14041542 -0.1681734 -0.16153328 -0.01809584
000080 73 af 50 3c e0 5c 81 bd 6c 1e e2 3d 8b 64 a2 bd
       0.012737143 -0.063165426 0.11040959 -0.07929333
000090 f9 a6 23 be f3 0c ac bd b0 14 e1 bd c7 28 b4 3d
       -0.15981664 -0.08400907 -0.10990274 0.0879684
0000a0 8c ad c9 bd 43 c0 b2 3d a3 09 e8 3d 0c de 12 bd
       -0.098475546 0.08728077 0.11329963 -0.03585629
0000b0 b1 db 2b bd d0 a5 20 be fc 12 c5 bd 6a 2e e3 3d
       -0.04195756 -0.15688252 -0.096227616 0.11092837
0000c0 b2 2c 27 3e ab d6 e2 bd 5b 21 35 3e bd 27 af 3d
       0.16325644 -0.11076101 0.17688505 0.08552501
0000d0 a9 4f d3 bb e7 2f 3a 3c 2a 35 44 bd 05 82 2e 3e
       -0.006448705 0.01136396 -0.047902264 0.17041786
0000e0 12 67 65 be dc 58 b4 3d 25 d8 ea bd 15 67 53 3d
       -0.224026 0.08806011 -0.114670075 0.05161198
0000f0 46 3d c8 3d ea a4 29 bd 5d ea 97 bd c9 bb 8d 3d
       0.09777312 -0.04141704 -0.07417748 0.06920583

actor.2.weight f4 [64, 64]
000000 29 3e 40 3c 43 e9 29 3b 55 df c7 bb 84 85 46 bd
       0.01173357 0.0025926388 -0.0060996213 -0.048467174
000010 3d 3c f3 3d 7e 27 b4 3d f2 4e ee 3d 5f 54 ce 3d
       0.11876724 0.08796595 0.116361514 0.10074686
000020 23 42 12 3d 2e 72 a4 3d 6d bf 75 bc 9a 89 06 bd
       0.035707604 0.080295905 -0.014999253 -0.03284607
000030 41 d8 a5 3d 0f aa 6f bd c4 3b 38 3e 40 1f 66 bd
       0.08097888 -0.05851179 0.17991549 -0.056182146
000040 67 43 16 bd 96 80 07 3e 5d 16 0c be 7f 3d e0 3d
       -0.036685374 0.13232645 -0.13680406 0.109492294
000050 16 5b 5e 3d 36 0f 8b 3d 61 70 74 3d 86 a1 20 be
       0.054286085 0.06790011 0.059677485 -0.15686616
000060 71 f0 3a bd 0c 54 62 bd f4 69 02 bd 6e a5 98 3d
       -0.04563946 -0.055255935 -0.031839326 0.07453428
000070 11 da 34 3e 95 bd 9e 3d ad c8 1f 3e 4c c3 90 bd
       0.1766131 0.07751004 0.15603895 -0.070685
000080 86 9d 6f be 68 20 49 be 2a 21 55 3d 98 50 c1 3d
       -0.23399934 -0.19641268 0.05203358 0.094392
000090 e1 d7 9e bd 98 8a 3a 3e b2 57 2e 3e 4d cf db 3d
       -0.077560194 0.18216932 0.1702564 0.10732899
0000a0 bd 5b 5e 3d 1c bf 15 be 52 37 58 be b9 87 0b 3d
       0.054286707 -0.14623684 -0.21114853 0.034064982
0000b0 dc dc b0 bd d2 07 5e 3e 97 d7 4c 3c e1 24 13 3e
       -0.086358756 0.2168267 0.0125025725 0.14369537
0000c0 75 1b a1 3d 7e 41 ef 3d 60 1e 58 3e 6c 67 b6 3d
       0.07866565 0.116824135 0.21105337 0.08906445
0000d0 a5 60 12 bc b1 e8 d7 3d 08 85 77 bd a1 fa 0f bd
       -0.008934175 0.10542429 -0.060429603 -0.035151128
0000e0 60 16 db bd bc 50 e8 3d 31 1f 95 3c 31 6e a4 bc
       -0.10697627 0.11343524 0.01820335 -0.020072075
0000f0 d4 81 1a 3e 6f e5 16 bd c6 8d 34 3e 0a 46 6f bd
       0.15088588 -0.0368399 0.17632207 -0.058416404
000100 3b 50 ff bd dc 34 85 3d c1 a1 75 3e 46 97 a5 3d
       -0.124664746 0.06504223 0.23987485 0.08085494
000110 87 d4 29 3e 3b 15 c1 bb cf 65 17 3e 06 08 f9 3d
       0.16584979 -0.0058924234 0.1478493 0.121597335
000120 ca 8a 37 be 11 6b 2f be d9 46 3d 3b 2e bb da 3c
       -0.17924038 -0.17130686 0.002888134 0.026700582
000130 9d c2 c9 bd 10 a1 73 bd 61 46 20 bd f0 b3 f8 bd
       -0.09851573 -0.059479773 -0.03912962 -0.12143695
000140 5c c2 0c 3c 95 6a c9 bd 63 fa 0f 3e 61 98 25 bc
       0.008591261 -0.09834782 0.14060359 -0.010107131
000150 a4 86 90 bd 0e 35 20 3c 5c d3 b9 3d f7 cf 56 3e
       -0.07056931 0.009778274 0.09073517 0.2097777
000160 74 65 13 3e 75 25 25 3d 5a 01 2a be 7f 6b cc 3d
       0.1439417 0.040318925 -0.16602078 0.09981441
000170 39 7f 41 be 6e bd c4 bd 2e c3 8c bd 6b c3 4d 3e
       -0.18896188 -0.09606443 -0.06873165 0.20094077
000180 6c b1 16 3e 3b a6 ae 3d 27 86 39 bd 44 bd 77 3d
       0.14716119 0.085278 -0.045293953 0.060483232
000190 0c 49 2e 3e 74 be 92 be 55 3f 18 bd bc fd 9e 3d
       0.17020053 -0.2866093 -0.037169773 0.0776324
0001a0 28 bd 0f bd 37 fa b2 3c 32 3a a2 3e ed 10 17 3d
       -0.035092503 0.021847827 0.31685024 0.036881376
0001b0 ce e1 dd bc 31 99 72 bd 72 ac 08 be e7 16 9e 3d
       -0.027085211 -0.059228126 -0.13347033 0.07719212
0001c0 bd 40 02 3d de 37 01 be 54 50 e4 bd 19 71 1c be
       0.03180002 -0.12618968 -0.11148134 -0.15277518
0001d0 12 cc 9b bd d8 ea 37 bb d0 bb 66 3c df 16 b2 3d
       -0.07607283 -0.0028063562 0.014082864 0.086957686
0001e0 66 b2 22 bd d1 56 a5 3d 3b 3e d0 3d 8d 03 df bd
       -0.039720915 0.080731995 0.101681195 -0.10889349
0001f0 b3 14 8d 3a 19 47 e0 bc 3c 28 b6 3d cd 6c 2e 3d
       0.0010763615 -0.027377652 0.08894393 0.04258423
000200 7b eb f1 bd c9 4d 70 3b fd 7b 58 3d 62 68 82 3d
       -0.118124925 0.0036667457 0.05285262 0.06367566
000210 a1 f7 03 3e 53 1c 76 bd 35 6e b2 bc f3 9e a9 3d
       0.12887432 -0.060085606 -0.021781066 0.0828227
000220 34 fe 37 be ff 43 8a bd d1 e5 0c be d1 87 07 3d
       -0.17968065 -0.067512505 -0.13759543 0.03308851
000230 6e ca 22 be ac ab bc 3d a0 95 40 bc 91 14 1e bd
       -0.15897533 0.09212431 -0.011754423 -0.038593832
000240 e8 b0 91 3c 20 0f dd 3c 2d d7 49 bd df a5 9d bd
       0.01778455 0.026984751 -0.049277473 -0.07697653
000250 33 bf 6f bd 78 3f c3 3d f4 24 41 3e 05 12 0b 3e
       -0.05853195 0.0953359 0.18861753 0.13581093
000260 7b c4 62 bd 69 e5 00 3e c1 03 05 be ed 8d 13 bd
       -0.05536316 0.12587513 -0.12989713 -0.036024023
000270 eb f4 08 be 15 49 2b 3c 3e 72 0f be b4 22 f6 3d
       -0.13374679 0.010454436 -0.14008424 0.12018338
000280 27 25 dc 3d 27 e4 b7 bd 03 6d b7 3c ae 17 68 bd
       0.10749274 -0.089790635 0.022390848 -0.056663208
000290 e7 6c 2b 3e 59 cb 12 be b2 89 ba bd ce 69 a8 3d
       0.16740762 -0.14335383 -0.091082945 0.08223306
0002a0 6f db 3e bd 6c df a9 3d 7a eb 5d 3d cf dc d1 bd
       -0.046595987 0.082945675 0.054179646 -0.10247194
0002b0 b4 90 f7 3a ee e1 4f be fc 2a 14 be f3 fe cd ba
       0.0018887729 -0.20301029 -0.14469522 -0.001571624
0002c0 df 97 12 be 83 7e a3 3c 4e 20 21 be c0 af 16 be
       -0.14315747 0.019957786 -0.1573498 -0.14715481
0002d0 bb 73 4d 3a 5c 54 a2 3c 7f e1 6b 3d e9 f0 53 bc
       0.00078373746 0.019815616 0.057588097 -0.012935855
0002e0 6c 72 04 bd f7 51 a4 bd 3e e3 17 3e 35 54 0d 3c
       -0.032335684 -0.08023446 0.1483278 0.008626034
0002f0 a6 82 a7 bb 5a 9a 1a be 4d b3 e4 bd 90 78 59 3d
       -0.00511201 -0.15097943 -0.111670114 0.053093493
000300 23 7d 9e 3d 98 d5 c7 bd 6d 83 25 bd af 9e 05 be
       0.07738712 -0.09757537 -0.04040854 -0.13048814
000310 b6 8b bc bd b9 ad 53 3d fa 33 14 3d 97 93 ad bd
       -0.09206335 0.051679347 0.03618238 -0.08475416
000320 d3 85 90 bd f5 c8 16 be b6 27 36 bc 53 04 a5 bd
       -0.07056775 -0.14725097 -0.011117866 -0.080574654
000330 9e 82 84 3d 63 59 81 3d 16 e4 44 3e 04 36 2b bd
       0.06470226 0.06315877 0.19227633 -0.04179956
000340 96 ea 3d 3d 0b fa d2 bd 03 2f c5 3d cb ae b4 3d
       0.046366297 -0.10301598 0.096281074 0.088224016
000350 42 11 ba bd b3 37 b6 bd d0 3e 23 be 87 c2 97 3b
       -0.09085323 -0.088973425 -0.1594193 0.0046313438
000360 c7 1d 3c 3b 5c 6a 46 be 07 01 74 3d ec c9 fc 3d
       0.0028704272 -0.1937651 0.059571292 0.12343201
000370 8e b5 c9 3d f0 52 03 bd b5 c9 5a 3e 36 e3 1b be
       0.09849082 -0.032061517 0.21366008 -0.15223393
000380 4c d7 0e be b9 d9 12 3e 1f 47 66 bd 89 0c 51 3e
       -0.13949317 0.14340867 -0.05622017 0.20414938
000390 5a 17 8c bd c8 6a 65 3e b3 b9 0f 3d c0 55 8d 3d
       -0.068403915 0.22404015 0.035089206 0.06901121
0003a0 a8 0f 1a be bb 77 ed bd 69 76 63 be aa bf 18 3e
       -0.15045035 -0.115951024 -0.22213139 0.14916864
0003b0 48 7a 2b 3e 6d b9 22 3e 89 bd 06 3e af 60 04 3b
       0.16745865 0.15891047 0.1315824 0.002019923
0003c0 6c f7 07 3e d4 ef 3f 3e 6c 2e e3 3d 6e e1 00 3d
       0.13277978 0.18743831 0.11092839 0.031464987
0003d0 c2 3c a2 bc 1a ce d9 bd de ba 79 3d df ac 03 3d
       -0.019804362 -0.10635014 0.060969226 0.032147285
0003e0 39 5a 96 3c a7 11 8f 3d af a3 a6 bd 73 60 1c 3e
       0.018353568 0.06985789 -0.08136689 0.15271167
0003f0 d1 63 34 3e ce d5 97 3d 0a 43 87 bd 54 06 88 bd
       0.17616202 0.07413827 -0.066045836 -0.06641832

actor.2.bias f4 [64]
000000 a5 b4 83 bb 87 b4 b6 3c 4d fc ae 3d 66 08 b1 3d
       -0.0040193372 0.022302879 0.08544216 0.0864418
000010 e8 0a f7 3d 0a 1e a1 bc 40 7b 9b bd bf fd f1 bd
       0.12062627 -0.019667644 -0.075918674 -0.11815976
000020 5d 87 ed bc 41 6d b7 3d 62 0d 0c 3e 51 88 08 be
       -0.02899521 0.089563854 0.1367698 -0.1333325
000030 ff e7 24 3d 0a 9b cc bc 9e ae dc 3d c4 06 dd bc
       0.04026031 -0.024976272 0.10775493 -0.026980765
000040 20 2c f6 3d d6 e1 d2 bd 6e 78 5f bc e8 e7 32 bc
       0.12020135 -0.10296981 -0.0136395525 -0.010919549
000050 d4 4c 6d bd 5f df bf bd 20 d5 d2 3d 2c 12 df 3d
       -0.057934597 -0.093687765 0.102945566 0.10892138
000060 01 42 0d be 74 2b 8f 3d 72 e7 63 3c d4 c7 00 3e
       -0.1379471 0.0699071 0.013910161 0.12576228
000070 f0 c9 0a bd 02 42 a4 bd 15 c3 0b be 7f bf 80 bd
       -0.03388399 -0.080204025 -0.13648637 -0.06286525
000080 ab e8 87 3d 85 07 1e 3e 42 fc 75 3d ab c6 80 3d
       0.06636175 0.15432556 0.060055025 0.06287893
000090 47 bf be bd 2e 8d fc bd e0 6b c7 3c 67 2a 0f bd
       -0.09313827 -0.123316154 0.024343431 -0.034952547
0000a0 1f eb 85 3c 70 79 53 bc 8c 61 76 3d 91 f1 f6 3c
       0.016347466 -0.012907371 0.06015162 0.030144485
0000b0 22 cc 7f bd 07 71 84 bd 16 b0 42 be 59 dd 12 bc
       -0.062450536 -0.06466871 -0.19012484 -0.008963906
0000c0 95 e6 8c 3b b9 e6 02 3d 9f d1 57 bd b6 aa 7b bd
       0.0042999485 0.031958316 -0.052690145 -0.0614421
0000d0 09 ce 27 be b7 6f 98 bd cc 10 d5 3d 11 f0 42 bc
       -0.1638719 -0.07443183 0.104035944 -0.011898057
0000e0 bb 1b 0e 3e 33 8b 00 3e f5 9a 63 3d dd 77 e9 bd
       0.13877766 0.125531 0.0555677 -0.11399815
0000f0 21 52 20 be 00 8a 84 bd b1 b1 0d 3d d4 7b ca bd
       -0.1565633 -0.06471634 0.034593288 -0.098868996

actor.4.weight f4 [2, 64]
000000 0e 31 9d 3d 47 fe b5 3b cb f8 a2 3d 81 c2 46 be
       0.07675372 0.005553994 0.0795761 -0.19410135
000010 64 0d 50 bd 80 d5 92 bc 08 6e 61 3c 82 aa 1b 3e
       -0.05079402 -0.01792407 0.013759144 0.15201762
000020 a5 d5 73 3c bb e9 02 3e d0 6b af bd ad 55 87 ba
       0.01488248 0.12784474 -0.085654855 -0.0010325216
000030 df fc 82 3e 86 ac cb 3d fd 45 5b bd d2 6b 1b 3d
       0.2558355 0.099450156 -0.053533543 0.037944622
000040 7d 05 8f bd 9d cb 45 bb 8f 90 c5 bc 65 80 92 3d
       -0.06983469 -0.0030181177 -0.024116782 0.071533956
000050 8e 33 9b 3d 1a 20 93 3d a0 c4 b0 be 0a 93 b9 3d
       0.07578193 0.07183857 -0.34525013 0.090612486
000060 6f f3 13 3e 22 e5 21 3e 21 29 63 be b6 7d 0d 3e
       0.14448331 0.15810063 -0.22183658 0.13817486
000070 79 44 8f 3e 45 55 a8 3d b9 3b 16 3e 13 16 28 bd
       0.27981928 0.08219389 0.1467122 -0.041036677
000080 06 4a 6f be 95 3f 3b be 78 91 59 bd ce 75 38 bc
       -0.23368081 -0.18285973 -0.053117245 -0.011258556
000090 46 a3 11 bd 39 89 25 be 11 c0 58 bd 31 4c 38 be
       -0.0355561 -0.16165628 -0.052917544 -0.17997815
0000a0 98 96 10 be 49 cf 52 3e 48 18 af 3d 27 ab 58 be
       -0.14119947 0.20586886 0.08549553 -0.2115904
0000b0 1a 2d 20 3e b5 14 9f ba 2d 7f 93 3d 7b f6 4e 3d
       0.15642205 -0.0012136908 0.07201991 0.05052803
0000c0 8c f3 84 be 1d 9c a4 3d 17 b4 83 bd f0 3a 0b be
       -0.25967062 0.08037589 -0.06430834 -0.13596702
0000d0 ad ca 2b 3e 72 54 cb 3c a1 a6 6c bd 46 08 ad bd
       0.16776533 0.02482054 -0.057776097 -0.08448844
0000e0 a8 0d 21 be 40 87 12 be 39 7e 36 be 82 28 d5 3d
       -0.15727866 -0.14309406 -0.17821588 0.10408117
0000f0 fb 91 92 3e ff d2 c2 3d 63 4a 77 be 24 e9 42 be
       0.28627 0.095129006 -0.2414947 -0.19034249
000100 84 85 26 be 71 a2 88 3e bb b5 96 3e 5c 69 99 be
       -0.1626187 0.26686433 0.29435524 -0.29963195
000110 f1 ea 6d 3e f1 fa 80 3e bf e9 6d 3e 32 38 57 3e
       0.23234154 0.25191453 0.23233698 0.2101753
000120 0f 1d 92 be 7f c6 87 be a9 c7 6d bd 9c 5a 8d 3e
       -0.28537795 -0.26518628 -0.05805174 0.27608192
000130 49 03 4d bd e8 37 1e 3e 44 c7 28 3d c7 4a 8c 3e
       -0.05005196 0.15451014 0.04120566 0.274008
000140 e8 d1 71 3d 16 8d 4f be 49 60 90 3e f6 5f 3c 3e
       0.059038073 -0.20268664 0.2819846 0.18395981
000150 d9 a9 9f 3e fc 31 6f be 59 59 49 3e 6c cd b0 be
       0.3118427 -0.23358911 0.1966299 -0.34531724
000160 20 cf 43 3c c2 13 47 be 08 f3 c2 3e 5c c1 2b be
       0.011951238 -0.19441131 0.38076043 -0.1677298
000170 cf 37 a9 3d b9 37 77 be 31 01 6f 3d 0f 1d f4 be
       0.08262598 -0.2414235 0.058350746 -0.4767842
000180 3d 24 43 3c 2d 1f ed bd 0b 8e b0 bd d7 49 98 be
       0.011910495 -0.11578212 -0.086208425 -0.29743835
000190 7c c7 45 be 74 a2 3c 3e 8b 51 95 3e 2a 2b a9 3d
       -0.19314378 0.18421346 0.29163775 0.08260186
0001a0 c1 9f be be 8a 2a 37 3e 4d d4 79 3e f0 bc 6a be
       -0.37231258 0.17887321 0.24397393 -0.22923636
0001b0 20 84 ec bd eb f8 3c be 9a 33 8a be 44 b3 3a 3e
       -0.11548638 -0.1845433 -0.26992494 0.18232447
0001c0 b2 29 fe bd 79 14 34 3e aa c6 ba be 86 08 97 3e
       -0.124102965 0.17585935 -0.36479694 0.2949869
0001d0 1f 56 4c 3e 86 a3 62 be fe e1 78 be d7 30 a8 be
       0.19954728 -0.22132692 -0.24304959 -0.32849762
0001e0 78 0f 00 be d2 d7 87 3e 98 8c 5e bc ba 64 a8 be
       -0.12505901 0.26531845 -0.013583325 -0.32889348
0001f0 8c 61 04 3e 99 4c 18 3c 13 cb 4d 3e d6 70 26 bd
       0.12927836 0.009295606 0.20096998 -0.040634952

actor.4.bias f4 [2]
000000 23 ae 45 3d b6 6a 0d 3d
       0.048261773 0.034525596

critic.0.weight f4 [64, 26]
000000 de d6 33 bf 7f 7f 4f bf 3e 34 5d bf a6 c2 6c bf
       -0.70249736 -0.8105392 -0.8640784 -0.9248451
000010 53 ad d1 3e 77 8c 5c bc a8 aa 16 bf 1c 3b 17 3e
       0.40952548 -0.013461224 -0.5885415 0.14768642
000020 91 c7 04 bf 4e 3c 53 3e c8 33 f7 be 73 1d 54 3d
       -0.51867014 0.20628473 -0.48281693 0.051785897
000030 92 ed ab be c9 7c 8f bd d6 bb 13 be 0d 18 9a be
       -0.3357969 -0.07006223 -0.14427122 -0.30096474
000040 24 7b 98 3e 49 82 5f 3d 08 37 0f 3e e5 26 4f be
       0.2978145 0.05456761 0.13985837 -0.20229681
000050 9d 85 78 3e 16 37 24 bd 1c a5 79 3e c0 a9 90 3e
       0.2426972 -0.040091597 0.2437939 0.2825451
000060 4a 3b 1a 3e 25 fe 47 3e d2 44 6d 3e 88 79 16 c0
       0.1506168 0.19530542 0.23170784 -2.3511677
000070 dc cb 70 be a2 c0 98 be ee 9f b7 3e e9 93 a6 bd
       -0.23515266 -0.29834467 0.35864204 -0.081336804
000080 58 38 11 be cf d1 6c 3d 37 70 bd 3d 17 ae dd bd
       -0.1418165 0.057817277 0.09249919 -0.10824221
000090 17 15 d3 bd d8 a4 48 3c 23 c4 62 be 62 c9 ac 3d
       -0.10306757 0.012246333 -0.22145133 0.08436848
0000a0 df 96 84 be 79 7a 1a bd cd 87 09 be 98 cc 36 3d
       -0.25896356 -0.037714455 -0.1343071 0.04462871
0000b0 3b 76 bf be fd eb aa bd 86 91 2a be 30 b7 94 3d
       -0.3739489 -0.083457924 -0.16657075 0.07261503
0000c0 3a 26 01 bf 41 ef a8 3d 8b bf 5f be 48 87 9f bd
       -0.50448954 0.08248759 -0.21850412 -0.07789475
0000d0 e2 25 aa be 00 08 20 c0 bf b7 18 3f 41 fc c8 3e
       -0.33232027 -2.5004883 0.59655374 0.39254954
0000e0 e4 be 4a be fb 04 9a bd 33 da b7 3e 8c a4 60 3e
       -0.19799381 -0.07520481 0.3590866 0.2193777
0000f0 f4 e0 81 3e dc 54 30 3e 26 1a b9 3d 4a 2a 6e 3c
       0.25366938 0.17219871 0.090381905 0.01453645
000100 93 e8 d1 ba d8 95 5c bc fe b5 ef 3d 12 30 6c be
       -0.0016014747 -0.01346346 0.11704634 -0.23065212
000110 2b b5 a6 bd f3 3f b2 bd 5f d6 8b 3c 4c ac f7 3c
       -0.08140024 -0.087036036 0.017069994 0.030233525
000120 a2 16 c8 be 36 47 12 3e 5a 41 f8 be 71 01 fd bd
       -0.39079767 0.14284977 -0.4848736 -0.123537906
000130 47 c5 42 bf a2 e1 43 bd a8 0a 1d bf 76 4b 5a bf
       -0.7608227 -0.047822602 -0.61344385 -0.85271394
000140 e9 7a a0 bf 8e 69 be bd 6f b8 81 be 93 07 55 3f
       -1.2537509 -0.09297477 -0.25336024 0.8321468
000150 03 c5 b5 be 79 a4 42 bf ed d5 27 be 57 49 0b bc
       -0.3550187 -0.76032215 -0.163902 -0.008501372
000160 39 f1 c5 be d5 ac 04 3c 18 53 da be 02 17 99 3c
       -0.386606 0.008097847 -0.4264152 0.018687729
000170 c3 bf a8 bd d1 9b 6f be 71 fb 13 be ce 88 69 3d
       -0.08239701 -0.23399283 -0.14451386 0.057015233
000180 41 d8 67 3e 20 e7 19 bd 31 f9 21 3e 91 15 28 bd
       0.22641088 -0.037573934 0.15817715 -0.041036192
000190 5f 87 c7 3e 4c 04 8b 3d ee 1b 56 3e b7 72 c2 3e
       0.38970467 0.06787929 0.20909092 0.37978145
0001a0 96 40 26 be 2d 9f de bf eb 0e fc 3e f9 49 34 3d
       -0.16235575 -1.7392327 0.49230132 0.04401586
0001b0 68 85 22 3e c8 3a 55 bb 9e e1 85 bd af d9 6b bd
       0.15871203 -0.0032536257 -0.06537174 -0.057580646
0001c0 6e bd fb bd 3f e0 0c bd 40 2b 60 be ed 75 ff bc
       -0.1229199 -0.034393545 -0.21891499 -0.031184161
0001d0 90 27 58 3d fd 66 b6 bd 60 0d 89 be bf 8e 30 3e
       0.052772105 -0.08906362 -0.26768017 0.17241953
0001e0 26 b2 e1 bd 65 ed a9 3d 87 37 a6 bd 5b 9f 03 3d
       -0.11020307 0.082972325 -0.0811606 0.032134395
0001f0 18 53 b8 bd 8d 8d 9f bd fd 51 8b be 8f 7e 84 3c
       -0.09000224 -0.077906705 -0.2721099 0.01617363
000200 12 4c 07 be fa 2e 76 bd 8a 36 62 3e 3c f0 70 bf
       -0.13212612 -0.060103394 0.22091118 -0.9411657
000210 7a c2 0d 3e 20 9f 91 be 6e 0e c4 3f cd 22 8b bf
       0.13843718 -0.28441715 1.5316904 -1.0869995
000220 05 18 a5 3d 67 cb 49 3f 64 0f 6c 3e 6d f7 3f 3f
       0.08061222 0.7882599 0.23052746 0.74986917
000230 91 f8 44 3e a7 ff 3d 3f 88 11 b0 3e a3 0e 11 3f
       0.19235446 0.7421822 0.34388375 0.5666296
000240 24 a3 d0 3c 89 7a 0a 3f 90 ac 33 3d aa 1c ef 3e
       0.025468417 0.54093224 0.04386574 0.46701556
000250 66 02 99 3e d7 00 40 3e 93 cd 45 3e 1e ff 96 3e
       0.29884642 0.1875032 0.19316702 0.29491514
000260 49 2f e3 3d 04 df 77 3b f6 cf 84 3e 13 81 f7 be
       0.11093003 0.0037822137 0.25939912 -0.48340663
000270 af 4f 27 bc c3 9b 13 40 50 86 d1 bc 16 7c 7d 3d
       -0.010211869 2.306382 -0.02557674 0.061885916
000280 79 47 80 bf c4 ba b2 3e f7 dc 04 be df af b8 be
       -1.0021812 0.34908116 -0.12974916 -0.3607168
000290 da 33 ab be 22 3e 77 be 09 be 21 be 3d 9f 41 be
       -0.33437997 -0.24144796 -0.15795149 -0.18908401
0002a0 65 9a 90 bd 18 af 55 be 20 3e 95 3d 4a 5e 63 3c
       -0.070606984 -0.20867574 0.0728724 0.013877461
0002b0 a8 71 1e bd 7e b8 30 3e 09 ad 9a be 84 15 30 be
       -0.03868261 0.17257878 -0.3021014 -0.17195708
0002c0 c6 7f 44 be a8 c2 3a 3d 87 02 88 be 2c 0b 39 3e
       -0.19189367 0.045595795 -0.26564428 0.18070668
0002d0 dc ef 8b be 6f 86 10 3e 7d f9 1a be 30 6b 3c c0
       -0.27331436 0.14113782 -0.15134235 -2.9440422
0002e0 d2 dd 7a 3e ea c1 88 3d 7f 45 1d be 9f 0d b3 3c
       0.2449868 0.06677611 -0.15358542 0.021857081
0002f0 e0 45 e6 3c 7f 1f 93 3e 6b 3c 3c be 8a 32 00 3e
       0.02810949 0.28734967 -0.18382423 0.12519279
000300 97 ee 9e bc 87 3e 9b 3b 6d 6a a2 bd 08 df 66 3d
       -0.019400878 0.0047376784 -0.07930455 0.056365043
000310 29 d7 44 be eb 90 7e bc 35 09 c2 bd 4b c5 4f 3b
       -0.19222702 -0.015537481 -0.09474412 0.003170329
000320 8f 69 8c be 6b 6a 77 be e0 55 a1 be da 43 5b bd
       -0.27424285 -0.24161689 -0.3151083 -0.053531505
000330 63 ed a4 be 5f f4 c6 be dd a7 80 be 3b 8f 1e be
       -0.32212362 -0.38858315 -0.2512807 -0.15484326
000340 04 5e 43 3d 52 32 1b 40 b4 37 34 3e 27 f2 c3 3e
       0.047697082 2.4249463 0.17599374 0.38270685
000350 c3 c6 55 be 34 e8 3d bc 1f 7f 98 3d c6 98 f0 3c
       -0.20876603 -0.011591006 0.074461214 0.029369723
000360 ef 11 20 be 2c 83 1d 3e da dc 5f be 77 b7 28 3d
       -0.15631841 0.1538207 -0.21861592 0.04119059
000370 1d 58 db 3d c9 df 57 bc e5 de d4 bd b3 8c 3a be
       0.10710166 -0.013175913 -0.10394076 -0.18217735
000380 90 cf cf 3d 44 c2 01 3d 68 4b 31 3d be 26 8c 3c
       0.10147011 0.031679407 0.043284804 0.017108317
000390 e2 53 b7 3e f2 c7 9a bd 3c 99 8a 3e 57 91 d8 bd
       0.35806185 -0.07557668 0.27070034 -0.105745964
0003a0 ae b2 02 3f 6c c5 0f bd c3 2f 2a 3f 46 38 dd bf
       0.51053894 -0.035100386 0.6647913 -1.7282798
0003b0 b0 48 af 3f ca 1b 39 3e 82 88 79 be 2f 6b a7 bf
       1.3694057 0.18077007 -0.2436848 -1.3079585
0003c0 ff c5 9c 3e 49 39 54 3e f8 01 38 3e d6 27 89 bd
       0.3061981 0.20724978 0.17969501 -0.06697051
0003d0 0a 81 df 3e dc c1 ec 3d 20 1d a3 3e 8e cd 11 3d
       0.43653136 0.11560413 0.31858158 0.035596423
0003e0 c1 97 94 3e aa 48 3b bc 51 ed fe 3d f3 4c 9e 3d
       0.2902203 -0.011430899 0.12447608 0.07729521
0003f0 5d 72 ef 3d 70 6a 30 bc 79 89 42 be d8 9e 0b be
       0.11691735 -0.010767564 -0.18997754 -0.13634813

critic.0.bias f4 [64]
000000 bd 27 d3 be 5c 03 a1 3d d8 a6 54 3e 00 ba f1 bd
       -0.41241255 0.07861969 0.20766771 -0.11803055
000010 18 73 00 bd e3 67 1d 3e 2c 32 d3 bd 8f 6b c5 bc
       -0.031359762 0.15371661 -0.10312304 -0.02409914
000020 b9 9d ff 3d fd 12 1a 3e 8b d2 74 be 75 89 27 3e
       0.12481255 0.15046306 -0.23908441 0.1636103
000030 ad c6 08 bf a8 65 3f 3e 7d 28 b4 3c d4 89 18 3e
       -0.53428155 0.18691123 0.021991963 0.14896327
000040 21 f7 b6 be 0b 6b b9 be bc ef 7a be 4d c5 c7 3e
       -0.3573542 -0.3621448 -0.24505514 0.39017716
000050 c9 29 e8 be 01 08 d1 3e fd 66 00 be 8f e6 c8 bd
       -0.4534438 0.4082642 -0.12539287 -0.098096006
000060 60 ae df 3d ee e1 0e 3e eb 2f 21 bd 93 7a 64 be
       0.10921931 0.13953373 -0.03935234 -0.22312383
000070 f5 f1 88 3e 46 0a f2 3b e3 6f 8d be f0 d8 3c 3a
       0.267471 0.0073864786 -0.27624425 0.0007203957
000080 a5 ad fb bc 90 bc 40 be aa 6b 99 bd 89 19 00 3f
       -0.030722449 -0.18821931 -0.074912384 0.50038964
000090 28 4a 88 3d 34 09 63 3e cd 69 81 3e 9a a6 a1 be
       0.06654769 0.2217148 0.25276032 -0.3157242
0000a0 59 bd eb bd 77 72 20 3f 61 4d ae 3e 97 1b 09 3d
       -0.115107246 0.6267466 0.3404341 0.033473577
0000b0 4f 07 6f bd 4d 98 5b bf 6d 76 d7 3e db cf 77 bd
       -0.05835658 -0.8577927 0.4208254 -0.06050096
0000c0 8e 52 26 bd 6e 19 b9 3d a5 7d ca 3e f2 29 46 3d
       -0.040606074 0.090380535 0.39548984 0.048379846
0000d0 b9 1e ce 3e 1b a1 a3 bd 86 a5 93 3e a6 d1 04 3e
       0.40257815 -0.07989713 0.28837222 0.129706
0000e0 d5 04 7b bd 31 d7 11 be d0 41 c9 bd 9a d2 05 3f
       -0.061283905 -0.14242245 -0.09827006 0.5227448
0000f0 59 8b ba bd 4d 0b 8e 3e 7d 02 a7 bd 34 7c 7b 3e
       -0.0910861 0.27742997 -0.081547715 0.24559098

critic.2.weight f4 [64, 64]
000000 46 ee de bd 6d 7b 84 bd d9 9c 89 3f 01 28 fb 3e
       -0.10885291 -0.06468854 1.0750991 0.49053958
000010 5a d5 fc 3d 7f 9e 0f 3f a8 44 8d bf 53 81 bd 3e
       0.12345381 0.5610122 -1.1036577 0.3701273
000020 33 23 e6 3d 9b 42 36 be ad cd 16 be e5 13 17 3f
       0.112371825 -0.17798845 -0.14726897 0.5901473
000030 f5 43 0b bf 0f e5 17 3e f6 1a 01 3e 06 80 e3 3e
       -0.5440057 0.14833473 0.12607941 0.44433612
000040 26 a1 03 bf 31 fe 38 be 59 bb ac bf 08 53 01 be
       -0.5141777 -0.18065716 -1.3494674 -0.1262933
000050 6c 60 dd be a3 f6 2e bc 2c 9f a3 3d 0b 2a c4 be
       -0.43237627 -0.01067892 0.07989344 -0.38313326
000060 4b c5 29 bf 88 8d 89 3e a9 86 a8 3f 63 a2 fb bc
       -0.6631667 0.26865792 1.3166095 -0.03071708
000070 c5 6f e2 3e 4a a4 67 bf da d9 cf be 8c c9 99 3e
       0.44225898 -0.9048506 -0.40595895 0.3003658
000080 6f 4c 85 bf 97 97 c1 3e ac ae 22 40 d3 93 b1 3d
       -1.0413951 0.37810966 2.5419111 0.08670773
000090 97 17 a4 bf 97 27 09 3f 33 cb 8c 3f 6c 70 a6 bf
       -1.2819699 0.53576034 1.0999511 -1.3003058
0000a0 ea fb ea 3d 2e 98 3a 3d eb 3d 39 bb 51 f6 a5 3f
       0.1147383 0.045555286 -0.0028265666 1.2965795
0000b0 ad ad 95 bf 6b 1a d4 bd d5 12 02 40 20 26 62 3d
       -1.1693627 -0.10356601 2.0323994 0.05521214
0000c0 fb 00 17 be a0 ff a8 bf 88 68 33 40 d8 bf 5e 3f
       -0.14746468 -1.320301 2.803255 0.8701148
0000d0 de 58 9a be e4 5a fe bf 2e 68 fc 3f c5 58 c4 3d
       -0.30145925 -1.9871488 1.9719293 0.09587244
0000e0 60 2c 8b 3f 98 21 91 3e e1 fe aa bf a3 a7 3d 3f
       1.0872917 0.28345942 -1.3359033 0.7408392
0000f0 2d f0 f9 be a5 7f d5 3f c4 be ad 3e c7 65 2b bf
       -0.48816052 1.6679579 0.33934605 -0.66952175
000100 0c 62 db be c2 21 02 bd 75 8c b1 3e 28 4f 92 be
       -0.4284824 -0.031770475 0.34677473 -0.28576016
000110 19 6b 27 3e d0 7a 08 be c8 0b bb be f0 bc ac be
       0.16349448 -0.13328099 -0.36532426 -0.33737898
000120 3f b9 59 3e d5 77 c1 3e 36 e3 aa be 87 e2 d4 3e
       0.21262072 0.37786737 -0.33376473 0.41579077
000130 c3 2a 84 3d c3 37 8e 3e 0e 92 51 bc fb 4a a3 3e
       0.06453469 0.27776918 -0.01279117 0.31893143
000140 43 86 fe 3c f3 4b a6 bd 53 dd c8 3d f7 f8 b0 3e
       0.03106988 -0.08119955 0.09807839 0.34564945
000150 da 90 e1 be 6d 5f 43 be 4c f2 83 3e 43 9b 62 bd
       -0.44055825 -0.19079371 0.25770795 -0.05532385
000160 91 51 be 3d d1 54 d1 3d ce ef c8 3e 24 ef 1f bf
       0.09292901 0.102212556 0.39245456 -0.62474275
000170 cd a2 f5 3d b1 6d 51 bd c4 ea 2d be 84 df 9d 3e
       0.119939424 -0.05113 -0.16984087 0.3083459
000180 99 c4 5f bd 9d c3 70 be b7 c5 2d 3d 8e 26 3f be
       -0.05463085 -0.2351212 0.042424884 -0.18667051
000190 1f 71 03 be 39 80 26 3e de 70 13 3f 86 cb a2 bc
       -0.12836121 0.1625985 0.57594097 -0.019872438
0001a0 e0 09 bf bd a1 27 e6 3e fc a7 2c bd 1e 3c 14 3f
       -0.093280554 0.4495211 -0.04215239 0.5790423
0001b0 fd 05 00 be 54 d6 1b 3e 7e a1 3f 3e 2a ee cd be
       -0.12502284 0.15218478 0.18713948 -0.40220767
0001c0 1e b9 92 be 4c b8 b9 3d 9b 58 53 3e 1a 92 a0 3d
       -0.28656858 0.09068355 0.20639269 0.07840367
0001d0 d0 8a 88 3e dc 2a e6 be 71 c4 08 3f 9e 31 86 3e
       0.26668406 -0.44954574 0.53424746 0.2620973
0001e0 0e 15 46 3d cb ef 1a be f0 ff 2b bf 7b 53 35 3d
       0.048359923 -0.15130536 -0.67187405 0.044269066
0001f0 4e 64 6c be 25 ed e8 bd 40 d6 e4 bd 79 3d c2 3d
       -0.23085138 -0.11373357 -0.111736774 0.09484381
000200 ec 66 43 bb a2 cb 69 be bb 47 9d 3f 83 86 51 3e
       -0.0029815985 -0.22831586 1.2287515 0.20461468
000210 9c aa 1a 3e 8c 03 ff bd c6 c9 14 bf 55 a8 bc 3e
       0.15104145 -0.124518484 -0.5812038 0.36847177
000220 6b fd d2 ba 95 0c 51 3d 13 df 9d 3e fc 38 00 3f
       -0.0016097253 0.05103739 0.30834255 0.5008695
000230 78 66 5a be 3f 1a 2c 3d 79 95 f0 3d db 04 19 3f
       -0.21328151 0.042017218 0.1174726 0.59773034
000240 cd a5 d1 be fc c9 1f 3d 61 7e e9 be f3 8b 04 bf
       -0.40946808 0.039010987 -0.45604232 -0.51776046
000250 41 21 76 be 7f af 7a be d9 15 9a 3e 7b 0f d7 be
       -0.24036123 -0.24481009 0.30094793 -0.42003998
000260 a1 60 0d bf d0 08 26 3f c7 8f 88 3f fc 72 8c 3e
       -0.5522557 0.64857197 1.0668877 0.27431476
000270 2a 63 39 be 4d e5 3d bf 1f 50 16 bf 29 f6 44 3f
       -0.18104234 -0.7417801 -0.58716005 0.7693811
000280 f5 75 07 bf 48 e1 f5 3f 4d 82 8f 3f 90 dd 81 3d
       -0.52914363 1.9209375 1.121164 0.06341088
000290 cb 3a 9e bf 83 6f cd 3e f8 0f e8 3f 36 3d 37 bf
       -1.2361692 0.4012414 1.8129873 -0.71577775
0002a0 88 8e de 3d d7 de ac bd 31 14 cc be 0c a6 30 3f
       0.108670294 -0.08440941 -0.39859155 0.6900337
0002b0 4d fc 11 bf b4 ab 3e bd 9b 0e 04 3f ba cd cc 3e
       -0.57025605 -0.046550468 0.51584786 0.40000707
0002c0 31 5a 2c be b7 91 f8 bf 1c 73 80 3f 50 0b f2 3e
       -0.1683128 -1.9419469 1.0035129 0.47274256
0002d0 aa 0c 84 be 0f 62 88 bf e5 2b 1e 3f 50 61 e1 bd
       -0.25790912 -1.0654925 0.6178573 -0.11004889
0002e0 12 40 45 3f 01 06 17 3f 21 c8 a6 be 90 76 51 3e
       0.7705089 0.58993536 -0.3257456 0.20455384
0002f0 4d e4 8a 3e d1 34 db 3f 1f cb d2 3e 92 af 94 bf
       0.27127305 1.7125493 0.41170594 -1.161608
000300 62 52 22 3e 9a 37 aa 3d 95 34 8c be 0d e3 e5 3c
       0.15851739 0.083113864 -0.27383867 0.028062368
000310 95 79 e5 3d 32 f0 39 3d 8f 45 e9 3e 92 be 1c 3c
       0.112048306 0.045395084 0.45560881 0.00956692
000320 6f e6 15 3e 92 d4 65 bf 53 be 2c 3f 1d 3f 10 be
       0.14638685 -0.8977748 0.6747791 -0.14086576
000330 04 20 2d 3e f9 ed dc 3d 4a 1d f8 bd ad 44 67 be
       0.16906744 0.10787577 -0.121149614 -0.22584791
000340 3b 2b 59 bd f6 a3 13 3e 78 aa 5b 3f c0 98 13 bf
       -0.053019743 0.14418015 0.8580699 -0.57654953
000350 f5 2b 6e 3e 14 ee 0f bf 00 b3 84 3e 5e c5 1a 3f
       0.23258956 -0.56222653 0.25917816 0.6045741
000360 d8 fc 8c 3f b2 24 13 3e 31 7b bb be 89 89 f9 bd
       1.1014662 0.14369467 -0.36617425 -0.12184436
000370 d7 2c b2 3b 8e 6d c0 3d f0 5d 87 3f 39 83 22 bf
       0.005437474 0.09395896 1.0575542 -0.6348148
000380 56 bc 38 3f 3e d7 78 be d6 55 1a bf 9a 86 34 3c
       0.7216238 -0.24300858 -0.60287225 0.01101842
000390 8b c8 a4 3e 03 13 88 be 41 4b ee be 24 03 0b be
       0.32184252 -0.26577005 -0.4654179 -0.13575417
0003a0 1c 59 4a 3e 01 e0 b2 be 3b 38 71 3e f0 ec b7 be
       0.19760555 -0.34936526 0.23556606 -0.35922956
0003b0 b7 58 44 3f e6 81 87 bd 36 15 11 3d 49 bb 10 3f
       0.7669787 -0.06616573 0.03542062 0.56535774
0003c0 ff a8 af 3e 56 85 80 3f c9 65 e6 bc 04 7f 7f be
       0.3430862 1.0040691 -0.028124707 -0.24950796
0003d0 29 d4 52 bf 66 73 92 3e 2b b0 01 bf a9 de ee bd
       -0.8235498 0.28603667 -0.50659436 -0.11663563
0003e0 73 bc 6e bf 70 ac 2a 3f 4d 40 4b 3f 4c 74 9f bd
       -0.932563 0.6666937 0.7939499 -0.07785854
0003f0 3f 2b be 3e b1 78 8b bd a0 11 88 be 8e 42 7a bd
       0.3714237 -0.068101294 -0.26575947 -0.061098628

critic.2.bias f4 [64]
000000 47 2e bf bc 8d ae 35 3f b6 23 09 bd 32 a3 7e be
       -0.023337496 0.7096947 -0.033481322 -0.24866942
000010 71 48 b1 bd b0 2f c4 3e 21 dd 13 bf 83 ae 51 3f
       -0.08656395 0.38317633 -0.5775929 0.8190691
000020 1e 50 01 be 0b 75 80 3e 75 09 36 bd 3d 87 dd 3e
       -0.12628219 0.25089297 -0.044442613 0.4326724
000030 06 a8 0a 3e 43 a4 d4 3e a9 8a 5a 3f 4d da a1 bd
       0.13540658 0.41531572 0.8536783 -0.07902966
000040 83 d7 50 3e 58 86 f9 bd f7 67 38 3f 47 66 0b bf
       0.20394711 -0.12183827 0.7203364 -0.5445294
000050 7f 63 60 bc 3c 36 35 3e da 0c 03 3e 61 e6 5a 3e
       -0.013695597 0.1769647 0.12797871 0.21376945
000060 c8 d1 d1 3e 6e e6 46 be 85 ed 71 bb 28 ad 1b bf
       0.40980363 -0.1942384 -0.0036915254 -0.6081109
000070 ce b0 81 3e 9e 85 0a 3e b8 2b 12 be 8f da a4 be
       0.25330204 0.13527533 -0.1427449 -0.32197997
000080 15 ce d4 bd bf a9 5c 3e e3 cc 9c 3e e9 51 8b 3e
       -0.103908695 0.21549128 0.30625066 0.2721093
000090 34 00 e9 be a1 e6 0c bf f9 ef 66 3d 4c f4 d2 be
       -0.45507967 -0.5503941 0.0563812 -0.4120201
0000a0 51 c4 92 bb ef 58 5e 3f 48 fd 71 bf 77 58 0f 3d
       -0.004478969 0.8685445 -0.945271 0.034996476
0000b0 7f be 91 be fd e2 20 be 03 69 be bc d1 ad a5 be
       -0.2846565 -0.15711589 -0.023243433 -0.32359174
0000c0 54 45 5c bf 8f 52 db 3c 30 0c 87 3d 82 f1 e5 bd
       -0.86043286 0.026772765 0.065941215 -0.112277046
0000d0 fd ed 66 bc 8d 84 db be 6f 04 78 3f 2d 47 2b be
       -0.014094827 -0.42874566 0.96881765 -0.1672637
0000e0 63 28 2c 3f 4d 03 cd be 14 cb 11 bc fc bf 10 bf
       0.67249125 -0.4004158 -0.008898515 -0.56542945
0000f0 9a eb 84 3d f5 94 19 3e 03 83 6c bd cc ad 2b 3f
       0.0649025 0.14998229 -0.05774213 0.6706207

critic.4.weight f4 [1, 64]
000000 b2 4d 36 3e b6 78 9c be 79 38 99 3e da 24 87 3e
       0.17803076 -0.30560845 0.29925898 0.26395303
000010 5d 64 9a 3e 60 c3 88 be d5 44 8f 3e 51 68 1b 3e
       0.30154696 -0.2671156 0.27982202 0.15176512
000020 b9 f0 c2 bd d5 6c bb 3e 54 da 3b bf 95 24 59 be
       -0.095185705 0.3660647 -0.7338002 -0.21205361
000030 65 20 2f be 80 20 01 3f 2d e6 c4 be 87 20 99 3e
       -0.17102201 0.50440216 -0.3845686 0.2990763
000040 2d e8 2f be 8d 59 9d 3e 4b 20 99 be d7 00 b0 3e
       -0.17178412 0.30732384 -0.2990745 0.3437564
000050 5d 24 d6 bd c3 08 b9 3e ac 4a 91 be 59 e5 02 bf
       -0.104561545 0.36139497 -0.28377283 -0.51131207
000060 a0 d7 23 be ed 59 48 3e 05 0c fd 3d 56 7a 27 be
       -0.16000223 0.19565554 0.12355808 -0.16355261
000070 d0 d8 80 be d9 db 79 3e 0c 49 8f 3e dc 70 9b 3e
       -0.25165415 0.24400271 0.27985418 0.30359542
000080 74 59 3f 3e e6 8c 2d be 31 96 12 3e ee ce 6e 3e
       0.18686467 -0.1694828 0.14315106 0.23321125
000090 f9 5d ed bd 3d 56 b3 3e 05 c1 df 3d 7d e5 82 3e
       -0.115901895 0.35026732 0.109254874 0.2556571
0000a0 13 04 6d 3e 65 b0 aa be af e9 c6 3e 9b 8b 04 be
       0.23146085 -0.33337703 0.3885016 -0.1294388
0000b0 53 ad 2b bd 60 de 6b 3d 53 ea 50 3f 3a 96 0e 3e
       -0.04191334 0.05758512 0.8160755 0.13924494
0000c0 0f d0 ab 3e be f9 7c 3e c4 74 db 3e 55 9a f7 be
       0.33557174 0.24704644 0.42862523 -0.48359933
0000d0 41 3a 54 be 2f 0c 2f 3e 9c 75 c2 be f8 33 a0 bd
       -0.20725347 0.17094491 -0.37980354 -0.07822412
0000e0 5b f9 a7 be 97 2b eb bd 17 ac 3f 3e 7d 67 54 3e
       -0.3280743 -0.114829235 0.18717991 0.20742603
0000f0 d5 21 33 bf c6 03 4c 3e f3 23 d2 be c5 70 c5 be
       -0.699735 0.19923314 -0.41043052 -0.385626
