PPO_preTrained/AutoDrive-v0/PPO_AutoDrive-v0_0_0.pth (torch, 47490 bytes, 11 tensors)

actor.0.weight f4 [64, 16]
000000 bb 92 ec 3d e3 c3 e2 3d 5d 78 d1 3c 93 c9 53 be
       0.11551424 0.11072519 0.025570089 -0.20682363
000010 94 23 0e 3f e6 e7 13 3f 54 fa 07 3e 2d 18 dc 3d
       0.5552304 0.57775724 0.13279086 0.10746799
000020 9e 04 00 3e 48 e5 a3 bc e3 a0 0d 3c 7c 4d da 3d
       0.12501761 -0.02000679 0.008644315 0.1065931
000030 a4 83 e3 3d ec 24 d3 bd fd 28 39 3e 2a 46 0c be
       0.11109093 -0.10309777 0.18082042 -0.1369864
000040 f3 57 31 be 41 26 1b be 43 96 ba be 1e 75 ed 3b
       -0.17318706 -0.15151311 -0.36442766 0.0072466275
000050 cf 72 01 3f 6b 01 ce 3e c2 54 2f 3e 5a 36 5d 3d
       0.5056581 0.40235457 0.17122176 0.05400691
000060 e8 f0 0f be c2 8c 31 bd 70 14 42 be e1 32 3e 3e
       -0.14056742 -0.043347128 -0.18953109 0.18574096
000070 8c 32 21 be e7 9b 31 3e 02 ad 0e be b8 22 8f 3b
       -0.15741938 0.17344628 -0.13933185 0.0043681525
000080 31 83 c2 3e cc dd 00 3f e6 60 38 3e 41 b1 dc bc
       0.37990716 0.50338435 0.18005714 -0.02693999
000090 6d 30 9a 3d a8 50 b4 3e 4d 49 c6 be b6 c6 cd be
       0.07528768 0.35217786 -0.387278 -0.40190667
0000a0 64 c0 54 be 56 93 1e 3d 1c dc 0b be 79 0a c2 bd
       -0.20776516 0.03871473 -0.13658184 -0.09474654
0000b0 25 ed 00 bd 73 5e 38 be 62 ae 67 3a 08 a8 1c be
       -0.03147616 -0.1800478 0.0008837936 -0.15298474
0000c0 2a 70 03 bf 6d 6f 06 3f 67 3a 67 3e 9c 85 04 3e
       -0.51343024 0.5251377 0.22580872 0.12941593
0000d0 11 10 5b 3c 1a 0f 70 3e d9 73 80 3e ed 6a ac bc
       0.01337053 0.23443261 0.25088385 -0.02104708
0000e0 99 6d c8 3d a2 28 2e 3c fb 91 b9 3d 23 09 00 be
       0.09786529 0.010629805 0.09061047 -0.12503485
0000f0 f2 b2 2a 3d ce c8 8a be 5d 68 5d 3e 83 9f 4d be
       0.04167456 -0.27106327 0.21621843 -0.2008038
000100 4f 67 82 be 6c 11 3f 3e 64 ab d0 3c af 75 8b 3e
       -0.25469443 0.1865899 0.02547235 0.27238223
000110 7f 9b 2a be 74 4c b0 be d5 92 75 be 8d a1 8c be
       -0.1666088 -0.3443333 -0.23981793 -0.27467003
000120 6b 68 4c bb 7f 27 ec bd 0e 95 a7 bd 90 35 55 be
       -0.0031190168 -0.11530971 -0.08182727 -0.20821214
000130 2d b0 88 be c5 be 22 be 76 d4 2e 3d 8f 1f b3 bd
       -0.2669691 -0.15893085 0.042683087 -0.08746254
000140 64 fb d6 be 6a e5 22 be 96 a3 95 3e 54 be e6 bd
       -0.4198867 -0.15907827 0.2922637 -0.11266771
000150 24 9a 75 be 00 74 82 bc a3 8c c0 3d b0 75 33 3e
       -0.23984581 -0.015924454 0.09401824 0.17525363
000160 a4 3e 82 3e 97 ea 89 bd d4 01 08 3e a5 dd 83 bd
       0.25438416 -0.067341976 0.13281947 -0.0643876
000170 e9 4d 8f 3c a7 34 d4 3c 6c 2f 2a 3e 66 71 7a be
       0.017493205 0.025904013 0.16619653 -0.2445732
000180 21 52 47 3b d1 5f 4b 3e 57 52 9a be 91 09 01 3e
       0.0030413943 0.1986077 -0.30140945 0.12601306
000190 57 5b 15 be 58 09 78 be ab 4a f5 3d 30 60 87 be
       -0.14585625 -0.24222314 0.119771324 -0.26440573
0001a0 61 90 5c be e9 3f bc 3c e8 4a ac 3d f5 e0 02 be
       -0.21539451 0.022979693 0.08412725 -0.12781127
0001b0 59 ec 65 be 2a 59 d6 3d f8 81 69 3e fa 4b 61 bc
       -0.2245344 0.104662254 0.22803485 -0.013751024
0001c0 2f 91 d3 3d 29 73 0d be b3 57 8e 3e 64 2f 66 be
       0.10330426 -0.13813461 0.27801284 -0.22479016
0001d0 fb 94 d1 bd 31 00 dc 3e 29 8e 02 3d ee 55 87 3e
       -0.10233494 0.42968896 0.031873856 0.26432747
0001e0 f3 14 87 3d 81 b7 8f bc d7 a4 a4 bb 4f 2d 80 3e
       0.065957926 -0.017543556 -0.0050245333 0.25034568
0001f0 d9 fe 80 3d 5e 2b 62 3e 70 84 ac 3d 10 b1 94 bd
       0.06298608 0.22086856 0.08423698 -0.072603345
000200 90 66 1b be 16 33 94 3d 27 ff db be 7d 93 06 bd
       -0.15175843 0.07236306 -0.42968103 -0.0328555
000210 b1 5a d2 bc 60 04 b1 bd 8f f7 08 3e 13 7e 28 3d
       -0.02567801 -0.086434126 0.13375686 0.04113586
000220 fb 1f 38 bd ce f2 88 be 51 17 11 be 2a 42 e3 3c
       -0.044952374 -0.26747745 -0.14169051 0.02774151
000230 de 0a 17 3e ad 56 ab 3d 7c ac f3 3c d7 fb ac 3d
       0.14750239 0.083661415 0.029745333 0.08446472
000240 21 02 c4 3e d4 3c a9 bc 2a ea fd be 08 31 fc 3c
       0.38282874 -0.020658888 -0.49592716 0.030785099
000250 74 44 3d be 51 63 3f 3d bd cd 85 be e7 34 dc bb
       -0.18483144 0.046725575 -0.26133528 -0.0067201736
000260 8a 08 4b be 6d c2 84 bd 56 53 66 3e c2 2a 28 3d
       -0.19827476 -0.06482396 0.22492728 0.041056402
000270 e9 34 7c bd 02 b9 f1 3d 97 e1 26 3e 9a 6d 76 3e
       -0.061573897 0.118028656 0.16296993 0.24065247
000280 d7 72 2a 3e a0 44 7d be a1 08 21 3e 20 99 53 3e
       0.1664537 -0.2473321 0.15725948 0.20663881
000290 65 c7 32 be a2 c1 7c bc 57 bd 12 bd 4e 4d bc 3d
       -0.17458875 -0.015427025 -0.0358251 0.09194432
0002a0 a8 df f9 bd e9 d1 25 be 96 d1 09 be 1c e1 88 be
       -0.12200862 -0.16193356 -0.13458857 -0.26734245
0002b0 9f 17 c4 bd eb ad 2d be 7c e6 c2 3d cd e8 9c 3d
       -0.09574818 -0.16960876 0.09516618 0.07661591
0002c0 2e 76 10 be 66 67 d4 3c 20 45 d4 be 6e 4a 8f bd
       -0.14107582 0.02592821 -0.41458988 -0.06996618
0002d0 0f e6 fb 3e 3e ef c6 3e eb 53 0e 3e 41 1a 04 be
       0.49198958 0.38854402 0.138992 -0.1290064
0002e0 84 1a 02 3e de 40 4d 3e da 09 31 be 5e 8d 97 3c
       0.12705427 0.20044276 -0.17288914 0.018500026
0002f0 b0 e8 39 be 4e 51 b2 3d 41 6c aa ba f3 75 b1 3d
       -0.1815517 0.08706914 -0.0013002233 0.08665075
000300 95 da 66 3e 19 76 52 3e c8 b4 04 3c 3c cb ba bd
       0.2254432 0.20552863 0.008099742 -0.09120795
000310 25 0e 06 be ec ef 05 be 8b f3 57 be fd dd 91 be
       -0.13091333 -0.13079804 -0.21088998 -0.28489676
000320 7a b3 41 3d ba ca aa bd 4d 8c 51 3e bf 1e 6a 3d
       0.047290303 -0.08339448 0.20463677 0.057158228
000330 af 52 3e 3d 34 8a 50 3d c2 a8 7a 3d 2e 28 ca 3c
       0.046465572 0.05091305 0.061196096 0.024677362
000340 9c b8 73 be 23 7d 6b 3e b0 65 b7 be 8a f2 00 be
       -0.23800892 0.22996955 -0.3581977 -0.12592521
000350 44 bd 51 be 74 6f 8f 3d 7e e2 3c 3d 6e 47 97 be
       -0.20482355 0.0700368 0.046114437 -0.29546684
000360 8f ef 9c 3e 2d e6 1f 3d 1f 34 33 be ca e7 7d 3d
       0.3065152 0.039037872 -0.17500351 0.06198863
000370 c4 ea 4b 3e c2 35 cd bd 37 b5 99 3d b5 4a 94 3e
       0.19913775 -0.10020019 0.07505267 0.28963247
000380 c8 d5 8a bd 30 b3 57 be 12 77 73 be 9b 01 1e bc
       -0.06779057 -0.21064448 -0.2377589 -0.009643937
000390 91 ce 01 3e 34 08 ba 3d a7 fe f3 3d c2 ee 74 be
       0.12676455 0.09083596 0.119138055 -0.23919204
0003a0 f8 8c 41 be 46 c0 a6 3c 65 45 42 be 8b ec 8b 3d
       -0.18901432 0.020355355 -0.18971784 0.06832226
0003b0 db 79 51 3e 24 64 a8 be 93 2b f8 3d b8 5a 70 be
       0.2045664 -0.328889 0.12117686 -0.23472106
0003c0 b5 3c 8d bd c6 d7 a4 3e 44 9a 9e 3d f0 66 c0 bd
       -0.068963446 0.32195872 0.077442676 -0.09394634
0003d0 cf 7a 5f 3e 92 9e 9d 3d 5c 74 aa 3c 01 20 00 be
       0.21824192 0.076962605 0.020807438 -0.12512209
0003e0 69 62 2b be e6 58 76 bd 49 4f 22 3e 0f b0 4f be
       -0.16736759 -0.060143374 0.15850557 -0.20282005
0003f0 57 13 f2 bd c9 a7 09 be 05 b7 dc 3d c0 0b 1a 3e
       -0.11820095 -0.13442911 0.10777096 0.15043545

actor.0.bias f4 [64]
000000 96 bd 1b 3e e2 e3 ab bd 80 87 10 3e cd 57 1a 3e
       0.1520904 -0.083930746 0.14114189 0.15072556
000010 80 e3 8c be 0e 92 52 be 70 3e 5c be d0 4b 65 3d
       -0.2751732 -0.20563528 -0.21508193 0.055980504
000020 4c 61 84 bc 3d 57 68 be 69 df c7 bd 84 6d ca bd
       -0.016159676 -0.22689529 -0.09759409 -0.0988417
000030 94 8b 18 be 2a 02 c6 bc 45 de 4d 3e 51 5e 84 3e
       -0.14896995 -0.024170954 0.2010432 0.25853208
000040 be d0 8c bd d5 d6 a3 bd 92 cf 9a 3e 9b 57 07 be
       -0.06875752 -0.0799996 0.3023649 -0.13217013
000050 a8 f6 6b 3d 35 12 4c be 03 30 b3 be c3 e4 46 3d
       0.057608277 -0.1992882 -0.34997568 0.048558008
000060 57 49 98 be 58 74 34 be bc f4 91 be 83 12 44 be
       -0.29743454 -0.17622507 -0.2850703 -0.19147687
000070 b1 e5 40 be 28 7c 67 be 12 fb ce bd 45 31 17 3e
       -0.1883762 -0.22605956 -0.101064816 0.14764889
000080 a3 e0 fe bd b3 06 5d 3d 56 18 4e 3e 78 03 e5 bd
       -0.1244519 0.053961467 0.20126471 -0.11182302
000090 a2 de 1b 3e 9e f7 80 3d a4 c0 4b be 83 9c 9c 3d
       0.15221646 0.06297229 -0.19897705 0.0764704
0000a0 c5 c2 6d 3e 70 30 ee bd b3 c1 42 3e a3 45 13 3e
       0.2321883 -0.116303325 0.19019203 0.14382033
0000b0 7d 4f c9 bd 37 61 a8 3d ae c1 e6 3d 66 3e 3f 3e
       -0.09829614 0.08221667 0.1126741 0.18676147
0000c0 13 1a b9 bd e2 5b cc bd 77 5c 8e 3e 24 81 1c 3e
       -0.090381764 -0.09978463 0.2780492 0.15283638
0000d0 a9 a9 9a be 84 8b f4 bd b4 43 56 bc 29 77 30 3e
       -0.30207565 -0.11940673 -0.013077665 0.17232956
0000e0 a3 3c 69 3d d8 10 b7 3b 6a e5 46 be 48 7a 15 be
       0.056942593 0.0055867247 -0.19423452 -0.14597428
0000f0 1b 00 f1 bd 75 64 2a bd 38 be 4a 3e 7a bb 26 3d
       -0.11767598 -0.04159971 0.19799125 0.040706135

actor.2.weight f4 [64, 64]
000000 3d 21 0b be 76 e7 45 3e 19 dc 8b be 34 96 9a bd
       -0.13586898 0.19326577 -0.2731636 -0.0754818
000010 ca df 52 be 80 8c 6a be 78 8b a0 bb 17 ff 19 3e
       -0.20593181 -0.22905159 -0.0048994385 0.15038715
000020 5c 36 c0 bd 7c 13 de 3e aa 03 82 bc 6f dc 4e 3e
       -0.09385368 0.4337424 -0.015870888 0.20201276
000030 24 a2 90 be e7 4f 5c 3d 1d 34 d9 be f7 3d b6 be
       -0.28248703 0.05378714 -0.42422572 -0.3559415
000040 44 e9 fc 3c b9 0a aa be 5d e1 78 3e ef 52 38 3e
       0.030872948 -0.33211306 0.2430472 0.18000387
000050 bb 8a a7 3d af 90 77 3e 37 22 a9 bb b1 e0 9a bd
       0.081807576 0.24176286 -0.0051615494 -0.07562388
000060 f7 e2 59 3d 8b db eb be da 7b 80 3d 44 11 de be
       0.053194966 -0.46065935 0.06273623 -0.43372548
000070 2a 03 a1 3e 40 8d 87 3b d2 0a 2c 3c 98 b7 85 be
       0.31447726 0.0041367114 0.010500627 -0.26116633
000080 b5 79 12 be ad b0 e3 bc 99 ff cd 3d 7d 5b 9d bd
       -0.1430424 -0.027794207 0.10058517 -0.07683466
000090 dd ad 1e 3f 9b 60 5c be fc 81 c1 bb 30 bc a3 3e
       0.61984044 -0.21521227 -0.005905388 0.31979513
0000a0 c6 9c 12 3e 5e b5 d1 3d 07 aa 29 3d a7 a9 12 bd
       0.14317617 0.10239671 0.041421916 -0.035806324
0000b0 d8 a0 21 bf c6 a1 4c be 7d 53 63 bd 63 a7 e2 3e
       -0.63136053 -0.19983587 -0.055499543 0.4426833
0000c0 c1 7a 88 3d 27 46 76 3e 88 7d 9d bd f9 0c 08 bf
       0.066640384 0.24050198 -0.07689959 -0.53144795
0000d0 ae b5 c5 bc b9 10 1f 3f 59 ae f0 bd e2 66 7b be
       -0.024134483 0.6213489 -0.11752004 -0.24550965
0000e0 1e 34 a3 3d 42 b0 19 bd 68 48 4a be f1 85 ef bd
       0.07968925 -0.03752161 -0.19754183 -0.11695469
0000f0 68 9e 2f be b7 10 b2 be 78 d9 25 3e c0 36 4f ba
       -0.17150271 -0.34778377 0.16196239 -0.0007904582
000100 a5 4c 23 be 7a 2a 57 3e 29 7e cd 3d 1b c3 6f be
       -0.15947206 0.21012297 0.10033829 -0.2341427
000110 02 8a 9a 3d 4e ad 7d be fc 71 3b bd a5 66 e0 3d
       0.07545854 -0.24773142 -0.045763 0.10957078
000120 7c 09 c1 3b 85 0e 52 3d fe d4 90 3d 7d 0c 8b 3c
       0.005891023 0.05128338 0.07071875 0.016973728
000130 71 46 89 bd 66 6d a6 bd fc 6e b8 3d 74 94 13 be
       -0.06702889 -0.08126335 0.090055436 -0.14412099
000140 7e 1c 7f 3e 64 e1 9a 3d 8f 5e 9b bd 43 86 51 3e
       0.24913213 0.07562521 -0.07586395 0.20461373
000150 1d d0 1c 3e 7f e9 b1 3b ec b6 8d be ac e8 ff bd
       0.15313764 0.005429446 -0.2767862 -0.124955505
000160 3d d7 4a 3d b7 e1 02 be f3 38 1c 3e 58 18 06 3e
       0.049521673 -0.12781416 0.152561 0.13095224
000170 88 6d 57 3d 3d 5d f8 3d 9c e0 00 3e f9 23 1e bc
       0.05259469 0.12127159 0.12585682 -0.009652131
000180 12 b0 fb 3c 19 39 44 bd e6 4e 7e bc 13 ef 3a 3d
       0.030723605 -0.047906015 -0.015521741 0.045638155
000190 27 dc d6 bd f2 80 28 bd c5 a8 c1 3d 87 58 0b 3e
       -0.104912095 -0.041138597 0.09456018 0.13607989
0001a0 43 5d 34 3c 49 73 9e 3d d4 d7 df 3d ef 1d f4 bd
       0.011008563 0.07736833 0.10929838 -0.11919772
0001b0 19 b5 99 3d 9d 87 c6 bd f2 2b 3d bd 79 be 53 bd
       0.07505245 -0.09693835 -0.046184488 -0.05169532
0001c0 3b 12 28 be 5f a3 f2 bd 2d 10 0b bc 6a f0 fa bb
       -0.16413204 -0.11847567 -0.008487743 -0.007658054
0001d0 1b ea 93 bc e3 4c e3 bd b8 5d 55 be cf 60 ac bd
       -0.018055966 -0.11098649 -0.20836532 -0.08416902
0001e0 e2 22 c5 3d 4a be 58 be 9d 7b ff bd 4c e2 88 3d
       0.09625794 -0.2116634 -0.12474749 0.06683788
0001f0 01 55 ac 3d 84 3a 7c bc 24 97 3e be ca d1 af 3d
       0.08414651 -0.015394811 -0.18612343 0.08584936
000200 13 95 39 bd 86 56 b2 3c 55 40 51 3c 1b c1 19 bd
       -0.045308184 0.021769773 0.012771686 -0.037537675
000210 29 00 1d 3e 3c c7 09 3e 3f a5 85 bc a7 1a 4d bd
       0.15332092 0.13454908 -0.016314147 -0.050074246
000220 0e b9 21 3d ee df d3 bd 1c 6b eb 3d 86 00 ce bd
       0.039483123 -0.103454456 0.11495039 -0.100586936
000230 d3 06 68 bc dc f4 2f be 56 8a 4e 3c 17 bd 47 3d
       -0.014161783 -0.1718325 0.012606224 0.048764315
000240 c9 39 61 bd 35 5c 00 3d d1 42 83 3d c3 f2 e3 bc
       -0.05498675 0.031337935 0.064092286 -0.027825719
000250 23 58 07 3d a6 c3 cf bd 93 e0 3f 3d 0a 88 b0 3d
       0.033043038 -0.10144739 0.04684503 0.086196974
000260 de 7a 37 3d bb ed c9 3d 49 3e 5c 3d bd 20 04 be
       0.04479491 0.098597966 0.053770337 -0.12903114
000270 46 50 13 3e ae 75 a2 3d 83 a9 45 3e 09 61 0d be
       0.1438609 0.07932602 0.19302945 -0.13806547
000280 b4 c3 c8 bd 63 9f ea bd 85 0f 06 bd 80 ea e9 3c
       -0.098029524 -0.11456182 -0.032729644 0.028554201
000290 6a c6 4b 3d 3d 77 09 be 75 24 2e 3e 80 d8 24 3d
       0.04974977 -0.13424392 0.17006095 0.040245533
0002a0 d3 8e d0 bd ec f2 8d 3d 02 a2 5f 3d f8 cb 1a 3e
       -0.101834916 0.06931099 0.054597862 0.1511687
0002b0 e4 d4 99 bd 06 9a 1b 3d 81 df 4c be 2e 7b 9e bd
       -0.07511309 0.037988685 -0.20007135 -0.077383384
0002c0 0a 85 4b 3d 4f 20 7d bd 47 3e ad bc 15 f0 77 bd
       0.049687423 -0.06179839 -0.02114786 -0.060531694
0002d0 f3 eb 87 bd 80 dd 29 bc 2a df 69 bd e5 04 b3 bd
       -0.066368006 -0.010367751 -0.05709759 -0.08741168
0002e0 a9 90 12 be d8 1c 52 bd 8e b8 67 bd b2 e3 86 3d
       -0.14312996 -0.05129704 -0.05657249 0.06586398
0002f0 ca d3 95 3d ac c4 4e bd e7 e8 c6 3d e9 7e 69 bd
       0.07315786 -0.05048053 0.09712391 -0.057005797
000300 a4 7a 84 3b 43 d4 b4 bd 38 5e 83 3c bf af 3b 3d
       0.00404294 -0.08829548 0.016036138 0.0458219
000310 9b dc 44 3d 2e 56 8f 3d f8 32 27 bc 3f 02 12 bd
       0.04806195 0.06998859 -0.010205023 -0.035646673
000320 0b a9 ba 3b da 66 e1 3c d0 37 54 3d d7 20 91 3d
       0.005696421 0.027514864 0.05181104 0.07086342
000330 4e f0 f5 bd a7 7a 88 be 50 88 8f bb 51 bf c0 bd
       -0.12008725 -0.26656076 -0.0043802634 -0.09411491
000340 ba 64 ce 3c 2a f0 c2 bd 4d a4 09 3e f5 ee ab 3d
       0.025194515 -0.09518464 0.13441582 0.08395187
000350 b7 10 44 bd 08 bf 51 bc f4 7d be 3d bc 96 b5 bd
       -0.047867503 -0.012801893 0.093013674 -0.08866641
000360 47 b5 3f bd 3a 26 c9 bd 03 03 1c 3c c6 13 0a be
       -0.04680374 -0.09821744 0.009522202 -0.13484105
000370 a2 cc 60 3c b1 bd 7f 3d ab 01 10 3c 9d b8 aa 3d
       0.013720663 0.062436763 0.00878946 0.083359934
000380 c1 b7 80 bd b7 bf 22 bd fa 92 08 bd 82 72 82 bd
       -0.06285048 -0.039733615 -0.033343293 -0.06369497
000390 4a c9 7d bc b7 f4 f1 bd 37 67 c1 3c ea 38 31 bd
       -0.015489886 -0.11814254 0.023608787 -0.043267168
0003a0 72 69 c2 3c 8b f2 ec b9 76 eb 44 bd c5 6d a0 bd
       0.02373192 -0.00045194136 -0.048076116 -0.07833437
0003b0 b8 3e 0d be eb b5 b2 bd 68 90 c4 bd 9a 1b aa 3d
       -0.13793457 -0.08726104 -0.09597856 0.08306046
0003c0 e1 ca 1a 3e 61 b1 9b 3d 35 b3 ec bc e3 91 e4 3c
       0.15116455 0.07602192 -0.028894046 0.027901595
0003d0 6c 7d fd bc 6d f5 1b be b6 f6 49 3e 5a db 02 be
       -0.030943595 -0.15230341 0.19723019 -0.12778988
0003e0 4b 5f fd bb a5 aa bb bd 51 d1 a2 bd 9e cc 90 3d
       -0.007732307 -0.09163407 -0.0795008 0.07070278
0003f0 5b f8 4d bd 96 43 19 3e 8f 65 97 bd 11 4b 03 3e
       -0.05028568 0.14967188 -0.07392418 0.12821604

actor.2.bias f4 [64]
000000 ba 35 9f bd e2 11 50 3c f8 bd c8 bb b1 32 da 3d
       -0.077739194 0.012699576 -0.0061261617 0.106542
000010 4d 9a d3 3d 60 73 67 b7 b2 51 6b 3c 45 fd e1 bd
       0.10332165 -1.3795536e-05 0.014362739 -0.110346355
000020 44 79 88 bd fb 71 c5 3d a6 06 3e 3d e7 8d 8a 3c
       -0.066637546 0.09640881 0.04639306 0.016913367
000030 de 3e 1e 3d 46 f2 d9 bd 96 38 24 bd 14 1e 13 bd
       0.038634174 -0.10641913 -0.040093027 -0.035917357
000040 ff 97 6c 3d 88 a4 44 3c 5b 15 05 3d a9 fa 58 bc
       0.057762142 0.012002118 0.03249107 -0.013243356
000050 82 cc 9e bc 7d b8 a4 3c 02 0f fa 3c 31 59 0f 3d
       -0.019384626 0.020107502 0.030524734 0.03499717
000060 de bf 57 3d 98 cb b2 3d 06 92 16 3c 9a bc 27 3c
       0.052673213 0.08730239 0.009190088 0.010237837
000070 68 bf a2 3d f9 45 c0 bc 56 c4 4c bd 15 30 79 bc
       0.07946664 -0.023470866 -0.049991928 -0.015209218
000080 17 56 17 3d 3e e1 d7 bd 21 d8 f5 3d 88 34 52 3c
       0.036947336 -0.105410084 0.12004114 0.012829907
000090 fc 0a a3 3d 9d a6 76 3c ab 37 3e 3d 4b 4d 98 bd
       0.079610795 0.015054372 0.046439808 -0.074366175
0000a0 c4 81 77 bd 20 f6 c4 bd 4b e9 be bd 52 da 9d 3c
       -0.06042649 -0.09617257 -0.09321841 0.019269142
0000b0 8d 73 95 3d 0b 86 01 3e f8 d1 b9 bd ba c4 60 bd
       0.0729743 0.1264879 -0.090732515 -0.054875113
0000c0 0c 14 b8 bd 30 e2 86 3b b0 00 9b 3d 0a 8c 66 bd
       -0.08988199 0.004116319 0.075684905 -0.056285895
0000d0 a5 4b d5 bc 3f d3 4e 3d 79 a5 70 3d d5 53 8d bd
       -0.026037047 0.05049443 0.058751557 -0.06900755
0000e0 12 b0 0a be 3b 77 c8 3d 35 43 4f bd 41 70 a5 3d
       -0.13543728 0.097883664 -0.050601203 0.08078051
0000f0 0b 8b d6 bb 39 2c 0b bd 6c 53 c6 3d be c9 ea 3d
       -0.006547337 -0.03397772 0.0968388 0.114642605

actor.4.weight f4 [2, 64]
000000 fd 89 85 3d 65 24 19 3e bb 1b 81 be 44 58 14 be
       0.0652046 0.1495529 -0.2521647 -0.14486796
000010 27 55 16 3e 16 51 87 be 87 11 a3 bd a3 69 cd bd
       0.1468092 -0.2642905 -0.079623275 -0.10029914
000020 99 59 49 3e c7 61 b4 3e 98 c4 ed 3c 79 11 db 3d
       0.19663085 0.35230848 0.029024407 0.10696692
000030 dc 45 3c 3e 95 a9 53 be c1 35 83 bd 7c 2e 30 3e
       0.18386024 -0.20670159 -0.06406737 0.17205232
000040 79 53 e1 3a 77 df e8 3d 21 11 c3 bd 6a 02 a2 3e
       0.0017191014 0.113707475 -0.095247515 0.31642467
000050 01 ab 90 bc 32 4b 6d be b8 24 51 bd 05 87 1c 3e
       -0.017659666 -0.23173216 -0.05106041 0.15285881
000060 4b 83 64 3d f1 df 5a 3d 36 ef 87 3d f3 00 46 be
       0.055789273 0.053436223 0.06637423 -0.193363
000070 2b f8 36 3e 2f fc 1b bd 81 b4 aa 3d 55 83 70 be
       0.17868106 -0.038082298 0.0833521 -0.23487599
000080 78 64 40 be 3f 65 3e be 29 8b 6e be 82 a7 13 3d
       -0.18788326 -0.1859331 -0.23295273 0.03604842
000090 e8 bd be be 9b 07 1f 3e 88 ae 49 be 2c 6f 1f be
       -0.37254262 0.15530245 -0.19695485 -0.15569752
0000a0 84 ef 60 3e 2d 87 8e 3d 18 69 1e 3c 59 07 e0 bc
       0.21966368 0.069593765 0.009668611 -0.027347254
0000b0 82 cc 63 be f0 b8 4f bd 4a 78 32 3d b0 09 8a 3d
       -0.22245982 -0.05071348 0.043571748 0.06740129
0000c0 24 7e 77 bd 55 91 af 3d ae ae 38 3e 70 97 5c be
       -0.06042303 0.08572642 0.18035385 -0.21542144
0000d0 21 69 47 3c e4 24 40 3d 42 6e 44 3e c7 e4 2d be
       0.012171061 0.04691018 0.19182685 -0.16981803
0000e0 4e 35 f2 3c c9 45 ab bd b6 58 02 3d 10 1a 63 be
       0.029566433 -0.0836292 0.031822883 -0.22177911
0000f0 41 e7 f6 3d a1 e7 9a be 4f 7e 85 bd f7 bf 36 be
       0.12055827 -0.30254844 -0.06518232 -0.17846666
000100 d8 5a 4f be c1 e9 1d be 6d 3f 09 be 0a c8 9d bb
       -0.20249498 -0.15421201 -0.13403101 -0.0048151063
000110 15 2e 63 3d a8 e0 c1 3d d2 5a 35 be 83 41 9c bb
       0.05546387 0.09466678 -0.17710426 -0.004768552
000120 53 24 4a 3d 87 1d 07 be 12 61 54 3e 30 ef 07 3e
       0.049351048 -0.13194858 0.20740154 0.13274837
000130 80 48 3e be 8f f3 d9 3d 6c d3 05 3d da 58 67 3c
       -0.18582344 0.10642158 0.03267233 0.014120305
000140 33 e0 72 be df 48 22 bd 35 d4 1c 3e aa 7c 0b be
       -0.23718338 -0.039620277 0.15315326 -0.13621774
000150 11 1d 85 be e8 78 cf 3d c1 91 31 3e dc 51 a8 3d
       -0.25998738 0.10130483 0.17340757 0.082187384
000160 04 c3 1d 3e e3 c8 6f be cf 4c 0e bf 60 d5 2a be
       0.15406424 -0.23416476 -0.5558595 -0.16682959
000170 29 3f f5 bd f5 85 12 be f0 d1 aa be 66 bd c9 3d
       -0.119749375 -0.14308913 -0.33363295 0.09850578
000180 a0 07 0c 3e fd a0 84 3c cb 97 34 be 28 c3 91 3e
       0.13674784 0.016190046 -0.1763603 0.28469205
000190 a7 1a df 3c 48 e5 29 3d 82 5b 59 be c0 4a d3 3d
       0.027234389 0.041478425 -0.21226314 0.10316992
0001a0 b8 3b 3b bd 02 fc af 3d ef 0c 3b be cb 44 06 3e
       -0.04571125 0.085929886 -0.18266653 0.1311218
0001b0 0c 0f a9 3d 82 b9 5c 3e 6c 6f 49 be 68 6a f8 bd
       0.08254823 0.2155514 -0.1967141 -0.121296704
0001c0 b3 20 13 be f2 12 33 be ae 01 62 3d 2e 9a 20 be
       -0.14367943 -0.17487696 0.055177383 -0.15683815
0001d0 a4 b5 0f be 58 2a 1b be ae 34 5e 3c a8 e6 93 3e
       -0.14034134 -0.15152872 0.0135623645 0.28886914
0001e0 68 4c c9 be 9d 70 62 bd 1a 0f 37 be 62 09 bf bd
       -0.39316106 -0.055283178 -0.17876855 -0.093279615
0001f0 70 53 19 3e 69 fa c2 bd bd ad b6 3d 89 ef 9e 3c
       0.14973235 -0.09520418 0.08919857 0.019401329

actor.4.bias f4 [2]
000000 34 db ea bc 98 aa c0 3d
       -0.028668977 0.09407538

critic.0.weight f4 [64, 16]
000000 1a cf d5 39 e4 5a d6 3e fc 87 03 bf af 1d bc 3e
       0.0004078083 0.4186622 -0.5137937 0.36741397
000010 23 6b 23 3f a9 49 61 3f 95 d6 e8 3e 92 a0 95 be
       0.6383535 0.8800302 0.45476213 -0.29224068
000020 cc 77 0b 3f 8b 32 b8 be ba 3e c0 3e 94 76 f4 be
       0.5447967 -0.3597606 0.37547857 -0.47746718
000030 b6 29 d4 3e 46 10 ab bd 48 2a 7b bc 74 09 f6 be
       0.41438073 -0.08352713 -0.015329905 -0.48054087
000040 1d 89 76 bf 8d d7 f2 be 6f 58 e9 3f fb 16 66 be
       -0.9630297 -0.47430077 1.8230113 -0.22469704
000050 bd 65 02 3f cf ee 31 3f 78 8c 55 3d 9f 40 1b bf
       0.5093649 0.6950502 0.052135915 -0.6064548
000060 b1 da af 3c c3 0f 80 be 63 be 64 be 81 20 9b 3d
       0.021466585 -0.25012025 -0.22338252 0.07574559
000070 60 18 ca 3c 11 3a 4a 3f 64 6f b3 be 8f 1d 94 3f
       0.024669826 0.7899485 -0.35045922 1.157152
000080 70 15 d4 3e 14 5d 8c 3e b5 fe 9e 3e 23 e3 3f 3e
       0.41422606 0.27414763 0.310537 0.1873899
000090 b3 fc 4c 3e a0 34 27 3f b5 c8 a7 bd 32 60 ce bc
       0.20018272 0.65314674 -0.08192579 -0.025192354
0000a0 c6 06 ae bd 5d 4c e9 bb cd 43 bb 3e bc 66 28 be
       -0.08497386 -0.007119699 0.36575165 -0.1644544
0000b0 a2 f5 81 3e dd 44 c0 3e 06 f8 3f 3e 3f 3c 6e 3e
       0.25382715 0.3755254 0.18746957 0.2326517
0000c0 a5 5a 59 be 74 db 26 bf fa 4a 10 bd da 66 fa bd
       -0.21225984 -0.6517861 -0.035227753 -0.12226649
0000d0 9e 1d de bd 8c a3 e4 3e 83 1e 71 be 43 aa 45 be
       -0.10845493 0.44656026 -0.23546796 -0.19303231
0000e0 66 5f 14 bf 87 8d 0f bd b1 80 26 bf d8 fc 07 be
       -0.57958066 -0.03504708 -0.6504012 -0.13280046
0000f0 e5 5f 16 bf 87 12 d8 be a1 93 10 bf ce 50 f4 be
       -0.58740073 -0.42201635 -0.56475264 -0.477179
000100 13 d5 53 bf a7 03 c9 bd ba e1 48 bf 4c d8 67 3e
       -0.82747 -0.0981515 -0.7846943 0.22641104
000110 d3 d3 7c 3f e5 f7 8e 3f 9b 62 3d 3e 4e 83 af be
       0.9876072 1.1169401 0.18494646 -0.34279865
000120 47 2d 17 be 3f 0c bc be b3 e2 64 be b2 d0 d9 be
       -0.14763366 -0.36728093 -0.22352104 -0.42542034
000130 ef 2a 82 bd 08 8e 60 bd 7c 7e c5 be 3e 50 c8 be
       -0.06355845 -0.05482295 -0.38573062 -0.3912372
000140 2b 84 54 3e 8a 2a de bd ae c0 d8 3b 31 28 d6 be
       0.20753543 -0.108479574 0.006614766 -0.4182754
000150 5f df 98 3f f8 8f dc 3e 48 36 f1 be 78 16 88 3d
       1.1943167 0.4307859 -0.47111726 0.066449106
000160 9d 39 16 bd e6 5c b4 bd c3 f6 44 be 17 f5 b7 3e
       -0.036676038 -0.088067815 -0.19234757 0.35929176
000170 84 4b 24 be 03 91 ae 3d 3d cb a6 bd 93 83 1c 3f
       -0.16044432 0.085237525 -0.081442334 0.61138266
000180 3e 72 b9 be 9b a0 5b be ab f2 72 bf 67 6d 0b 3f
       -0.36219972 -0.21447985 -0.9490153 0.5446381
000190 1c 16 eb be 69 05 17 bf a6 59 b4 be 58 8a 99 3d
       -0.45915306 -0.5899263 -0.35224646 0.0749709
0001a0 a4 ba 9c bd 27 6a 3e 3e 6d 10 c3 be 66 d4 28 3e
       -0.076527864 0.18595181 -0.3809847 0.16487274
0001b0 0c f3 85 3d 9a f4 6b bd ea a6 a8 be a2 09 3e bf
       0.06540498 -0.057606317 -0.32939845 -0.7423345
0001c0 3a 36 c3 3e 63 4b 2d bd b7 de cd 3f ca 6d 28 3d
       0.3812731 -0.042308223 1.6083592 0.041120328
0001d0 77 03 85 3d c6 9a 28 3e 85 b5 ed be 1a 3e 2e bf
       0.064948015 0.16465291 -0.4642755 -0.6806351
0001e0 5e 70 43 be 5c 64 73 bf 41 f3 2c be ef 41 53 bf
       -0.19085833 -0.9507501 -0.16889669 -0.8252248
0001f0 02 79 22 be 63 0e 58 be 70 41 d0 bd 30 9c 15 be
       -0.15866473 -0.21099238 -0.10168731 -0.14610362
000200 76 99 7a 3f ff 07 8d 3f 12 03 1a 3e 0d 91 b0 be
       0.9789041 1.1018065 0.15040234 -0.34485665
000210 bb 1e 45 3f 1c 1a 26 bf c9 3e 3d bf a0 31 59 bf
       0.77000016 -0.6488359 -0.7392393 -0.84841347
000220 5e 2b 36 be d3 41 29 bf fb e2 b2 be 15 5f 97 be
       -0.17789981 -0.66116065 -0.34938797 -0.2956473
000230 a2 18 01 bf 01 8c 07 bf e6 c1 9a be 62 ac 28 be
       -0.5042821 -0.52948004 -0.30226058 -0.16472009
000240 cb f0 8c bf 18 53 2b 3e a9 66 db be 57 b4 e6 be
       -1.1010984 0.16730917 -0.4285176 -0.45059463
000250 11 93 f8 3e 2e dd 06 3f 51 06 f8 3e 82 26 2d 3e
       0.48549703 0.52681243 0.4844232 0.16909221
000260 1d bc 47 3d 8b 36 fc 3e 7b 17 d6 3e 1a 2c b0 3e
       0.048763383 0.49260363 0.4181479 0.34408647
000270 8b 9e 20 bd ee 45 24 3e 86 9a 80 3e b0 7b 43 bf
       -0.0392137 0.16042301 0.25117892 -0.7636061
000280 7f 21 c4 3f c6 6f 4c bf 80 91 8c bf ec 67 12 bc
       1.5322722 -0.7985805 -1.0981903 -0.00893591
000290 dc fa 51 3f 24 ac 83 3f 55 dd 23 bf c2 e0 6c 3f
       0.82023406 1.0286908 -0.640096 0.92530453
0002a0 aa 09 e2 bc 92 34 5a 3f 64 2f 81 bd ce 58 3b 3f
       -0.027592499 0.85236466 -0.06307867 0.7318238
0002b0 34 d3 58 3c 45 47 b4 3e d0 47 46 3e 06 fc 3a be
       0.0132339485 0.35210624 0.19363332 -0.18260202
0002c0 2c ac 11 bf c8 f1 4c be 9d e8 87 bb 20 75 99 be
       -0.5690334 -0.20014107 -0.0041476027 -0.29972172
0002d0 74 37 16 bf d5 f1 0d be dc 62 08 3d 57 09 57 be
       -0.58678365 -0.13861783 0.033297405 -0.20999657
0002e0 ec 79 d0 be 44 4f f4 3c fe 0a 0d be 84 a2 91 bd
       -0.4071802 0.029822953 -0.13773724 -0.071110755
0002f0 fa a0 c2 bd ef b0 19 3e 03 5d ce be 8a e2 20 bd
       -0.0950336 0.15008901 -0.40305337 -0.039278544
000300 52 97 77 3f a1 36 c5 bf 04 1f c8 bf bc 4a 7e be
       0.9671527 -1.5407296 -1.5634465 -0.24833196
000310 fa 7e 8d bd 9d 03 26 bd 5c 0c 1f bf a8 ed 8b 3f
       -0.069089845 -0.04053079 -0.62128234 1.0931902
000320 3c 77 a6 be 30 cb 4b 3f 23 cf 89 be b9 4f b1 3e
       -0.32512844 0.79606915 -0.26915845 0.34631136
000330 3d 5a 05 be 7f 52 84 3e 34 16 7d bd 28 03 e7 3e
       -0.13022704 0.2584419 -0.061788753 0.45119596
000340 66 85 a3 3e 9b e5 16 3e 92 6a 70 bd d8 83 d0 3f
       0.31937712 0.14736025 -0.058695383 1.6290236
000350 75 21 52 be 74 4f 1f be e6 85 83 3e e7 94 09 be
       -0.20520575 -0.15557653 0.25688094 -0.13435708
000360 01 8b b6 3e d8 c8 22 3e 22 2f b8 3e 96 12 ac 3d
       0.35652927 0.15896928 0.3597346 0.084019825
000370 67 dc 2f 3e e6 e3 02 39 e4 6b 12 3f ce fb 94 bd
       0.1717392 0.00012482665 0.5719588 -0.072745904
000380 5d e0 d9 3f 2b 81 ad 3e e0 d7 7c bd c8 21 0d be
       1.7021595 0.3388761 -0.061729312 -0.13782418
000390 18 e2 73 be cf 2b 6e be 31 d5 41 bf fd 8e 0c 3e
       -0.23816717 -0.23258899 -0.7571593 0.1372642
0003a0 25 39 e8 be 56 87 06 3e 71 6a 08 be f0 29 50 3e
       -0.45356098 0.13137564 -0.13321854 0.20328498
0003b0 d5 dd 07 be 2d 53 56 be e3 5a 64 3d 57 1f 5a 3c
       -0.13268216 -0.20930167 0.05575074 0.013313136
0003c0 28 9b d6 3e ef 8e 8f bd 4c ec f6 bc 69 88 f9 3f
       0.4191525 -0.07009684 -0.030141972 1.9494754
0003d0 59 c5 33 be 3a 04 a0 be 16 09 ee 3d 80 a1 76 3e
       -0.17555751 -0.31253225 0.11622827 0.24085045
0003e0 80 4e 8d 3e 53 fd 6e bd 4a 96 62 3e 0f cb 27 3e
       0.27598953 -0.058347058 0.22127643 0.16386054
0003f0 79 75 dc 3e 0a f7 5a 3e 22 5d 96 3d ee e8 3e be
       0.43058375 0.213833 0.073419824 -0.18643543

critic.0.bias f4 [64]
000000 e1 16 f4 bd a1 22 1d be 5f fd eb 3d a7 e2 c3 bd
       -0.11918426 -0.15345241 0.11522936 -0.09564715
000010 10 96 7d bd 9a c2 d4 3d 1b b3 90 be 03 e9 31 be
       -0.06191069 0.1038868 -0.28261647 -0.17374043
000020 67 07 2b bf 0d 06 d8 3d 92 40 8d be c6 06 37 bf
       -0.6680817 0.10548029 -0.27588326 -0.7149471
000030 7a 03 03 be 04 25 29 3f 6a 51 b4 bb b7 67 05 3f
       -0.12794295 0.66072106 -0.0055028694 0.5211138
000040 63 cd 1f bd ad be cd 3e 30 8c 20 bd 46 40 4a be
       -0.03901423 0.40184537 -0.039196193 -0.19751081
000050 cd 69 b1 3c 3c 11 e5 bd 53 d5 2d be 6d 24 0e bf
       0.021656895 -0.11184928 -0.16975908 -0.5552433
000060 16 f4 c2 be 26 b8 f8 3e c4 9c 2b 3f a4 34 07 3f
       -0.38076848 0.48577994 0.6703608 0.528147
000070 9f c0 f2 3d 91 10 48 3f 57 ad 0a be 06 42 37 bf
       0.11853146 0.7815028 -0.13542686 -0.7158512
000080 75 11 f8 be 5c fd 5b 3f 97 1d 0d bc 7f a6 3f be
       -0.4845082 0.8593347 -0.008613012 -0.18715857
000090 3c 51 e6 bd fc 34 4e bf ec bd 71 bd eb 54 83 3f
       -0.11245963 -0.805496 -0.059019014 1.026029
0000a0 5e b9 5f bf 0a f2 24 bf c7 b1 39 3e a6 5c c7 be
       -0.8739222 -0.6443182 0.18134223 -0.38937873
0000b0 25 a4 c5 be f1 d9 ba 3e d6 da 23 3e 48 6a 75 3e
       -0.38601795 0.364944 0.16001448 0.23966324
0000c0 88 a3 08 be 50 39 27 bf b5 ad 5d 3d 36 ea e5 bd
       -0.13343632 -0.65321827 0.054120738 -0.11226313
0000d0 67 a8 07 3e 12 25 ef be 86 d8 24 3d 13 06 69 bf
       0.13247834 -0.4670797 0.040245555 -0.91024894
0000e0 5e 0d d5 be 7d 55 fd 3e 9b 33 b8 be 6c 3f 0a 3e
       -0.4161176 0.49479285 -0.35976872 0.13500756
0000f0 aa 94 c9 3e f0 54 df 3e ce de f7 be 0c f8 2a 3f
       0.39371234 0.4361949 -0.48412174 0.6678474

critic.2.weight f4 [64, 64]
000000 ba 1e 69 bd 15 16 05 3e da 61 9c 3e 57 14 a4 bd
       -0.05691407 0.12996705 0.30543405 -0.08011692
000010 71 01 b5 be fd 65 9b 3d 52 42 34 bf a7 37 9d be
       -0.35352662 0.07587812 -0.70413697 -0.30706522
000020 6e 65 50 be 4e c9 9f bd 99 16 09 3e 45 97 8a 3d
       -0.20351192 -0.07802068 0.13387527 0.067671336
000030 c3 1e ed bd 9f 66 78 3d 46 4e 89 be 8c 3b 90 3d
       -0.11578133 0.060644742 -0.2681753 0.07042608
000040 4f 9a fa be cb 83 9b bd 48 28 e2 bd 5e f8 85 3e
       -0.48945853 -0.07593497 -0.11042839 0.26166052
000050 49 28 de 3e 92 ff 60 be 8c 9c 6d 3e e0 8a a1 bd
       0.4339011 -0.21972492 0.23204249 -0.078878164
000060 72 1f 80 bc a0 55 c0 3e 13 3a 05 3f 74 1a 1f 3c
       -0.015639994 0.37565327 0.5204174 0.009710897
000070 dd c5 ef 3e 65 31 0f 3d e1 b1 0d bd e9 f2 35 be
       0.46830645 0.034959216 -0.034593467 -0.17768444
000080 d8 95 dd be 3f d3 35 3c 8c 14 0c bf d3 43 7a be
       -0.43278384 0.011097728 -0.5471885 -0.24439935
000090 e4 1d 0a bf e8 51 ca bd b9 58 0a bf 25 47 b5 3d
       -0.5395186 -0.098789036 -0.5404163 0.0885146
0000a0 13 9c cd bd 5f 44 51 bf 74 74 b6 be 29 25 6a 3d
       -0.100395344 -0.8174495 -0.35635722 0.057164345
0000b0 65 80 15 be 7a 07 24 3e 8d 32 1e bd b4 05 3b 3e
       -0.1459976 0.16018477 -0.038622428 0.18263894
0000c0 43 0b 8e be 83 f9 80 bf a2 92 de 3e 8c 4b d1 bb
       -0.27742967 -1.0076145 0.43471247 -0.0063871797
0000d0 8e 57 b7 3d c1 03 9d 3d 42 2b 73 bc 9c d1 bd be
       0.089522466 0.076667316 -0.014841856 -0.37073982
0000e0 4b 22 0f bf c8 5d 25 3f 89 15 44 3d 6b 71 2f bb
       -0.559117 0.64596224 0.0478721 -0.0026770483
0000f0 f8 ce fd 3e 87 f1 9f 3c 92 a2 c3 bb f6 47 fc 3d
       0.49571967 0.019524349 -0.0059703076 0.12318413
000100 02 ea c6 3e fb 8c 2f be 97 52 4a bd f9 a5 d9 bb
       0.3885041 -0.17143624 -0.04939517 -0.0066421
000110 48 ea e2 3d 83 e2 80 bd b2 90 71 3d 57 62 c8 3d
       0.11079842 -0.06293204 0.058975883 0.09784382
000120 8a 6f 31 be 1b c4 03 be c9 13 8f be 8d 84 43 3e
       -0.17327705 -0.12867777 -0.27944782 0.19093533
000130 86 41 ee be f6 76 ca 3e 0d 59 fd bb 14 75 bd 3e
       -0.46534365 0.39543885 -0.007731563 0.37003386
000140 d1 85 86 3e 07 e6 3f be 47 57 22 be aa 66 8e be
       0.2627397 -0.18740092 -0.15853606 -0.278127
000150 60 f0 cf 3e 29 63 2e bd 08 e7 a9 be b3 ab 9c be
       0.4061308 -0.042575035 -0.33184075 -0.30599746
000160 e3 8a 38 3e 0c 9a b1 3e f6 44 da 3f ea 1e 6d 3d
       0.18021731 0.3468784 1.7052295 0.05789081
000170 57 0b f7 3f 5b af e5 3d e5 94 21 3e c7 57 a2 bd
       1.9300336 0.11215087 0.15779455 -0.079268984
000180 54 58 67 bd 10 68 fe 3d a8 da 79 bf db 04 de be
       -0.05648072 0.12422192 -0.9759927 -0.4336308
000190 6f ba 22 bf 41 f6 c8 be 0d f3 df bd a8 a6 cd bd
       -0.63565725 -0.39250377 -0.1093503 -0.10041553
0001a0 fe 30 60 bd 10 47 be bd 77 17 94 be 00 34 b4 bd
       -0.054734223 -0.09290898 -0.28924152 -0.08798981
0001b0 df b9 e7 be 1d 5c b8 be 3c 2e 3b bf ca 30 41 bd
       -0.45258996 -0.36007777 -0.73117423 -0.04716567
0001c0 fe be d8 bc 34 43 22 be b9 09 a3 3e ce a7 d0 bd
       -0.02645826 -0.15845948 0.31843355 -0.10188256
0001d0 a7 7b 53 3d 23 eb a3 be 92 f0 0a bf 00 93 82 bd
       0.051631596 -0.32015333 -0.5427333 -0.06375694
0001e0 64 0e 4f be f5 b8 80 3e 98 a8 68 3a e3 98 38 bf
       -0.20220333 0.2514111 0.000887522 -0.72108287
0001f0 c3 11 1a be a8 2a 4e 3e 66 50 87 3e d3 fe 9d 3e
       -0.15045838 0.2013346 0.26428527 0.30858478
000200 95 89 a9 be 9c 1f 17 bf 26 97 e7 3c 31 da bb bd
       -0.3311278 -0.5903261 0.028270315 -0.09172476
000210 e2 e0 5b 3e 2b 7c a7 3e 7b ae 44 bc ec ec 0f 3f
       0.21472505 0.3271192 -0.01200449 0.5622089
000220 4f 1b e6 bc 00 6a 01 be 40 2b 42 bf 79 10 2c bd
       -0.028089194 -0.12638092 -0.75847244 -0.042007897
000230 2f d4 25 3f da 4d c1 3e b0 e5 e6 bd d4 40 9c 3e
       0.6477689 0.3775471 -0.11274278 0.3051821
000240 1d 30 41 3f a2 bd 62 3f 35 7e 12 be a0 db f0 3d
       0.7546404 0.88570607 -0.14305957 0.1176064
000250 f2 35 b4 3d 9d 2d 9e 3e df 4f 27 3e 01 6c 44 3e
       0.08799352 0.30894175 0.16339062 0.19181825
000260 09 d8 86 bc b7 5f 27 3f 69 bd 0a 3e 8f d6 56 3d
       -0.016460435 0.65380424 0.13548817 0.052450713
000270 d1 11 18 3e 9a a7 ef 3c 2e f9 d4 3e 2a ba fa bd
       0.14850546 0.029254723 0.4159636 -0.12242539
000280 c6 8e ad be 13 3e eb 3b a1 7c 5a be 19 a5 ab be
       -0.3389799 0.0071790307 -0.21336605 -0.33524397
000290 54 04 33 3e 9d 5d 13 be aa 10 07 bf 7b 30 a5 3c
       0.1748212 -0.1439118 -0.527598 0.020164719
0002a0 e4 12 ca bd 8c 8c 14 3f 7d 05 3c 3e d9 d1 a0 3c
       -0.09866884 0.5802696 0.18361469 0.019631313
0002b0 7d 5f 35 be 62 8f 27 bf 4c f7 2d bf e5 c4 95 bc
       -0.17712207 -0.6545316 -0.6795547 -0.018282363
0002c0 e9 7b 75 3e b2 e3 9f 3e 71 69 cd bd 0c 82 d3 bd
       0.23973049 0.31228405 -0.10029877 -0.10327539
0002d0 71 7b cb 3d 83 ce 3e bf 8c 99 0c 3e 83 0e 70 3d
       0.09935654 -0.7453386 0.13730448 0.05860759
0002e0 ea 1c 0c bf b3 c2 0c bf 93 e5 5d bf 92 bf b1 be
       -0.5473162 -0.5498459 -0.8667843 -0.3471647
0002f0 c8 ad 7f be 4a 24 56 3f 96 d5 84 be c1 57 5d 3e
       -0.24968636 0.8364912 -0.25944203 0.21615507
000300 3b c5 8d be 14 19 86 3e 4c 17 48 3e c2 81 10 be
       -0.27689537 0.26191008 0.19540137 -0.14111999
000310 3e e2 a5 be 34 92 86 bd e6 28 fe 3e 92 f0 a9 bd
       -0.32399172 -0.06570855 0.49640578 -0.08297838
000320 07 18 9a 3e 34 65 4c be 3e 29 4c bc d9 d2 99 bd
       0.30096456 -0.19960481 -0.012461005 -0.07510919
000330 1f 17 4c 3e 74 21 88 be b5 83 68 3e 82 69 70 be
       0.19930695 -0.26588023 0.22706492 -0.23477748
000340 9f 4e 76 bd 8c 4c 28 bc a0 8f 39 3d d9 82 1c 3e
       -0.060133573 -0.010272156 0.045302987 0.1528429
000350 06 f3 1c bf 25 32 9e 3e 87 65 44 3c ad e5 1e bc
       -0.61308324 0.30897632 0.011987097 -0.009698314
000360 bb 13 d7 bd 1a d7 04 bf 83 87 91 bf 11 f1 43 bd
       -0.1050181 -0.5189072 -1.136948 -0.04783732
000370 7a 29 93 bf 04 52 61 be 26 9c d2 bc 13 50 1f 3e
       -1.1497033 -0.22003943 -0.025709223 0.1555789
000380 45 1f f6 3e bb b0 c5 be 76 50 b8 3e ae 44 af 3e
       0.48070732 -0.38611397 0.35998887 0.34232086
000390 d4 16 93 3f e3 e1 44 3e 1e ac 99 3e 6c 74 9b bc
       1.1491342 0.19226794 0.30014127 -0.018976413
0003a0 40 9e 9a bd 9b a8 eb 3e 34 41 a3 3c 2a cb 3f be
       -0.07549715 0.46027073 0.019928552 -0.18729845
0003b0 57 06 d4 3e 33 cf 1f 3e 4b ef 1a 3e 53 a4 a9 3e
       0.41411087 0.15606384 0.15130346 0.33133182
0003c0 cb 9c 62 be 93 66 50 3f 49 46 e7 be 2f c6 2b 3e
       -0.22130124 0.81406516 -0.4517081 0.1677482
0003d0 9f ff 16 be b6 df 14 3d 56 0e 4c bc de 3d 23 3e
       -0.14745949 0.03634616 -0.01245459 0.15941569
0003e0 84 1f 8a 3d e1 14 46 bf 8a bb 8f 3e c5 9d 94 bc
       0.067442924 -0.7737561 0.28072768 -0.018141637
0003f0 ff 53 ca be 12 c6 4e be e8 a0 04 be 6a b6 8b be
       -0.3951721 -0.20192745 -0.12952006 -0.27287608

critic.2.bias f4 [64]
000000 bd a6 82 3d 8b 3a 70 bd 1a cd 3f 3e ca eb 74 3d
       0.06379459 -0.05864958 0.18730584 0.05979518
000010 88 46 0c bd cd bd 59 bc 6a 43 6e bc f3 e9 68 3e
       -0.03424695 -0.013289881 -0.01454244 0.22745495
000020 1f 92 53 be f7 0f 17 3d 41 3a 07 bf 06 ae 85 bd
       -0.2066121 0.03688046 -0.52823263 -0.06527333
000030 ac 23 df be 02 4c f1 3e e1 a6 22 3f 87 66 cd be
       -0.43581903 0.47128302 0.63535887 -0.40117285
000040 3c 27 25 3f 54 73 66 be 71 79 17 3f f9 cc 0c 3f
       0.6451299 -0.22504932 0.5916968 0.55000263
000050 de 85 91 3d ab b6 fe bd 43 d1 ff 3e 33 a4 17 bf
       0.07105611 -0.12437185 0.49964342 -0.59234923
000060 6c 99 89 bd f5 30 ea 3d de 7d b8 be ac d7 fa 3c
       -0.06718716 0.11435119 -0.3603353 0.030620418
000070 b0 e2 92 3d e7 8f 80 bc 8b 80 fc 3b 7f 4f e0 be
       0.071721435 -0.015693618 0.007705753 -0.4381065
000080 8d 38 1a bf 11 20 02 be 92 4a 27 3e d9 d5 3c bc
       -0.6024254 -0.12707545 0.1633704 -0.011525595
000090 cb e1 7c 3e 74 8c 1f 3f ae 3c 62 be ef 52 75 3e
       0.24695508 0.6232369 -0.2209346 0.23957418
0000a0 f2 37 1f 3d e1 ae 61 bc 4e b8 0d 3e ca 64 4e be
       0.038871713 -0.013774605 0.13839838 -0.20155635
0000b0 a5 ea 18 be 8b e6 2a bf 3d 88 26 be 4f 27 a0 3d
       -0.1493326 -0.6675803 -0.16262908 0.078199975
0000c0 cc 7b 17 3e 48 75 60 be c5 0f 30 3c 7c 7b f4 be
       0.14793319 -0.21919739 0.010745947 -0.4775046
0000d0 23 7b d1 3e 33 2e 3e 3b 11 9c af 3e 05 6e 2a 3b
       0.40914258 0.0029019236 0.34298757 0.0026005518
0000e0 db d2 74 3d 1b fb e6 3e 6b 61 3f be 5e bb 82 bd
       0.0597714 0.45113453 -0.18689506 -0.06383394
0000f0 d5 83 8a bc bd fa 6f 3d c8 d4 6f be 9d 8d b5 bc
       -0.016908566 0.058588732 -0.23421013 -0.022162253

critic.4.weight f4 [1, 64]
000000 a9 2f 2c 3e d2 d4 cc 3d 7d aa 8f be 23 f1 a9 be
       0.16815056 0.1000153 -0.2805976 -0.33191785
000010 d9 6f 8d 3e d9 6f 41 bb a8 85 61 be 70 36 8c be
       0.27624395 -0.002951613 -0.22023642 -0.27385283
000020 07 40 fb bd 6d c3 0d be ed 0d bb 3e ee a3 24 3e
       -0.122680716 -0.1384408 0.36534062 0.16078159
000030 58 47 d3 3e 60 b4 b2 be 13 ec b2 be 7a 94 ae 3e
       0.41265368 -0.3490324 -0.34945735 0.34097654
000040 3f 35 86 be 1c 5c 38 3e c4 a0 bf be 02 18 a7 be
       -0.262125 0.18003887 -0.37427342 -0.32635504
000050 f6 81 0d 3f b9 89 e9 3c ac 1d cb be 31 b0 bf 3e
       0.5527643 0.028508054 -0.39671075 0.3743911
000060 3c 33 05 3f 91 d6 0a 3e 67 d6 81 3e 58 21 01 be
       0.520313 0.13558413 0.25358889 -0.12610376
000070 6b 94 2d 3e 2c 44 ba 3d 4e 2c 87 3d c2 1e 9b 3e
       0.16951148 0.09095034 0.06600247 0.30296904
000080 b6 84 cc 3e ba 1b 23 3f 0c 64 b1 bd 19 2f 18 3f
       0.39945 0.6371418 -0.086616606 0.59446865
000090 99 64 c3 be 3f 9b c5 be ad e6 ed 3e 6f 84 16 bf
       -0.38162687 -0.38595006 0.46465054 -0.5879583
0000a0 f0 4a ae 3d e1 49 22 be d6 be 23 bd 59 18 fa be
       0.08510387 -0.15848495 -0.039976917 -0.488467
0000b0 0e d1 db 3d fa 79 e2 3e 1b 5a 8f 3e 6f d2 7c be
       0.107332334 0.44233686 0.27998433 -0.24689649
0000c0 44 b9 b5 bd 4d 41 d3 3e 07 5c b0 be e6 00 ba 3e
       -0.08873227 0.41260758 -0.3444521 0.3632881
0000d0 e2 e3 a4 be 3b db 13 3d 28 6f 8c be e9 88 39 3e
       -0.3220511 0.036097746 -0.27428555 0.18118633
0000e0 02 c6 ce be d3 a7 93 be 65 4d 2b 3f c2 bb b3 3e
       -0.40385443 -0.28838977 0.6691497 0.35104185
0000f0 ec ca 0e 3e 6c 8e b1 3e dd d7 2f be 00 33 3a be
       0.13944596 0.34678972 -0.17172189 -0.18183517
