log/lightning_logs/version_3/checkpoints/epoch=33-step=34.ckpt (torch, 37593 bytes, 47 tensors)

model.rnn_cell.gleak f4 [16]
00000000: 8ebb 873e 7250 ee3c b980 8c3f 2804 473e
00000010: e1f0 043e 3342 ec3e b7c0 d33e d9ee 02be
00000020: 6f0c b63e a3ce 8cbd 0eb4 203f 291d 2b3f
00000030: 4ce0 f13e fa3e 993e a698 6e3f d0d9 3e3f
0.2651028 0.029091094 1.0976783 0.19435179 0.12982513 0.46144256 0.41357967 -0.12786426
0.3555636 -0.0687535 0.6277474 0.6684137 0.47241437 0.2993086 0.93201673 0.74551105

model.rnn_cell.vleak f4 [16]
00000000: 5ec2 833d d8d9 913d a008 2c3e 5c01 f93e
00000010: 45e0 bf3e fba1 88bd 5df8 18be e249 233d
00000020: 26cb 893e 630a 403e 8679 713e aae2 a03e
00000030: c187 013f ed4d d2be 22ab 6e3e 4a3f e43e
0.06433557 0.071216285 0.16800165 0.4863385 0.37475792 -0.0667152 -0.14938493 0.039865382
0.26912802 0.18753962 0.23581514 0.3142293 0.5059777 -0.41075078 0.2330747 0.44579536

model.rnn_cell.cm f4 [16]
00000000: 872c bc3e a4f3 133f 533f 513f 8e9d 673e
00000010: 8ec9 e43c e968 1d3f 43a3 0f3f e70b f83e
00000020: c071 0a3e 7c2f 653e 2fc4 ff3e be43 323e
00000030: 8b30 403f afd4 203e 1792 2d3f d448 5f3f
0.36752722 0.5779364 0.8173725 0.22618696 0.02792814 0.61488205 0.5610849 0.4844658
0.13519955 0.22381395 0.49954364 0.17408654 0.7507407 0.15706132 0.6780104 0.872205

model.rnn_cell.sigma f4 [16, 16]
00000000: a630 9140 0a64 f240 2a0f 5640 1488 4640
00000010: e26a ab40 065c 6f40 6c31 a840 2b03 b140
00000020: 5c84 df40 4e39 cb40 3ce0 a840 c6b8 dc40
00000030: 0393 e840 e2ab 9040 c4ae 4140 fc68 5a40
00000040: 4c3a 8840 c346 8d40 8c36 e040 e8c1 6440
00000050: 821b ed40 5208 9540 504c 4340 4107 f440
00000060: 3b2a 5440 939b e940 508e 6540 5cd3 6040
00000070: 8973 c640 2c44 a940 1e5e 9840 9ea6 9d40
00000080: 4a28 ba40 f416 e640 2f15 e840 f460 aa40
00000090: 7e00 da40 6133 f440 b85e ab40 1a86 b340
000000a0: 4e24 ac40 db64 8c40 0c9f 4d40 9817 7f40
000000b0: a789 7740 9481 8540 9ea3 aa40 3abe dc40
000000c0: 5952 9840 b2ab 9040 30bd b340 1579 db40
000000d0: 2106 4b40 830d 5640 d20c 9540 bba1 a040
000000e0: 1a06 9b40 36b9 8340 7ee7 ae40 18d2 4940
000000f0: e509 f540 c94b 4540 30c4 9340 2cbc 7940
00000100: 8063 9040 7381 8840 f3f9 8740 4cf7 bd40
00000110: b3b1 c040 3b51 5e40 7e2b a140 3445 8c40
00000120: 8498 9240 426c ec40 7c4d d840 8ece 8040
00000130: a85d ad40 c984 bf40 50f5 a740 503e 6040
00000140: 7475 d640 ae55 cd40 b3bd b440 2123 a340
00000150: d586 bb40 87ef 9540 d0c4 8b40 9725 e340
00000160: b2ff dc40 f59b 8040 7fe4 d240 4828 6c40
00000170: 6a51 f040 3567 e240 b0de d340 6ae3 6040
00000180: 963c b240 957f 6440 29eb 7740 8431 9840
00000190: 48dc 8740 8f69 9c40 fbee ce40 b091 e340
000001a0: c0b4 8340 42e0 5d40 8216 4740 bdd7 c740
000001b0: 8ab0 7b40 6447 7340 1cd3 fd40 22c7 4a40
000001c0: 918c c140 02ac b240 9a7a 7d40 481b 4740
000001d0: a722 f840 1695 9d40 d694 ca40 3092 b840
000001e0: 18d9 8840 aab8 4540 b6c9 9e40 0a4d c940
000001f0: 54c7 9840 6c13 8640 124b 9540 44d1 ce40
00000200: 6420 ba40 f6e5 4240 9400 ed40 3cca 9e40
00000210: 1576 ae40 ce58 b140 449a 7040 d00d f540
00000220: db6e b740 83d0 da40 7647 d340 d90a bf40
00000230: 3460 bf40 7a83 9b40 dad4 9140 597c 8e40
00000240: cdb2 6240 e46c e740 ba94 a840 894e b440
00000250: 018d 6f40 6f99 e240 1a90 d440 dbce c440
00000260: f639 cb40 a89b 9b40 b3ac 9d40 2687 4040
00000270: 5a36 8840 ae01 5340 feac b240 6248 6940
00000280: 5db6 9b40 48bf f440 5f98 9640 b60f d640
00000290: 021c b540 736f 6640 b25b f040 197e 8540
000002a0: de62 7340 9b45 ba40 56ae d340 fe69 e340
000002b0: 7e9e f940 8ea1 4f40 8c4c aa40 a7f4 fc40
000002c0: fbd3 e340 10c2 f840 08fc c440 180f 7140
000002d0: fce1 9540 7bf3 a940 7fe9 6840 5b5c ea40
000002e0: c284 8c40 ce4f 9940 eeb5 c740 7fc8 e940
000002f0: 4e02 f540 feaf 9240 4087 9a40 2241 ed40
00000300: 18d6 bd40 a8b8 8c40 2a13 e340 ca57 4640
00000310: 56ae e540 ca33 ad40 4f0e a240 cce0 9340
00000320: 55ce ed40 210e cb40 8844 b640 cb90 f240
00000330: aef2 c440 5de6 de40 6c09 ee40 6d4f ea40
00000340: 3c26 b940 e1eb e840 175e 8b40 62d4 a340
00000350: 23c0 ac40 6b24 8540 e6ed 9140 1ae6 aa40
00000360: 6cb9 9b40 375e 9b40 b56c fd40 41be 9140
00000370: 56a7 cf40 2d50 fa40 2d2f b440 7218 8c40
00000380: 639f a940 f3b7 aa40 10b1 ed40 7d7c c840
00000390: 3b86 9840 1747 9340 c7af cc40 b1b7 6240
000003a0: 2d20 d540 6451 7240 fde7 c840 1fd0 a740
000003b0: 5c05 5540 2ae3 d540 8e8e d840 0ac9 ea40
000003c0: 7aae 7d40 d633 e440 3e9a e840 6c62 cb40
000003d0: 88a4 c240 73bd a740 662c af40 c98b 7140
000003e0: 6e2e d140 d6b8 ef40 8e50 b640 8371 7940
000003f0: ed7c 4540 3a10 8e40 7fa7 db40 e1d8 fb40
4.5371885 7.574712 3.3446755 3.1020555 5.356797 3.7399917 5.256033 5.5316367
6.984907 6.350745 5.2773724 6.8975554 7.267946 4.520982 3.0262918 3.4126577
4.2571163 4.414888 7.0066586 3.574335 7.409608 4.6572657 3.0515327 7.6258855
3.3150775 7.300241 3.586811 3.5129004 6.2016034 5.289572 4.761489 4.926589
5.817418 7.190302 7.252586 5.324335 6.81256 7.631272 5.3553123 5.61012
5.3794317 4.3873115 3.2128325 3.985815 3.8677766 4.1720676 5.332473 6.898221
4.760052 4.520959 5.616844 6.8585305 3.172249 3.3445747 4.657815 5.0197425
4.844495 4.1163588 5.4657583 3.153448 7.657458 3.0827506 4.6176987 3.90211
4.512146 4.265802 4.2492614 5.9364376 6.021692 3.473708 5.036559 4.3834476
4.5811176 7.388215 6.7594585 4.025214 5.4176826 5.984959 5.2486954 3.5038033
6.7018375 6.416709 5.6481566 5.098038 5.860209 4.685489 4.367775 7.0983386
6.906213 4.0190377 6.5903926 3.6899586 7.5099382 7.0750985 6.6209335 3.5138803
5.5698957 3.570287 3.873728 4.7560444 4.24564 4.8878856 6.4666724 7.111534
4.115814 3.4668126 3.1107488 6.2450852 3.93265 3.8012323 7.93202 3.168404
6.048409 5.583497 3.960608 3.11104 7.75423 4.924449 6.3306684 5.767845
4.2765007 3.089396 4.962123 6.290654 4.774332 4.189871 4.665414 6.463045
5.816454 3.0452857 7.4063206 4.962187 5.4519143 5.5420904 3.7594156 7.657936
5.732282 6.837953 6.6024733 5.970074 5.9804935 4.8597994 4.557233 4.452679
3.5421631 7.2320423 5.268155 5.634587 3.7429812 7.0812297 6.6425905 6.150251
6.3508253 4.862751 4.9273314 3.0082488 4.2566347 3.2969775 5.583617 3.645043
4.866011 7.64835 4.7061 6.689418 5.659669 3.6005523 7.5111933 4.171643
3.8029094 5.8209968 6.6150312 7.1066885 7.800597 3.2442355 5.321844 7.904865
7.1196265 7.7736893 6.1557655 3.7665462 4.683836 5.3109717 3.6392515 7.323774
4.391206 4.790992 6.240958 7.3057246 7.6565313 4.5839834 4.82901 7.414201
5.9323845 4.397541 7.0960894 3.0991082 7.1775312 5.412572 5.0642467 4.621191
7.431437 6.3454747 5.6958656 7.580175 6.154624 6.9656205 7.43865 7.3221955
5.7859173 7.278794 4.3552356 5.1196756 5.398454 4.1606956 4.5602903 5.3405886
4.8663845 4.855251 7.91952 4.5544744 6.4891768 7.822287 5.630759 4.377984
5.3007064 5.3349547 7.427864 6.2651963 4.7663856 4.602428 6.396457 3.5424616
6.6601777 3.7862177 6.278319 5.2441554 3.328452 6.68398 6.7674017 7.337041
3.9637742 7.1313276 7.2688284 6.3557644 6.0825844 5.241876 5.4741697 3.7741568
6.5369177 7.491313 5.6973333 3.8975532 3.0857499 4.439481 6.8641963 7.8702245

model.rnn_cell.mu f4 [16, 16]
00000000: bdd3 1e3f 9681 2b3f 68e5 ae3e 1839 173f
00000010: c49a 3f3f 46ff 103f b411 003f 16a4 193f
00000020: 6006 d33e 05df 343f 1f7a 353f d67a b63e
00000030: 35ac 473f e584 d03e 50af 1a3f c101 433f
00000040: e670 2d3f 894e f43e a231 3f3f bb22 133f
00000050: e704 163f 4e2b 4a3f 9ffb de3e 3a21 9f3e
00000060: c241 193f 618d a73e e263 3f3f 713c 4c3f
00000070: 5fed 023f 0de1 133f 5001 0d3f f56b e13e
00000080: 6de7 3c3f ea9e 293f f33b ee3e f475 213f
00000090: f1a5 cf3e 2b20 dd3e 547b 363f 4051 303f
000000a0: 5e53 d03e e04a 163f e035 2a3f eed8 ee3e
000000b0: a096 453f d1ff f43e 46a9 423f be3d c43e
000000c0: ee89 2b3f 7dc5 eb3e b23d 4a3f 9ef3 323f
000000d0: dc6b 033f a805 f33e 5b11 3e3f 6943 333f
000000e0: ce43 1d3f 4651 ff3e 5eee 0f3f a2f4 123f
000000f0: 6b23 ae3e 20f1 2c3f 42e4 493f f820 0f3f
00000100: f360 b23e 563b 493f 27c9 2e3f 8c58 1c3f
00000110: 78b3 a23e a826 1f3f 037f ea3e 8180 cc3e
00000120: 40be 2f3f b366 bc3e 7711 e73e 5b41 c63e
00000130: 2b42 e63e b98b 393f 98b0 4c3f 1ccd e53e
00000140: acfb 303f 7cab 493f 9769 403f e3bb a93e
00000150: def6 2e3f 8a3d 123f 049d 443f 762d a63e
00000160: 5a97 363f 910d ca3e d60a 4c3f 477a 143f
00000170: be54 0e3f 7c9e b53e 3ca5 203f 9ed0 cc3e
00000180: 57f5 ed3e ec7d 243f dba4 b83e a704 163f
00000190: 7e54 b13e 121f fe3e 3bbc b43e f5ae fa3e
000001a0: c71e 193f 8cb8 3a3f d6bb b93e 347b 043f
000001b0: a82c 1a3f 4ee1 0c3f e487 f33e 21ae f13e
000001c0: f8c7 933e b81d 4b3f e8e2 403f 5cb6 203f
000001d0: d828 5c3f 8c95 2b3f 1bd5 d23e 6c22 2b3f
000001e0: b702 323f 13aa b93e f023 1e3f 01cc e53e
000001f0: b3f2 493f aa99 263f e2c5 123f 35fa be3e
00000200: a6b0 3b3f 42b7 b53e cf0a 353f 7d43 813e
00000210: c4e7 3e3f 894d eb3e d40c 033f 9dc2 f73e
00000220: 3688 e73e fa94 fa3e 06c7 be3e 16a5 1e3f
00000230: b8c4 0a3f 9b29 e43e 3f8e 9c3e 90be bb3e
00000240: 149c 3b3f d65c 333f 3614 1f3f e3bd 563e
00000250: 8361 483e 7f1c cb3e 97c5 bb3e 142d 2a3f
00000260: c88e 903f 3601 2b3f 0e08 ab3e f8e5 293f
00000270: 79ee d83e 5955 263f f834 353f 1fe1 b73e
00000280: a886 203f 9cee 0e3f 61e8 2e3f baa8 b13e
00000290: 68b6 0c3f ffb2 f83e fe8a f73e c970 e63d
000002a0: 4e5e 063f 681f 2c3e 9e9a 023f d698 ce3e
000002b0: 6c7f 173f 6efd 453f 42b4 223f ce12 0c3f
000002c0: 13e0 d23e 3891 393f 3e0e a83e ac15 2f3f
000002d0: 346b 2c3f 7ea6 083f e36e 473f 12a1 b23e
000002e0: ffa6 903e 8d4c bc3e 91c5 fd3e f8d5 ca3e
000002f0: e7ef e73e b670 273f ae50 2f3f 22e0 d73e
00000300: cc32 a33e 3bf7 253f 1778 cc3e 1033 a13e
00000310: b5f2 f13e 9a00 373f 9911 de3e f2c1 0b3f
00000320: 1368 b53e 26eb 723e 37d3 e43e d338 cb3e
00000330: b1c6 c23e dc0c 013f 2fc0 d03e 1de6 ce3e
00000340: ceee 093f 0dda cd3e fb0f e93e 72e9 423f
00000350: 924a da3e 8ab5 433f 8014 073f e1df 6c3f
00000360: f896 653f 3563 4c3f ed39 493f 1210 a73e
00000370: eeca d03e 770e 9c3e fe47 a53e a88c 063f
00000380: 21c5 183f 2f5f 183f 2966 cd3e 0832 423f
00000390: 9665 183f 392a 253f 2b0c 963e 9eb4 d53e
000003a0: 1811 b13e 6b84 213f ac7b c13e 5d1e ec3e
000003b0: 7768 f53e dffe b83e 97d5 323f cdfe 1a3f
000003c0: 9c52 263f 288d 393f 0af7 123f 78a6 b43e
000003d0: ebe7 bd3e 1964 b93e 11bb 413f c1f0 393f
000003e0: 9fd3 283d af92 e53e 9455 d43e e2b4 df3e
000003f0: 6ad3 453f 9082 0e3f d663 f03e 8e30 d53e
0.62041837 0.6699461 0.34159398 0.59071493 0.7484553 0.56639516 0.5002701 0.60016
0.412158 0.706528 0.70889467 0.3564059 0.7799714 0.4072639 0.60423756 0.7617455
0.67750394 0.47716168 0.7468511 0.5747487 0.5860123 0.7897233 0.43551347 0.31080037
0.59865963 0.3272505 0.74761784 0.79779726 0.5114345 0.57765275 0.5508013 0.44027677
0.7379063 0.6625811 0.46530113 0.6307061 0.4055629 0.43188605 0.71281934 0.6887398
0.40688604 0.58708 0.66488457 0.4664988 0.7718296 0.47851422 0.7603954 0.38328356
0.6700734 0.4604911 0.7900039 0.6990298 0.51336455 0.47465253 0.7424523 0.70024735
0.61431587 0.49866694 0.56223094 0.5740453 0.34011397 0.6755543 0.7886392 0.5590968
0.3483959 0.78606164 0.68275684 0.6107261 0.3177755 0.6216836 0.45800027 0.3994179
0.68649673 0.36797103 0.45130512 0.38721737 0.44972357 0.72478825 0.7995696 0.4488305
0.6913402 0.7877729 0.7516112 0.3315116 0.6834544 0.5712515 0.76802087 0.3245656
0.71324694 0.39463475 0.79704034 0.5799908 0.55598056 0.35472476 0.6275213 0.40002912
0.46476242 0.6425464 0.36063275 0.5860085 0.34634775 0.4963308 0.35299858 0.48961607
0.5981259 0.72937846 0.3627612 0.51750493 0.6022439 0.5503129 0.47564614 0.47203162
0.28863502 0.7934222 0.7534623 0.6277826 0.8599982 0.67025065 0.41178212 0.668494
0.6953539 0.3626257 0.61773586 0.44882205 0.78885955 0.6507822 0.57333195 0.37300268
0.7331642 0.35491377 0.7071962 0.25246802 0.74572396 0.45957592 0.5119145 0.48390666
0.45221108 0.48941785 0.37261218 0.6197065 0.5420642 0.44562992 0.30577275 0.36668825
0.7328503 0.7006353 0.62140214 0.20970874 0.19568448 0.39670178 0.36674187 0.66475034
1.1293573 0.6679872 0.33404583 0.6636653 0.4236944 0.6497398 0.7078395 0.3591394
0.6270547 0.5583284 0.6832333 0.3469904 0.5496583 0.48574063 0.4834823 0.11251981
0.5248765 0.16808856 0.5101718 0.4035098 0.59178805 0.7733983 0.635563 0.54716194
0.4118658 0.7248721 0.32823366 0.68392444 0.6735108 0.53379047 0.77903575 0.34888512
0.28252408 0.36777154 0.49564794 0.3961637 0.45300218 0.6540636 0.6848248 0.42163187
0.31874692 0.6483037 0.3993537 0.3148427 0.47255483 0.7148529 0.433728 0.5459281
0.35430965 0.23722515 0.44692394 0.3969179 0.38042215 0.50410247 0.40771624 0.40409938
0.5388001 0.40205422 0.45520005 0.7613746 0.42635018 0.7644888 0.52765656 0.9252911
0.89683485 0.7983888 0.7860401 0.32629448 0.40779823 0.30479786 0.32281488 0.52558374
0.59675795 0.5952024 0.40117005 0.7585759 0.5953001 0.6451755 0.29306158 0.41739362
0.34583354 0.6309268 0.37789667 0.46116915 0.47931263 0.3613195 0.6985716 0.60545045
0.649698 0.7248101 0.574082 0.35283256 0.37091002 0.3620918 0.75676066 0.72632986
0.041217443 0.44838473 0.4147154 0.4369269 0.7727572 0.5566797 0.4695117 0.41638607

model.rnn_cell.w f4 [16, 16]
00000000: ed81 d83d 2274 7f3e 7130 583f 9dfb 543f
00000010: e506 503e 60d6 013f f781 d83e bc22 333f
00000020: 1dd7 bf3e d4c6 0b3f 9fb6 0d3f edcf 363f
00000030: 753b 133d e4c6 493f 6874 483f fff9 d63e
00000040: 565a 5b3f 019e 563f 48f3 883e 8a6a 9d3d
00000050: 230e 303c 2f85 483f c3ef 5c3e 84ba 653f
00000060: c095 553f 1b5e fa3e 278b 003f 27dc 8d3e
00000070: 78c5 fe3e 8e68 f93e 9877 3a3e d481 4b3f
00000080: fb4f 0d3f fb30 573e 5fc1 b93d 33a3 473f
00000090: 2add da3e 9b11 773f f627 d43e 9258 7e3d
000000a0: 2409 183f 41f2 7a3d 82c5 b23e c374 403e
000000b0: 8b63 fd3e 9db8 c13e f10a 263f a4d7 cb3d
000000c0: ab43 253f f8db 613e 1b8e 9f3e bd11 ef3d
000000d0: 670f 383f 9113 ab3e 0cee eb3b 0fb6 f63e
000000e0: fe7e a23e 8efd 763f 1d47 463e 2cc7 f13c
000000f0: e6c7 ae3e aef9 653e 6781 7c3f c299 693f
00000100: d51b 333f 14b8 fd3d 249d a83e 7dd4 563f
00000110: 2bfd 7f3f 8f05 403e b094 063e d026 f43c
00000120: c4df fa3e b3e4 af3e 9106 493f 904b 4a3f
00000130: a58e 3a3f 2ca1 1f3e 7caa 453f a87d 553f
00000140: 3673 633f 0b7e c73e 46c4 753c 8c6e 703e
00000150: ad0a a03d 8355 013f 2058 bc3e b519 4d3e
00000160: 91d2 a63d 721b 6d3e a480 3b3f 7103 2c3f
00000170: bb5a ab3e 517c 2b3f df6e 8c3e 0814 4c3e
00000180: 73b1 013f 383d e53e f9bb be3e 46c3 923e
00000190: 6f44 203e 87f9 d03e 65f4 6b3f d95f 1f3f
000001a0: 493c d03e 2e3e 883e 1695 cb3e 8b97 923e
000001b0: fc07 423f c562 e33e 5e29 043e 16ef 1f3f
000001c0: 15df 3c3f 53f1 523f d98d 913e a096 4b3f
000001d0: 036e dbbd 08a2 813e 6390 3b3f 1e85 2e3f
000001e0: 07eb 873e 5148 e23e 23a5 503f 5c80 583f
000001f0: b5c5 913e 26c6 453e ebf0 b33e 3a5e bb3e
00000200: 136a 453f 365f 083e 7000 063f a7f4 a13f
00000210: a400 143f a1a6 883d 5605 133f 293f be3e
00000220: d212 3b3f 12ac 573f 2449 8f3e 5279 463f
00000230: b181 ce3e 344a bf3d a560 203f adc9 3c3f
00000240: d747 343f 167c 7d3e c6c0 483e e420 aa3f
00000250: 38b8 143f 4c8e b73e 6405 173f 412f 963e
00000260: d5de da3e cc39 d13e 50f3 7f3f 6dee 153e
00000270: 5169 6d3f bc5a 9a3e d377 743e 5d65 803e
00000280: 745e ed3e 4350 383f e275 753f 58de 703f
00000290: 7254 703e dc69 2c3f 477b 503f dca6 9e3e
000002a0: 4496 a23e c521 043f 0950 d83e 98f5 b23e
000002b0: 6319 423e db20 023f 05a2 4e3e f28a 793f
000002c0: b1ed fc3b f537 d53d 4c4a 513f b854 363f
000002d0: 470f 5e3f bdce ab3e b44c 6b3d 5f79 113f
000002e0: 8e8b 8f3f 24de 0d3f a6c7 763f 451a e33e
000002f0: 7c30 df3e 5e43 ff3e 814c 3b3f 57f5 e23e
00000300: d4f6 693e 2027 583e 27a2 223f defb b13e
00000310: 6d53 8a3e 69a8 1d3d 2b79 503f 3ef7 263f
00000320: 9a6e df3e ef46 923f 2482 0c3f c96a 8f3e
00000330: 9ba2 1d3d c738 393f 38bb dc3d 8c9b 013f
00000340: 7cfb 783f bb0d 283f fa84 573f 684f 763f
00000350: b711 703e 58f8 113d eff6 243f a09c fa3e
00000360: e2fc 51bc 6815 983d ac91 ae3e 4e8a 103f
00000370: 5dc4 e13e 9f54 523f 595d fd3e 9ef2 9e3e
00000380: 282e 593f a008 763e 3196 613d a0c4 583f
00000390: 3e88 653d 9f09 ec3e 9978 653e 8fab 913f
000003a0: 418f d73e 4dbf fc3e d1ec 113f 51e9 6c3f
000003b0: 7c26 973e 620e 383e 01c6 343f 7a10 2b3d
000003c0: f17f 3b3f 369c 4b3f 90b8 963e bcc7 7c3f
000003d0: 254d 493f 7bc5 063e 475d 923d 14fc 393f
000003e0: e052 403f ea1c bf3e 3b16 0e3e 37be fc3e
000003f0: dbf1 903e da34 193f d828 8e3e b6c9 d23e
0.105716564 0.24946645 0.84448916 0.8319643 0.2031513 0.50717735 0.42286655 0.69974875
0.37468806 0.5460026 0.5535678 0.7141102 0.035945375 0.7881911 0.7830262 0.41987607
0.85684717 0.83834845 0.2674811 0.07686336 0.010745558 0.7832822 0.21575837 0.89737725
0.83431625 0.48899922 0.5021233 0.27707025 0.49760032 0.4871258 0.18209684 0.79494977
0.55200166 0.21014778 0.09070086 0.779834 0.4274686 0.9651124 0.41436738 0.062096186
0.5938895 0.061266188 0.34916312 0.18794541 0.49490008 0.3783616 0.64860445 0.099532396
0.6455638 0.22056568 0.31163105 0.11673305 0.718985 0.33413365 0.0072000083 0.48185775
0.31737512 0.96480644 0.19363065 0.029513918 0.34136885 0.22458526 0.9863495 0.9125024
0.69964343 0.12388626 0.3293239 0.8391798 0.9999568 0.1875212 0.13142657 0.029803663
0.48998845 0.3435417 0.78525645 0.7902155 0.7287391 0.15588826 0.77213264 0.8339486
0.8884767 0.3896335 0.0150004085 0.2347967 0.07814536 0.50521106 0.36785984 0.20029338
0.08145631 0.23155001 0.73243165 0.6719275 0.3346766 0.66986567 0.27428338 0.19929516
0.5066139 0.4477327 0.37252787 0.28664607 0.15651105 0.40815374 0.9216979 0.62255627
0.40670994 0.2660994 0.3976218 0.28631243 0.75793433 0.44411293 0.12906405 0.6247419
0.73777896 0.8239948 0.28428534 0.7952671 -0.107143424 0.25318933 0.7326719 0.6817187
0.265465 0.44195798 0.8150198 0.8457086 0.2847115 0.19313869 0.35144743 0.36595327
0.7711498 0.1331757 0.5234442 1.2652787 0.5781348 0.06672407 0.57430017 0.37157562
0.7307559 0.84246933 0.2798549 0.7752887 0.40333322 0.09340325 0.6264747 0.7374523
0.7042212 0.24754366 0.19604787 1.3291287 0.58093596 0.3585075 0.589926 0.29332927
0.42748132 0.40864408 0.9998064 0.14641733 0.92738825 0.3014735 0.23873834 0.25077334
0.46361125 0.7199747 0.95883 0.9408927 0.23469713 0.6734903 0.81438106 0.3098668
0.3175527 0.5161403 0.42248562 0.34952998 0.18954997 0.50831383 0.20178993 0.9747764
0.0077187647 0.104110636 0.81753993 0.7122302 0.8674206 0.33556166 0.057446197 0.5682582
1.1214464 0.55417085 0.9639839 0.4435598 0.43591678 0.49856085 0.7316361 0.44327804
0.22848064 0.21108675 0.63528675 0.34762472 0.27016774 0.038490687 0.8143489 0.6522101
0.4363907 1.1427897 0.5488608 0.28011158 0.03848515 0.7235226 0.10777897 0.5062797
0.97258735 0.6564595 0.8418728 0.96214914 0.23444258 0.03563723 0.6443929 0.4894762
-0.01281664 0.07425958 0.34095514 0.56461036 0.44095126 0.8216037 0.4948528 0.31044477
0.84836054 0.24026728 0.055074874 0.84675026 0.056038134 0.4610109 0.22409286 1.138048
0.42101482 0.493647 0.5700198 0.9254351 0.2952155 0.17974237 0.7061463 0.04176376
0.732421 0.79535234 0.29437685 0.9874227 0.7863334 0.1316127 0.071466975 0.72650266
0.7512646 0.37326747 0.13875668 0.49363872 0.2830952 0.5984627 0.27765536 0.41169518

model.rnn_cell.erev f4 [16, 16]
00000000: 0000 0000 0000 0000 0000 0000 0000 0000
00000010: 0000 0000 0000 0000 0000 0000 0000 0000
00000020: 0000 0000 0000 0000 0000 0000 0000 0000
00000030: 0000 0000 0000 0000 0000 0000 0000 0000
00000040: 0000 0000 0000 0000 0000 0000 0000 0000
00000050: 0000 0000 0000 0000 0000 0000 0000 0000
00000060: 0000 0000 0000 0000 0000 0000 0000 0000
00000070: 0000 0000 0000 0000 0000 0000 0000 0000
00000080: 0000 0000 0000 0000 0000 0000 0000 0000
00000090: 0000 0000 0000 0000 0000 0000 0000 0000
000000a0: 0000 0000 0000 0000 0000 0000 0000 0000
000000b0: 0000 0000 0000 0000 0000 0000 0000 0000
000000c0: 0000 0000 0000 0000 0000 0000 0000 0000
000000d0: 0000 0000 0000 0000 0000 0000 0000 0000
000000e0: 0000 0000 0000 0000 0000 0000 0000 0000
000000f0: 0000 0000 0000 0000 0000 0000 0000 0000
00000100: 0000 0000 0000 0000 0000 0000 0000 0000
00000110: 0000 0000 0000 0000 0000 0000 0000 0000
00000120: 0000 0000 0000 0000 0000 0000 0000 0000
00000130: 0000 0000 0000 0000 0000 0000 0000 0000
00000140: 0000 0000 0000 0000 0000 0000 0000 0000
00000150: 0000 0000 0000 0000 0000 0000 0000 0000
00000160: 0000 0000 0000 0000 0000 0000 0000 0000
00000170: 0000 0000 0000 0000 0000 0000 0000 0000
00000180: 0000 0000 1ef7 873f 0000 0000 0000 0000
00000190: 0000 0000 ae25 603f 0000 0000 0000 0000
000001a0: 0000 0000 0000 0000 0000 0000 0000 0000
000001b0: 0000 0000 0000 0000 0000 0000 0000 0000
000001c0: 295f 88bf 0000 0000 0000 0000 0000 0000
000001d0: 946b 33bf 0000 0000 0000 0000 0000 0000
000001e0: 0000 0000 d68f ae3f 0000 0000 0000 0000
000001f0: 0000 0000 0000 0000 0000 0000 0000 0000
00000200: 0000 0000 0000 0000 f23a 27bf cd3a b13f
00000210: 0000 0000 a6c7 623f 7650 653f 0000 0000
00000220: 0000 0000 0000 0000 0000 0000 0000 0000
00000230: 0000 0000 0000 0000 0000 0000 0000 0000
00000240: e5fa 7a3f db40 5cbf 4cf0 2cbf 7276 b13f
00000250: 8d0e b13f 0000 0000 0000 0000 0000 0000
00000260: 42cb 28bf 0000 0000 0000 0000 0000 0000
00000270: 0000 0000 0000 0000 0000 0000 0000 0000
00000280: 0000 0000 0000 0000 0000 0000 0000 0000
00000290: 0000 0000 0000 0000 0000 0000 d5ee 963f
000002a0: 0000 0000 d04f af3f 0000 0000 0000 0000
000002b0: 0000 0000 0000 0000 0000 0000 0000 0000
000002c0: 0000 0000 0000 0000 0000 0000 0000 0000
000002d0: 0000 0000 0000 0000 0000 0000 0000 0000
000002e0: 6292 ad3f 60d4 ad3f 0000 0000 0000 0000
000002f0: 0000 0000 0000 0000 0000 0000 0000 0000
00000300: 0000 0000 0000 0000 0000 0000 0000 0000
00000310: 0000 0000 0000 0000 0000 0000 97db 4cbf
00000320: 0000 0000 59ea af3f 0000 0000 0000 0000
00000330: 0000 0000 0000 0000 0000 0000 0000 0000
00000340: 0000 0000 0000 0000 0000 0000 0000 0000
00000350: 0000 0000 0000 0000 0000 0000 5f12 4bbf
00000360: 7d07 36bf 0000 0000 0000 0000 0000 0000
00000370: 0000 0000 0000 0000 0000 0000 0000 0000
00000380: 0000 0000 0000 0000 0000 0000 0000 0000
00000390: 0000 0000 0000 0000 148a 93bf 0029 9a3f
000003a0: 0000 0000 0000 0000 0000 0000 0000 0000
000003b0: 0000 0000 0000 0000 0000 0000 0000 0000
000003c0: 0000 0000 0000 0000 0000 0000 0000 0000
000003d0: 0000 0000 0000 0000 0000 0000 af45 4bbf
000003e0: d137 b03f 0000 0000 0000 0000 0000 0000
000003f0: 0000 0000 0000 0000 0000 0000 0000 0000
0.0 0.0 0.0 0.0 0.0 0.0 0.0 0.0
0.0 0.0 0.0 0.0 0.0 0.0 0.0 0.0
0.0 0.0 0.0 0.0 0.0 0.0 0.0 0.0
0.0 0.0 0.0 0.0 0.0 0.0 0.0 0.0
0.0 0.0 0.0 0.0 0.0 0.0 0.0 0.0
0.0 0.0 0.0 0.0 0.0 0.0 0.0 0.0
0.0 0.0 0.0 0.0 0.0 0.0 0.0 0.0
0.0 0.0 0.0 0.0 0.0 0.0 0.0 0.0
0.0 0.0 0.0 0.0 0.0 0.0 0.0 0.0
0.0 0.0 0.0 0.0 0.0 0.0 0.0 0.0
0.0 0.0 0.0 0.0 0.0 0.0 0.0 0.0
0.0 0.0 0.0 0.0 0.0 0.0 0.0 0.0
0.0 1.0622289 0.0 0.0 0.0 0.87557495 0.0 0.0
0.0 0.0 0.0 0.0 0.0 0.0 0.0 0.0
-1.065404 0.0 0.0 0.0 -0.70086026 0.0 0.0 0.0
0.0 1.3637645 0.0 0.0 0.0 0.0 0.0 0.0
0.0 0.0 -0.6532432 1.384607 0.0 0.8858589 0.895759 0.0
0.0 0.0 0.0 0.0 0.0 0.0 0.0 0.0
0.98039085 -0.8603646 -0.67554164 1.3864272 1.3832566 0.0 0.0 0.0
-0.65935147 0.0 0.0 0.0 0.0 0.0 0.0 0.0
0.0 0.0 0.0 0.0 0.0 0.0 0.0 1.1791636
0.0 1.3696232 0.0 0.0 0.0 0.0 0.0 0.0
0.0 0.0 0.0 0.0 0.0 0.0 0.0 0.0
1.3560297 1.3580437 0.0 0.0 0.0 0.0 0.0 0.0
0.0 0.0 0.0 0.0 0.0 0.0 0.0 -0.8002257
0.0 1.3743392 0.0 0.0 0.0 0.0 0.0 0.0
0.0 0.0 0.0 0.0 0.0 0.0 0.0 -0.7932491
-0.71105176 0.0 0.0 0.0 0.0 0.0 0.0 0.0
0.0 0.0 0.0 0.0 0.0 0.0 -1.1526513 1.2043762
0.0 0.0 0.0 0.0 0.0 0.0 0.0 0.0
0.0 0.0 0.0 0.0 0.0 0.0 0.0 -0.79403204
1.3767034 0.0 0.0 0.0 0.0 0.0 0.0 0.0

model.rnn_cell.sensory_sigma f4 [4, 16]
00000000: dc71 a640 e683 7d40 de4e a740 68ef 8d40
00000010: 64fa b440 9c87 4340 2fd1 7740 3fa4 eb40
00000020: 21f8 f640 2c51 5c40 63b7 e740 3cf1 f340
00000030: e8a6 d440 9584 a940 4370 c040 b67c f540
00000040: f802 ac40 f28b dc40 bc89 4940 44ca c540
00000050: bf93 6e40 4b8b 4a40 35b7 f140 969d a440
00000060: cfec 8840 089c c740 f976 7a40 78f9 9440
00000070: 3cc7 8c40 639d c440 aa7e ac40 a2b6 6040
00000080: ceed d940 dd11 f940 c6df 8040 fba0 d740
00000090: 38cf 9540 54af 8e40 b1fa da40 bd8c 7440
000000a0: 9b15 9840 67d2 c240 e43e f540 ad22 8740
000000b0: e921 7140 b8ab fa40 4ad2 cb40 f10c 7040
000000c0: 5a5a d040 ac2e b240 697b e040 4fe6 6f40
000000d0: cb7f f240 4a01 b640 d040 9740 a226 7d40
000000e0: 2324 b040 00f6 6c40 7b79 ab40 8ee3 c240
000000f0: 929e df40 e2d7 c840 68f2 7940 df63 f240
5.201399 3.9611754 5.2283773 4.4354744 5.6555653 3.055152 3.8721426 7.3637996
7.717789 3.4424543 7.241136 7.6231976 6.6453743 5.2974343 6.013704 7.6714735
5.3753624 6.892083 3.1490316 6.1809406 3.7277677 3.1647518 7.553614 5.1442366
4.2789073 6.237797 3.9135115 4.6554527 4.3993206 6.1442122 5.390462 3.511147
6.810279 7.7834306 4.027316 6.738401 4.6815453 4.4589024 6.843102 3.82109
4.7526374 6.088184 7.663927 4.222983 3.7676947 7.8334618 6.36942 3.7507899
6.5110292 5.5681973 7.0150647 3.748432 7.5780997 5.6876574 4.7266617 3.955483
5.504411 3.7025146 5.358579 6.0902777 6.9881067 6.276353 3.9054203 7.5746913

model.rnn_cell.sensory_mu f4 [4, 16]
00000000: acd2 2a3f 0e82 f03e eb07 a73e bd30 3e3f
00000010: 5560 bc3e 1ed4 ac3e 6a43 bb3e 4e3c ea3e
00000020: 3a7b 393f 7521 2b3f 64cf 873d 306e 343f
00000030: b647 003f b298 dd3e ca1f 093f 5743 373f
00000040: b885 313f a613 133f fc5d 063f 2c27 103f
00000050: ffa7 fe3e cc36 2e3f 962d 233f 4bab e53e
00000060: 6f30 bb3e 06a3 443f 9767 9d3e 1e05 193f
00000070: 011b c53e 1aa4 493f 020b a93e 024c 243f
00000080: 8d4e 393f 6ee3 c73e 0282 023f 1e00 0b3f
00000090: 1efb 0e3f 6f06 e63e 5eaa 093f 4e8a 2c3f
000000a0: 72d4 3d3f 6018 b23e eb2e b13e 4837 123f
000000b0: e663 d03e 5c06 e83e aa3b c73e ee77 243f
000000c0: d672 a33e b966 f43e 7e87 b23e d402 d03e
000000d0: 6b3a ec3e cb9e c63e aad0 2c3f 700c b23e
000000e0: a310 b13e 1fec 353f 8835 993d 8f36 153f
000000f0: 84c4 183f a205 1e3f 5ba4 f93e 6b88 a33e
0.6672771 0.46974224 0.32623228 0.7429312 0.36792246 0.33755583 0.3657487 0.45749134
0.72453654 0.66847926 0.066313535 0.7048063 0.5010942 0.4328056 0.5356413 0.7158713
0.69344664 0.57451856 0.5248716 0.5630977 0.49737546 0.68052363 0.63741434 0.4485725
0.3656039 0.76811254 0.30743095 0.59773433 0.38497165 0.78766024 0.3301621 0.6417848
0.72385484 0.39040703 0.50979626 0.54297054 0.55851924 0.44926783 0.53775585 0.67398536
0.7415229 0.34784222 0.34606108 0.571156 0.40701216 0.45317352 0.38912708 0.642455
0.3192355 0.4773462 0.34868997 0.40627158 0.4613832 0.38793024 0.67505896 0.34775114
0.34583005 0.7106342 0.074809134 0.58286375 0.5967486 0.61727345 0.48758206 0.31940016

model.rnn_cell.sensory_w f4 [4, 16]
00000000: 1ce1 553f 0a09 313f 0c07 5f3f 8bc0 7a3e
00000010: a4a8 653f 953d 6f3f 1a8a 5d3f d0c7 6e3e
00000020: 726d 673d 6e24 033f 0d1d 5a3f 4f98 183f
00000030: c5ed 383f 3892 3a3f 4c54 273f 5479 0b3f
00000040: 27ea df3d ad7a 083f e5c6 7b3f 0631 713f
00000050: 6e52 2c3f d579 1b3f 7d9d ed3c 828c 4d3f
00000060: 438b 7e3f 8cd7 6c3f afe3 c93e 1924 323f
00000070: 4156 153e d16d cd3e 5a3d 7e3e 7ac8 b6bd
00000080: 94ac 313f a546 793f 4512 153f fc55 f93c
00000090: 5772 3d3f b521 bf3e 2f98 643f 6939 2b3f
000000a0: 469a 063f 22db fd3e 7545 e73c 1857 963f
000000b0: c580 7d3f 17e9 f33e 386c 333e 4c52 d53e
000000c0: 7e5f 1e3f 7366 543f 1764 4d3f 2cbf 643f
000000d0: 7859 2b3e 550a 503f efae 223f e8df 653d
000000e0: f8d2 053f 88f1 7e3f d9a7 4f3f 946f 253f
000000f0: 2229 173f 2bf1 5a3f f8b0 05bd a53d 163f
0.83546615 0.6915442 0.8712013 0.24487512 0.8971045 0.9345334 0.8653885 0.2331841
0.05650086 0.5122746 0.8520058 0.59607404 0.7223781 0.7287936 0.65363 0.5448201
0.10933333 0.5331219 0.98350364 0.9421543 0.6731328 0.60732776 0.02900576 0.8029252
0.99431247 0.925164 0.3943152 0.6958633 0.14583685 0.40122846 0.24828091 -0.089249566
0.6940396 0.9737342 0.58231 0.030436508 0.74002594 0.37330404 0.89294714 0.66884476
0.5257915 0.49581248 0.028231362 1.1745329 0.9902461 0.4763877 0.17521751 0.4166435
0.6186446 0.82968825 0.8023085 0.89354205 0.16733348 0.81265765 0.6354818 0.056121737
0.5227504 0.995873 0.8111549 0.6462338 0.5904714 0.85524243 -0.032639474 0.5868781

model.rnn_cell.sensory_erev f4 [4, 16]
00000000: 0000 0000 0000 0000 0000 0000 0000 0000
00000010: 0000 0000 0000 0000 0000 0000 0000 0000
00000020: 0000 0000 0000 0000 33ef ac3f 0000 0000
00000030: 0000 0000 6547 a5bf 0000 0000 78bd 21bf
00000040: 0000 0000 0000 0000 0000 0000 0000 0000
00000050: 0000 0000 0000 0000 0000 0000 0000 0000
00000060: 0000 0000 0000 0000 fba9 26bf 0000 0000
00000070: f2e3 21bf 0000 0000 0000 0000 60cf 21bf
00000080: 0000 0000 0000 0000 0000 0000 0000 0000
00000090: 0000 0000 0000 0000 0000 0000 0000 0000
000000a0: 0000 0000 0000 0000 ffb0 26bf e980 ab3f
000000b0: 0000 0000 0000 0000 37a1 67bf 0000 0000
000000c0: 0000 0000 0000 0000 0000 0000 0000 0000
000000d0: 0000 0000 0000 0000 0000 0000 0000 0000
000000e0: 0000 0000 0000 0000 e2ac ac3f 0000 0000
000000f0: 0000 0000 0000 0000 2e08 6cbf ede8 ad3f
0.0 0.0 0.0 0.0 0.0 0.0 0.0 0.0
0.0 0.0 1.3510498 0.0 0.0 -1.2912413 0.0 -0.6317973
0.0 0.0 0.0 0.0 0.0 0.0 0.0 0.0
0.0 0.0 -0.6510312 0.0 -0.6323844 0.0 0.0 -0.63207054
0.0 0.0 0.0 0.0 0.0 0.0 0.0 0.0
0.0 0.0 -0.65113825 1.3398715 0.0 0.0 -0.9048037 0.0
0.0 0.0 0.0 0.0 0.0 0.0 0.0 0.0
0.0 0.0 1.349026 0.0 0.0 0.0 -0.9219998 1.3586708

model.rnn_cell.sparsity_mask f4 [16, 16]
00000000: 0000 0000 0000 0000 0000 0000 0000 0000
00000010: 0000 0000 0000 0000 0000 0000 0000 0000
00000020: 0000 0000 0000 0000 0000 0000 0000 0000
00000030: 0000 0000 0000 0000 0000 0000 0000 0000
00000040: 0000 0000 0000 0000 0000 0000 0000 0000
00000050: 0000 0000 0000 0000 0000 0000 0000 0000
00000060: 0000 0000 0000 0000 0000 0000 0000 0000
00000070: 0000 0000 0000 0000 0000 0000 0000 0000
00000080: 0000 0000 0000 0000 0000 0000 0000 0000
00000090: 0000 0000 0000 0000 0000 0000 0000 0000
000000a0: 0000 0000 0000 0000 0000 0000 0000 0000
000000b0: 0000 0000 0000 0000 0000 0000 0000 0000
000000c0: 0000 0000 0000 0000 0000 0000 0000 0000
000000d0: 0000 0000 0000 0000 0000 0000 0000 0000
000000e0: 0000 0000 0000 0000 0000 0000 0000 0000
000000f0: 0000 0000 0000 0000 0000 0000 0000 0000
00000100: 0000 0000 0000 0000 0000 0000 0000 0000
00000110: 0000 0000 0000 0000 0000 0000 0000 0000
00000120: 0000 0000 0000 0000 0000 0000 0000 0000
00000130: 0000 0000 0000 0000 0000 0000 0000 0000
00000140: 0000 0000 0000 0000 0000 0000 0000 0000
00000150: 0000 0000 0000 0000 0000 0000 0000 0000
00000160: 0000 0000 0000 0000 0000 0000 0000 0000
00000170: 0000 0000 0000 0000 0000 0000 0000 0000
00000180: 0000 0000 0000 803f 0000 0000 0000 0000
00000190: 0000 0000 0000 803f 0000 0000 0000 0000
000001a0: 0000 0000 0000 0000 0000 0000 0000 0000
000001b0: 0000 0000 0000 0000 0000 0000 0000 0000
000001c0: 0000 803f 0000 0000 0000 0000 0000 0000
000001d0: 0000 803f 0000 0000 0000 0000 0000 0000
000001e0: 0000 0000 0000 803f 0000 0000 0000 0000
000001f0: 0000 0000 0000 0000 0000 0000 0000 0000
00000200: 0000 0000 0000 0000 0000 803f 0000 803f
00000210: 0000 0000 0000 803f 0000 803f 0000 0000
00000220: 0000 0000 0000 0000 0000 0000 0000 0000
00000230: 0000 0000 0000 0000 0000 0000 0000 0000
00000240: 0000 803f 0000 803f 0000 803f 0000 803f
00000250: 0000 803f 0000 0000 0000 0000 0000 0000
00000260: 0000 803f 0000 0000 0000 0000 0000 0000
00000270: 0000 0000 0000 0000 0000 0000 0000 0000
00000280: 0000 0000 0000 0000 0000 0000 0000 0000
00000290: 0000 0000 0000 0000 0000 0000 0000 803f
000002a0: 0000 0000 0000 803f 0000 0000 0000 0000
000002b0: 0000 0000 0000 0000 0000 0000 0000 0000
000002c0: 0000 0000 0000 0000 0000 0000 0000 0000
000002d0: 0000 0000 0000 0000 0000 0000 0000 0000
000002e0: 0000 803f 0000 803f 0000 0000 0000 0000
000002f0: 0000 0000 0000 0000 0000 0000 0000 0000
00000300: 0000 0000 0000 0000 0000 0000 0000 0000
00000310: 0000 0000 0000 0000 0000 0000 0000 803f
00000320: 0000 0000 0000 803f 0000 0000 0000 0000
00000330: 0000 0000 0000 0000 0000 0000 0000 0000
00000340: 0000 0000 0000 0000 0000 0000 0000 0000
00000350: 0000 0000 0000 0000 0000 0000 0000 803f
00000360: 0000 803f 0000 0000 0000 0000 0000 0000
00000370: 0000 0000 0000 0000 0000 0000 0000 0000
00000380: 0000 0000 0000 0000 0000 0000 0000 0000
00000390: 0000 0000 0000 0000 0000 803f 0000 803f
000003a0: 0000 0000 0000 0000 0000 0000 0000 0000
000003b0: 0000 0000 0000 0000 0000 0000 0000 0000
000003c0: 0000 0000 0000 0000 0000 0000 0000 0000
000003d0: 0000 0000 0000 0000 0000 0000 0000 803f
000003e0: 0000 803f 0000 0000 0000 0000 0000 0000
000003f0: 0000 0000 0000 0000 0000 0000 0000 0000
0.0 0.0 0.0 0.0 0.0 0.0 0.0 0.0
0.0 0.0 0.0 0.0 0.0 0.0 0.0 0.0
0.0 0.0 0.0 0.0 0.0 0.0 0.0 0.0
0.0 0.0 0.0 0.0 0.0 0.0 0.0 0.0
0.0 0.0 0.0 0.0 0.0 0.0 0.0 0.0
0.0 0.0 0.0 0.0 0.0 0.0 0.0 0.0
0.0 0.0 0.0 0.0 0.0 0.0 0.0 0.0
0.0 0.0 0.0 0.0 0.0 0.0 0.0 0.0
0.0 0.0 0.0 0.0 0.0 0.0 0.0 0.0
0.0 0.0 0.0 0.0 0.0 0.0 0.0 0.0
0.0 0.0 0.0 0.0 0.0 0.0 0.0 0.0
0.0 0.0 0.0 0.0 0.0 0.0 0.0 0.0
0.0 1.0 0.0 0.0 0.0 1.0 0.0 0.0
0.0 0.0 0.0 0.0 0.0 0.0 0.0 0.0
1.0 0.0 0.0 0.0 1.0 0.0 0.0 0.0
0.0 1.0 0.0 0.0 0.0 0.0 0.0 0.0
0.0 0.0 1.0 1.0 0.0 1.0 1.0 0.0
0.0 0.0 0.0 0.0 0.0 0.0 0.0 0.0
1.0 1.0 1.0 1.0 1.0 0.0 0.0 0.0
1.0 0.0 0.0 0.0 0.0 0.0 0.0 0.0
0.0 0.0 0.0 0.0 0.0 0.0 0.0 1.0
0.0 1.0 0.0 0.0 0.0 0.0 0.0 0.0
0.0 0.0 0.0 0.0 0.0 0.0 0.0 0.0
1.0 1.0 0.0 0.0 0.0 0.0 0.0 0.0
0.0 0.0 0.0 0.0 0.0 0.0 0.0 1.0
0.0 1.0 0.0 0.0 0.0 0.0 0.0 0.0
0.0 0.0 0.0 0.0 0.0 0.0 0.0 1.0
1.0 0.0 0.0 0.0 0.0 0.0 0.0 0.0
0.0 0.0 0.0 0.0 0.0 0.0 1.0 1.0
0.0 0.0 0.0 0.0 0.0 0.0 0.0 0.0
0.0 0.0 0.0 0.0 0.0 0.0 0.0 1.0
1.0 0.0 0.0 0.0 0.0 0.0 0.0 0.0

model.rnn_cell.sensory_sparsity_mask f4 [4, 16]
00000000: 0000 0000 0000 0000 0000 0000 0000 0000
00000010: 0000 0000 0000 0000 0000 0000 0000 0000
00000020: 0000 0000 0000 0000 0000 803f 0000 0000
00000030: 0000 0000 0000 803f 0000 0000 0000 803f
00000040: 0000 0000 0000 0000 0000 0000 0000 0000
00000050: 0000 0000 0000 0000 0000 0000 0000 0000
00000060: 0000 0000 0000 0000 0000 803f 0000 0000
00000070: 0000 803f 0000 0000 0000 0000 0000 803f
00000080: 0000 0000 0000 0000 0000 0000 0000 0000
00000090: 0000 0000 0000 0000 0000 0000 0000 0000
000000a0: 0000 0000 0000 0000 0000 803f 0000 803f
000000b0: 0000 0000 0000 0000 0000 803f 0000 0000
000000c0: 0000 0000 0000 0000 0000 0000 0000 0000
000000d0: 0000 0000 0000 0000 0000 0000 0000 0000
000000e0: 0000 0000 0000 0000 0000 803f 0000 0000
000000f0: 0000 0000 0000 0000 0000 803f 0000 803f
0.0 0.0 0.0 0.0 0.0 0.0 0.0 0.0
0.0 0.0 1.0 0.0 0.0 1.0 0.0 1.0
0.0 0.0 0.0 0.0 0.0 0.0 0.0 0.0
0.0 0.0 1.0 0.0 1.0 0.0 0.0 1.0
0.0 0.0 0.0 0.0 0.0 0.0 0.0 0.0
0.0 0.0 1.0 1.0 0.0 0.0 1.0 0.0
0.0 0.0 0.0 0.0 0.0 0.0 0.0 0.0
0.0 0.0 1.0 0.0 0.0 0.0 1.0 1.0

model.rnn_cell.input_w f4 [4]
00000000: efaa 8e3f 0000 803f 0000 803f 796a a73f
1.1145915 1.0 1.0 1.3079368

model.rnn_cell.input_b f4 [4]
00000000: 5236 653e 0000 0000 0000 0000 dbd7 b53e
0.22384003 0.0 0.0 0.35516247

model.rnn_cell.output_w f4 [6]
00000000: 1377 8f3f d45c 573f da27 373f 379a b03f
00000010: 31ac b03f 56f0 603f
1.1208214 0.8412602 0.71545184 1.3797063 1.3802549 0.87866724

model.rnn_cell.output_b f4 [6]
00000000: a735 8fbb c98a ab3d d6cf a33e 9087 a53e
00000010: 4e4d a43e 4fd6 03be
-0.0043704095 0.083760805 0.31994504 0.32329988 0.3209023 -0.12874721

exp_avg f4 [16]
00000000: 8a4e 0835 0c25 b0b4 9154 f7ba 1f37 0e3d
00000010: eac0 f03b f237 72b7 d49e 2cb5 caf4 03b8
00000020: 2e5b 593b acac d33b 1a81 f8b7 1dd0 003b
00000030: 53aa 85ba 159c 08b6 5479 ee37 f969 6eba
5.077824e-07 -3.280951e-07 -0.0018869807 0.034720536 0.007347216 -1.443735e-05 -6.430612e-07 -3.146081e-05
0.003316592 0.006459793 -2.9624021e-05 0.0019655295 -0.0010197855 -2.035643e-06 2.8428309e-05 -0.00090947706

exp_avg_sq f4 [16]
00000000: 911d 892a 57f0 562b c776 b333 5751 f737
00000010: fdfd 8e35 cf3a 982e 8062 5d2c 2bc5 2931
00000020: 516e 1e35 6c99 2936 1c96 bc2d e7c2 0435
00000030: 64ad 0833 db21 312b 4876 4d2e f615 e132
2.4356605e-13 7.636161e-13 8.3569425e-08 2.9482571e-05 1.0653745e-06 6.922606e-11 3.1460667e-12 2.4704814e-09
5.902012e-07 2.5272266e-06 2.1439787e-11 4.945745e-07 3.1822665e-08 6.2930016e-13 4.671666e-11 2.6203434e-08

exp_avg f4 [16]
00000000: 01e9 6d36 0d6b 7fb8 b02e d0bc 8376 59be
00000010: ad82 d3bd 20dd 3f39 b573 4737 a892 71ba
00000020: f441 3abd ae12 4ebd 5716 9cbb 48bc 9dbc
00000030: 3609 61bb e333 f838 5fd7 fb38 33a2 73bb
3.5451378e-06 -6.0896436e-05 -0.025412887 -0.21236615 -0.10327659 0.00018297555 1.1888264e-05 -0.0009215274
-0.045473054 -0.050310783 -0.0047634053 -0.019254819 -0.0034337766 0.00011835226 0.00012008729 -0.0037175536

exp_avg_sq f4 [16]
00000000: 8def 7d2f f18c bb30 9691 2f38 e1e7 433b
00000010: f307 013a b882 bb32 c0d2 6330 d21f ce34
00000020: d7d3 3d39 100b 6639 48b0 a635 ba4f 1338
00000030: bc1b d034 8700 8a31 aec4 ba30 eadf f034
2.3095321e-10 1.3646099e-09 4.185884e-05 0.002989285 0.0004922144 2.182911e-08 8.288161e-10 3.8393642e-07
0.00018103361 0.0002193863 1.2419268e-06 3.5121782e-05 3.8763199e-07 4.0163886e-09 1.3589181e-09 4.4866403e-07

exp_avg f4 [16]
00000000: dcf7 6035 9d73 78b6 104b 0cbb 4d89 ce3d
00000010: 085e 083d 456c 99b7 f1f7 6f34 acc1 c2b8
00000020: fec1 893c 5601 d33c 68d7 953a 40e0 2d3c
00000030: 0d97 ceb9 61d3 a538 1a0b 2437 ad5d ecb9
8.3807186e-07 -3.7022176e-06 -0.0021407045 0.10084782 0.0332928 -1.8289438e-05 2.234881e-07 -9.286715e-05
0.016816135 0.025757473 0.0011431994 0.010612547 -0.00039403923 7.9071855e-05 9.7777465e-06 -0.00045083222

exp_avg_sq f4 [16]
00000000: ccd8 ca29 d0a0 502c 8dbf 9c34 f112 a839
00000010: 6fa5 d337 221f ae2f 225c 7b2c da78 b931
00000020: bf98 3f37 2bae cf37 664f 3733 b5a1 0037
00000030: fa6d 5332 8b87 a730 6e69 aa2e 0a1e ae32
9.00821e-14 2.9647847e-12 2.9196636e-07 0.0003205757 2.5230196e-05 3.1672537e-10 3.572039e-12 5.397948e-09
1.1420051e-05 2.4757426e-05 4.268022e-08 7.667045e-06 1.2306822e-08 1.2189373e-09 7.749433e-11 2.0269926e-08

exp_avg f4 [16, 16]
00000000: 0000 0000 0000 0000 0000 0000 0000 0000
00000010: 0000 0000 0000 0000 0000 0000 0000 0000
00000020: 0000 0000 0000 0000 0000 0000 0000 0000
00000030: 0000 0000 0000 0000 0000 0000 0000 0000
00000040: 0000 0000 0000 0000 0000 0000 0000 0000
00000050: 0000 0000 0000 0000 0000 0000 0000 0000
00000060: 0000 0000 0000 0000 0000 0000 0000 0000
00000070: 0000 0000 0000 0000 0000 0000 0000 0000
00000080: 0000 0000 0000 0000 0000 0000 0000 0000
00000090: 0000 0000 0000 0000 0000 0000 0000 0000
000000a0: 0000 0000 0000 0000 0000 0000 0000 0000
000000b0: 0000 0000 0000 0000 0000 0000 0000 0000
000000c0: 0000 0000 0000 0000 0000 0000 0000 0000
000000d0: 0000 0000 0000 0000 0000 0000 0000 0000
000000e0: 0000 0000 0000 0000 0000 0000 0000 0000
000000f0: 0000 0000 0000 0000 0000 0000 0000 0000
00000100: 0000 0000 0000 0000 0000 0000 0000 0000
00000110: 0000 0000 0000 0000 0000 0000 0000 0000
00000120: 0000 0000 0000 0000 0000 0000 0000 0000
00000130: 0000 0000 0000 0000 0000 0000 0000 0000
00000140: 0000 0000 0000 0000 0000 0000 0000 0000
00000150: 0000 0000 0000 0000 0000 0000 0000 0000
00000160: 0000 0000 0000 0000 0000 0000 0000 0000
00000170: 0000 0000 0000 0000 0000 0000 0000 0000
00000180: 0000 0000 0cf0 7436 0000 0000 0000 0000
00000190: 0000 0000 5e58 c2b6 0000 0000 0000 0000
000001a0: 0000 0000 0000 0000 0000 0000 0000 0000
000001b0: 0000 0000 0000 0000 0000 0000 0000 0000
000001c0: 4729 ceb4 0000 0000 0000 0000 0000 0000
000001d0: 6c58 1cba 0000 0000 0000 0000 0000 0000
000001e0: 0000 0000 aa29 773b 0000 0000 0000 0000
000001f0: 0000 0000 0000 0000 0000 0000 0000 0000
00000200: 0000 0000 0000 0000 36fc 81b9 6dad c53a
00000210: 0000 0000 068c 04b6 31b5 57b5 0000 0000
00000220: 0000 0000 0000 0000 0000 0000 0000 0000
00000230: 0000 0000 0000 0000 0000 0000 0000 0000
00000240: 9242 9b34 3b7b cfb5 cf4a 7fb9 c12b a93a
00000250: 6110 4fba 0000 0000 0000 0000 0000 0000
00000260: f043 a4b9 0000 0000 0000 0000 0000 0000
00000270: 0000 0000 0000 0000 0000 0000 0000 0000
00000280: 0000 0000 0000 0000 0000 0000 0000 0000
00000290: 0000 0000 0000 0000 0000 0000 6312 0139
000002a0: 0000 0000 478f df3a 0000 0000 0000 0000
000002b0: 0000 0000 0000 0000 0000 0000 0000 0000
000002c0: 0000 0000 0000 0000 0000 0000 0000 0000
000002d0: 0000 0000 0000 0000 0000 0000 0000 0000
000002e0: 6083 8f3a 1304 d43a 0000 0000 0000 0000
000002f0: 0000 0000 0000 0000 0000 0000 0000 0000
00000300: 0000 0000 0000 0000 0000 0000 0000 0000
00000310: 0000 0000 0000 0000 0000 0000 a217 90b8
00000320: 0000 0000 52c7 073b 0000 0000 0000 0000
00000330: 0000 0000 0000 0000 0000 0000 0000 0000
00000340: 0000 0000 0000 0000 0000 0000 0000 0000
00000350: 0000 0000 0000 0000 0000 0000 8288 adb7
00000360: 6713 94b9 0000 0000 0000 0000 0000 0000
00000370: 0000 0000 0000 0000 0000 0000 0000 0000
00000380: 0000 0000 0000 0000 0000 0000 0000 0000
00000390: 0000 0000 0000 0000 b529 2a35 4c45 d038
000003a0: 0000 0000 0000 0000 0000 0000 0000 0000
000003b0: 0000 0000 0000 0000 0000 0000 0000 0000
000003c0: 0000 0000 0000 0000 0000 0000 0000 0000
000003d0: 0000 0000 0000 0000 0000 0000 5089 9bb8
000003e0: 41f5 913a 0000 0000 0000 0000 0000 0000
000003f0: 0000 0000 0000 0000 0000 0000 0000 0000
0.0 0.0 0.0 0.0 0.0 0.0 0.0 0.0
0.0 0.0 0.0 0.0 0.0 0.0 0.0 0.0
0.0 0.0 0.0 0.0 0.0 0.0 0.0 0.0
0.0 0.0 0.0 0.0 0.0 0.0 0.0 0.0
0.0 0.0 0.0 0.0 0.0 0.0 0.0 0.0
0.0 0.0 0.0 0.0 0.0 0.0 0.0 0.0
0.0 0.0 0.0 0.0 0.0 0.0 0.0 0.0
0.0 0.0 0.0 0.0 0.0 0.0 0.0 0.0
0.0 0.0 0.0 0.0 0.0 0.0 0.0 0.0
0.0 0.0 0.0 0.0 0.0 0.0 0.0 0.0
0.0 0.0 0.0 0.0 0.0 0.0 0.0 0.0
0.0 0.0 0.0 0.0 0.0 0.0 0.0 0.0
0.0 3.649856e-06 0.0 0.0 0.0 -5.791938e-06 0.0 0.0
0.0 0.0 0.0 0.0 0.0 0.0 0.0 0.0
-3.8400523e-07 0.0 0.0 0.0 -0.00059641036 0.0 0.0 0.0
0.0 0.0037714043 0.0 0.0 0.0 0.0 0.0 0.0
0.0 0.0 -0.0002479271 0.0015081592 0.0 -1.9751037e-06 -8.035741e-07 0.0
0.0 0.0 0.0 0.0 0.0 0.0 0.0 0.0
2.8919436e-07 -1.5458567e-06 -0.00024346563 0.0012906716 -0.0007898864 0.0 0.0 0.0
-0.00031331135 0.0 0.0 0.0 0.0 0.0 0.0 0.0
0.0 0.0 0.0 0.0 0.0 0.0 0.0 0.00012309248
0.0 0.001705625 0.0 0.0 0.0 0.0 0.0 0.0
0.0 0.0 0.0 0.0 0.0 0.0 0.0 0.0
0.0010949187 0.0016175531 0.0 0.0 0.0 0.0 0.0 0.0
0.0 0.0 0.0 0.0 0.0 0.0 0.0 -6.870857e-05
0.0 0.002071817 0.0 0.0 0.0 0.0 0.0 0.0
0.0 0.0 0.0 0.0 0.0 0.0 0.0 -2.0686773e-05
-0.00028243216 0.0 0.0 0.0 0.0 0.0 0.0 0.0
0.0 0.0 0.0 0.0 0.0 0.0 6.3390627e-07 9.9311204e-05
0.0 0.0 0.0 0.0 0.0 0.0 0.0 0.0
0.0 0.0 0.0 0.0 0.0 0.0 0.0 -7.4165524e-05
0.0011135713 0.0 0.0 0.0 0.0 0.0 0.0 0.0

exp_avg_sq f4 [16, 16]
00000000: 0000 0000 0000 0000 0000 0000 0000 0000
00000010: 0000 0000 0000 0000 0000 0000 0000 0000
00000020: 0000 0000 0000 0000 0000 0000 0000 0000
00000030: 0000 0000 0000 0000 0000 0000 0000 0000
00000040: 0000 0000 0000 0000 0000 0000 0000 0000
00000050: 0000 0000 0000 0000 0000 0000 0000 0000
00000060: 0000 0000 0000 0000 0000 0000 0000 0000
00000070: 0000 0000 0000 0000 0000 0000 0000 0000
00000080: 0000 0000 0000 0000 0000 0000 0000 0000
00000090: 0000 0000 0000 0000 0000 0000 0000 0000
000000a0: 0000 0000 0000 0000 0000 0000 0000 0000
000000b0: 0000 0000 0000 0000 0000 0000 0000 0000
000000c0: 0000 0000 0000 0000 0000 0000 0000 0000
000000d0: 0000 0000 0000 0000 0000 0000 0000 0000
000000e0: 0000 0000 0000 0000 0000 0000 0000 0000
000000f0: 0000 0000 0000 0000 0000 0000 0000 0000
00000100: 0000 0000 0000 0000 0000 0000 0000 0000
00000110: 0000 0000 0000 0000 0000 0000 0000 0000
00000120: 0000 0000 0000 0000 0000 0000 0000 0000
00000130: 0000 0000 0000 0000 0000 0000 0000 0000
00000140: 0000 0000 0000 0000 0000 0000 0000 0000
00000150: 0000 0000 0000 0000 0000 0000 0000 0000
00000160: 0000 0000 0000 0000 0000 0000 0000 0000
00000170: 0000 0000 0000 0000 0000 0000 0000 0000
00000180: 0000 0000 1cfe ae2c 0000 0000 0000 0000
00000190: 0000 0000 a150 342e 0000 0000 0000 0000
000001a0: 0000 0000 0000 0000 0000 0000 0000 0000
000001b0: 0000 0000 0000 0000 0000 0000 0000 0000
000001c0: 6229 de2a 0000 0000 0000 0000 0000 0000
000001d0: b940 4232 0000 0000 0000 0000 0000 0000
000001e0: 0000 0000 a53e 8b35 0000 0000 0000 0000
000001f0: 0000 0000 0000 0000 0000 0000 0000 0000
00000200: 0000 0000 0000 0000 6005 5b32 8488 b936
00000210: 0000 0000 47c8 ab2d d11a 972c 0000 0000
00000220: 0000 0000 0000 0000 0000 0000 0000 0000
00000230: 0000 0000 0000 0000 0000 0000 0000 0000
00000240: 509d 822b 5ada 022b 789e f132 8ba1 8a36
00000250: 9a61 7435 0000 0000 0000 0000 0000 0000
00000260: 8fde e031 0000 0000 0000 0000 0000 0000
00000270: 0000 0000 0000 0000 0000 0000 0000 0000
00000280: 0000 0000 0000 0000 0000 0000 0000 0000
00000290: 0000 0000 0000 0000 0000 0000 7e47 9b30
000002a0: 0000 0000 d9ab 8634 0000 0000 0000 0000
000002b0: 0000 0000 0000 0000 0000 0000 0000 0000
000002c0: 0000 0000 0000 0000 0000 0000 0000 0000
000002d0: 0000 0000 0000 0000 0000 0000 0000 0000
000002e0: 6fce 7b34 76a4 9b34 0000 0000 0000 0000
000002f0: 0000 0000 0000 0000 0000 0000 0000 0000
00000300: 0000 0000 0000 0000 0000 0000 0000 0000
00000310: 0000 0000 0000 0000 0000 0000 b2d0 1131
00000320: 0000 0000 aeec 4034 0000 0000 0000 0000
00000330: 0000 0000 0000 0000 0000 0000 0000 0000
00000340: 0000 0000 0000 0000 0000 0000 0000 0000
00000350: 0000 0000 0000 0000 0000 0000 9308 9a2e
00000360: 224f 6732 0000 0000 0000 0000 0000 0000
00000370: 0000 0000 0000 0000 0000 0000 0000 0000
00000380: 0000 0000 0000 0000 0000 0000 0000 0000
00000390: 0000 0000 0000 0000 68bd 352a 446b 7c31
000003a0: 0000 0000 0000 0000 0000 0000 0000 0000
000003b0: 0000 0000 0000 0000 0000 0000 0000 0000
000003c0: 0000 0000 0000 0000 0000 0000 0000 0000
000003d0: 0000 0000 0000 0000 0000 0000 f01a 3a31
000003e0: a414 b733 0000 0000 0000 0000 0000 0000
000003f0: 0000 0000 0000 0000 0000 0000 0000 0000
0.0 0.0 0.0 0.0 0.0 0.0 0.0 0.0
0.0 0.0 0.0 0.0 0.0 0.0 0.0 0.0
0.0 0.0 0.0 0.0 0.0 0.0 0.0 0.0
0.0 0.0 0.0 0.0 0.0 0.0 0.0 0.0
0.0 0.0 0.0 0.0 0.0 0.0 0.0 0.0
0.0 0.0 0.0 0.0 0.0 0.0 0.0 0.0
0.0 0.0 0.0 0.0 0.0 0.0 0.0 0.0
0.0 0.0 0.0 0.0 0.0 0.0 0.0 0.0
0.0 0.0 0.0 0.0 0.0 0.0 0.0 0.0
0.0 0.0 0.0 0.0 0.0 0.0 0.0 0.0
0.0 0.0 0.0 0.0 0.0 0.0 0.0 0.0
0.0 0.0 0.0 0.0 0.0 0.0 0.0 0.0
0.0 4.9735892e-12 0.0 0.0 0.0 4.0998874e-11 0.0 0.0
0.0 0.0 0.0 0.0 0.0 0.0 0.0 0.0
3.9463837e-13 0.0 0.0 0.0 1.13070024e-08 0.0 0.0 0.0
0.0 1.0374539e-06 0.0 0.0 0.0 0.0 0.0 0.0
0.0 0.0 1.27487e-08 5.529322e-06 0.0 1.952939e-11 4.2946553e-12 0.0
0.0 0.0 0.0 0.0 0.0 0.0 0.0 0.0
9.280719e-13 4.64883e-13 2.8128156e-08 4.1315266e-06 9.103911e-07 0.0 0.0 0.0
6.54456e-09 0.0 0.0 0.0 0.0 0.0 0.0 0.0
0.0 0.0 0.0 0.0 0.0 0.0 0.0 1.1298054e-09
0.0 2.508448e-07 0.0 0.0 0.0 0.0 0.0 0.0
0.0 0.0 0.0 0.0 0.0 0.0 0.0 0.0
2.3451297e-07 2.899066e-07 0.0 0.0 0.0 0.0 0.0 0.0
0.0 0.0 0.0 0.0 0.0 0.0 0.0 2.1218907e-09
0.0 1.7967497e-07 0.0 0.0 0.0 0.0 0.0 0.0
0.0 0.0 0.0 0.0 0.0 0.0 0.0 7.004632e-11
1.3463962e-08 0.0 0.0 0.0 0.0 0.0 0.0 0.0
0.0 0.0 0.0 0.0 0.0 0.0 1.6141743e-13 3.67318e-09
0.0 0.0 0.0 0.0 0.0 0.0 0.0 0.0
0.0 0.0 0.0 0.0 0.0 0.0 0.0 2.7081875e-09
8.525356e-08 0.0 0.0 0.0 0.0 0.0 0.0 0.0
