log/lightning_logs/version_4/checkpoints/epoch=99-step=100.ckpt (torch, 35929 bytes, 41 tensors)

model.rnn_cell.gleak f4 [16]
0.04064612 -0.06902754 0.47951594 0.6068046 0.8880075 0.032767195 0.33106816 0.5182506
-0.41083446 0.33917722 -0.29418498 0.52790606 0.150912 -0.1659397 -0.23046851 0.50746167
00000000: 8c7c 263d 505e 8dbd 1d83 f53e 8c57 1b3f
00000010: 7654 633f e536 063d c481 a93e 12ac 043f
00000020: e558 d2be a3a8 ad3e 6a9f 96be da24 073f
00000030: ad88 1a3e 19ec 29be f0ff 6bbe 02e9 013f

model.rnn_cell.vleak f4 [16]
0.15579113 0.15944684 0.09296031 -0.08680252 0.1152005 0.058088757 0.099484555 -0.19376485
-0.23513456 -0.02949419 -0.36421138 0.021445476 -0.012034018 -0.22808567 -0.231064 -0.23238778
00000000: b687 1f3e 0846 233e fa61 be3d 85c5 b1bd
00000010: 3dee eb3d 7aee 6d3d 8fbe cb3d 4b6a 46be
00000020: 1dc7 70be cd9d f1bc ea79 babe 6cae af3c
00000030: 542a 45bc 4a8f 69be 0b9c 6cbe 10f7 6dbe

model.rnn_cell.cm f4 [16]
1.4879124 1.6177562 -0.14950739 0.5706585 0.15059152 0.41772103 0.8191352 0.8452363
1.4956851 0.99092203 -0.28578457 -0.18533614 0.64665246 0.89962584 1.138696 0.4670241
00000000: ea73 be3f a312 cf3f 7718 19be ad16 123f
00000010: aa34 1a3e 88df d53e d8b2 513f 6861 583f
00000020: 9c72 bf3f 11ad 7d3f 5b52 92be c2c8 3dbe
00000030: 048b 253f e14d 663f cac0 913f c81d ef3e

model.rnn_cell.sigma f4 [16, 16]
4.760776 6.5445766 3.8602479 6.793876 7.6024885 5.019372 5.9238567 6.1294155
7.7979884 4.9789147 5.2957506 7.2871275 5.0391836 3.2380087 5.283226 4.197294
6.3145413 4.2508197 7.7484155 7.7173157 4.1709366 5.963053 4.183919 5.1216545
7.189009 3.7853322 6.863022 3.701089 6.7259483 3.2396712 7.991019 7.09566
6.8701186 4.660563 3.2554238 4.1227317 5.746692 4.6278167 5.999129 4.9854913
7.212701 6.957011 6.8500786 5.060355 6.1694765 7.4101267 5.9476285 4.501932
7.874917 5.4580173 6.4918494 7.821103 6.393182 7.0985827 6.233775 5.5351324
4.443897 5.9473367 4.3317494 4.006303 6.194155 4.8551173 3.8680727 3.6424773
5.5653076 8.040824 3.8669434 6.3619013 5.041704 4.656209 5.3166723 3.283568
3.2966979 3.605328 3.3925867 5.4133463 4.188798 3.1635826 3.672844 3.4576516
5.78929 7.706632 3.6486485 3.441066 4.738017 5.919225 7.4676623 6.3768277
3.8984447 4.4572983 7.8033924 7.4442053 4.61767 3.833673 7.9490232 5.8241835
4.9917455 7.655475 7.2870245 6.8156705 7.695874 4.859341 7.95692 4.3737073
7.0532503 4.8820677 6.4874735 4.080015 6.451702 7.848994 7.0402884 6.8124914
6.8039026 7.5243125 6.271773 5.368941 3.5415254 3.950761 7.50018 6.9235992
5.770804 5.930478 5.895861 6.609566 7.6633763 7.792445 6.0931044 3.1990151
6.08939 7.476052 6.298774 4.337681 3.7232087 3.3091648 4.599234 5.8639107
6.8406954 7.047499 5.5097947 5.790676 3.7500553 3.3971238 7.777891 6.0689116
7.7168093 5.1734743 4.167007 4.8440337 3.4745674 7.092788 6.0353765 7.927022
5.9554677 7.024508 5.847915 5.528057 5.2396927 6.621128 7.497703 6.073945
5.2319536 3.8586245 6.5209613 7.5194907 2.9212463 4.815331 7.9205723 4.5391574
5.7460384 5.6142664 7.892434 6.0858335 6.3581686 5.3329964 3.373583 6.2437677
7.870166 4.901822 3.2118826 3.9190438 3.3155506 6.778724 5.907181 5.098217
4.905757 7.8459263 3.0432441 5.4713583 5.313179 5.0790677 3.737027 4.5104413
5.657423 6.698559 7.728678 4.8465075 4.6792793 7.1606336 6.9553213 5.1003675
7.590432 6.5560856 6.390707 4.8133783 6.588233 3.9457495 4.8022013 6.6375685
3.923736 5.552824 4.224172 3.3626382 6.206682 5.609771 5.765684 3.9755826
3.0450773 7.88548 7.077772 7.983717 5.709818 6.436663 4.228981 7.746703
6.1977 7.8966913 6.3768716 7.6155343 3.6284595 6.0878587 7.332749 6.3931828
5.4168444 3.9201524 6.3126183 7.705708 4.4631004 7.04993 5.744422 5.4240637
7.9223385 6.8920245 4.7257624 6.1431756 7.393217 4.8039594 5.7544703 6.8204856
7.1879687 5.5769377 3.7129579 4.1659193 7.0673137 3.9795828 5.8796825 6.5211277
00000000: 4758 9840 2c6d d140 4d0e 7740 6f67 d940
00000010: 9647 f340 b29e a040 3c90 bd40 2c24 c440
00000020: 1f89 f940 4553 9f40 ca76 a940 2630 e940
00000030: fe40 a140 893b 4f40 3010 a940 3c50 8640
00000040: b910 ca40 b706 8840 05f3 f740 40f4 f640
00000050: 5078 8540 55d1 be40 aae2 8540 98e4 a340
00000060: 5d0c e640 e242 7240 e09d db40 a4de 6c40
00000070: f83a d740 c656 4f40 6db6 ff40 a60f e340
00000080: 03d8 db40 5523 9540 dd58 5040 6bed 8340
00000090: e7e4 b740 1317 9440 ddf8 bf40 2589 9f40
000000a0: 72ce e640 d69f de40 d833 db40 6eee a140
000000b0: 5a6c c540 c21f ed40 f952 be40 d40f 9040
000000c0: 52ff fb40 14a8 ae40 3bbd cf40 7a46 fa40
000000d0: f294 cc40 9727 e340 167b c740 ce1f b140
000000e0: 6734 8e40 9550 be40 b19d 8a40 a233 8040
000000f0: 8536 c640 1f5d 9b40 818e 7740 591e 6940
00000100: 0017 b240 37a7 0041 007c 7740 b294 cb40
00000110: a455 a140 aaff 9440 2e22 aa40 fa25 5240
00000120: 19fd 5240 b2bd 6640 2420 5940 223a ad40
00000130: a20a 8640 2378 4a40 e00f 6b40 2a4a 5d40
00000140: dd41 b940 bb9c f640 7583 6940 6d3a 5c40
00000150: d69d 9740 4b6a bd40 17f7 ee40 f90e cc40
00000160: 1e80 7940 30a2 8e40 64b5 f940 ee36 ee40
00000170: f4c3 9340 e65a 7540 665e fe40 b65f ba40
00000180: 61bc 9f40 a7f9 f440 4e2f e940 f919 da40
00000190: 9a44 f640 b97f 9b40 179f fe40 69f5 8b40
000001a0: 3ab4 e140 e639 9c40 6299 cf40 7c8f 8240
000001b0: 5874 ce40 f52a fb40 0b4a e140 eeff d940
000001c0: 92b9 d940 2bc7 f040 5db2 c840 5dce ab40
000001d0: 5aa8 6240 45d9 7c40 7901 f040 208e dd40
000001e0: 6daa b840 7ac6 bd40 e5aa bc40 9181 d340
000001f0: 613a f540 b65b f940 b6fa c240 aabc 4c40
00000200: 48dc c240 d13b ef40 8e8f c940 48ce 8a40
00000210: 0d49 6e40 5bc9 5340 ed2c 9340 28a5 bb40
00000220: fae6 da40 1d85 e140 3d50 b040 384d b940
00000230: e800 7040 7a6a 5940 7ce4 f840 8634 c240
00000240: 1af0 f640 1a8d a540 1f58 8540 5302 9b40
00000250: 505f 5e40 1ff8 e240 ce21 c140 2aaa fd40
00000260: 3193 be40 c5c8 e040 1f22 bb40 d8e5 b040
00000270: 90ab a740 48e0 d340 2fed ef40 c25d c240
00000280: 2a6c a740 b4f3 7640 b7ab d040 ab9f f040
00000290: b3f5 3a40 3117 9a40 5475 fd40 c740 9140
000002a0: 8cdf b740 12a8 b340 d28e fc40 26bf c240
000002b0: 1e76 cb40 e8a7 aa40 c9e8 5740 f2cc c740
000002c0: 66d8 fb40 badb 9c40 7c8f 4d40 9dd1 7a40
000002d0: fb31 5440 4feb d840 a007 bd40 9824 a340
000002e0: f6fb 9c40 d411 fb40 83c4 4240 5e15 af40
000002f0: 9005 aa40 b987 a240 732b 6f40 8955 9040
00000300: 9c09 b540 985a d640 5551 f740 9716 9b40
00000310: a8bc 9540 e923 e540 fe91 de40 3636 a340
00000320: d2e4 f240 74cb d140 ac80 cc40 3207 9a40
00000330: ced2 d240 2987 7c40 a2ab 9940 f666 d440
00000340: 7e1e 7b40 bcb0 b140 6b2c 8740 7735 5740
00000350: 249d c640 3e83 b340 7c80 b840 f26f 7e40
00000360: 8ce2 4240 da55 fc40 1c7d e240 9c7a ff40
00000370: d4b6 b640 25f9 cd40 d053 8740 fee4 f740
00000380: 8f53 c640 b2b1 fc40 550f cc40 75b2 f340
00000390: ae38 6840 bdcf c240 e1a5 ea40 f494 cc40
000003a0: ca56 ad40 c7e3 7a40 f800 ca40 2995 f640
000003b0: b8d1 8e40 0799 e140 4ed2 b740 ee91 ad40
000003c0: cc83 fd40 778b dc40 7239 9740 e594 c440
000003d0: 3c95 ec40 09ba 9940 9f24 b840 6b41 da40
000003e0: d703 e640 4676 b240 1aa1 6d40 364f 8540
000003f0: 6f27 e240 7cb1 7e40 5c26 bc40 14ad d040

model.rnn_cell.mu f4 [16, 16]
0.5780368 0.3530696 0.6410721 0.55606556 0.5233256 0.7293696 0.30788493 0.36887985
0.37423003 0.33036453 0.39060295 0.3690881 0.65917504 0.3149945 0.42212474 0.5995927
0.49584383 0.5529979 0.46603626 0.44453642 0.40868238 0.633096 0.45547074 0.79896903
0.71504074 0.6892924 0.46914142 0.4285761 0.35803273 0.42474428 0.7413557 0.32293707
0.5550433 0.34988376 0.3867917 0.6111621 0.40412706 0.5181043 0.6968895 0.7241074
0.64167094 0.7546215 0.6080562 0.4817288 0.54991627 0.7284486 0.4167756 0.30048952
0.5915046 0.66384864 0.79784673 0.43953696 0.60301036 0.796343 0.6789479 0.43301776
0.6117269 0.7291508 0.6654179 0.4973113 0.49870518 0.7750455 0.65761673 0.42661345
0.38831422 0.73825294 0.6499829 0.6821586 0.7718452 0.5065291 0.4226328 0.6956271
0.5344038 0.5402125 0.3736768 0.34537312 0.7017671 0.6098161 0.45217782 0.31304866
0.38115904 0.754601 0.46712303 0.7549416 0.30247927 0.33173034 0.5137279 0.7299353
0.61752605 0.5032319 0.41781402 0.78201175 0.5012289 0.7370367 0.30656204 0.42667648
0.57953584 0.7276198 0.795305 1.0428674 0.35744837 0.46955422 0.3025171 0.672004
0.73894733 0.7793373 0.3772239 0.6318445 0.36989588 0.617264 0.43735456 0.7176291
0.7982132 0.5551213 0.72930205 0.4908269 0.5788988 0.45132405 0.4067976 0.46158502
0.62988085 0.43986976 0.56583405 0.6111522 0.45189136 0.6768261 0.7598729 0.6048874
0.44807428 0.43012854 0.78140604 0.4481506 0.8679323 0.5735071 0.5074252 0.6402903
0.75807893 0.3284956 0.37993672 0.6095177 0.32583228 0.72600746 0.7470149 0.3813036
0.5182177 0.5512171 0.4141355 0.8482763 0.6086311 0.17442088 0.5898654 0.4449402
0.30216652 0.34087446 0.55797 0.41704625 0.609857 0.5918485 0.37786013 0.33375287
0.4222681 0.6634451 0.69332457 0.69521666 0.51863 0.5074371 0.3308167 0.41384304
0.6097566 0.3231924 0.41251624 0.77633274 0.5529509 0.40281424 0.75320494 0.6060877
0.7392415 0.54552054 0.5266726 0.792984 0.5498342 0.72490776 0.34659556 0.4334498
0.42374295 0.50540245 0.30399573 0.5924974 0.6128328 0.6862084 0.4771668 0.7853639
0.38696766 0.70190275 0.7667324 0.6275921 0.75009936 0.34670034 0.6007308 0.3417978
0.35863554 0.7520656 0.7301449 0.58904684 0.53040826 0.6993643 0.3403421 0.33270964
0.50988114 0.6920557 0.536822 0.73397565 0.56707084 0.86489105 0.8168983 0.3209484
0.61594605 0.73085624 0.33374578 0.63197494 0.5267693 0.71788776 0.311712 0.3872026
0.71348524 0.5157529 0.7601022 0.38182178 0.7738781 0.95975107 0.5799944 0.5433146
0.47951862 0.30257282 0.56695485 0.6185515 0.5235858 0.514051 0.77235025 0.4339051
0.7046242 0.5986092 0.72967046 0.56672215 0.55840844 0.70076966 0.33883628 0.50624335
0.42684874 0.7015158 0.33124086 0.7323814 0.5668792 0.62214255 0.424811 0.51185733
00000000: 38fa 133f 8ac5 b43e 4d1d 243f 505a 0e3f
00000010: abf8 053f f7b7 3a3f 18a3 9d3e d2dd bc3e
00000020: 149b bf3e 8a25 a93e 1cfd c73e 1ef9 bc3e
00000030: b2bf 283f f646 a13e bc20 d83e e87e 193f
00000040: 3edf fd3e 4591 0d3f 4e9c ee3e 479a e33e
00000050: d13e d13e 9412 223f 7633 e93e 3c89 4c3f
00000060: e90c 373f 7775 303f 4e33 f03e 546e db3e
00000070: 1150 b73e 1578 d93e 7dc9 3d3f 0258 a53e
00000080: 5117 0e3f f723 b33e 9009 c63e 1f75 1c3f
00000090: bee9 ce3e 7ca2 043f 5a67 323f 1a5f 393f
000000a0: 8c44 243f e02e 413f 92a9 1b3f 28a5 f63e
000000b0: 50c7 0c3f 9c7b 3a3f 9d63 d53e c3d9 993e
000000c0: d86c 173f fcf1 293f af3f 4c3f fd0a e13e
000000d0: e35e 1a3f 23dd 4b3f 88cf 2d3f 81b4 dd3e
000000e0: 229a 1c3f a0a9 3a3f d458 2a3f 969f fe3e
000000f0: 4956 ff3e 6269 463f 9259 283f 146d da3e
00000100: 1fd1 c63e 25fe 3c3f 4865 263f f2a1 2e3f
00000110: a697 453f e4ab 013f 5463 d83e 9e14 323f
00000120: b0ce 083f 5e4b 0a3f 9152 bf3e bfd4 b03e
00000130: 02a7 333f e81c 1c3f da83 e73e ea47 a03e
00000140: 4727 c33e 882d 413f c02a ef3e da43 413f
00000150: 90de 9a3e 8fd8 a93e ac83 033f 0add 3a3f
00000160: 3016 1e3f ced3 003f b8eb d53e ec31 483f
00000170: 8a50 003f 70ae 3c3f b3f5 9c3e 5775 da3e
00000180: 765c 143f 4b45 3a3f 1c99 4b3f ae7c 853f
00000190: 7903 b73e 6969 f03e 85e3 9a3e 7408 2c3f
000001a0: a72b 3d3f a682 473f 7e23 c13e 90c0 213f
000001b0: fe62 bd3e 0305 1e3f f0ec df3e 8ab6 373f
000001c0: b357 4c3f 6e1c 0e3f 8ab3 3a3f aa4d fb3e
000001d0: b632 143f f213 e73e c647 d03e df54 ec3e
000001e0: df3f 213f 9c36 e13e 80da 103f 7874 1c3f
000001f0: 4e5e e73e 7a44 2d3f 0887 423f e7d9 1a3f
00000200: fe69 e53e cf39 dc3e 3a0a 483f ff73 e53e
00000210: d030 5e3f 5cd1 123f 9ee6 013f 11ea 233f
00000220: 7611 423f 9330 a83e 1187 c23e 5a09 1c3f
00000230: 7dd3 a63e a0db 393f 5e3c 3f3f 3a3a c33e
00000240: eaa9 043f 901c 0d3f 9109 d43e a328 593f
00000250: 3fcf 1b3f 639b 323e 6b01 173f 34cf e33e
00000260: 92b5 9a3e 1987 ae3e 1fd7 0e3f 1687 d53e
00000270: 971f 1c3f 6283 173f e276 c13e a8e1 aa3e
00000280: 8633 d83e 8ad7 293f b87d 313f b8f9 313f
00000290: f0c4 043f 66e7 013f ce60 a93e 3ce3 d33e
000002a0: 0219 1c3f 7979 a53e 5435 d33e bebd 463f
000002b0: 318e 0d3f ab3d ce3e 0ad2 403f 9028 1b3f
000002c0: ee3e 3d3f 3ca7 0b3f 04d4 063f 0001 4b3f
000002d0: efc1 0c3f 8e93 393f f974 b13e 22ed dd3e
000002e0: d6f4 d83e 0e62 013f 54a5 9b3e e9ad 173f
000002f0: 9ce2 1c3f 5bab 2f3f 354f f43e 9c0d 493f
00000300: a020 c63e e6af 333f 9348 443f e0a9 203f
00000310: 8306 403f b582 b13e 7ec9 193f 1f00 af3e
00000320: 149f b73e 5f87 403f c7ea 3a3f c6cb 163f
00000330: d6c8 073f 8a09 333f 5241 ae3e eb58 aa3e
00000340: 9287 023f 902a 313f 2b6d 093f d4e5 3b3f
00000350: 8e2b 113f 8069 5d3f 3f20 513f 5953 a43e
00000360: a4ae 1d3f 6519 3b3f bae0 aa3e 1cc9 213f
00000370: 5ada 063f 7ec7 373f b798 9f3e 6b3f c63e
00000380: f8a6 363f 6208 043f 0f96 423f 257e c33e
00000390: e01c 463f 3fb2 753f 837a 143f aa16 0b3f
000003a0: 7783 f53e d3ea 9a3e f423 113f 6459 1e3f
000003b0: b809 063f d998 033f bfb8 453f cf28 de3e
000003c0: 4062 343f 743e 193f afcb 3a3f b414 113f
000003d0: dbf3 0e3f a465 333f f37b ad3e 2a99 013f
000003e0: eb8b da3e 8a96 333f 6798 a93e 597d 3b3f
000003f0: ff1e 113f bc44 1f3f d480 d93e 1509 033f

model.rnn_cell.w f4 [16, 16]
0.16921438 0.30373287 0.08800394 0.6921677 0.12983796 0.62879735 0.43075353 0.064517766
0.24365272 0.040222794 0.54708594 0.17018563 0.7166316 0.47804555 0.55181104 0.52272826
1.1171805 0.71630436 0.6418809 0.89647156 0.8488275 0.8623227 0.75784624 0.3683886
0.1441882 0.05447055 0.6543043 0.95390785 0.9842247 0.37191123 0.7940857 0.3365669
0.7777735 0.42581716 0.4506537 0.26284763 0.8244948 0.3396727 0.30207384 0.5409528
0.6836241 0.7389229 0.8309283 0.29903275 0.93348384 0.87745047 0.3519195 0.08008582
0.64447814 0.15601408 0.06347972 0.4080059 0.82474 0.1985287 0.7536709 0.31972215
0.9944745 0.55175656 0.51731634 0.9491278 0.9233423 0.89933074 0.42572138 0.73342127
0.3381142 0.41742194 0.39340687 0.1620928 0.88007027 0.6381389 0.7128966 0.35652408
0.5779498 0.35983282 0.37243855 0.13398938 0.38067663 0.88659114 0.4080618 0.64568436
0.32976103 0.49307638 1.0349934 0.27931786 0.49302703 0.25261304 0.8662465 0.44698596
0.36007753 0.3010044 0.1482116 0.21704024 0.3949192 0.4554381 0.6430392 0.19878416
1.3016098 0.94640166 0.30579916 0.007545132 1.3013835 0.99333966 0.26663017 0.019078232
0.91077185 0.83036816 0.99345714 0.15079246 0.9299381 0.053902194 0.42937356 0.963874
0.08540909 0.05324384 0.842398 0.28765306 0.23217273 0.45634305 0.4099645 0.4815673
0.3398015 0.5683635 0.9998696 0.32767206 0.87814623 0.695546 0.40314302 0.93807155
0.89060915 1.1294581 0.875975 0.10185799 0.34955806 0.6999141 0.519206 0.7047279
0.29238757 0.5320635 0.09445648 0.052360274 0.5847879 0.03624953 0.85998255 0.5095769
0.07956093 0.56120086 0.15071219 0.0032686768 0.61693865 0.8213201 0.14455405 0.37571132
0.7151577 0.3264869 0.14110912 0.05878572 0.446359 0.88368446 0.4707953 0.97062063
0.3530003 0.23494515 0.9013239 0.14665379 0.035420395 1.1523392 0.86618453 0.65013516
0.4576115 0.5836256 0.5782769 0.18346441 0.17265019 0.24123804 0.63753325 0.9619199
0.80432194 0.22359782 0.30724946 0.2914778 0.03800395 0.095369235 0.66842777 0.45928618
0.42611057 0.30957675 0.60450125 0.84766924 0.21915238 0.7580197 0.10776897 0.165086
0.7017568 0.6393841 -0.050004415 0.43553188 0.6300054 0.886151 1.0677673 0.111633554
0.2788218 0.27802038 0.25828648 0.4159252 0.64408946 0.7970958 0.44211686 0.81637645
0.63151675 0.89686996 0.18297239 0.6077794 0.1648031 0.16303316 0.40528694 0.9684168
0.039942574 0.4859852 0.3340625 0.8866508 0.12313147 0.3300528 0.9293676 0.4433697
0.5137171 0.9993719 1.0347056 0.07159797 0.8014456 0.11563717 0.4784431 0.9534488
0.44665426 0.9339654 0.8278333 0.4944122 0.78321743 0.10220287 0.7883825 0.21427879
0.41070256 0.6771838 0.21348308 0.8187631 0.9342379 0.3802821 0.39173332 0.7525976
0.77945524 0.9534285 0.0122762825 0.74204624 0.30353478 0.5808119 0.7231743 0.26603454
00000000: 8946 2d3e e082 9b3e 693b b43d e731 313f
00000010: 3ef4 043e ddf8 203f ba8b dc3e e421 843d
00000020: 1980 793e a8c0 243d d30d 0c3f 2445 2e3e
00000030: 2b75 373f 63c2 f43e 7d43 0d3f 85d1 053f
00000040: c5ff 8e3f b95f 373f 4f52 243f 297f 653f
00000050: c24c 593f 2ec1 5c3f 3602 423f 6e9d bc3e
00000060: 12a6 133e 831c 5f3d 7d80 273f 4e33 743f
00000070: 26f6 7b3f 266b be3e 3349 4b3f 7f52 ac3e
00000080: 2a1c 473f b504 da3e 15bc e63e f793 863e
00000090: 1712 533f 95e9 ad3e 6ca9 9a3e e27b 0a3f
000000a0: fd01 2f3f 0d2a 3d3f b8b7 543f d21a 993e
000000b0: ccf8 6e3f 98a0 603f cb2e b43e 0904 a43d
000000c0: 85fc 243f 28c2 1f3e a801 823d 26e6 d03e
000000d0: 2922 533f 1c4b 4b3e 93f0 403f 9fb2 a33e
000000e0: e195 7e3f eb3f 0d3f d86e 043f 0afa 723f
000000f0: 2960 6c3f 8a3a 663f 27f8 d93e 7fc1 3b3f
00000100: 4e1d ad3e 54b8 d53e a06c c93e a8fb 253e
00000110: 494c 613f 125d 233f 6480 363f 538a b63e
00000120: 85f4 133f 023c b83e 44b0 be3e 8334 093e
00000130: 0ce8 c23e a3f7 623f 7aed d03e 924b 253f
00000140: 70d6 a83e 8274 fc3e aa7a 843f c002 8f3e
00000150: 0a6e fc3e 7f56 813e 55c2 5d3f 58db e43e
00000160: 155c b83e 401d 9a3e c8c4 173e cc3f 5e3e
00000170: d932 ca3e 2f2f e93e 389e 243f 138e 4b3e
00000180: 269b a63f 6147 723f b591 9c3e 283d f73b
00000190: bc93 a63f 824b 7e3f c083 883e f449 9c3c
000001a0: 5828 693f 0293 543f 3553 7e3f 5769 1a3e
000001b0: 6c10 6e3f 8cc8 5c3d dad6 db3e 72c0 763f
000001c0: f6ea ae3d 3616 5a3d 65a7 573f 4347 933e
000001d0: b0be 6d3e cca5 e93e dee6 d13e fd8f f63e
000001e0: 76fa ad3e 4580 113f 74f7 7f3f a2c4 a73e
000001f0: 31ce 603f 4d0f 323f c368 ce3e 7525 703f
00000200: f6fe 633f 1592 903f e63f 603f ec9a d03d
00000210: 46f9 b23e 922d 333f afea 043f 0c69 343f
00000220: d3b3 953e 5035 083f 6672 c13d ba77 563d
00000230: a9b4 153f 637a 143d d127 5c3f a273 023f
00000240: d7f0 a23d dcaa 0f3f 4c54 1a3e 4c37 563b
00000250: b1ef 1d3f 0942 523f fa05 143e 3c5d c03e
00000260: 9314 373f 4a29 a73e e97e 103e 4cc9 703d
00000270: 2b89 e43e 2539 623f 150c f13e 987a 783f
00000280: 75bc b43e 7695 703e 2abd 663f 692c 163e
00000290: fa14 113d da7f 933f 45be 5d3f 426f 263f
000002a0: 0e4c ea3e 7d68 153f f409 143f 18de 3b3e
000002b0: 36cb 303e 1b07 773e 6135 233f 6240 763f
000002c0: 0be8 4d3f d4f6 643e cd4f 9d3e 943c 953e
000002d0: 08aa 1b3d f250 c33d 151e 2b3f 8f27 eb3e
000002e0: 2a2b da3e d880 9e3e 98c0 1a3f da00 593f
000002f0: 7b69 603e 940d 423f fab5 dc3d 4e0c 293e
00000300: 55a6 333f adae 233f 6ed1 4cbd 09fe de3e
00000310: 0948 213f cbda 623f 99ac 883f 22a0 e43d
00000320: bbc1 8e3e b058 8e3e 203e 843e 26f4 d43e
00000330: 0ce3 243f 780e 4c3f 245d e23e 0cfe 503f
00000340: 15ab 213f 4599 653f 1d5d 3b3e 6e97 1b3f
00000350: 25c2 283e 2af2 263e c581 cf3e 2aea 773f
00000360: d39a 233d 0dd3 f83e 3d0a ab3e 8cfb 623f
00000370: 5a2c fc3d aefc a83e 09eb 6d3f 5a01 e33e
00000380: f782 033f d6d6 7f3f 3c71 843f f5a1 923d
00000390: 8a2b 4d3f 2ed3 ec3d 7ef6 f43e 3815 743f
000003a0: deaf e43e 5b18 6f3f e2ec 533f 9923 fd3e
000003b0: f080 483f bd4f d13d 6fd3 493f e66b 5b3e
000003c0: 9b47 d23e eb5b 2d3f 4f9b 5a3e 759a 513f
000003d0: 372a 6f3f 56b4 c23e 4591 c83e 3caa 403f
000003e0: 618a 473f e413 743f 7622 493c bef6 3d3f
000003f0: e968 9b3e 17b0 143f f321 393f ae35 883e

model.rnn_cell.erev f4 [16, 16]
0.0 0.0 0.0 0.0 0.0 0.0 0.0 0.0
0.0 0.0 0.0 0.0 0.0 0.0 0.0 0.0
-1.7740656 0.0 0.0 0.0 0.0 0.0 0.0 0.0
0.0 0.0 0.0 0.0 0.0 0.0 0.0 0.0
1.4594696 0.0 0.0 0.93778497 0.0 0.0 0.0 0.0
0.0 0.0 0.0 0.0 0.0 0.0 0.0 0.0
0.95416445 0.0 0.0 0.0 0.0 0.0 0.0 0.0
0.0 0.0 0.0 0.0 0.0 0.0 0.0 0.0
1.1585705 1.2714475 0.0 0.0 0.0 0.0 -1.1901402 0.0
0.0 0.0 0.0 0.0 0.0 0.0 0.0 0.0
1.4433074 0.0 1.2176889 0.0 0.0 0.0 0.0 0.0
0.0 0.0 0.0 0.0 0.0 0.0 0.0 0.0
-1.4459481 0.0 0.0 0.56675243 -1.485081 0.0 0.0 0.0
0.0 0.0 0.0 0.0 0.0 0.0 0.0 0.0
0.0 0.9187821 -0.92919844 0.90321535 0.0 0.0 0.0 0.0
0.0 0.0 0.0 0.0 0.0 0.0 0.0 0.0
0.0 -1.7161552 0.0 0.0 -0.7851908 0.0 -1.3242534 0.0
0.0 0.0 0.0 0.0 0.0 0.0 0.0 0.0
0.0 0.0 0.0 0.8351295 0.87200344 1.5232571 0.0 0.0
0.0 0.0 0.0 0.0 0.0 0.0 0.0 0.0
0.0 1.5889517 0.0 0.0 0.7671063 -1.5431683 0.0 0.0
0.0 0.0 0.0 0.0 0.0 0.0 0.0 0.0
0.0 0.0 1.212359 0.0 0.9947277 -0.988388 0.0 0.0
0.0 0.0 0.0 0.0 0.0 0.0 0.0 0.0
0.0 0.0 0.7106351 0.0 0.78282654 0.0 -1.2296788 0.0
0.0 0.0 0.0 0.0 0.0 0.0 0.0 0.0
0.0 0.0 1.0842879 0.0 0.0 -0.80034286 -0.9188382 0.0
0.0 0.0 0.0 0.0 0.0 0.0 0.0 0.0
0.0 0.0 -1.1046263 0.0 0.0 0.7779003 1.3656439 0.0
0.0 0.0 0.0 0.0 0.0 0.0 0.0 0.0
0.0 1.3255988 0.0 0.0 0.0 0.8248737 1.4221598 0.0
0.0 0.0 0.0 0.0 0.0 0.0 0.0 0.0
00000000: 0000 0000 0000 0000 0000 0000 0000 0000
00000010: 0000 0000 0000 0000 0000 0000 0000 0000
00000020: 0000 0000 0000 0000 0000 0000 0000 0000
00000030: 0000 0000 0000 0000 0000 0000 0000 0000
00000040: 9514 e3bf 0000 0000 0000 0000 0000 0000
00000050: 0000 0000 0000 0000 0000 0000 0000 0000
00000060: 0000 0000 0000 0000 0000 0000 0000 0000
00000070: 0000 0000 0000 0000 0000 0000 0000 0000
00000080: e6cf ba3f 0000 0000 0000 0000 ad12 703f
00000090: 0000 0000 0000 0000 0000 0000 0000 0000
000000a0: 0000 0000 0000 0000 0000 0000 0000 0000
000000b0: 0000 0000 0000 0000 0000 0000 0000 0000
000000c0: 1f44 743f 0000 0000 0000 0000 0000 0000
000000d0: 0000 0000 0000 0000 0000 0000 0000 0000
000000e0: 0000 0000 0000 0000 0000 0000 0000 0000
000000f0: 0000 0000 0000 0000 0000 0000 0000 0000
00000100: 0a4c 943f cbbe a23f 0000 0000 0000 0000
00000110: 0000 0000 0000 0000 8456 98bf 0000 0000
00000120: 0000 0000 0000 0000 0000 0000 0000 0000
00000130: 0000 0000 0000 0000 0000 0000 0000 0000
00000140: 4cbe b83f 0000 0000 3bdd 9b3f 0000 0000
00000150: 0000 0000 0000 0000 0000 0000 0000 0000
00000160: 0000 0000 0000 0000 0000 0000 0000 0000
00000170: 0000 0000 0000 0000 0000 0000 0000 0000
00000180: d414 b9bf 0000 0000 0000 0000 b016 113f
00000190: 2217 bebf 0000 0000 0000 0000 0000 0000
000001a0: 0000 0000 0000 0000 0000 0000 0000 0000
000001b0: 0000 0000 0000 0000 0000 0000 0000 0000
000001c0: 0000 0000 4e35 6b3f f3df 6dbf 1f39 673f
000001d0: 0000 0000 0000 0000 0000 0000 0000 0000
000001e0: 0000 0000 0000 0000 0000 0000 0000 0000
000001f0: 0000 0000 0000 0000 0000 0000 0000 0000
00000200: 0000 0000 f9aa dbbf 0000 0000 0000 0000
00000210: 4402 49bf 0000 0000 2381 a9bf 0000 0000
00000220: 0000 0000 0000 0000 0000 0000 0000 0000
00000230: 0000 0000 0000 0000 0000 0000 0000 0000
00000240: 0000 0000 0000 0000 0000 0000 0ccb 553f
00000250: 9e3b 5f3f 17fa c23f 0000 0000 0000 0000
00000260: 0000 0000 0000 0000 0000 0000 0000 0000
00000270: 0000 0000 0000 0000 0000 0000 0000 0000
00000280: 0000 0000 c562 cb3f 0000 0000 0000 0000
00000290: 1461 443f 8a86 c5bf 0000 0000 0000 0000
000002a0: 0000 0000 0000 0000 0000 0000 0000 0000
000002b0: 0000 0000 0000 0000 0000 0000 0000 0000
000002c0: 0000 0000 0000 0000 942e 9b3f 0000 0000
000002d0: 79a6 7e3f ff06 7dbf 0000 0000 0000 0000
000002e0: 0000 0000 0000 0000 0000 0000 0000 0000
000002f0: 0000 0000 0000 0000 0000 0000 0000 0000
00000300: 0000 0000 0000 0000 2fec 353f 0000 0000
00000310: 5267 483f 0000 0000 1d66 9dbf 0000 0000
00000320: 0000 0000 0000 0000 0000 0000 0000 0000
00000330: 0000 0000 0000 0000 0000 0000 0000 0000
00000340: 0000 0000 0000 0000 f2c9 8a3f 0000 0000
00000350: 0000 0000 45e3 4cbf fb38 6bbf 0000 0000
00000360: 0000 0000 0000 0000 0000 0000 0000 0000
00000370: 0000 0000 0000 0000 0000 0000 0000 0000
00000380: 0000 0000 0000 0000 6564 8dbf 0000 0000
00000390: 0000 0000 7924 473f 6bcd ae3f 0000 0000
000003a0: 0000 0000 0000 0000 0000 0000 0000 0000
000003b0: 0000 0000 0000 0000 0000 0000 0000 0000
000003c0: 0000 0000 39ad a93f 0000 0000 0000 0000
000003d0: 0000 0000 ec2a 533f 5509 b63f 0000 0000
000003e0: 0000 0000 0000 0000 0000 0000 0000 0000
000003f0: 0000 0000 0000 0000 0000 0000 0000 0000

model.rnn_cell.sensory_sigma f4 [2, 16]
6.566016 7.8066645 5.0736456 3.8796036 7.155605 6.0834618 3.1603565 6.1578107
7.3739147 4.9427643 8.196668 3.913224 8.169964 5.1153355 5.773116 5.4190183
5.54735 7.979993 5.8747997 4.6531286 3.7339263 5.8969107 6.813561 5.9129877
3.9997473 4.254535 6.7869225 7.4727845 6.0249352 3.758869 5.121648 7.3390255
00000000: ce1c d240 32d0 f940 4e5b a240 6d4b 7840
00000010: b7fa e440 b8ab c240 4843 4a40 c90c c540
00000020: 1cf7 eb40 202b 9e40 8d25 0341 4372 7a40
00000030: 2cb8 0241 d4b0 a340 5ebd b840 9968 ad40
00000040: e483 b140 1a5c ff40 5cfe bb40 6ee6 9440
00000050: a6f8 6e40 7eb3 bc40 b108 da40 3237 bd40
00000060: dcfb 7f40 2725 8840 782e d940 0d21 ef40
00000070: 45cc c040 4f91 7040 8ae4 a340 4cd9 ea40

model.rnn_cell.sensory_mu f4 [2, 16]
0.7715864 0.5972798 0.57862 0.6661554 0.30494347 0.6744164 0.54854476 0.47384012
0.68442786 1.164314 0.872416 -0.10400648 0.66464704 0.71651125 0.8481542 0.31667858
0.42072004 0.37723142 0.36107105 0.74609727 0.6937051 0.6300355 0.4082094 0.20091932
1.2095281 0.76464665 -0.4464594 0.59520817 0.51916933 0.32427734 0.5266186 0.2675446
00000000: b086 453f 54e7 183f 7120 143f 2989 2a3f
00000010: 8d21 9c3e 8ea6 2c3f 6e6d 0c3f 2c9b f23e
00000020: aa36 2f3f 3e08 953f a856 5f3f 5901 d5bd
00000030: 4f26 2a3f 486d 373f a220 593f b223 a23e
00000040: 9e68 d73e 7a24 c13e 4ede b83e 3b00 3f3f
00000050: a896 313f 024a 213f d300 d13e cbbd 4d3e
00000060: d1d1 9a3f e2bf 433f 5496 e4be 905f 183f
00000070: 48e8 043f ae07 a63e 7ad0 063f 9bfb 883e

model.rnn_cell.sensory_w f4 [2, 16]
0.9701418 0.41540012 0.5552418 0.1579116 0.23875341 0.91579986 0.49331504 0.740279
0.03621702 0.27425188 0.57096016 0.696394 0.71394473 0.1353712 0.36184433 0.53034717
0.8749634 0.33433855 0.12970911 0.53760177 0.0715679 0.24540208 0.9921853 0.5121564
1.0361624 0.6147865 0.7292724 0.7629742 0.3449384 1.3617879 0.39038655 1.1932172
00000000: 375b 783f 53af d43e 5424 0e3f 94b3 213e
00000010: c67b 743e dc71 6a3f ca93 fc3e ed82 3d3f
00000020: 4c58 143d be6a 8c3e 722a 123f e146 323f
00000030: 15c5 363f bf9e 0a3e a943 b93e d5c4 073f
00000040: 9afd 5f3f 6c2e ab3e 77d2 043e 45a0 093f
00000050: 3192 923d af4a 7b3e dbff 7d3f af1c 033f
00000060: f8a0 843f a662 1d3f 99b1 3a3f 4752 433f
00000070: c49b b03e 114f ae3f bfe0 c73e 57bb 983f

model.rnn_cell.sensory_erev f4 [2, 16]
0.0 0.0 0.0 0.0 0.0 0.0 0.0 0.0
0.0 -0.8696847 0.7240533 1.2654508 -1.0099813 0.0 1.20054 1.3632456
0.0 0.0 0.0 0.0 0.0 0.0 0.0 -1.2067598
1.5418073 0.0 1.4940557 0.0 0.0 -1.4436618 0.0 -1.5379529
00000000: 0000 0000 0000 0000 0000 0000 0000 0000
00000010: 0000 0000 0000 0000 0000 0000 0000 0000
00000020: 0000 0000 a8a3 5ebf 8f5b 393f 4bfa a13f
00000030: 1147 81bf 0000 0000 4bab 993f d57e ae3f
00000040: 0000 0000 0000 0000 0000 0000 0000 0000
00000050: 0000 0000 0000 0000 0000 0000 1b77 9abf
00000060: f159 c53f 0000 0000 383d bf3f 0000 0000
00000070: 0000 0000 e9c9 b8bf 0000 0000 a4db c4bf

model.rnn_cell.sparsity_mask f4 [16, 16]
0.0 0.0 0.0 0.0 0.0 0.0 0.0 0.0
0.0 0.0 0.0 0.0 0.0 0.0 0.0 0.0
1.0 0.0 0.0 0.0 0.0 0.0 0.0 0.0
0.0 0.0 0.0 0.0 0.0 0.0 0.0 0.0
1.0 0.0 0.0 1.0 0.0 0.0 0.0 0.0
0.0 0.0 0.0 0.0 0.0 0.0 0.0 0.0
1.0 0.0 0.0 0.0 0.0 0.0 0.0 0.0
0.0 0.0 0.0 0.0 0.0 0.0 0.0 0.0
1.0 1.0 0.0 0.0 0.0 0.0 1.0 0.0
0.0 0.0 0.0 0.0 0.0 0.0 0.0 0.0
1.0 0.0 1.0 0.0 0.0 0.0 0.0 0.0
0.0 0.0 0.0 0.0 0.0 0.0 0.0 0.0
1.0 0.0 0.0 1.0 1.0 0.0 0.0 0.0
0.0 0.0 0.0 0.0 0.0 0.0 0.0 0.0
0.0 1.0 1.0 1.0 0.0 0.0 0.0 0.0
0.0 0.0 0.0 0.0 0.0 0.0 0.0 0.0
0.0 1.0 0.0 0.0 1.0 0.0 1.0 0.0
0.0 0.0 0.0 0.0 0.0 0.0 0.0 0.0
0.0 0.0 0.0 1.0 1.0 1.0 0.0 0.0
0.0 0.0 0.0 0.0 0.0 0.0 0.0 0.0
0.0 1.0 0.0 0.0 1.0 1.0 0.0 0.0
0.0 0.0 0.0 0.0 0.0 0.0 0.0 0.0
0.0 0.0 1.0 0.0 1.0 1.0 0.0 0.0
0.0 0.0 0.0 0.0 0.0 0.0 0.0 0.0
0.0 0.0 1.0 0.0 1.0 0.0 1.0 0.0
0.0 0.0 0.0 0.0 0.0 0.0 0.0 0.0
0.0 0.0 1.0 0.0 0.0 1.0 1.0 0.0
0.0 0.0 0.0 0.0 0.0 0.0 0.0 0.0
0.0 0.0 1.0 0.0 0.0 1.0 1.0 0.0
0.0 0.0 0.0 0.0 0.0 0.0 0.0 0.0
0.0 1.0 0.0 0.0 0.0 1.0 1.0 0.0
0.0 0.0 0.0 0.0 0.0 0.0 0.0 0.0
00000000: 0000 0000 0000 0000 0000 0000 0000 0000
00000010: 0000 0000 0000 0000 0000 0000 0000 0000
00000020: 0000 0000 0000 0000 0000 0000 0000 0000
00000030: 0000 0000 0000 0000 0000 0000 0000 0000
00000040: 0000 803f 0000 0000 0000 0000 0000 0000
00000050: 0000 0000 0000 0000 0000 0000 0000 0000
00000060: 0000 0000 0000 0000 0000 0000 0000 0000
00000070: 0000 0000 0000 0000 0000 0000 0000 0000
00000080: 0000 803f 0000 0000 0000 0000 0000 803f
00000090: 0000 0000 0000 0000 0000 0000 0000 0000
000000a0: 0000 0000 0000 0000 0000 0000 0000 0000
000000b0: 0000 0000 0000 0000 0000 0000 0000 0000
000000c0: 0000 803f 0000 0000 0000 0000 0000 0000
000000d0: 0000 0000 0000 0000 0000 0000 0000 0000
000000e0: 0000 0000 0000 0000 0000 0000 0000 0000
000000f0: 0000 0000 0000 0000 0000 0000 0000 0000
00000100: 0000 803f 0000 803f 0000 0000 0000 0000
00000110: 0000 0000 0000 0000 0000 803f 0000 0000
00000120: 0000 0000 0000 0000 0000 0000 0000 0000
00000130: 0000 0000 0000 0000 0000 0000 0000 0000
00000140: 0000 803f 0000 0000 0000 803f 0000 0000
00000150: 0000 0000 0000 0000 0000 0000 0000 0000
00000160: 0000 0000 0000 0000 0000 0000 0000 0000
00000170: 0000 0000 0000 0000 0000 0000 0000 0000
00000180: 0000 803f 0000 0000 0000 0000 0000 803f
00000190: 0000 803f 0000 0000 0000 0000 0000 0000
000001a0: 0000 0000 0000 0000 0000 0000 0000 0000
000001b0: 0000 0000 0000 0000 0000 0000 0000 0000
000001c0: 0000 0000 0000 803f 0000 803f 0000 803f
000001d0: 0000 0000 0000 0000 0000 0000 0000 0000
000001e0: 0000 0000 0000 0000 0000 0000 0000 0000
000001f0: 0000 0000 0000 0000 0000 0000 0000 0000
00000200: 0000 0000 0000 803f 0000 0000 0000 0000
00000210: 0000 803f 0000 0000 0000 803f 0000 0000
00000220: 0000 0000 0000 0000 0000 0000 0000 0000
00000230: 0000 0000 0000 0000 0000 0000 0000 0000
00000240: 0000 0000 0000 0000 0000 0000 0000 803f
00000250: 0000 803f 0000 803f 0000 0000 0000 0000
00000260: 0000 0000 0000 0000 0000 0000 0000 0000
00000270: 0000 0000 0000 0000 0000 0000 0000 0000
00000280: 0000 0000 0000 803f 0000 0000 0000 0000
00000290: 0000 803f 0000 803f 0000 0000 0000 0000
000002a0: 0000 0000 0000 0000 0000 0000 0000 0000
000002b0: 0000 0000 0000 0000 0000 0000 0000 0000
000002c0: 0000 0000 0000 0000 0000 803f 0000 0000
000002d0: 0000 803f 0000 803f 0000 0000 0000 0000
000002e0: 0000 0000 0000 0000 0000 0000 0000 0000
000002f0: 0000 0000 0000 0000 0000 0000 0000 0000
00000300: 0000 0000 0000 0000 0000 803f 0000 0000
00000310: 0000 803f 0000 0000 0000 803f 0000 0000
00000320: 0000 0000 0000 0000 0000 0000 0000 0000
00000330: 0000 0000 0000 0000 0000 0000 0000 0000
00000340: 0000 0000 0000 0000 0000 803f 0000 0000
00000350: 0000 0000 0000 803f 0000 803f 0000 0000
00000360: 0000 0000 0000 0000 0000 0000 0000 0000
00000370: 0000 0000 0000 0000 0000 0000 0000 0000
00000380: 0000 0000 0000 0000 0000 803f 0000 0000
00000390: 0000 0000 0000 803f 0000 803f 0000 0000
000003a0: 0000 0000 0000 0000 0000 0000 0000 0000
000003b0: 0000 0000 0000 0000 0000 0000 0000 0000
000003c0: 0000 0000 0000 803f 0000 0000 0000 0000
000003d0: 0000 0000 0000 803f 0000 803f 0000 0000
000003e0: 0000 0000 0000 0000 0000 0000 0000 0000
000003f0: 0000 0000 0000 0000 0000 0000 0000 0000

model.rnn_cell.sensory_sparsity_mask f4 [2, 16]
0.0 0.0 0.0 0.0 0.0 0.0 0.0 0.0
0.0 1.0 1.0 1.0 1.0 0.0 1.0 1.0
0.0 0.0 0.0 0.0 0.0 0.0 0.0 1.0
1.0 0.0 1.0 0.0 0.0 1.0 0.0 1.0
00000000: 0000 0000 0000 0000 0000 0000 0000 0000
00000010: 0000 0000 0000 0000 0000 0000 0000 0000
00000020: 0000 0000 0000 803f 0000 803f 0000 803f
00000030: 0000 803f 0000 0000 0000 803f 0000 803f
00000040: 0000 0000 0000 0000 0000 0000 0000 0000
00000050: 0000 0000 0000 0000 0000 0000 0000 803f
00000060: 0000 803f 0000 0000 0000 803f 0000 0000
00000070: 0000 0000 0000 803f 0000 0000 0000 803f

model.rnn_cell.input_w f4 [2]
0.9562564 1.1193428
00000000: 38cd 743f a046 8f3f

model.rnn_cell.input_b f4 [2]
-0.23453814 -0.09500063
00000000: c42a 70be b18f c2bd

exp_avg f4 [16]
-0.0005749486 -0.0018878327 0.0006423091 0.000110564586 -0.00020525214 -0.00061889173 -0.000929521 3.969715e-06
-0.00087894814 -0.0001555507 -0.0020823232 0.00024378338 -7.4720796e-05 -2.7323349e-05 -0.00041207433 -0.0011822508
00000000: 26b8 16ba 2771 f7ba a260 283a e9de e738
00000010: f438 57b9 1f3d 22ba 19ab 73ba 9833 8536
00000020: 3669 66ba 531b 23b9 9677 08bb 1aa0 7f39
00000030: 6cb3 9cb8 7234 e5b7 ae0b d8b9 c1f5 9aba

exp_avg_sq f4 [16]
4.233517e-05 2.5139148e-05 5.186185e-06 1.4376423e-06 2.6987982e-06 3.5772487e-07 5.729304e-06 8.400068e-09
4.1809748e-05 2.1974247e-07 4.417148e-06 4.6981717e-07 5.5230178e-08 2.4368243e-09 2.8327242e-06 2.0420375e-05
00000000: 0b91 3138 e9e1 d237 fd04 ae36 03f5 c035
00000010: 001d 3536 550d c034 593e c036 e44f 1032
00000020: e05c 2f38 5af2 6b34 0337 9436 2e3b fc34
00000030: 3936 6d33 1175 2731 d519 3e36 6c4c ab37

exp_avg f4 [16]
-0.002741817 0.0045052525 -0.0073177833 -0.00084320543 -0.004300175 0.00019721116 0.0073151477 -1.041618e-05
-0.0014322445 9.451555e-05 -0.00057742774 -0.002979197 -0.0010977244 -0.00022890096 0.0015384695 0.0051865107
00000000: 0eb0 33bb cca0 933b 04ca efbb 8f0a 5dba
00000010: 7be8 8cbb 78ca 4e39 e8b3 ef3b 27c1 2eb7
00000020: 27ba bbba a636 c638 855e 17ba a23e 43bb
00000030: 85e1 8fba 2205 70b9 78a6 c93a 9bf3 a93b

exp_avg_sq f4 [16]
0.0004745657 0.00017217033 0.00011125185 9.5360854e-05 0.00017840945 2.536628e-05 0.00013612925 6.2713734e-06
0.00020687495 0.00021896794 2.3722934e-05 7.1661593e-06 7.1979557e-06 1.5105049e-07 2.576103e-05 0.0001504429
00000000: 21cf f839 9f88 3439 e24f e938 78fc c738
00000010: 6c13 3b39 acc9 d437 ebbd 0e39 b06e d236
00000020: 92ec 5839 c29a 6539 9d00 c737 d774 f036
00000030: f885 f136 7130 2234 6419 d837 35c0 1d39

exp_avg f4 [16]
-0.0015108121 -0.00118441 -0.000106898115 2.3994246e-06 0.0003006469 0.0005436109 0.0005576656 1.7068729e-06
0.0012574417 4.6135116e-05 2.6792417e-05 0.00019639664 4.252e-05 2.2628822e-06 -1.2876583e-05 0.0002594367
00000000: 7106 c6ba 343e 9bba 7d2e e0b8 cd05 2136
00000010: 25a0 9d39 1c81 0e3a 4e30 123a b517 e535
00000020: bed0 a43a 3481 4138 47c0 e037 d2ef 4d39
00000030: 8157 3238 05dc 1736 8108 58b7 0105 8839

exp_avg_sq f4 [16]
3.506385e-06 4.4184967e-06 1.5804419e-08 4.3910062e-09 2.2075825e-07 2.2425978e-07 8.379317e-07 2.0034423e-09
1.1838015e-05 1.8808795e-08 2.8442878e-07 9.681915e-09 2.0264324e-08 4.6516507e-10 3.7228415e-07 1.7872523e-07
00000000: 3c4f 6b36 9942 9436 49c2 8732 b3df 9631
00000010: 9109 6d34 0fcc 7034 3aee 6035 eeac 0931
00000020: e39b 4637 fa90 a132 98b3 9834 8355 2632
00000030: b811 ae32 2aba ff2f 58de c734 9ee7 3f34

exp_avg f4 [16, 16]
0.0 0.0 0.0 0.0 0.0 0.0 0.0 0.0
0.0 0.0 0.0 0.0 0.0 0.0 0.0 0.0
0.0003531711 0.0 0.0 0.0 0.0 0.0 0.0 0.0
0.0 0.0 0.0 0.0 0.0 0.0 0.0 0.0
0.00047854596 0.0 0.0 2.8468809e-05 0.0 0.0 0.0 0.0
0.0 0.0 0.0 0.0 0.0 0.0 0.0 0.0
6.11867e-05 0.0 0.0 0.0 0.0 0.0 0.0 0.0
0.0 0.0 0.0 0.0 0.0 0.0 0.0 0.0
0.00016447851 -1.6845166e-05 0.0 0.0 0.0 0.0 0.00037418638 0.0
0.0 0.0 0.0 0.0 0.0 0.0 0.0 0.0
-0.00012736236 0.0 0.0002796047 0.0 0.0 0.0 0.0 0.0
0.0 0.0 0.0 0.0 0.0 0.0 0.0 0.0
-0.00012745791 0.0 0.0 -1.8981176e-07 -6.3693435e-05 0.0 0.0 0.0
0.0 0.0 0.0 0.0 0.0 0.0 0.0 0.0
0.0 2.1448268e-06 -1.1728452e-05 6.892192e-06 0.0 0.0 0.0 0.0
0.0 0.0 0.0 0.0 0.0 0.0 0.0 0.0
0.0 0.0005314552 0.0 0.0 -8.145418e-05 0.0 0.0003322435 0.0
0.0 0.0 0.0 0.0 0.0 0.0 0.0 0.0
0.0 0.0 0.0 2.0861983e-06 0.00014760104 3.8582173e-05 0.0 0.0
0.0 0.0 0.0 0.0 0.0 0.0 0.0 0.0
0.0 0.0005670566 0.0 0.0 -4.0415314e-05 0.00037363125 0.0 0.0
0.0 0.0 0.0 0.0 0.0 0.0 0.0 0.0
0.0 0.0 0.00053677073 0.0 7.346317e-05 -0.0001411082 0.0 0.0
0.0 0.0 0.0 0.0 0.0 0.0 0.0 0.0
0.0 0.0 3.2641772e-06 0.0 3.4119108e-05 0.0 9.778994e-05 0.0
0.0 0.0 0.0 0.0 0.0 0.0 0.0 0.0
0.0 0.0 3.6391768e-05 0.0 0.0 1.6139429e-06 1.5657457e-05 0.0
0.0 0.0 0.0 0.0 0.0 0.0 0.0 0.0
0.0 0.0 -0.0001386139 0.0 0.0 4.645787e-06 -5.374572e-05 0.0
0.0 0.0 0.0 0.0 0.0 0.0 0.0 0.0
0.0 -0.000122027304 0.0 0.0 0.0 4.252266e-05 -0.00025705114 0.0
0.0 0.0 0.0 0.0 0.0 0.0 0.0 0.0
00000000: 0000 0000 0000 0000 0000 0000 0000 0000
00000010: 0000 0000 0000 0000 0000 0000 0000 0000
00000020: 0000 0000 0000 0000 0000 0000 0000 0000
00000030: 0000 0000 0000 0000 0000 0000 0000 0000
00000040: d329 b939 0000 0000 0000 0000 0000 0000
00000050: 0000 0000 0000 0000 0000 0000 0000 0000
00000060: 0000 0000 0000 0000 0000 0000 0000 0000
00000070: 0000 0000 0000 0000 0000 0000 0000 0000
00000080: 5ae5 fa39 0000 0000 0000 0000 4dd0 ee37
00000090: 0000 0000 0000 0000 0000 0000 0000 0000
000000a0: 0000 0000 0000 0000 0000 0000 0000 0000
000000b0: 0000 0000 0000 0000 0000 0000 0000 0000
000000c0: 5c51 8038 0000 0000 0000 0000 0000 0000
000000d0: 0000 0000 0000 0000 0000 0000 0000 0000
000000e0: 0000 0000 0000 0000 0000 0000 0000 0000
000000f0: 0000 0000 0000 0000 0000 0000 0000 0000
00000100: dd77 2c39 b84e 8db7 0000 0000 0000 0000
00000110: 0000 0000 0000 0000 722e c439 0000 0000
00000120: 0000 0000 0000 0000 0000 0000 0000 0000
00000130: 0000 0000 0000 0000 0000 0000 0000 0000
00000140: 938c 05b9 0000 0000 e897 9239 0000 0000
00000150: 0000 0000 0000 0000 0000 0000 0000 0000
00000160: 0000 0000 0000 0000 0000 0000 0000 0000
00000170: 0000 0000 0000 0000 0000 0000 0000 0000
00000180: 39a6 05b9 0000 0000 0000 0000 0fcf 4bb4
00000190: 2793 85b8 0000 0000 0000 0000 0000 0000
000001a0: 0000 0000 0000 0000 0000 0000 0000 0000
000001b0: 0000 0000 0000 0000 0000 0000 0000 0000
000001c0: 0000 0000 d8ef 0f36 51c5 44b7 7a43 e736
000001d0: 0000 0000 0000 0000 0000 0000 0000 0000
000001e0: 0000 0000 0000 0000 0000 0000 0000 0000
000001f0: 0000 0000 0000 0000 0000 0000 0000 0000
00000200: 0000 0000 5b51 0b3a 0000 0000 0000 0000
00000210: 61d2 aab8 0000 0000 f830 ae39 0000 0000
00000220: 0000 0000 0000 0000 0000 0000 0000 0000
00000230: 0000 0000 0000 0000 0000 0000 0000 0000
00000240: 0000 0000 0000 0000 0000 0000 9d00 0c36
00000250: 5ac5 1a39 4bd3 2138 0000 0000 0000 0000
00000260: 0000 0000 0000 0000 0000 0000 0000 0000
00000270: 0000 0000 0000 0000 0000 0000 0000 0000
00000280: 0000 0000 86a6 143a 0000 0000 0000 0000
00000290: 9d83 29b8 f0e3 c339 0000 0000 0000 0000
000002a0: 0000 0000 0000 0000 0000 0000 0000 0000
000002b0: 0000 0000 0000 0000 0000 0000 0000 0000
000002c0: 0000 0000 0000 0000 13b6 0c3a 0000 0000
000002d0: 3d10 9a38 72f6 13b9 0000 0000 0000 0000
000002e0: 0000 0000 0000 0000 0000 0000 0000 0000
000002f0: 0000 0000 0000 0000 0000 0000 0000 0000
00000300: 0000 0000 0000 0000 230e 5b36 0000 0000
00000310: 1d1b 0f38 0000 0000 9314 cd38 0000 0000
00000320: 0000 0000 0000 0000 0000 0000 0000 0000
00000330: 0000 0000 0000 0000 0000 0000 0000 0000
00000340: 0000 0000 0000 0000 5da3 1838 0000 0000
00000350: 0000 0000 a89e d835 2258 8337 0000 0000
00000360: 0000 0000 0000 0000 0000 0000 0000 0000
00000370: 0000 0000 0000 0000 0000 0000 0000 0000
00000380: 0000 0000 0000 0000 e358 11b9 0000 0000
00000390: 0000 0000 02e3 9b36 076d 61b8 0000 0000
000003a0: 0000 0000 0000 0000 0000 0000 0000 0000
000003b0: 0000 0000 0000 0000 0000 0000 0000 0000
000003c0: 0000 0000 e9e8 ffb8 0000 0000 0000 0000
000003d0: 0000 0000 5c5a 3238 d2c4 86b9 0000 0000
000003e0: 0000 0000 0000 0000 0000 0000 0000 0000
000003f0: 0000 0000 0000 0000 0000 0000 0000 0000

exp_avg_sq f4 [16, 16]
0.0 0.0 0.0 0.0 0.0 0.0 0.0 0.0
0.0 0.0 0.0 0.0 0.0 0.0 0.0 0.0
2.7742371e-06 0.0 0.0 0.0 0.0 0.0 0.0 0.0
0.0 0.0 0.0 0.0 0.0 0.0 0.0 0.0
1.1703068e-07 0.0 0.0 1.1867117e-07 0.0 0.0 0.0 0.0
0.0 0.0 0.0 0.0 0.0 0.0 0.0 0.0
1.3460938e-07 0.0 0.0 0.0 0.0 0.0 0.0 0.0
0.0 0.0 0.0 0.0 0.0 0.0 0.0 0.0
4.224581e-07 6.466543e-08 0.0 0.0 0.0 0.0 1.9048254e-07 0.0
0.0 0.0 0.0 0.0 0.0 0.0 0.0 0.0
7.341347e-08 0.0 1.587716e-07 0.0 0.0 0.0 0.0 0.0
0.0 0.0 0.0 0.0 0.0 0.0 0.0 0.0
1.6393797e-06 0.0 0.0 1.47784744e-08 2.631402e-07 0.0 0.0 0.0
0.0 0.0 0.0 0.0 0.0 0.0 0.0 0.0
0.0 4.759646e-09 2.7411404e-09 6.485596e-08 0.0 0.0 0.0 0.0
0.0 0.0 0.0 0.0 0.0 0.0 0.0 0.0
0.0 4.0424945e-07 0.0 0.0 1.6517745e-07 0.0 4.324669e-07 0.0
0.0 0.0 0.0 0.0 0.0 0.0 0.0 0.0
0.0 0.0 0.0 8.278714e-09 2.028174e-07 1.379058e-07 0.0 0.0
0.0 0.0 0.0 0.0 0.0 0.0 0.0 0.0
0.0 2.998717e-07 0.0 0.0 3.440045e-08 1.37616e-07 0.0 0.0
0.0 0.0 0.0 0.0 0.0 0.0 0.0 0.0
0.0 0.0 4.5645944e-08 0.0 4.0923624e-08 2.6841201e-08 0.0 0.0
0.0 0.0 0.0 0.0 0.0 0.0 0.0 0.0
0.0 0.0 1.4738465e-10 0.0 2.3411467e-08 0.0 2.0022542e-08 0.0
0.0 0.0 0.0 0.0 0.0 0.0 0.0 0.0
0.0 0.0 5.6181557e-09 0.0 0.0 3.1393121e-10 1.0063568e-09 0.0
0.0 0.0 0.0 0.0 0.0 0.0 0.0 0.0
0.0 0.0 4.089144e-08 0.0 0.0 1.2007477e-09 8.300696e-08 0.0
0.0 0.0 0.0 0.0 0.0 0.0 0.0 0.0
0.0 1.0153535e-07 0.0 0.0 0.0 2.1592664e-08 2.2353036e-07 0.0
0.0 0.0 0.0 0.0 0.0 0.0 0.0 0.0
00000000: 0000 0000 0000 0000 0000 0000 0000 0000
00000010: 0000 0000 0000 0000 0000 0000 0000 0000
00000020: 0000 0000 0000 0000 0000 0000 0000 0000
00000030: 0000 0000 0000 0000 0000 0000 0000 0000
00000040: 082d 3a36 0000 0000 0000 0000 0000 0000
00000050: 0000 0000 0000 0000 0000 0000 0000 0000
00000060: 0000 0000 0000 0000 0000 0000 0000 0000
00000070: 0000 0000 0000 0000 0000 0000 0000 0000
00000080: 4c52 fb33 0000 0000 0000 0000 2ad8 fe33
00000090: 0000 0000 0000 0000 0000 0000 0000 0000
000000a0: 0000 0000 0000 0000 0000 0000 0000 0000
000000b0: 0000 0000 0000 0000 0000 0000 0000 0000
000000c0: 2589 1034 0000 0000 0000 0000 0000 0000
000000d0: 0000 0000 0000 0000 0000 0000 0000 0000
000000e0: 0000 0000 0000 0000 0000 0000 0000 0000
000000f0: 0000 0000 0000 0000 0000 0000 0000 0000
00000100: 33ce e234 32de 8a33 0000 0000 0000 0000
00000110: 0000 0000 0000 0000 7187 4c34 0000 0000
00000120: 0000 0000 0000 0000 0000 0000 0000 0000
00000130: 0000 0000 0000 0000 0000 0000 0000 0000
00000140: 7ba7 9d33 0000 0000 ce7a 2a34 0000 0000
00000150: 0000 0000 0000 0000 0000 0000 0000 0000
00000160: 0000 0000 0000 0000 0000 0000 0000 0000
00000170: 0000 0000 0000 0000 0000 0000 0000 0000
00000180: a808 dc35 0000 0000 0000 0000 6be4 7d32
00000190: b745 8d34 0000 0000 0000 0000 0000 0000
000001a0: 0000 0000 0000 0000 0000 0000 0000 0000
000001b0: 0000 0000 0000 0000 0000 0000 0000 0000
000001c0: 0000 0000 4a8a a331 a75e 3c31 f146 8b33
000001d0: 0000 0000 0000 0000 0000 0000 0000 0000
000001e0: 0000 0000 0000 0000 0000 0000 0000 0000
000001f0: 0000 0000 0000 0000 0000 0000 0000 0000
00000200: 0000 0000 9f07 d934 0000 0000 0000 0000
00000210: a25b 3134 0000 0000 cc2d e834 0000 0000
00000220: 0000 0000 0000 0000 0000 0000 0000 0000
00000230: 0000 0000 0000 0000 0000 0000 0000 0000
00000240: 0000 0000 0000 0000 0000 0000 2b3a 0e32
00000250: 06c6 5934 4213 1434 0000 0000 0000 0000
00000260: 0000 0000 0000 0000 0000 0000 0000 0000
00000270: 0000 0000 0000 0000 0000 0000 0000 0000
00000280: 0000 0000 0dfe a034 0000 0000 0000 0000
00000290: b2bf 1333 99c3 1334 0000 0000 0000 0000
000002a0: 0000 0000 0000 0000 0000 0000 0000 0000
000002b0: 0000 0000 0000 0000 0000 0000 0000 0000
000002c0: 0000 0000 0000 0000 3f0c 4433 0000 0000
000002d0: 00c4 2f33 6d90 e632 0000 0000 0000 0000
000002e0: 0000 0000 0000 0000 0000 0000 0000 0000
000002f0: 0000 0000 0000 0000 0000 0000 0000 0000
00000300: 0000 0000 0000 0000 170d 222f 0000 0000
00000310: 5c1a c932 0000 0000 09fe ab32 0000 0000
00000320: 0000 0000 0000 0000 0000 0000 0000 0000
00000330: 0000 0000 0000 0000 0000 0000 0000 0000
00000340: 0000 0000 0000 0000 d209 c131 0000 0000
00000350: 0000 0000 e495 ac2f 0850 8a30 0000 0000
00000360: 0000 0000 0000 0000 0000 0000 0000 0000
00000370: 0000 0000 0000 0000 0000 0000 0000 0000
00000380: 0000 0000 0000 0000 9da0 2f33 0000 0000
00000390: 0000 0000 8e07 a530 8f41 b233 0000 0000
000003a0: 0000 0000 0000 0000 0000 0000 0000 0000
000003b0: 0000 0000 0000 0000 0000 0000 0000 0000
000003c0: 0000 0000 a60b da33 0000 0000 0000 0000
000003d0: 0000 0000 c57a b932 8f03 7034 0000 0000
000003e0: 0000 0000 0000 0000 0000 0000 0000 0000
000003f0: 0000 0000 0000 0000 0000 0000 0000 0000

exp_avg f4 [16, 16]
0.0 0.0 0.0 0.0 0.0 0.0 0.0 0.0
0.0 0.0 0.0 0.0 0.0 0.0 0.0 0.0
-0.011421178 0.0 0.0 0.0 0.0 0.0 0.0 0.0
0.0 0.0 0.0 0.0 0.0 0.0 0.0 0.0
0.007169412 0.0 0.0 0.00052649825 0.0 0.0 0.0 0.0
0.0 0.0 0.0 0.0 0.0 0.0 0.0 0.0
0.0010152316 0.0 0.0 0.0 0.0 0.0 0.0 0.0
0.0 0.0 0.0 0.0 0.0 0.0 0.0 0.0
0.0051038787 -0.00030878992 0.0 0.0 0.0 0.0 0.0024910844 0.0
0.0 0.0 0.0 0.0 0.0 0.0 0.0 0.0
-0.0010430006 0.0 -0.0001981793 0.0 0.0 0.0 0.0 0.0
0.0 0.0 0.0 0.0 0.0 0.0 0.0 0.0
-0.0016663985 0.0 0.0 -1.1877607e-05 -0.006497799 0.0 0.0 0.0
0.0 0.0 0.0 0.0 0.0 0.0 0.0 0.0
0.0 2.0634356e-05 -6.667217e-05 5.080261e-05 0.0 0.0 0.0 0.0
0.0 0.0 0.0 0.0 0.0 0.0 0.0 0.0
0.0 0.013807533 0.0 0.0 -0.00084042095 0.0 0.0024257074 0.0
0.0 0.0 0.0 0.0 0.0 0.0 0.0 0.0
0.0 0.0 0.0 3.4747234e-06 0.00066094444 -0.00035313508 0.0 0.0
0.0 0.0 0.0 0.0 0.0 0.0 0.0 0.0
0.0 -0.008294448 0.0 0.0 0.000508213 0.0033457903 0.0 0.0
0.0 0.0 0.0 0.0 0.0 0.0 0.0 0.0
0.0 0.0 0.0044735544 0.0 0.0022096687 -0.0030627635 0.0 0.0
0.0 0.0 0.0 0.0 0.0 0.0 0.0 0.0
0.0 0.0 2.8851182e-05 0.0 0.00014940918 0.0 0.0010135969 0.0
0.0 0.0 0.0 0.0 0.0 0.0 0.0 0.0
0.0 0.0 0.0001226647 0.0 0.0 7.613661e-06 8.08197e-05 0.0
0.0 0.0 0.0 0.0 0.0 0.0 0.0 0.0
0.0 0.0 -0.001456241 0.0 0.0 3.4622175e-05 -0.0010045809 0.0
0.0 0.0 0.0 0.0 0.0 0.0 0.0 0.0
0.0 -0.0024554527 0.0 0.0 0.0 0.00034453417 -0.004902191 0.0
0.0 0.0 0.0 0.0 0.0 0.0 0.0 0.0
00000000: 0000 0000 0000 0000 0000 0000 0000 0000
00000010: 0000 0000 0000 0000 0000 0000 0000 0000
00000020: 0000 0000 0000 0000 0000 0000 0000 0000
00000030: 0000 0000 0000 0000 0000 0000 0000 0000
00000040: e41f 3bbc 0000 0000 0000 0000 0000 0000
00000050: 0000 0000 0000 0000 0000 0000 0000 0000
00000060: 0000 0000 0000 0000 0000 0000 0000 0000
00000070: 0000 0000 0000 0000 0000 0000 0000 0000
00000080: 63ed ea3b 0000 0000 0000 0000 b304 0a3a
00000090: 0000 0000 0000 0000 0000 0000 0000 0000
000000a0: 0000 0000 0000 0000 0000 0000 0000 0000
000000b0: 0000 0000 0000 0000 0000 0000 0000 0000
000000c0: 8511 853a 0000 0000 0000 0000 0000 0000
000000d0: 0000 0000 0000 0000 0000 0000 0000 0000
000000e0: 0000 0000 0000 0000 0000 0000 0000 0000
000000f0: 0000 0000 0000 0000 0000 0000 0000 0000
00000100: 703e a73b 15e5 a1b9 0000 0000 0000 0000
00000110: 0000 0000 0000 0000 7641 233b 0000 0000
00000120: 0000 0000 0000 0000 0000 0000 0000 0000
00000130: 0000 0000 0000 0000 0000 0000 0000 0000
00000140: 4bb5 88ba 0000 0000 5ace 4fb9 0000 0000
00000150: 0000 0000 0000 0000 0000 0000 0000 0000
00000160: 0000 0000 0000 0000 0000 0000 0000 0000
00000170: 0000 0000 0000 0000 0000 0000 0000 0000
00000180: 0e6b daba 0000 0000 0000 0000 ef45 47b7
00000190: 7deb d4bb 0000 0000 0000 0000 0000 0000
000001a0: 0000 0000 0000 0000 0000 0000 0000 0000
000001b0: 0000 0000 0000 0000 0000 0000 0000 0000
000001c0: 0000 0000 f117 ad37 59d2 8bb8 e314 5538
000001d0: 0000 0000 0000 0000 0000 0000 0000 0000
000001e0: 0000 0000 0000 0000 0000 0000 0000 0000
000001f0: 0000 0000 0000 0000 0000 0000 0000 0000
00000200: 0000 0000 fe38 623c 0000 0000 0000 0000
00000210: b24f 5cba 0000 0000 9ef8 1e3b 0000 0000
00000220: 0000 0000 0000 0000 0000 0000 0000 0000
00000230: 0000 0000 0000 0000 0000 0000 0000 0000
00000240: 0000 0000 0000 0000 0000 0000 4b2f 6936
00000250: 3b43 2d3a fd24 b9b9 0000 0000 0000 0000
00000260: 0000 0000 0000 0000 0000 0000 0000 0000
00000270: 0000 0000 0000 0000 0000 0000 0000 0000
00000280: 0000 0000 70e5 07bc 0000 0000 0000 0000
00000290: 9939 053a 0c45 5b3b 0000 0000 0000 0000
000002a0: 0000 0000 0000 0000 0000 0000 0000 0000
000002b0: 0000 0000 0000 0000 0000 0000 0000 0000
000002c0: 0000 0000 0000 0000 e596 923b 0000 0000
000002d0: 17d0 103b a5b8 48bb 0000 0000 0000 0000
000002e0: 0000 0000 0000 0000 0000 0000 0000 0000
000002f0: 0000 0000 0000 0000 0000 0000 0000 0000
00000300: 0000 0000 0000 0000 7105 f237 0000 0000
00000310: b9aa 1c39 0000 0000 abda 843a 0000 0000
00000320: 0000 0000 0000 0000 0000 0000 0000 0000
00000330: 0000 0000 0000 0000 0000 0000 0000 0000
00000340: 0000 0000 0000 0000 8e9f 0039 0000 0000
00000350: 0000 0000 da78 ff36 bf7d a938 0000 0000
00000360: 0000 0000 0000 0000 0000 0000 0000 0000
00000370: 0000 0000 0000 0000 0000 0000 0000 0000
00000380: 0000 0000 0000 0000 57df beba 0000 0000
00000390: 0000 0000 4737 1138 24ac 83ba 0000 0000
000003a0: 0000 0000 0000 0000 0000 0000 0000 0000
000003b0: 0000 0000 0000 0000 0000 0000 0000 0000
000003c0: 0000 0000 a9eb 20bb 0000 0000 0000 0000
000003d0: 0000 0000 98a2 b439 8fa2 a0bb 0000 0000
000003e0: 0000 0000 0000 0000 0000 0000 0000 0000
000003f0: 0000 0000 0000 0000 0000 0000 0000 0000
