models/encoder_state_dict_width1_test.pth (torch, 125986 bytes, 59 tensors)

dim_up.weight f4 [64, 8]
000000 81 b3 d0 bc 12 6f 98 3c 1b c3 13 3e 30 0d 9d bd
       -0.02547622 0.01860765 0.14429896 -0.07668531
000010 b3 81 2a 3b 32 8a 9c bc db 3e 8d bc 4f 33 16 bb
       0.0026017248 -0.019108865 -0.017241886 -0.0022918766
000020 c6 9f 6b bc 0e c0 89 bc 81 82 c0 bd 0e 04 3e bf
       -0.014381355 -0.016815212 -0.09399892 -0.74224937
000030 ba 72 8b 3c 80 02 04 3c 87 4f 27 3c b6 4d f6 bb
       0.01702248 0.008057237 0.010211832 -0.007516588
000040 0c 42 a0 bc 58 c1 ff bb e6 68 4e be 83 61 0a bf
       -0.019562744 -0.007805031 -0.20157203 -0.5405504
000050 bf 1d ec 39 db 11 c7 bc be d9 aa ba 6e dc 88 3c
       0.0004503559 -0.024300506 -0.0013034863 0.016706672
000060 37 30 cb 3b a4 f8 aa bc 01 8b 5e be e6 b6 37 bf
       0.006200816 -0.020870514 -0.21732713 -0.71763456
000070 5a d5 20 bc b2 c2 61 3c 90 59 71 bc 1b b2 a3 3b
       -0.009816492 0.013779329 -0.014730826 0.004995597
000080 bc fb e9 3c 57 36 d0 bc fa 1a 38 bd 2c 4d ec be
       0.02856242 -0.025416536 -0.0449476 -0.46152627
000090 ab 95 b8 ba 76 0a 44 3c 63 d5 06 3c 8c 39 3d 3c
       -0.001408269 0.011965385 0.008229586 0.011549365
0000a0 7f 19 20 3d 7b 9a 5d 3e cb 79 84 3b 91 f7 69 3e
       0.039086815 0.21640961 0.004042839 0.22848345
0000b0 74 8d 07 be 95 bc 58 bb 53 5e 93 3c 7a 81 8f bc
       -0.13237554 -0.0033071388 0.017989313 -0.017517794
0000c0 fe 62 42 3d 0a 3f ac bd 09 46 20 3e f7 43 9e be
       0.047457688 -0.08410461 0.15651716 -0.30911228
0000d0 b7 9d b5 3c b2 5a 5a bb 47 43 05 bc 26 96 1b bc
       0.02216993 -0.0033318219 -0.008133716 -0.009496247
0000e0 08 23 89 3d f7 fa 08 be c5 5d 02 bd d7 cd 2e bf
       0.06696135 -0.13376985 -0.031827707 -0.68282837
0000f0 bc 3d 42 ba 00 0f 66 3c 1b 78 3a 3c 71 46 f7 3b
       -0.0007409712 0.014041662 0.011381174 0.007546239
000100 53 ff 9d bc 74 27 cb 3d 60 f6 f3 3e 7d b9 81 3e
       -0.019286787 0.099196345 0.47648907 0.2533683
000110 bd 0d 5c bd 3d 80 9a bb a2 1e 68 3c d0 64 c3 bc
       -0.05372404 -0.004714994 0.01416746 -0.023851782
000120 e3 43 cf 3c df 5f 39 be 66 1a 77 be 59 2e 29 bf
       0.025300926 -0.18102978 -0.24131164 -0.66086346
000130 73 5b eb ba 08 89 2c 3c ae 7b 80 3a 56 91 7f 3b
       -0.0017956331 0.010530718 0.0009802484 0.003899654
000140 30 38 c6 bb cd c6 2d 3e 2e 65 af 3e 13 28 e9 3e
       -0.0060491785 0.16970368 0.3425688 0.45538387
000150 82 ef 74 bd 3c 92 a2 bc 7d d6 a2 3c 41 76 42 3c
       -0.059798725 -0.01984512 0.019877667 0.011869014
000160 0d e9 e4 bc 45 5d 1b 3e 18 bc 82 3e 2a 20 c9 be
       -0.027943159 0.15172298 0.2553413 -0.39282352
000170 98 f9 01 bb 1e 1b 5e 3b 15 04 ee 3b 66 ed 79 3b
       -0.0019832607 0.0033890675 0.00726367 0.0038135885
000180 97 06 70 bb 94 37 07 be 3e a9 94 3d 5c 24 4f be
       -0.0036625022 -0.13204795 0.07258843 -0.20228714
000190 88 e5 75 3d ea 65 54 bc 01 3e ca bb fe 4b da 3c
       0.06003335 -0.012963751 -0.006171942 0.026647564
0001a0 42 94 1e 3d 31 b6 f7 3d 24 c4 20 bd 69 d2 b9 3f
       0.03871561 0.12095297 -0.039249554 1.4517337
0001b0 86 43 65 bb 11 e5 ae bd fa ea a1 bc a7 e6 5a be
       -0.0034982874 -0.08539785 -0.019765366 -0.2137705
0001c0 69 7d c9 3c 34 46 f0 3e 7e b4 88 be 12 e1 07 40
       0.024595933 0.4692856 -0.26700205 2.1231122
0001d0 3e e6 4e bd fb 87 ce bf 05 d0 77 bc 53 81 9c bd
       -0.050512545 -1.6135248 -0.015125279 -0.07641854
0001e0 15 ea 7d bb 88 3a aa bd 79 80 20 be b5 83 8b bf
       -0.003874426 -0.08311945 -0.15674008 -1.0899569
0001f0 93 24 e7 3d 7e a5 89 bd aa 07 2e bd 70 85 29 3e
       0.11286273 -0.06721018 -0.042487778 0.16554809
000200 96 2d e0 3c e8 d4 00 3d b9 fc e7 3d a4 f1 e0 bf
       0.027365487 0.031453043 0.113275 -1.7573743
000210 4a c4 fb 3c 6b 0c 59 3a 25 ce 5a bd 5a 22 87 bd
       0.030733246 0.00082797435 -0.05341925 -0.06598349
000220 7a a2 30 bc 68 1a 52 be 5d 8d 48 be d0 b4 94 bf
       -0.010780925 -0.20517886 -0.19585176 -1.161768
000230 4c c1 4d bc 8b c9 41 bf af 01 5c 3c b2 bb b8 3e
       -0.012558293 -0.75698155 0.013428136 0.360807
000240 f1 d6 dc 3b 78 30 0e bc fb f1 df 3c 18 28 44 c1
       0.00673949 -0.008678548 0.027337065 -12.2597885
000250 32 27 0f bb 3e 98 2a bd 76 25 23 3a 96 99 6e bc
       -0.002184343 -0.041649096 0.00062235387 -0.014562985
000260 ee ae bb bb 13 2c 5a 3c cb 4f f8 3d 7b 2f a6 be
       -0.0057276404 0.013316172 0.12124594 -0.324581
000270 ac 37 33 3e 8b 23 76 3d d3 62 ac 3b f6 1d 18 be
       0.17501706 0.06009249 0.005260804 -0.14855179
000280 73 63 5b 3d ee 86 1a be e6 4d bf 3e d3 27 64 3c
       0.05356164 -0.15090534 0.3736412 0.01392551
000290 d8 4e 49 3d 2c 3a 64 bc 53 de 4b 3d 73 43 cf 3b
       0.049147457 -0.013929885 0.04977257 0.0063251792
0002a0 6c cd 93 bd b6 e4 a9 bd 3c 7c 95 bd 8c 43 82 3e
       -0.072169155 -0.08295576 -0.072990865 0.2544216
0002b0 e5 42 bb 3d 4f 1c b0 bc 97 d8 1d bc 31 60 6a 3d
       0.091436185 -0.021497874 -0.009634159 0.05722064
0002c0 b2 eb b1 bb 1d d3 8e bc 3d fe 41 3f c0 e6 37 c1
       -0.0054297084 -0.017434651 0.7577856 -11.493835
0002d0 7f 9e cc ba 4f 2e e1 bc c4 34 ea 3a 99 12 41 bb
       -0.00156112 -0.027487902 0.0017868509 -0.0029460548
0002e0 3a 46 ac 3c 9d 6b 1d 3e 84 88 8d be d9 09 0a bf
       0.02102958 0.15373082 -0.27643216 -0.53921276
0002f0 48 44 26 3e cb d2 bd bd 37 2c 37 bd c4 a1 d8 3d
       0.16236985 -0.09268721 -0.0447199 0.10577729
000300 ee dc ab 3b 66 d6 cd 3a b4 af 49 3f 34 59 20 c1
       0.0052448427 0.0015704155 0.78783727 -10.021778
000310 5f d7 13 bb d3 24 44 bc d0 8d 98 ba 4d e6 78 bb
       -0.002255879 -0.01197167 -0.0011638943 -0.0037979067
000320 33 bc a9 3c 3c 7c 95 bd 40 51 58 3f 1c c5 15 bf
       0.020719623 -0.072990865 0.8449898 -0.5850389
000330 63 3b 33 be 41 8c 37 3e fc 5f 93 bb 5d 64 44 3d
       -0.17503123 0.17924596 -0.004497526 0.047947276
000340 6f cc 27 bc 79 6d e3 3c 1b e7 f0 3b 32 44 07 41
       -0.010241612 0.027762162 0.0073517687 8.454149
000350 d9 ea 01 bb ed 73 e1 bb 0a 03 20 3b 55 da 4c 3b
       -0.0019823818 -0.0068802745 0.0024415874 0.0031258066
000360 70 3e b1 3c ac 66 46 be f5 98 35 bd 4c 76 b7 bf
       0.021636218 -0.19375104 -0.044335324 -1.4332976
000370 9c b9 91 bd f6 9c 01 3d 2f 3f ae 3b 17 28 0c bd
       -0.0711548 0.03164383 0.0053175907 -0.03421792
000380 10 02 63 bc c7 a2 a9 bc 02 7a 0c bd 37 0b 02 41
       -0.013855472 -0.020707501 -0.034296043 8.127738
000390 c9 c2 1f bb 36 c2 6a bc d9 ab 73 39 e7 b0 8d ba
       -0.0024377576 -0.01432853 0.00023238304 -0.0010810167
0003a0 16 96 08 3d b6 68 aa be c6 48 62 be 66 c1 ae 3f
       0.033346258 -0.33283013 -0.22098073 1.365277
0003b0 54 0a 2f 3c cb 05 04 be 3a a3 2c 3f 5a d4 7d be
       0.010683615 -0.12892835 0.67436564 -0.24788037
0003c0 42 36 0e 3b cc fb 41 bd f1 f3 fa be 30 b4 04 41
       0.002169982 -0.047359273 -0.49014238 8.293991
0003d0 11 cd 8a 39 4e 4c 5e bb 16 ba e5 3a 17 4c 96 3b
       0.00026474198 -0.0033919993 0.0017526771 0.0045867073
0003e0 e3 65 a3 bb a0 9f 9c 3a 8e ec a6 bc 7e 85 86 bf
       -0.004986511 0.0011949427 -0.02037647 -1.0509489
0003f0 98 af bb 3c 0e 89 4c 3f be 76 76 3a e2 47 50 3c
       0.022910878 0.7989663 0.0009401849 0.012712451

dim_up.bias f4 [64]
000000 17 07 74 be 62 dd 30 be 1d f1 23 bf e7 1b 4c bf
       -0.2383083 -0.17271951 -0.64039785 -0.79730076
000010 44 a9 29 bf 9c 0a a2 3e 50 ff 4a bf 03 2d 6e bf
       -0.66273904 0.3164872 -0.79295826 -0.9303743
000020 82 b5 40 bf 9d 6f 73 bf bc 03 50 bf b7 d3 75 bf
       -0.7527696 -0.95092183 -0.812557 -0.96026176
000030 10 97 43 bf e8 96 62 bf 39 11 9e be 48 82 36 bf
       -0.7640238 -0.88511515 -0.30872515 -0.71292543
000040 06 10 83 be 71 1a 6b bf 0c fb dc bd a6 58 29 bf
       -0.25598162 -0.9183722 -0.10790071 -0.6615089
000050 bc 2d 4d be ac e2 70 bf 11 8d 46 bd 56 d8 3d bf
       -0.20036978 -0.94095874 -0.048474375 -0.7415823
000060 0f f9 0a bd 5d 1e 51 be e7 98 fe bc 73 6b 7e bf
       -0.033928927 -0.20421739 -0.031078769 -0.99382704
000070 ef de a7 bc da fb 32 bf 4e 51 a1 bc 6a 55 80 bf
       -0.020492045 -0.69915545 -0.01969209 -1.0026066
000080 8c 12 8c bc f8 86 6e bf c3 cd 21 bc 3a a0 76 bf
       -0.017098688 -0.93174696 -0.009875718 -0.96338236
000090 92 97 ff bc 1e c5 79 bf a1 a9 0d ba 0d 7c 50 be
       -0.031200204 -0.975664 -0.0005404 -0.20359822
0000a0 42 c3 ee bb f0 43 5d bf c8 b4 8f bc 91 53 a5 be
       -0.00728646 -0.8643179 -0.017542258 -0.3229032
0000b0 55 f1 30 bc f2 2f 09 bf 0f c3 07 bb 6c 61 39 bf
       -0.010799726 -0.53588784 -0.002071563 -0.7241428
0000c0 99 8a 25 3b f1 24 8b 3b db dc b3 3d d2 16 43 bf
       0.0025259613 0.004246347 0.08782359 -0.76206696
0000d0 14 51 df bb 06 09 48 bf e7 fc 43 be 61 86 24 bf
       -0.006815085 -0.7813877 -0.19139443 -0.64267546
0000e0 36 fb 95 ba 7f 26 80 be 12 6e b1 ba a0 82 69 bf
       -0.0011442665 -0.2502937 -0.0013536832 -0.9121494
0000f0 0c e0 3c 3b bb 4d 81 bf ed ae 45 3b 31 1d 58 bf
       0.0028820066 -1.0101846 0.0030164078 -0.8441954

attention.w_q.weight f4 [64, 64]
000000 22 a9 e5 bd 06 33 d1 3b 27 ca 8d bd bc 2a 07 be
       -0.112139 0.0063842563 -0.06923323 -0.13199896
000010 0d d8 d1 bc 1e 73 86 3d 97 99 9f 3d ad 83 2c 3d
       -0.025615716 0.065649256 0.07792967 0.042117763
000020 58 0b 3e bc 94 5b 08 3e ca 0f bd bc 18 6c 35 3e
       -0.011599384 0.13316184 -0.023078818 0.17717016
000030 b9 ed 88 bd bb 29 f2 bb b7 24 cb bd f6 e7 d2 3d
       -0.06685967 -0.0073902286 -0.09919112 0.10298149
000040 ea c8 e1 bd c1 7a a9 3d 85 40 24 be ea 37 fb bc
       -0.110246494 0.082753666 -0.16040237 -0.03066631
000050 bb 46 a3 bd 42 10 ad ba 5c 71 6a 3e 39 b3 09 3d
       -0.07972475 -0.0013203698 0.22894806 0.033618186
000060 1a 2d e3 3e fd 37 c4 3b b5 8b 16 bf 1a fa c8 bc
       0.44370347 0.0059881196 -0.58806926 -0.02453332
000070 d7 86 3c bf e8 f4 1a be 92 8b 45 bf e6 f8 08 bd
       -0.7364325 -0.15132487 -0.7716609 -0.033440493
000080 6d 50 ac 3d 00 77 3e 3d 59 ec a8 bf 92 b1 42 bd
       0.084137775 0.046500206 -1.3197128 -0.047532625
000090 71 fb 66 bd 4c e0 43 3d f2 a8 ae 3f 7b fe 3d 3d
       -0.056392137 0.047821328 1.3645308 0.04638527
0000a0 75 f5 e6 3d 4c 18 9d 3d 2f 91 f0 bd 60 ad fb bc
       0.11277286 0.0767065 -0.117464416 -0.03072232
0000b0 a9 fe 0f bd 66 e1 a7 bd 49 2c c5 b9 51 c6 f5 3b
       -0.035154972 -0.08197288 -0.00037607763 0.007500448
0000c0 e3 c7 67 bf fe fd 8c 3c 21 3b 0a bc 5f 2a 9d 3b
       -0.9053938 0.017210957 -0.008436949 0.004796311
0000d0 a9 6f b6 3f ee 15 bd bc 1b 27 f3 bd fa a3 bc bd
       1.4252826 -0.023081746 -0.11872693 -0.092109635
0000e0 92 2f 9a 3f 5c 17 c7 bb bd 43 c6 3f f0 c8 2a 3c
       1.2045767 -0.0060757827 1.5489422 0.010423884
0000f0 08 43 7d bf 9d 1c cf 3c e1 1d 90 bf be 15 84 bd
       -0.98930407 0.025282199 -1.1259118 -0.064494595
000100 1e c2 92 bd 1d fe 28 be 66 ca 38 bd 5f 91 c4 3c
       -0.07165931 -0.16503187 -0.045114897 0.0239951
000110 91 b1 95 be 75 e9 8b 3d 75 8c 4a be ce 84 02 be
       -0.29237035 0.06831638 -0.19780143 -0.12745973
000120 d6 49 85 3d 0c c6 62 be 0f ce 8a 3d 99 90 bc be
       0.06508224 -0.22145861 0.06777584 -0.3682907
000130 b7 4e d7 3d f1 e4 de be 0c 37 bd 3d fe 6d fe bd
       0.105130605 -0.43534043 0.09239015 -0.12423323
000140 68 c0 39 3e 9c 64 0c be 50 8f cb be 1c 04 95 bc
       0.18139803 -0.13710254 -0.39757776 -0.018190436
000150 56 66 95 3e 61 40 a1 bc ec ae c5 3d a7 17 0a bc
       0.2917964 -0.019684019 0.09652504 -0.008428491
000160 de 5e cb 3e 88 f6 35 bd 94 dd cb 3f 61 0b 14 be
       0.39720815 -0.044424564 1.5926995 -0.14457466
000170 66 5c ab 3f cc 25 15 bc 10 5d e1 3e 4d c9 8e bd
       1.3387573 -0.00910325 0.44016314 -0.06971989
000180 05 85 c4 3d 5d c3 5a 3c e6 1a 24 3f a7 ed 7c be
       0.09595684 0.013352242 0.64103544 -0.24700032
000190 7f 77 8f 3d 39 93 3b 3d b8 2b 45 3f 6d 1b 07 3d
       0.07005214 0.0457947 0.77019835 0.03298514
0001a0 37 65 94 bd c0 74 f4 bc d4 2a 08 bd b4 e9 a7 3b
       -0.07245868 -0.029840827 -0.03324397 0.005124295
0001b0 8d 42 98 3d fe 0d aa bc dd 6c eb bc b4 10 bc 3c
       0.074345686 -0.020758625 -0.028738433 0.022957183
0001c0 8e 6b 16 3e 65 f7 e4 3c 62 df ab bd d0 e6 8f bd
       0.14689466 0.027949998 -0.08392216 -0.07026446
0001d0 1a ec a3 3e b8 52 91 3c 68 75 2a 3d ff 13 10 bd
       0.3201607 0.017739639 0.041615874 -0.03517532
0001e0 04 9b 48 3e 74 dd c2 bc 36 e7 9e 3e 45 6f c1 bd
       0.19590384 -0.023787238 0.31035775 -0.09445051
0001f0 7e ed 11 3e 16 8e 53 bd 75 da a3 3d 34 b4 f6 bc
       0.14250752 -0.051649176 0.08000652 -0.030115224
000200 10 1e c3 bd dc 93 05 3e 45 98 28 bd 07 99 ab bd
       -0.09527218 0.13044685 -0.04116084 -0.08378797
000210 c6 81 44 3e 0c fe d0 bd eb 95 ef 3c 59 68 ac 3d
       0.1919013 -0.102047056 0.029246291 0.0841834
000220 72 e3 74 bd cc 25 4e 3e a0 2a d8 bd 39 dc 1e 3e
       -0.05978722 0.20131606 -0.10555005 0.15513696
000230 17 2f 8f bd 63 07 89 3d d7 dd 70 3d 3f 85 67 3d
       -0.069914035 0.06690862 0.058805313 0.056523558
000240 d6 39 bf bd c5 a5 85 bd 18 15 90 3e c6 3b 03 3d
       -0.09337203 -0.06525759 0.28141093 0.032039426
000250 e0 b8 94 bd 89 7a 74 3d 34 66 1c be d6 32 61 3d
       -0.072618246 0.05968717 -0.15273362 0.05498012
000260 57 69 84 3b c1 dd d2 bd 77 8e 8d 3f 31 7a 31 bc
       0.004040878 -0.102962025 1.1059102 -0.010832355
000270 84 58 88 3f 1e 84 cd 3d 77 3a eb 3e 3d 71 17 be
       1.0652013 0.10034965 0.45943043 -0.1478929
000280 2c 10 cf bd bf 0e f6 3c 05 63 5a 3f ac 71 06 be
       -0.101105064 0.030036328 0.8530734 -0.131293
000290 bc c5 76 3c a9 44 ef 3d 86 04 ae be 09 21 a6 bc
       0.015061792 0.11683018 -0.33987826 -0.020279424
0002a0 c1 c0 04 be a1 31 8e bd bd 7b 32 3e 95 1e 28 bc
       -0.12964155 -0.0694306 0.17430015 -0.010261198
0002b0 37 c0 bd bd e6 fa 7e 3d ec 2a ad 3c ed 0b cc 3d
       -0.09265178 0.062250994 0.02113863 0.09963212
0002c0 9a 54 8d 3d 58 35 1a 3c c3 c1 b3 bd 3e 24 c6 3c
       0.06900902 0.009412132 -0.087771915 0.024187203
0002d0 08 b5 b0 3d 67 c9 90 3c 62 3f 19 3e d7 e3 16 3e
       0.08628279 0.017674161 0.14965585 0.14735352
0002e0 60 e0 30 3d c5 0d 4f bd 37 d6 81 be cc ea 96 bd
       0.04318273 -0.05055024 -0.25358745 -0.07369003
0002f0 a4 a0 19 3f 67 16 de bd 4f a5 27 3e 61 65 9f 3d
       0.60010743 -0.10844117 0.16371654 0.07783008
000300 e9 32 7c bc 51 4e cd bc 38 f2 5c bc 72 c0 d5 3d
       -0.015392997 -0.025061758 -0.013485484 0.10437097
000310 8e cd b5 bb 0d 80 9b 3d d0 66 2c bd 4e f0 96 3d
       -0.0055481857 0.07592783 -0.042090237 0.07370053
000320 54 ae 9a bd 54 07 05 3d 67 7a b5 bd 15 8b fb bc
       -0.07552782 0.03247769 -0.08861237 -0.030705968
000330 f5 74 b1 bc f5 d0 fa bd 9d e3 97 bc 3b f8 6a bd
       -0.021662215 -0.12246887 -0.018541152 -0.057365637
000340 04 0b d2 3d 2a 48 e0 bd 6d a3 f8 3f ee f6 aa bc
       0.10256007 -0.10951264 1.9424874 -0.020869698
000350 60 5c ff 3d 82 c9 95 bd 79 a7 1f 40 cb cb a5 bd
       0.12468791 -0.07313825 2.4945967 -0.08095511
000360 5e e1 43 40 b6 bb c2 bd 75 30 73 be 60 97 1e 3c
       3.0606303 -0.09508459 -0.23748954 0.009679645
000370 3b 96 e3 3d bc 6f 88 bd a5 d5 28 3e 4f f9 53 3e
       0.111126386 -0.06661937 0.16487749 0.20700572
000380 51 a2 3d 3e a8 40 48 bb da 18 21 3f 62 e2 c3 bc
       0.1851895 -0.0030556116 0.62928545 -0.023911659
000390 33 31 3a be cf db 66 3d 3e a0 b5 3f 39 37 77 bd
       -0.1818283 0.05636197 1.4189527 -0.0603554
0003a0 7b de 5c 3d a7 9a 91 bd c2 d3 0f 3e 74 c4 78 bd
       0.05392311 -0.07109576 0.14045623 -0.060734227
0003b0 f8 e6 c1 3d 72 fa 0a bd 3a 9c 00 bd 38 48 87 bd
       0.09467882 -0.03393025 -0.03139899 -0.066055715
0003c0 91 f0 88 3d b9 8d 4e bd d1 06 06 be 0e 36 71 bd
       0.066865094 -0.050428126 -0.13088538 -0.05888944
0003d0 6a 0b 43 be cf 9f b8 bc 93 5d 13 3e 65 c4 a8 bc
       -0.19047323 -0.02253714 0.14391164 -0.02060146
0003e0 95 ab c5 be a3 e6 cf bd 8b 48 04 be 4f 62 0e bd
       -0.3860747 -0.10151412 -0.12918298 -0.034761723
0003f0 77 fb 4d 3e 38 22 98 3d 55 cd 57 be f1 5b 1c 3d
       0.20115457 0.07428402 -0.21074422 0.03817362

attention.w_q.bias f4 [64]
000000 3c 6c 83 be 5c 92 7c 3f cc c4 1d 3f 13 84 1f 3f
       -0.25668514 0.98660827 0.61628413 0.62310904
000010 4f af 5f bd 00 9e ca 3e 9f 19 bf 3f 50 22 21 3f
       -0.054610547 0.3957367 1.4929694 0.6294298
000020 67 7d 05 3f f3 24 7a 3e e9 b6 c0 be 54 2f 8a bf
       0.52144474 0.24428158 -0.3763955 -1.0795693
000030 4f d1 4c 3f 0e 8c 15 bf b0 fb c7 3e 87 11 0a bf
       0.8000688 -0.5841683 0.3905921 -0.53932995
000040 b9 31 8c 3e a0 ba d4 be 20 9b c1 3e 6b a0 48 3e
       0.27381685 -0.41548634 0.37813663 0.19592445
000050 43 26 f7 3d 0e 49 09 bf 6d 86 26 3e aa 66 e5 3e
       0.12067845 -0.536271 0.16262217 0.4480489
000060 20 9c 9f be 4f 2a 8e 3f 71 12 95 be 13 84 0e bf
       -0.311738 1.1106662 -0.29115632 -0.5567028
000070 bc 68 fc bd cf 04 6f be 64 2b d1 bd 09 73 4c bd
       -0.12324664 -0.23341678 -0.10213354 -0.049914394
000080 a3 43 cc be 45 b3 b7 be 97 d9 1b bf 04 30 3a bf
       -0.39895353 -0.3587896 -0.6087889 -0.72729516
000090 80 ec 12 3f f9 1e b8 3d 24 b1 0a 3f 1f 3b 29 3f
       0.5739212 0.089902826 0.54176545 0.66105837
0000a0 73 24 e6 3e a5 bb 47 3f c3 b2 e8 3e 52 52 f6 3d
       0.44949684 0.780207 0.45448884 0.1202742
0000b0 4b 10 fd be 32 73 1c 3d 1a 0c 58 3e 48 49 10 3f
       -0.49426493 0.038195796 0.21098366 0.5636182
0000c0 9a e4 31 be d5 b9 a5 bf 6e b8 d6 be a2 51 8d bf
       -0.17372361 -1.2947336 -0.41937584 -1.1040537
0000d0 35 58 d6 3e 4c 16 ed be 02 0b 48 be 49 9c f8 be
       0.41864172 -0.46306074 -0.19535449 -0.48556736
0000e0 cc 32 99 3e be 70 f6 3e 79 73 ce 3e 2e 32 8e 3e
       0.29921567 0.4813289 0.40322474 0.2777266
0000f0 b1 9c d2 3e 0b 7d 32 3f d3 90 6f 3e 9f 94 be be
       0.4113517 0.6972205 0.2339509 -0.37222764

attention.w_k.weight f4 [64, 64]
000000 2f 25 f8 bd 9b 74 ee bc 91 94 55 be ca c8 da bd
       -0.12116467 -0.029108336 -0.20857455 -0.10682829
000010 67 55 79 bd df 5f 10 be 7b fb 04 3e 0f 96 ae bd
       -0.06087246 -0.14099072 0.12986557 -0.08524715
000020 c5 c1 90 3e a8 3c 0c be 9f 5b 53 3e 3c da 72 be
       0.28272834 -0.13695014 0.2064042 -0.23716062
000030 31 77 1b 3e 10 7e 95 be 0b ea 07 3e d5 35 06 be
       0.15182187 -0.2919774 0.13272874 -0.13106473
000040 ad ed f3 3e 9b e2 fd bd 16 6f f3 3e 86 3f 53 3d
       0.4764227 -0.12396737 0.4754569 0.051574253
000050 f2 c0 08 3f d5 c3 35 bd 77 65 77 3f c3 45 80 bd
       0.5341941 -0.044376213 0.966392 -0.06263306
000060 85 7d 77 3f cb 6c 8d 3b cd ba 0a 3e 7d 73 ac bd
       0.966759 0.0043159476 0.13547821 -0.08420465
000070 36 11 82 3e 84 73 06 3e ec eb 48 3d 51 16 b1 be
       0.25403756 0.13130003 0.049053118 -0.3458734
000080 b2 1b 3b 3e 66 1c fc 3d 3e 93 17 be dc 04 84 be
       0.18272284 0.12310104 -0.14802262 -0.25784957
000090 47 d3 ce 3d 4d ef da 3d be 45 17 3f 1a 01 bb 3b
       0.10098892 0.10690174 0.59090793 0.0057069184
0000a0 4f 1f 93 3e d3 ea 07 3e 32 ca 06 3e f1 63 c3 3b
       0.28734824 0.13273172 0.13163069 0.0059628417
0000b0 4b 4f 65 be 7e 33 02 3c 63 13 b1 3d cf 76 8a bc
       -0.22393529 0.007946847 0.08646276 -0.016902355
0000c0 c2 7a 23 be 6f 5c 23 bd 73 57 8d 3d 37 f6 94 bb
       -0.15964797 -0.039883073 0.06901445 -0.0045459527
0000d0 66 6d 39 3d 90 10 26 3d 09 45 eb 3b cf 89 dc 3b
       0.045270346 0.04054314 0.0071798605 0.0067302953
0000e0 cc eb f9 3e 1a 57 a1 ba a9 ba b2 3e b3 72 d3 bb
       0.4881271 -0.0012309283 0.34908035 -0.006452882
0000f0 ff e8 1f bf 3b 7d 39 be 3e 94 a0 bc fd 28 11 ba
       -0.624649 -0.18114178 -0.019601937 -0.0005537419
000100 e1 fc 7e bf cc 25 0c 3f 99 e4 28 bf 74 31 80 3e
       -0.9960461 0.54745173 -0.6597381 0.2503773
000110 1f bd fc be d7 a0 08 bd 33 d5 73 be fa c4 37 be
       -0.49363038 -0.033356514 -0.23811798 -0.17946234
000120 15 e2 10 be c2 dd 1e be 0c da 4f bd d3 8a 22 be
       -0.14148743 -0.15514281 -0.050745055 -0.1587327
000130 f8 44 43 3c ad 10 b1 3d 54 8e 16 3d 5d 11 2f 3d
       0.011918299 0.08645759 0.03675683 0.04274117
000140 94 93 e9 bb 72 44 3c 3d bc 3f e1 be b9 52 bb bd
       -0.0071281884 0.045963712 -0.43993938 -0.091466375
000150 5a 72 21 be 11 5c 2d 3c 17 f6 20 bf c1 61 c6 3c
       -0.15766278 0.010581032 -0.62875503 0.024216535
000160 f4 14 4c bf ec 30 cc 3c 65 d6 71 3e ce 25 5e 3d
       -0.7971947 0.024925672 0.23616941 0.054235272
000170 7e 2e da 3e a7 55 b8 3d 96 af c6 3e c1 f0 ca bd
       0.42613596 0.09000712 0.38805836 -0.099092014
000180 b7 f8 3e 3d d5 35 a9 bc 87 45 b8 3e e5 a3 7a 3d
       0.04662391 -0.020655552 0.35990545 0.06119146
000190 7f b5 ff bd 53 b6 3d be 18 ca 85 bf 1d 03 25 bd
       -0.124857895 -0.18526582 -1.0452299 -0.040286172
0001a0 86 cc 99 bd 3c f4 96 bd 0a dd 25 bd 6a c2 91 bd
       -0.07509713 -0.07370803 -0.040494002 -0.0711716
0001b0 c8 70 fa 3d 8d 10 6d 3d 51 c2 78 bd 07 c2 31 bd
       0.122285426 0.057877112 -0.06073219 -0.04339793
0001c0 5f f8 3d 3f 89 91 8c bd 88 1c b2 bd 2f 3a 1c 3a
       0.7420711 -0.06863696 -0.08696848 0.0005959598
0001d0 d0 c8 7f be 73 1d bd bb ec b6 a1 3c 69 d1 2a bd
       -0.24978948 -0.005771333 0.019740544 -0.041703615
0001e0 32 5f 93 be 20 bd 87 bd 22 5b 84 be f3 c3 4f bd
       -0.28783566 -0.066278696 -0.2585078 -0.05072398
0001f0 14 27 50 3f c4 98 60 bd 17 bd 8d 3e a7 23 5d 3c
       0.8130963 -0.05483319 0.27683327 0.01349727
000200 4d a0 73 3c ad 36 9a 3d fb 82 c3 bd 82 0f 0b 3f
       0.014869762 0.0752996 -0.09546467 0.5432054
000210 7d 07 fb bd 14 d4 58 bd 6b 1e ba bd 52 ff 2a 3e
       -0.12257288 -0.05293663 -0.09087833 0.1669896
000220 86 02 4d bd 41 ff c5 3c 70 ce b4 3d c4 ab cf bd
       -0.050051235 0.024169566 0.08828437 -0.101401836
000230 13 44 87 3d 3f a0 0a be 7c 9a 95 3d a3 f9 10 be
       0.06604781 -0.13537692 0.07304856 -0.14157729
000240 ed 12 10 be 50 8a c0 bc 5d e2 fa bd 77 a5 27 bd
       -0.1406972 -0.023503453 -0.122502066 -0.040929284
000250 5a 0c 9a bc 4d a8 46 bd 99 b0 e4 be cc 41 2b bc
       -0.018804718 -0.048500348 -0.44665983 -0.010452699
000260 1e 8a 3c bf 58 ce 33 3c 10 a4 dd bd d7 0f f7 3d
       -0.7364825 0.010974489 -0.10822308 0.12063568
000270 f7 71 8b 3d 92 73 6e 3d d2 30 45 be 11 04 86 bd
       0.068088464 0.058215685 -0.19256905 -0.06543744
000280 f5 ba d8 bc 45 f7 b4 3d 00 84 45 be c1 22 bd bd
       -0.026456336 0.088362254 -0.19288635 -0.092351444
000290 12 73 16 3e 12 9b a0 bd bd 46 ac be cf 4d d6 bc
       0.14692333 -0.07842077 -0.3364772 -0.026160149
0002a0 18 24 80 3c ae df 9d 3d 04 ff ee 3d 6d 62 ab bc
       0.01564221 0.07708679 0.11669734 -0.020920957
0002b0 0f f3 23 be ca ef 87 bc 4b 41 bc 3d 39 23 ad bd
       -0.16010688 -0.016593833 0.09192141 -0.08453984
0002c0 40 e5 a8 3e 60 f2 9b bc 0d ec 49 be 15 b2 8b 3d
       0.32987404 -0.019036472 -0.19718952 0.06821076
0002d0 b1 e2 69 3c 31 dc 3c 3c a6 dd 75 bb 79 b6 5f bd
       0.014275239 0.011527107 -0.0037516146 -0.05461738
0002e0 49 fd 10 3d ec 46 23 bd ed 91 cc bc 14 15 33 be
       0.0353978 -0.03986256 -0.024971927 -0.1748851
0002f0 39 63 de 3e be 00 97 bd 3d 22 12 3d 6b f2 92 bd
       0.43435076 -0.073731884 0.035677183 -0.07175144
000300 be 72 93 3f 3c 88 df be b3 a0 37 3f ab 92 fd 3c
       1.1519392 -0.43658626 0.7172958 0.030953726
000310 3a 99 ca 3e b6 b0 04 3d 33 a9 29 3e 51 99 b9 3d
       0.39570028 0.032395087 0.1656845 0.09062446
000320 09 1a d6 3d 0f b7 56 3d 99 9d 7a 3d ad f4 8e 3d
       0.104541846 0.052420672 0.061185453 0.06980262
000330 83 e3 1a 3d db 8d 73 be 32 d5 17 bc 7c 43 fb bd
       0.03781463 -0.23784582 -0.009267138 -0.12268731
000340 84 b0 22 3d 4d e2 d7 bd f4 50 29 3e bb 96 0e 3d
       0.03971912 -0.1054121 0.16534787 0.034811717
000350 d4 94 2e 3e 31 a9 82 bd 8e 5c 7e be 8f c3 3c bd
       0.17048961 -0.06379927 -0.24839994 -0.046084937
000360 f9 8a 40 be a7 1f 0c 3d fa f2 82 3f 8f 34 89 ba
       -0.18803014 0.034209874 1.02304 -0.0010467934
000370 46 7a 88 3f 29 90 ca 3d 3f 27 8f 3f 14 4a b3 3d
       1.0662315 0.098907776 1.1183852 0.08754364
000380 86 d4 fd 3c 4f 77 81 bd 0b 9b ad 3f 7f ce 94 bd
       0.030985128 -0.063215844 1.356294 -0.072659485
000390 34 27 2b 3d f9 25 49 bd c6 6e 2e bf ff c0 4a 3b
       0.041785434 -0.04910848 -0.68137777 0.0030937789
0003a0 58 c5 aa 3d 47 22 08 bd ae 60 2c 3b 14 dc 05 bd
       0.083384216 -0.033235814 0.0026302743 -0.032680586
0003b0 92 d3 4f bd e9 55 35 3d 3f 75 0a 3d 59 40 cc 3c
       -0.05073888 0.044271383 0.03380322 0.024933027
0003c0 d4 5b 87 3f 9e fb b6 bc be 5f 9c 3b 7a ff 90 3d
       1.0574899 -0.022336777 0.0047721555 0.07079978
0003d0 a7 51 8f bf ef 55 aa 3d 2d 84 01 bd 17 5f c6 bb
       -1.1196793 0.08317172 -0.031620193 -0.006053816
0003e0 3c df ab bf 56 ae 02 3c 78 5c 9d bf b3 1f b6 bc
       -1.3427501 0.007976135 -1.2293844 -0.022231912
0003f0 dc 46 95 3f f3 7c 92 3d 3d 94 66 3f d8 a9 8b 3d
       1.166225 0.071527384 0.90069944 0.068195045

attention.w_k.bias f4 [64]
000000 aa c8 a3 bd 50 7f bc 3d 43 d7 0b 39 18 c9 b6 3d
       -0.07997258 0.092039704 0.00013336264 0.08925074
000010 ae ec f2 bd 85 64 02 bd 8b 53 e6 bb 0e cd 5b bc
       -0.11861549 -0.031834144 -0.007029002 -0.013415588
000020 b0 7c 3b bd fe 68 ea 3d e9 96 b3 bc 17 23 d6 3d
       -0.04577321 0.11445807 -0.021922546 0.104559116
000030 bd d0 fe bd f0 3f ab bd 4f cb 91 bd ac 3f fc bd
       -0.124421574 -0.083618045 -0.07118856 -0.12316832
000040 c2 c2 fe 3d 67 2f d6 bd dd 98 e8 3d 5c 40 ed 3d
       0.12439491 -0.1045826 0.11357281 0.11584541
000050 a1 56 0b bd 21 71 4c 3d 87 6b 81 bc b3 65 c9 3d
       -0.034018163 0.049912576 -0.015798343 0.09833851
000060 1b 9b eb bd fa 38 1a 3d ca de fe 3c fb 47 52 bd
       -0.115041934 0.037651993 0.031112093 -0.051338177
000070 92 d7 61 bc 07 b0 84 bd 81 73 4f bd 4d af 83 bd
       -0.013784306 -0.06478887 -0.050647262 -0.0642992
000080 08 64 b6 bd 7b 20 d5 bd fe 26 b3 bd 19 c5 ad 3b
       -0.08905798 -0.10406586 -0.087476715 0.005303037
000090 78 55 3b bc d8 b9 db 3d 50 47 d4 3d 66 a5 f0 ba
       -0.011433952 0.10728806 0.10365164 -0.001835984
0000a0 24 48 9e 3d 05 74 c1 bb 0a 9c d7 3c b7 fa 35 3d
       0.077286035 -0.005903723 0.026319522 0.044428553
0000b0 4f 17 94 3c 3e 8e 81 3d 1e 1b 86 bc b3 a2 a9 bd
       0.01807752 0.06325959 -0.016370352 -0.082829855
0000c0 95 39 00 3e 1d 29 dc bd 43 5c e6 3d dc a1 37 3d
       0.12521966 -0.10750029 0.11248066 0.044832096
0000d0 8b 4a 25 3c ef 3d 6f bd 22 3e 5c bc 8b fe 9c 3d
       0.010088573 -0.058408674 -0.013442548 0.07665738
0000e0 5e 7a dc 3c aa 9f be 3d ac b2 f6 3b 11 1f dc bd
       0.026913818 0.09307797 0.0075286236 -0.10748113
0000f0 85 08 fc bd b7 52 73 bd d6 79 66 3c 9c 67 ac 3c
       -0.123063125 -0.059405055 0.014067134 0.021045499

attention.w_v.weight f4 [64, 64]
000000 cb 4c c9 bd 92 20 35 3e 38 8c 0b be 8a 67 23 be
       -0.098291 0.17688206 -0.13627708 -0.15957466
000010 be a0 31 bb f6 2f e9 bd 14 a1 19 3d 6c 6a b1 3c
       -0.0027103866 -0.11386101 0.03750713 0.021657191
000020 82 3a 41 3e bb 9c 0c 3d e3 c8 77 3d 9b 1e 02 3e
       0.18869975 0.034329157 0.060494315 0.12706988
000030 af a0 c8 3d 2f 1f 03 3e d3 9c 40 3c 36 52 42 3d
       0.09796273 0.12804864 0.01175614 0.047441684
000040 f5 fb a0 bd d5 bc 7e 3d bf 8b 81 be 2b d0 9b 3b
       -0.07860557 0.062191803 -0.2530193 0.00475504
000050 49 fb 6f 3d 56 09 24 3d dd c9 b5 3b 82 05 67 3d
       0.058589254 0.040047966 0.0055477456 0.056401737
000060 e9 f9 4e 3d 78 cb d6 ba 09 ef e8 bd 1d d4 3e 3d
       0.0505313 -0.0016387543 -0.11373717 0.046589006
000070 83 50 a5 bd a2 fb 85 bd dd 52 87 be 6f d6 81 3d
       -0.08071997 -0.06542136 -0.26430407 0.06339728
000080 ca 68 ab ba ad 5c 2c bd cb 2c 81 be fe 16 c4 bd
       -0.0013077494 -0.04208057 -0.25229487 -0.09574698
000090 f3 78 b2 bd 35 47 38 3d 14 61 a5 3d b1 fe 11 3d
       -0.087144755 0.044989783 0.08075157 0.035643283
0000a0 b7 33 83 bc ed f4 ef 3c bf 6b 19 bd d5 a3 8c 3b
       -0.01601587 0.029291594 -0.03745627 0.0042919912
0000b0 cc 2f 44 3d ea 03 56 bd fe 04 35 bd eb 83 77 bd
       0.047897145 -0.052249826 -0.044194214 -0.06042854
0000c0 7d b1 3d be f0 77 2b 3d 28 32 b6 3e f4 d3 d6 3c
       -0.18524738 0.04186243 0.3558514 0.026224114
0000d0 22 d3 85 bd 22 8c 56 3d d3 3b f4 bc 63 86 3b bd
       -0.06534411 0.052379735 -0.029813683 -0.045782458
0000e0 66 51 94 3d 3a f6 e6 3c f6 70 1a 3e 28 aa 41 3e
       0.07242088 0.028193582 0.15082154 0.18912566
0000f0 5c dc a2 be 2f 92 3d 3d f0 14 e3 3d 7e 98 5d bd
       -0.31808746 0.04628199 0.11087978 -0.054100506
000100 40 6b a0 3e c3 66 e3 bd 2b 19 c8 3d 18 c7 cd be
       0.31331825 -0.111035846 0.097704254 -0.4019096
000110 bc 77 b7 3d 1a e5 2f be fb d0 3a 3e fa c5 f1 bd
       0.089583844 -0.17177239 0.18243782 -0.11805339
000120 1b 45 d4 3e b1 4e 84 bd 51 f0 ce 3e 07 dd 94 bd
       0.41458973 -0.06460322 0.40417722 -0.0726872
000130 cd 02 7f 3e 7f 13 13 be 53 33 2f 3d 0e 09 eb bc
       0.24903412 -0.14362906 0.042773556 -0.028690841
000140 08 39 aa 3e 6c e4 2e bd f3 fe 5b 3d 48 c5 a6 3c
       0.33246636 -0.04269831 0.053709935 0.020357743
000150 05 dd b4 3e b9 8d 91 bd 27 d4 39 3d ff f3 ed 3c
       0.35324875 -0.071071096 0.04536834 0.02904701
000160 85 96 0f bd 83 3e ac 3c 2b 30 4d 3e d1 3f cb bd
       -0.035055656 0.021025902 0.20037906 -0.099242814
000170 be 44 18 3e 58 80 90 bd 1a 04 25 3e 10 9d 5b bc
       0.14869973 -0.0705573 0.16114846 -0.013404146
000180 9f 7f 57 bc 5f 83 28 bd d2 ba 0c 3e 9d b1 10 bd
       -0.013152986 -0.04114091 0.13743141 -0.035325635
000190 58 13 8a 3e eb ec 85 3d ac 36 cb bd 52 1a c7 3c
       0.26967883 0.06539329 -0.09922537 0.024304543
0001a0 4b b0 06 bd f7 77 e2 3c 8f 3f a3 3c ab 96 f0 3c
       -0.03288297 0.027645094 0.019927768 0.02936872
0001b0 70 eb 24 3d 01 9a 16 bd 6c 72 03 bd 9f 89 0d 3d
       0.040263593 -0.036767963 -0.032091543 0.034555074
0001c0 48 e7 ef 3c 83 ad 18 3c 53 b3 a7 3d 22 6e f7 bc
       0.029285088 0.009318712 0.081885 -0.030203883
0001d0 3a 5b c8 bd 85 03 e9 3c 58 e9 b6 bc 74 54 84 3c
       -0.09783025 0.028444061 -0.022328064 0.016153552
0001e0 3f a5 f8 3c b5 4f f8 3b ae 37 28 be 58 20 16 3d
       0.030352233 0.007577861 -0.1642749 0.03665194
0001f0 93 ef 54 bb 75 d6 a8 bb 42 74 71 3d 61 0b a7 bd
       -0.003249143 -0.0051525184 0.058948763 -0.08156467
000200 ae 5e 8c 3e 53 13 72 be ca 68 c7 3e 42 c1 9f bc
       0.27415985 -0.23640184 0.38947135 -0.019501332
000210 e1 b1 c0 3d c5 ca 00 3d aa 22 d5 bb d1 c7 5a 3d
       0.09408928 0.031443376 -0.0065043764 0.053413216
000220 71 3c a2 3d 4f ce db 3c 8d 03 4a 3e d9 de 10 3b
       0.079216845 0.026831774 0.19727917 0.0022105484
000230 3a a4 15 3e 2b 96 36 bd 3c af b7 3c 9b 4b 40 bd
       0.14613429 -0.044576805 0.022422425 -0.046947103
000240 e5 6e 1b 3e 54 08 14 be 04 93 e0 bd fa 1f 80 3d
       0.15179022 -0.14456302 -0.10965541 0.06256099
000250 92 bd 9d 3e 8a 5d 0c 3e c3 3d f3 bd e7 00 db 3c
       0.30808693 0.13707557 -0.118770145 0.026733829
000260 e4 c5 a0 bc 7f c0 4f 3d b4 75 30 be d2 9f 15 bd
       -0.019625612 0.050720688 -0.172324 -0.03652937
000270 54 a6 19 be 9a 6f 23 3e 80 a4 54 be c0 ec a1 bc
       -0.15004855 0.15960541 -0.20765877 -0.019766212
000280 63 52 e9 bc 90 ec 2b 3e bf b0 6d be 58 90 5a be
       -0.028481668 0.1678946 -0.23211955 -0.21344125
000290 15 e0 8f 3d 7b fa a4 3e f8 da 0e 3e 73 92 b3 3c
       0.07025162 0.3222235 0.13950717 0.021920418
0002a0 a2 45 0c 3d 1d 44 a3 3d d4 04 bb 3e 2c ff 38 3d
       0.034246095 0.07971976 0.3652712 0.045165226
0002b0 95 79 11 bd fb d7 a5 3c 1e ba 43 3d 43 db c4 3d
       -0.03551634 0.02024459 0.047784917 0.09612133
0002c0 f0 06 2a be 84 88 83 bb 0e 92 44 bd 73 66 41 3c
       -0.16604209 -0.0040140767 -0.04799085 0.011804211
0002d0 f7 e7 92 3d 2b 48 99 3d f0 65 42 3c af 8a ac 3d
       0.0717315 0.07484468 0.011865124 0.08424889
0002e0 17 5a b8 3e 59 59 91 3d 68 57 05 3e 16 bc 3a be
       0.36006233 0.0709712 0.13021624 -0.18235812
0002f0 8c be a2 be 2b f5 48 3c 4c ce 8e 3d 97 af bf 3d
       -0.31786 0.012265484 0.06972942 0.09359663
000300 01 f5 d1 bd 95 5c 45 bc 5b e5 60 bd 29 8e 2d be
       -0.10251809 -0.012045999 -0.05490623 -0.16948761
000310 64 da 1e bd 2f b4 33 bd 6a 28 92 bb fc b9 b3 bd
       -0.038782492 -0.04387301 -0.004460384 -0.08775708
000320 72 f6 08 3e 20 0d c0 bd 7e 72 c0 3d bf 92 21 be
       0.13375261 -0.093775034 0.09396838 -0.15778635
000330 0d 98 cb 3d a5 09 0c be 0a 8a e1 3d c9 b0 c2 bd
       0.09941111 -0.13675554 0.11012657 -0.09506375
000340 aa 68 80 3e 5b 26 50 3d 7f 69 84 3e 5d 19 7a bc
       0.25079852 0.05081783 0.25861737 -0.015264836
000350 d9 9c 45 3e ce 39 ec 3d 41 19 51 3e e7 7d 93 3c
       0.19298114 0.11534463 0.2041979 0.01800437
000360 02 42 d9 3d 8e e9 b0 bc 04 f5 6a 3d 81 07 5b be
       0.10608293 -0.021595743 0.05736257 -0.21389581
000370 95 44 77 3c 42 fb 6f 3b dd 80 08 3e 08 52 e5 bd
       0.015092035 0.0036618267 0.13330407 -0.11197287
000380 c3 b1 14 3e e5 8d 98 3d e9 10 51 bc 1e d4 77 be
       0.14520936 0.07448939 -0.012760379 -0.2420201
000390 48 fa b5 bd 02 b4 0a 3e 27 4a 6b 3c d2 fc 34 bc
       -0.08885628 0.1354523 0.014360941 -0.011046605
0003a0 f0 c8 0e 3e 40 7c b3 bd 39 10 3f bc 49 6e ae bc
       0.13943839 -0.08763933 -0.011661583 -0.021292822
0003b0 ea 3a 21 be 93 4f 2c bc b8 61 a8 3d 54 67 54 bd
       -0.1574513 -0.010517019 0.08221763 -0.051856354
0003c0 8b ca a2 b8 c1 52 66 3a ff 95 58 bd 04 6b 23 3d
       -7.7624885e-05 0.0008786135 -0.052877422 0.03989698
0003d0 9a ee 69 3d c7 95 07 bd f1 20 05 3d e8 9e 2f bd
       0.057112314 -0.033101823 0.03250212 -0.042876154
0003e0 00 6e 10 3d ad 5f fe 3a 48 d4 ed bd 1d 3a 02 be
       0.035261154 0.0019407176 -0.11612755 -0.12717481
0003f0 89 2d ac bd e0 51 08 be be d5 14 bd 05 5f 29 3d
       -0.08407123 -0.13312483 -0.036336653 0.041350383

attention.w_v.bias f4 [64]
000000 a6 d5 e5 3d 97 64 aa 3d e0 aa 53 3e 0a 62 5d be
       0.11222391 0.08319967 0.20670652 -0.2161943
000010 08 d0 70 3e 9d fa 8d 3d 4f 87 d9 3d ad ba 0c bd
       0.23516858 0.06932566 0.10621511 -0.034357715
000020 ea 15 06 3e 8e f1 fa bc 2c 52 e6 bd 53 48 2e 3e
       0.13094297 -0.03063276 -0.11246142 0.17019777
000030 b5 26 76 3d 1f 3a a4 bd 4d 00 f0 3d b1 ad 88 3e
       0.060095508 -0.08018898 0.11718807 0.26695016
000040 b4 33 f8 bc 95 12 dc 3c f7 df 4b 3d 7f bb 9a 3e
       -0.030298091 0.02686433 0.049774136 0.30221173
000050 fb b4 67 bb 8a 11 12 3c 08 74 50 3e 48 8a d8 3e
       -0.0035355675 0.008915314 0.20356762 0.42293
000060 26 df e2 3d 64 c8 06 ba ee 41 4d bd 25 40 27 be
       0.110777184 -0.0005141555 -0.050111704 -0.16333063
000070 8c 0c 44 be d8 61 bc bd 2a 0f 8f 3b a8 2e 07 3e
       -0.19145411 -0.0919835 0.0043658214 0.13201392
000080 79 e6 7b bd 8a 70 9d be 9c b2 6d bd 4c e8 c2 bd
       -0.061499093 -0.30749923 -0.058031663 -0.09516963
000090 79 7e 2d bd bc c9 d2 bc 8c 8a 60 3d 18 2e f6 3c
       -0.04235694 -0.02573096 0.05481963 0.030051276
0000a0 f1 55 34 3e 37 b7 8a be 13 fc bc bd 7c 89 26 be
       0.17610909 -0.27092907 -0.09227767 -0.16263384
0000b0 d5 f4 68 3e ef 3d e2 bd 94 62 22 be c1 a6 a7 3e
       0.22749646 -0.11046969 -0.15857917 0.3274441
0000c0 1b 1e a3 bd d4 04 3a bd 0c 37 4e be 65 c6 98 3e
       -0.079647265 -0.04541476 -0.20138186 0.29838863
0000d0 79 99 ae 3e 59 ec 5a bd 13 70 58 bd f2 d9 22 be
       0.34101465 -0.053448055 -0.052841257 -0.15903452
0000e0 75 bb db bd 90 91 01 be f1 eb 89 be cc b8 03 3f
       -0.10729114 -0.12653184 -0.26937822 0.5145385
0000f0 0e 7c 19 3d 61 81 c1 3e 65 f0 81 3e a0 06 89 bd
       0.037471823 0.3779402 0.2537872 -0.06690717

attention.w_concat.weight f4 [64, 64]
000000 7e f3 8e 3e 86 18 3f 3e 66 93 1d bf ab 50 9f be
       0.27920145 0.18661699 -0.6155304 -0.31116232
000010 0a 20 e9 be a8 1c ec 3e 05 1a 43 3e f4 6a 6c 3f
       -0.45532256 0.46115613 0.19052894 0.923507
000020 e5 1f a2 3e 68 b4 9e bd 94 7a 89 bf 2a 4e 14 3e
       0.3166496 -0.077492535 -1.0740533 0.14482942
000030 50 3f 32 3f ef cf c9 be 9b 74 05 bf 3e c2 26 3f
       0.6962786 -0.39416453 -0.5213105 0.6514014
000040 e6 40 65 be 72 c1 6e be 02 13 3c 3f 46 83 df be
       -0.22388038 -0.23315981 0.73466504 -0.4365484
000050 3d c5 ad be da 6f 19 3f 67 bc b8 3e b2 48 0e 3e
       -0.33939543 0.59936297 0.3608124 0.13894919
000060 30 36 f2 bb fe 62 ef 3d 5d b3 dc 3d 90 92 cf bd
       -0.0073917136 0.11688803 0.10776398 -0.101353765
000070 d0 03 b4 3e 1d 31 3c 3d 73 d8 3b bd ad 42 2b 3e
       0.3515916 0.045945276 -0.04586072 0.16724654
000080 1c cb 6a 3e 17 a3 8c be 85 b3 c9 3e 32 c0 f9 3e
       0.22929043 -0.27468178 0.39394775 0.48779446
000090 74 62 21 3e e3 33 ac be e6 87 58 3f 68 73 3f be
       0.15760213 -0.33633336 0.84582365 -0.18696368
0000a0 0c e9 90 3d 10 05 5d bd 20 70 b4 3e 31 68 3a 3e
       0.070757 -0.053959906 0.35241795 0.18203808
0000b0 2f 2c 42 3e 92 2e d6 3e 43 83 6c 3e 09 25 1f be
       0.18962167 0.41832405 0.23096947 -0.15541472
0000c0 38 6f 86 be 40 96 94 3d ff 1b b4 3d bf d5 63 bd
       -0.26256728 0.072552204 0.08794402 -0.055623766
0000d0 1a 9f 57 3e 7f 0d 7a be d0 14 a7 be c1 24 65 3b
       0.21056786 -0.24419211 -0.32633066 0.0034964534
0000e0 e9 a9 e2 3e 45 62 7b bf b9 94 c1 3c 7a ff 7d 3d
       0.44270256 -0.9819682 0.023630487 0.06201122
0000f0 ed 05 37 bf 2e 09 37 be 7f 59 95 be f9 f1 c1 bd
       -0.7149342 -0.17874596 -0.29169843 -0.09469981
000100 be 2d 61 be 8e 46 50 3d d1 b2 77 3e 48 02 99 3c
       -0.21990106 0.050848536 0.24189307 0.018677846
000110 9a 8e 1d bc 3a 19 e7 3d 6c 65 2f 3c 7d d0 16 be
       -0.009616518 0.112841085 0.010705333 -0.1472797
000120 dd c5 7a bd 53 f1 d6 3e 2b 35 45 be 77 b2 8c 3d
       -0.061223853 0.4198099 -0.19258563 0.06869977
000130 90 9f 50 bd a2 20 24 be a3 df 92 be c0 4d 65 bd
       -0.05093342 -0.16028073 -0.28686246 -0.05598235
000140 46 06 c5 3e e4 ac d5 bd b5 0f 54 be 0e a5 78 bd
       0.3848135 -0.10433367 -0.20709117 -0.060704283
000150 6f f3 04 be 63 e4 52 3d a4 70 67 3d 4e c0 6b 3d
       -0.12983488 0.051487338 0.056503907 0.057556443
000160 9a 0a b1 be 3e 4c a1 3d 09 38 8b 3e a8 2f 18 be
       -0.345784 0.0787587 0.2719119 -0.1486193
000170 96 24 18 3f 14 5b bf 3d 93 25 34 be 79 5b 0a 3f
       0.59430826 0.09343544 -0.17592458 0.54045826
000180 02 1a 8a 3e 8d f8 ab bc 4c 8f e0 3e 62 9f 48 3e
       0.26972967 -0.020992542 0.43859327 0.1959205
000190 a0 9b cd be e9 07 d9 be b3 5f fd 3e e7 fe b5 be
       -0.40157795 -0.42388847 0.49487075 -0.35546038
0001a0 58 61 6c be 69 89 11 3e 87 77 6f be 62 f8 23 3d
       -0.23084009 0.14212574 -0.2338544 0.0400318
0001b0 b5 38 f5 bd 0a d1 cf 3d c3 97 03 bd c4 6c 39 3c
       -0.11973707 0.10147293 -0.032127153 0.011317436
0001c0 04 77 a4 be 88 46 5f be 78 b9 37 bd 04 78 63 be
       -0.32122052 -0.2180425 -0.04485461 -0.22213751
0001d0 d3 c8 e5 be 18 42 95 be 74 76 b3 bd b3 25 fa be
       -0.4487978 -0.29151988 -0.087628275 -0.48856887
0001e0 6c ba 09 be 91 08 bc be 9e ee c3 3e ba d2 41 3f
       -0.1345002 -0.36725286 0.38267988 0.7571217
0001f0 84 0c 99 be d6 72 60 3d 23 52 80 be c3 bb 24 be
       -0.2989236 0.054797016 -0.25062665 -0.1608725
000200 03 96 3e 3e 23 50 13 3e ce ef dc 3e 3d 3a a5 3b
       0.18611912 0.14386038 0.43151706 0.005042343
000210 69 b1 3a be 37 31 1a 3e dc d2 6c 3e e4 8f 18 bf
       -0.18231739 0.15057836 0.23127311 -0.5959456
000220 91 ce 2f 3e 6c 8a 9b be 99 29 16 bc 2f c3 b9 3e
       0.17168643 -0.30379045 -0.009165191 0.36281726
000230 8e b3 c7 be ac 11 8a 3e 07 42 b2 3e 90 5a 06 3d
       -0.39004177 0.26966608 0.34816 0.03280121
000240 96 a7 d1 3d e5 ef 0c 3f 18 e3 45 3e 28 50 4f 3d
       0.102370426 0.5505355 0.1932491 0.050613552
000250 ea 95 4c 3f 7d 97 96 be 77 73 d1 bd 69 b4 97 be
       0.7991625 -0.2941245 -0.10227101 -0.2962983
000260 a0 98 8a 3e de 92 d8 be b7 af 42 bd 97 c3 27 be
       0.2706957 -0.4229955 -0.047530856 -0.16383205
000270 09 f1 87 3f 0c 2f 95 be e8 0c d6 bd 58 ea 30 bd
       1.0620433 -0.29137456 -0.104516804 -0.043192238
000280 cc a4 ae 3e 58 69 d6 3d 2e d5 21 3f 6d 98 f9 3e
       0.34110105 0.104693115 0.6321591 0.48749104
000290 57 73 3d be 41 b9 eb be 99 86 4b be 62 49 88 bf
       -0.1850103 -0.46039775 -0.19875564 -1.0647395
0002a0 32 eb bc be f2 c1 00 bd d9 16 f8 bd 2f 48 78 bd
       -0.3689819 -0.03143496 -0.12113733 -0.060615715
0002b0 00 80 9d bc 4a 89 8d 3e 66 3f 0c be 77 49 75 be
       -0.019226074 0.27643806 -0.1369606 -0.23953806
0002c0 69 d8 a3 3e 49 62 06 bf c5 45 f7 bd e7 9c 47 bf
       0.32001045 -0.5249372 -0.12073854 -0.7797379
0002d0 31 50 3e 3f c3 69 d6 3e 5d e3 b6 3e 1f 15 13 3f
       0.7434111 0.41877565 0.3572034 0.57454103
0002e0 fb 8a 80 bf 8b 73 56 3c f2 7b b1 be 80 36 0c 3e
       -1.0042413 0.013089071 -0.34664875 0.13692665
0002f0 fe c3 ae 3d af 62 0d 3d fe 51 42 bf 23 56 88 bf
       0.08533476 0.03451794 -0.7590636 -1.0651287
000300 ed 61 76 3e ec 76 b7 be b7 90 da 3e 6c 45 f1 3e
       0.24060793 -0.35832918 0.42688534 0.47123277
000310 d6 68 bb be 51 60 2a be 08 83 6f 3d 43 74 71 be
       -0.3660342 -0.16638304 0.05847457 -0.23579507
000320 79 14 d1 be a7 22 9c be 33 c3 a8 3d c1 e3 93 3d
       -0.40835932 -0.30495188 0.08240356 0.07221175
000330 53 0e 01 bf 07 0e 81 3e 5c 41 55 3e 05 48 55 3e
       -0.5041248 0.25206015 0.20825714 0.20828255
000340 4f 58 30 be 12 eb 91 be f7 f1 28 be 3c 74 ad be
       -0.17221187 -0.28499657 -0.16498552 -0.33877742
000350 a9 c7 0f 3f 82 6a 87 3e d9 d8 26 be 11 45 fd be
       0.5616403 0.26448447 -0.16293658 -0.49466756
000360 27 69 35 3f 9e 3b 44 bc 40 44 83 bf 32 78 67 be
       0.70863575 -0.0119771045 -1.0255203 -0.22604445
000370 b6 b7 42 3e 39 7e 77 be c4 42 c3 3c 14 04 06 bf
       0.19015393 -0.24169244 0.023835547 -0.5234997
000380 b5 96 a2 3e c7 f4 7a be 60 7b 97 be 0c 55 51 be
       0.31755605 -0.24507438 -0.29586315 -0.20442599
000390 aa 07 09 be 7e 80 9d 3e 76 4a 5f bd 02 c4 09 3e
       -0.1338183 0.30762094 -0.05451437 0.13453677
0003a0 cf ac a6 3d e4 72 f7 3e 67 c5 82 3e bd f1 93 bc
       0.081384294 0.48329842 0.2554123 -0.018059606
0003b0 86 90 66 3e 93 f4 16 be a7 5a f6 3e c7 da 12 3c
       0.22516069 -0.14741735 0.48116037 0.008963293
0003c0 11 d1 9b 3c 9c 5c ee 3e 19 e1 54 3d a1 54 e2 be
       0.019020589 0.4655503 0.051972482 -0.44205192
0003d0 ca f2 94 3e 34 ba 05 3e 11 74 6c bd 59 c1 14 3c
       0.29091483 0.13059312 -0.057727877 0.009079301
0003e0 75 07 38 3e 76 8b 2d 3e a3 b8 5a bf 8f 55 9b bd
       0.17971595 0.16947731 -0.85437983 -0.075846784
0003f0 54 00 ac 3d 9e 83 eb bd d2 50 fc be 6e 21 8f bd
       0.083985 -0.11499713 -0.4928041 -0.06988798

attention.w_concat.bias f4 [64]
000000 57 1a e4 bd 9b f3 1a be ca 5d 83 be ac 06 cb be
       -0.111378364 -0.1513199 -0.25657493 -0.39653528
000010 b6 96 01 bf 0b c9 30 be dd 87 c7 bb 56 a7 35 bf
       -0.5062059 -0.17264192 -0.006089194 -0.7095846
000020 cd a7 9a 3e 36 65 18 be 08 22 17 3e 56 76 8f be
       0.30206147 -0.14882359 0.14759076 -0.2801997
000030 6e 24 50 be d0 1b 77 bd 71 ea c2 3d 30 0b c9 3d
       -0.20326397 -0.06032926 0.095173724 0.09816587
000040 bb 2c 0f 3d b1 39 21 3d 46 e1 b2 bc f1 91 b3 3e
       0.034954768 0.03936166 -0.021835934 0.35072282
000050 a4 9a 3d be 3b f1 2a 3e 3b d8 22 3d 00 06 3a 3f
       -0.18516022 0.16693585 0.039756995 0.72665405
000060 88 f4 b9 ba de 5e 36 3f 23 69 42 be db b3 84 be
       -0.0014187256 0.71238506 -0.18985419 -0.2591847
000070 05 f4 e8 3d 1a 7b 0b bc 74 bb d5 3c a6 4a 13 3d
       0.11374668 -0.008513236 0.026090361 0.035959862
000080 c2 af 5e be fb a0 37 3e c3 d5 df bd c3 f1 ab bd
       -0.21746734 0.17932503 -0.10929444 -0.08395722
000090 0f b5 06 3d f9 5e bb bd 88 67 f2 bc 1e dd 75 3f
       0.032887515 -0.09148974 -0.029590383 0.96040523
0000a0 93 35 cb 3c b3 4c f6 3d bb 6e 0f 3e c6 85 d0 3e
       0.02480582 0.12026348 0.14007084 0.4072706
0000b0 0c 46 09 bd aa 44 a8 3e a4 5c 95 bc 4a cf a0 3e
       -0.033514068 0.32864887 -0.018232651 0.3140815
0000c0 fa 6d 89 bd 3c 51 55 3f 0a d5 c6 3d 4b 41 bf 3e
       -0.067104295 0.8332708 0.09708603 0.37354502
0000d0 91 c9 fb bd 54 ce ce 3e 03 58 c4 3c a2 06 1d 3e
       -0.12294305 0.4039179 0.023967749 0.15334561
0000e0 3b 1b a2 bc 77 0a 4e 3f 6b 55 ff bd 26 88 db bd
       -0.019788375 0.8048472 -0.12467464 -0.10719328
0000f0 27 26 0a bd 1b f6 11 3e d7 af 27 be 64 61 6c 3e
       -0.03372779 0.14254038 -0.16375671 0.23084027

norm1.weight f4 [64]
000000 86 ec 9b 3e aa 0a f2 3e da 29 ab 3e fe cc d9 3e
       0.3045389 0.4727376 0.33430368 0.4253921
000010 29 18 6b 3f 20 1a 69 3e 99 09 57 3f 16 70 6f 3f
       0.9183374 0.22763872 0.8399902 0.93530405
000020 74 44 96 3e 57 2a 3b 3f 72 96 e1 3e 3a cf 83 3e
       0.293491 0.7311148 0.44060093 0.2574404
000030 e0 66 08 3f 5f f2 08 3f d2 9e 21 3f 66 ce fd 3e
       0.53281975 0.5349483 0.63132966 0.49571532
000040 af ae 92 3e 20 ea 57 3f b8 c9 9d 3f 16 89 2a 3f
       0.28648898 0.8434162 1.2327185 0.66615427
000050 65 a3 83 3f 39 20 49 3f 7d 6c ff 3e 27 00 12 3f
       1.0284239 0.7856479 0.49887457 0.5703148
000060 72 72 20 3f eb 69 de 3f 32 d9 09 3f ed 52 47 3f
       0.6267463 1.7376074 0.5384704 0.7786091
000070 c0 9c 1e 3f d6 73 76 3f 23 40 a3 3f 74 4f 71 3f
       0.6195793 0.962705 1.2753948 0.9426186
000080 9e 05 54 3f 26 a1 2b 3f 65 df 5a 3f a6 88 9d 3e
       0.8282107 0.6704277 0.85497123 0.30768317
000090 3c 14 20 3f 71 f4 3b 3f f0 19 3b 3f 8a 27 a4 3f
       0.62530875 0.73419863 0.7308645 1.2824566
0000a0 4c a4 64 3f 80 56 37 3f 9e 69 13 3f 86 00 84 3f
       0.893132 0.71616364 0.57583034 1.031266
0000b0 a4 04 89 3f 30 00 54 3f 59 fa 9e 3f 9f e1 6a 3f
       1.0704541 0.82812786 1.242015 0.9175052
0000c0 38 25 a2 3f 8b 35 bd 3f fa 93 f5 3e 07 db 2c 3f
       1.2667608 1.4781965 0.4796446 0.6752171
0000d0 8d 5f a1 3f 4a 5a 57 3f 2e a3 a7 3f 69 07 8f 3f
       1.2607285 0.84122145 1.3096673 1.1174136
0000e0 d8 da ae 3f c3 7e 95 3f 29 ab a3 3f 9f af 6a 3f
       1.3660536 1.167931 1.2786609 0.91674227
0000f0 d1 74 9b 3f a6 05 76 3f 47 f6 a5 3f 62 0e cb 3e
       1.2145025 0.9610237 1.2965783 0.3965941

norm1.bias f4 [64]
000000 55 ab 45 3e 3f 0a 75 3e 62 58 99 3e 5f 72 5c 3e
       0.19303639 0.2392969 0.29950243 0.21528004
000010 50 3a b6 3e 32 b1 39 3f 8e d5 88 3e b4 3d be 3e
       0.35591364 0.72536004 0.2672543 0.3715645
000020 8a 73 12 be b6 9b 3c 3e fb 02 fd be af 67 fa 3e
       -0.14301887 0.18418774 -0.49416336 0.4890723
000030 2c 1c 3f 3f b5 cf 3a 3f 98 0e 60 3c df d8 1f bc
       0.7465236 0.72973186 0.013675354 -0.009756296
000040 77 41 6b bd 2a 3e e3 3d 93 86 d8 3d e5 76 95 bd
       -0.05743548 0.11095841 0.10572543 -0.07298068
000050 02 7e 5b bd 85 d2 2c be da c0 b7 be d2 c9 a0 be
       -0.053586967 -0.16877182 -0.35889322 -0.31403977
000060 e0 89 1a 3c 22 ea 5b be fe 67 ca be c9 8d 91 3e
       0.009432286 -0.21476033 -0.39532465 0.28428486
000070 5f 2b d2 bd b2 2e 36 be 4a 09 3c 3e 66 37 ad bd
       -0.10262179 -0.1779125 0.18362918 -0.08457832
000080 80 41 b2 be 11 57 3e 3e 2e f9 e8 3d 81 f5 5e 3e
       -0.34815598 0.185879 0.11375652 0.2177334
000090 55 db e6 3d c1 81 c0 bb 32 ad 9e bd 11 68 33 be
       0.11272303 -0.005874843 -0.07747878 -0.17520167
0000a0 5d c8 38 3e b8 4f 8f 3e 07 db 28 3e 97 f3 ad bd
       0.18045183 0.27990508 0.16489802 -0.08493727
0000b0 10 7e 8a 3e c6 7a b0 bd 22 56 3e 3e 03 9e c3 bd
       0.27049303 -0.08617167 0.18587545 -0.09551623
0000c0 65 a3 de 3c 70 14 0c be 93 0e 28 3e af 98 b9 3e
       0.027177522 -0.13679671 0.1641181 0.362493
0000d0 43 c7 4e bd 2b 5f 39 3e 57 6e 9d 3b d7 59 55 be
       -0.050483 0.1810271 0.0048044133 -0.20835052
0000e0 05 1a 27 3e 95 f7 c2 bd 29 fb 1e 3c ec 59 cd 3c
       0.1631852 -0.09519879 0.009703436 0.025067292
0000f0 09 4b 47 3d f5 e5 8b 3e 04 ec fe bd 49 7a 91 3e
       0.048655543 0.2732388 -0.1244736 0.2841361
