models/encoder_state_dict.pth (torch, 122194 bytes, 57 tensors)

attention.w_q.weight f4 [64, 64]
000000 29 26 6c 3d 2f a6 bb bd 23 37 c6 bd e9 83 90 bd
       0.05765358 -0.091625564 -0.09678485 -0.0705641
000010 b1 79 87 3d 53 24 ad 3d 12 82 28 bc a9 6e a7 bc
       0.06615008 0.08454194 -0.010284917 -0.020438509
000020 63 45 86 bd a9 8e 0a bd 4c 3c 49 bd 8a c1 8e bd
       -0.06556203 -0.033827458 -0.04912977 -0.069705084
000030 79 8c eb bc 26 6d a9 bd 7c 9b 26 3c ac 18 d4 3d
       -0.028753506 -0.082727715 0.010168906 0.10356268
000040 19 00 38 bd 8d 54 6e bc 74 41 1b 3d 3c a4 a9 3d
       -0.044921968 -0.014546526 0.037904218 0.08283278
000050 4e 26 d9 bc cc df 21 bc c2 04 19 3d d2 c9 4b 3d
       -0.026507523 -0.0098800175 0.037358053 0.049753018
000060 17 c1 07 bd 28 af 2c bb b6 e4 9b bc a0 f9 9d bd
       -0.03314313 -0.0026349518 -0.019029956 -0.07713628
000070 48 db c2 bd 92 eb df 3d 01 6b f5 bc 89 ea c1 bd
       -0.09514481 0.10933603 -0.02995825 -0.09468562
000080 2e a6 a1 bb b5 50 09 3e 22 73 45 bd fd 1b 56 3d
       -0.0049331402 0.13409694 -0.048205502 0.052272785
000090 e4 22 8d bd 65 6f cb bd c7 db 8f 3d ca b4 bf ba
       -0.068914205 -0.09933356 0.07024341 -0.0014626023
0000a0 6e c2 c6 bd 04 bf 2e 3d 64 4d 84 bc 2b b5 1c 3d
       -0.09705053 0.042662635 -0.016150184 0.038258713
0000b0 ec 29 13 bc 1d 3a 79 bc 7e be f4 bd 0d 2b 91 bb
       -0.008982163 -0.015211609 -0.11950396 -0.004430181
0000c0 11 0b 77 3c 1b 35 42 bd 9a 70 dd bc 2b 39 e4 3d
       0.015078322 -0.047413927 -0.027031232 0.111437164
0000d0 5b db 54 bd 1a a2 e0 3a 7b c3 25 3d 20 c2 51 bb
       -0.051967006 0.0017138154 0.040469628 -0.0032006577
0000e0 1b bd ed 3d 7b 62 c2 3d b4 89 4a 3d 68 14 95 bd
       0.11608335 0.0949144 0.04944773 -0.07279283
0000f0 55 0e 9c 3d 2b ec 58 3c ba 25 b0 bd e8 5b f0 3d
       0.07619921 0.013239901 -0.08600946 0.1173628
000100 31 ef 2a bd ae 32 df bd 8d 01 2d 3d df b7 83 3d
       -0.041732017 -0.10898338 0.042237807 0.06431555
000110 4e 57 6d ba 51 b3 a8 bd f1 7c 09 3c 73 d7 fc bb
       -0.0009053842 -0.08237327 0.008391605 -0.0077161132
000120 0a 73 e0 3d 45 7b 92 bd 65 23 c1 3d 61 b8 ca 3d
       0.10959442 -0.07152418 0.09430579 0.09898449
000130 33 ca d8 bc 02 34 fc bd c3 cc e4 3c a3 ae f1 bd
       -0.026463604 -0.12314607 0.02792967 -0.118008874
000140 12 90 fa bc 4c ca c9 bd 6f 80 73 3d 8b 7d d1 3c
       -0.030586276 -0.09853038 0.059448656 0.025572559
000150 92 19 fe bd 42 84 bb 3c 88 78 a5 3c 55 45 80 bb
       -0.12407221 0.022890214 0.020199075 -0.003914515
000160 dd ea bd bd e0 10 99 bd 1e e4 e3 3c 9f dd 74 bd
       -0.09273312 -0.07473922 0.027818736 -0.059781667
000170 50 fe b4 bd b1 65 85 bd 39 fb 70 3d d3 21 c2 bc
       -0.08837569 -0.06513537 0.058833335 -0.02369777
000180 ac 98 b4 bc 4e 27 dc 3d 6c e6 04 bd d1 8c d3 bc
       -0.022045456 0.10749684 -0.03244631 -0.025823982
000190 21 7e 25 3d 0e 02 a3 3d e9 f2 a7 3d 5c 10 89 bd
       0.04040349 0.07959376 0.08200628 -0.066925734
0001a0 35 40 f2 3d 24 dc 42 bb f3 c8 66 3d df f3 8f 3d
       0.11828653 -0.0029733265 0.056343984 0.070289366
0001b0 dd 1e a4 bd 41 86 52 ba a5 04 a1 bd a8 d0 e9 bd
       -0.08013699 -0.00080308696 -0.07862214 -0.11416751
0001c0 6a 2d 97 3d f1 d1 84 bb b1 3f 44 bc d0 0e f7 bd
       0.07381709 -0.0040533473 -0.011978076 -0.12063372
0001d0 2d 4d 51 bd 5c 4e 65 bd 5e 8a 01 bd 20 39 7a 3c
       -0.05109899 -0.055982932 -0.031626098 0.015272409
0001e0 ab ba fb bd 3c b6 1d bd 61 51 ed bd 42 05 99 3d
       -0.122914635 -0.03850387 -0.115877874 0.07471706
0001f0 28 24 db bb 8e 27 e1 3d fa 07 a7 bd d9 79 d9 bd
       -0.00668766 0.109938726 -0.08155818 -0.10618944
000200 06 54 4f bc 45 c6 03 3e 47 92 90 bc 2e 87 de bc
       -0.01265431 0.12868603 -0.017647875 -0.027164068
000210 c5 5c e5 bb 28 95 c9 3d 49 cc 59 bc f6 b1 0e 3e
       -0.0069995844 0.098429024 -0.013293334 0.13935074
000220 2e db 8b bd 2e 12 bb bd 51 ed 58 3d 89 a4 c7 bd
       -0.068289146 -0.09134327 0.052960698 -0.097481795
000230 21 93 67 bd bc 06 b6 bd 27 9a fa bd 36 0f 71 bd
       -0.056536797 -0.08888003 -0.122364335 -0.058852397
000240 64 7b fa bd 42 a8 82 bd e8 c8 03 3d cd ef 72 bd
       -0.12230566 -0.06379749 0.03217402 -0.059310723
000250 61 a6 1e 3d 0b 57 54 bd dd 66 c6 bd 46 fe e2 bb
       0.03873289 -0.051840823 -0.09687588 -0.0069272844
000260 88 85 ee 3d 93 ed 6f bc 96 ab 90 3d 23 c8 c6 3d
       0.11646563 -0.014644044 0.070639774 0.09706142
000270 94 81 88 3d 00 4b 8b bd de 21 7c 3d d1 d2 f8 3c
       0.0666534 -0.068014145 0.061555736 0.030373963
000280 30 52 13 bb 37 69 be bd 60 73 45 bc 5f 01 6b bd
       -0.0022479407 -0.09297412 -0.012051433 -0.057374354
000290 3d ca 32 3d 53 9d 18 bd f2 2b eb 3b 25 96 86 bc
       0.0436499 -0.03725941 0.0071768695 -0.016429016
0002a0 9d 2d 36 3d fb fe 80 3d 4d 28 7d 3d f8 f6 04 3d
       0.044477094 0.06298634 0.061806012 0.03246209
0002b0 a7 64 a5 3c 8b e5 8a 3d 89 f7 b7 3a cb b0 e1 bd
       0.020189596 0.06782063 0.0014035563 -0.11020049
0002c0 3d ed c9 ba 8c 46 c0 3d 9f 8a 3b 3d ea 04 2c 3c
       -0.0015405786 0.09388456 0.045786496 0.0104992185
0002d0 14 58 e6 3d ff 4f 59 bc f7 a0 bf bd aa 25 3a 3d
       0.11247268 -0.013263701 -0.093568735 0.045446075
0002e0 b5 d9 7b bc 65 84 8b 3d 5a 37 a6 3b c8 01 a9 3d
       -0.01537173 0.06812362 0.0050725164 0.08252293
0002f0 10 86 80 bd 29 d5 04 be 99 42 13 3d 15 a9 de 3d
       -0.062755704 -0.12971939 0.035952184 0.108720936
000300 71 87 fa bc 1f 27 b3 bc 17 4a dc 3d 8c e2 03 3d
       -0.030582162 -0.02186924 0.10756319 0.032198474
000310 a2 93 0c 3e 52 51 a6 3c 02 aa c9 3d bc 18 c8 39
       0.13728192 0.020302448 0.098468795 0.000381654
000320 a3 a5 85 3d 8b 88 95 3d 53 9b ab 3b 93 1e d2 bc
       0.06525733 0.07301434 0.005237022 -0.025649345
000330 de a6 8b 3d ca 0c a6 bd df 9e f8 bc 2b ad 11 3d
       0.06818937 -0.08107908 -0.030349193 0.035565536
000340 23 9e f2 bc 11 99 9f 3d e0 ba bf 3d 82 22 80 bd
       -0.029616421 0.07792867 0.093618155 -0.06256582
000350 d6 8a 12 be eb 12 9e 3d e6 3c fc bd a0 2b 86 bd
       -0.14310774 0.07718452 -0.12316303 -0.065512896
000360 08 bd f5 3c cc a9 fb 3c 3f 03 6d bb 35 6e a5 bd
       0.029997364 0.030720614 -0.0036165265 -0.08077661
000370 9a be 3e 3d 4c dc d6 bd e4 25 01 3e b4 0f 25 bc
       0.04656849 -0.10491237 0.1261211 -0.010074545
000380 45 07 05 be 15 2f 63 3d 93 60 45 bc dd 12 b5 3c
       -0.12991054 0.055464823 -0.012046951 0.022103721
000390 9a 5f bf 3d cc 9d f8 bc 0c 3c 09 be 06 df 2f bd
       0.093444064 -0.03034868 -0.13401812 -0.0429373
0003a0 a5 a7 95 3d c7 32 da bd 42 0e e4 bc 72 c0 56 3d
       0.07307366 -0.10654216 -0.02783883 0.052429624
0003b0 30 04 af 3d e0 5f 47 3d 81 73 64 3d de 74 14 3d
       0.085457206 0.048675418 0.055774216 0.036244266
0003c0 ce 98 1c bc 8a 95 4e 3c 5c ab 11 be 94 95 51 bd
       -0.009557916 0.012608895 -0.14225525 -0.05116804
0003d0 c8 25 55 3d b4 81 01 3c 86 84 a7 bd 7d fb 7c 3d
       0.052037984 0.007904459 -0.08179574 0.061763275
0003e0 a2 cb 01 bd f2 fe ab bd 3a 99 8a 3d ba a6 04 be
       -0.03168834 -0.08398236 0.06767507 -0.12954226
0003f0 dc 17 be bd 30 1f 81 bd 1b ae ac 3d 90 f3 72 bc
       -0.092818946 -0.06304777 0.084316455 -0.014828578

attention.w_q.bias f4 [64]
000000 5f a2 3d bd 9f 54 7d 3c 9c bf 8a 3d 07 ba c9 bd
       -0.046297427 0.01546207 0.06774828 -0.09849935
000010 08 85 6c bd 2e d9 d3 3d 1c 8e f0 3c 5a 14 f3 bd
       -0.057744056 0.10344158 0.029364638 -0.11869116
000020 83 95 bd bd 7a a7 99 bd b2 53 e9 3d 30 d4 04 3e
       -0.09257033 -0.07502647 0.11392917 0.12971568
000030 ab c5 d0 3d a9 1e 8b 3d 50 11 c7 3d 35 73 d9 ba
       0.10193952 0.06792957 0.09720099 -0.001659012
000040 37 05 5b bd cf 3b 43 3c a9 4f 05 bd 3d 3d 0a bd
       -0.05347177 0.011916115 -0.032546673 -0.033749808
000050 e6 da db bd be 3a 80 3c e6 4e d9 bc ef 02 90 bd
       -0.10735111 0.01565301 -0.02652688 -0.070318095
000060 71 4c a5 bd ca d0 f2 3c fc c9 be 3d f4 70 58 bd
       -0.08071221 0.029640574 0.09315869 -0.052842095
000070 ca ea a4 3d 57 6a c7 bd 69 65 cf bd 85 3e 95 bc
       0.08052595 -0.097370796 -0.10126764 -0.018218288
000080 08 34 9b 3d 67 fa f5 3c 67 03 ea 3d ee be 10 bd
       0.075782835 0.030026628 0.1142643 -0.035338335
000090 db e6 a1 3d 13 a3 cb bc a6 32 88 3c ee c2 dd bc
       0.0790536 -0.024858033 0.016625714 -0.027070489
0000a0 00 a8 a3 3d 29 c6 ae 3d fa 19 96 be ff 18 20 3d
       0.07991028 0.0853389 -0.29316694 0.039086338
0000b0 50 c7 3f bc 3e 37 40 3d ff f6 a2 3d 32 20 b8 bd
       -0.011705235 0.046927683 0.07957267 -0.08990516
0000c0 a2 78 bd 3d cf d9 b0 3d 6a 2f 0a 3c 81 53 cb bd
       0.092515245 0.08635294 0.008434156 -0.099280365
0000d0 21 7f 12 3d 53 89 48 3d 9c e3 ff 3c 98 5f 1c 3c
       0.03576577 0.048959088 0.031236462 0.009544276
0000e0 53 fd ae bc f1 f4 a3 3d 44 91 dd bd 76 f1 10 3e
       -0.021361029 0.08005703 -0.10818723 0.1415461
0000f0 6b f2 8f bd a8 e3 04 3d ef ab 38 bd f1 5c 12 bd
       -0.070286594 0.032443672 -0.045085844 -0.035733167

attention.w_k.weight f4 [64, 64]
000000 d8 bb 83 bd bb d6 a1 3d 54 24 4d 3b 83 51 2f bd
       -0.06432313 0.07902285 0.003130217 -0.042802345
000010 6f 7f 8a 3d fb 38 d7 bd df 79 32 bc 7b 93 87 bd
       0.06762587 -0.10508915 -0.010893314 -0.066199265
000020 41 2c 8e bd e7 4e ad bc 42 08 a3 bd 4e 18 ce bd
       -0.069420345 -0.021155788 -0.079605594 -0.100632295
000030 c7 33 6c bd 96 03 d2 3c ca 02 d8 bd 83 38 25 3d
       -0.057666566 0.025636476 -0.10547407 0.040337097
000040 d0 d5 b0 3d 88 5f ad bc 8c d4 4b bd 0f 04 81 bd
       0.086345315 -0.021163717 -0.049763247 -0.06299602
000050 73 8f 98 bb 22 af 84 bd f0 c6 a2 3d 63 80 1c bb
       -0.0046557724 -0.064787164 0.079481006 -0.0023880235
000060 77 08 28 3d d9 72 36 be 51 2c d0 bb cd ec ff 3b
       0.041023698 -0.17817248 -0.006352939 0.0078102113
000070 af cc b9 bd 22 8a e4 3d 88 c2 fd bb 39 77 01 bd
       -0.090722434 0.11159159 -0.007744137 -0.03160784
000080 4e 02 9d 3d 19 63 ea bd bb 85 d3 3d 53 db 3d bc
       0.07666455 -0.11444683 0.103282414 -0.0115879355
000090 43 8a 0e bc 19 62 a9 bd 34 5f fb 3d 17 f3 d1 3d
       -0.008699956 -0.08270664 0.12274018 0.10251444
0000a0 d3 85 83 3d cc 14 e0 3c 9a 87 7b bd 03 3f cf bd
       0.06422009 0.027353667 -0.061408617 -0.101194404
0000b0 50 3b 50 bd 5e d4 ab 3d a2 39 92 3b b6 58 5e 3d
       -0.050837815 0.08390115 0.004462437 0.05428382
0000c0 ab 97 0f 3d bc d7 c0 3c 92 16 01 bd 91 b8 29 3d
       0.03505675 0.02354037 -0.031515665 0.041435782
0000d0 e0 dc 90 bd 4f bf ba bd df 27 ef 3d 79 29 65 bd
       -0.070733786 -0.091185205 0.11677527 -0.055947755
0000e0 4d 8b 03 be eb 7d a3 bd 6e 86 86 bc 3e b9 41 bd
       -0.12846108 -0.07983001 -0.016421523 -0.0472958
0000f0 cd 52 5b 3d 7f c2 73 3b 62 e0 a8 bd 2c 6f d5 3d
       0.05354576 0.0037194786 -0.082459226 0.10421595
000100 2d 68 f3 bc 04 29 92 bd 45 f9 8a 3d 08 1e d2 bd
       -0.02971276 -0.07136729 0.06785826 -0.10259634
000110 88 2a 55 3d bf 11 57 3d 20 d4 e0 3c c0 ad b1 bd
       0.052042514 0.05250716 0.0274449 -0.08675718
000120 44 e2 ad bc 03 dd d2 3d 21 b8 08 3d 97 48 2a 3d
       -0.021226056 0.10296061 0.033378724 0.041573133
000130 38 dd 28 bd bd 6e 83 3d f5 ae fb bd 73 3a 89 bd
       -0.041226596 0.06417606 -0.1228923 -0.067006014
000140 d4 ad eb 3c 69 6a 6e bc cb 33 68 bd d7 f5 9e bd
       0.028769411 -0.014551737 -0.05669002 -0.07761734
000150 77 29 9d 3d ba 4a 0d 3d cc a9 ca 3d c3 44 9e 3d
       0.076739244 0.034495093 0.098956674 0.07727959
000160 de 61 bf 3d b6 96 2f 3d e1 4b 00 be 71 27 5e bd
       0.093448386 0.04286834 -0.12528946 -0.054236833
000170 86 f6 74 bd 38 47 6e 3d 3c 79 b4 bd d5 42 16 be
       -0.059805416 0.05817339 -0.08812186 -0.14673932
000180 f7 f3 f1 3d 3e 3f e7 3d 1c e2 92 3c e3 d5 a5 3b
       0.11814111 0.11291359 0.017930083 0.0050608977
000190 6c bd d8 bd bf 4f b8 3d b2 e2 b3 3d a3 34 c8 3b
       -0.10583004 0.08999585 0.08783473 0.0061097904
0001a0 43 d4 23 3d 1a 1e cd 3c 6c 90 af 3d 5e 4d c3 3d
       0.03999735 0.025038768 0.08572468 0.09536241
0001b0 2c 3b 05 3e 2d 5a 94 3d c5 43 17 3e 0c 80 e3 bd
       0.13010854 0.07243762 0.14771946 -0.111084074
0001c0 ad 6d 00 3e 57 0e 81 bd 08 f2 07 be 3e a2 fc 3d
       0.12541838 -0.06301563 -0.13275921 0.12335633
0001d0 92 30 a6 bd ab fb e1 bd c7 13 80 bd d6 f6 81 3d
       -0.08114733 -0.1103433 -0.06253772 0.06345908
0001e0 44 aa 53 3c 6a 71 a8 3d 81 87 8b bd 27 6f 3d bd
       0.012919012 0.08224757 -0.06812955 -0.04624858
0001f0 01 0b 79 bd 6b bd 91 3d 63 ca 4f 3d eb 06 cb 3b
       -0.06080151 0.07116207 0.05073012 0.006195893
000200 d1 c7 22 bd ea d9 45 bd a4 5f 97 3d de de db bd
       -0.03974134 -0.048303522 0.07391289 -0.10735868
000210 60 af 14 bd eb 24 fb 3d 5f 7a 8d bd c4 46 89 bd
       -0.036300063 0.12262901 -0.06908106 -0.067029506
000220 7e 77 df bc 9c c0 7b bd 5f ae af 3d 3a 4c a1 bd
       -0.027278658 -0.061462983 0.085781805 -0.07875867
000230 7e f2 d4 bd 78 61 6a bd fc 7b af 3d 51 c9 e9 3b
       -0.10397814 -0.05722186 0.0856857 0.0071345945
000240 29 77 ae bd 44 1a d9 3d f5 85 c6 bd 31 7c 88 3d
       -0.08518822 0.10600713 -0.09693519 0.06664313
000250 2c d7 76 3d fc 71 ca 3d 9c 73 a3 3d 2a 19 de 3d
       0.060263798 0.09885022 0.07981035 0.108446434
000260 e0 0d 9a bd d1 26 ca bd af 77 54 bd ee 91 f6 3d
       -0.07522178 -0.09870685 -0.05187195 0.12039553
000270 3b 51 ff 3d ab 70 da bd 7d d4 10 be 65 b0 15 bd
       0.12466665 -0.10666021 -0.14143558 -0.036545176
000280 0f f8 51 bd ce e9 db bd 46 bf c9 bd 16 5c 29 bc
       -0.051261958 -0.10737954 -0.09850936 -0.010336896
000290 37 d8 46 3c ac f2 3a 3c 45 fe 22 3d f8 88 10 3d
       0.012136511 0.011410397 0.03979327 0.035286874
0002a0 4c e9 97 3d 34 ff 59 3c af b9 28 3d 35 00 2d bd
       0.07417545 0.013305474 0.041192707 -0.042236526
0002b0 50 84 6f bd 3e 1c b8 3d c9 0e 00 3d 7a d0 39 3d
       -0.058475792 0.08989762 0.0312641 0.045364834
0002c0 41 39 ec bb 20 29 0c 3c 3e ea 5f 3d 27 aa ee 3d
       -0.0072089736 0.008554727 0.05466675 0.11653548
0002d0 4f c0 d3 bc 63 9e 91 bc fd 34 cc 3b d8 4a a9 bd
       -0.025848536 -0.01777572 0.0062319026 -0.082662284
0002e0 a2 c5 b9 3c 4e 94 3c 3c 60 fc 6f 3d 59 8d b2 bd
       0.022677246 0.011509968 0.058590293 -0.08718366
0002f0 70 19 ad bd eb ea 7d bd a8 c7 cb 3d 5c e4 80 bd
       -0.084521174 -0.061991613 0.09950191 -0.06293556
000300 f6 aa 16 3d 4c 4b c3 bd 22 da 45 3d e3 19 a8 3c
       0.036784135 -0.09535846 0.04830373 0.020520156
000310 0f 0c 54 3d 58 2e df 3d 6a 13 75 bd e1 0d 3b bb
       0.051769312 0.10897511 -0.059832968 -0.0028542208
000320 06 74 d2 3c ea 6f 8b bd c1 9c b2 bd a1 64 df 3c
       0.02569009 -0.06808455 -0.08721305 0.027269663
000330 4b 76 71 3d 6c 3c 01 be b3 71 a9 3d 00 fd f7 3d
       0.058950704 -0.12620705 0.082736395 0.12108803
000340 0d 76 6c 3d 9d b8 86 bd 70 ca e1 bd da 95 1d be
       0.05772977 -0.06578181 -0.1102494 -0.15389195
000350 73 d4 be bd f5 22 50 3d 95 4e ce 3d 5f 91 93 3d
       -0.09317865 0.050814588 0.10073582 0.07205462
000360 b5 06 bb 3d a6 35 76 bd a1 16 80 3d 30 8c 8b 3d
       0.09132139 -0.060109757 0.06254316 0.06813848
000370 0b 42 92 3d 69 7e 00 bc d2 a1 bb 3a 66 8e 0b be
       0.07141503 -0.0078426385 0.0014315194 -0.1362854
000380 55 07 10 bd f0 cc 92 3c 89 d5 e1 bc 1f e8 88 bd
       -0.035163242 0.017919987 -0.027567642 -0.066848986
000390 0c dc 84 bd d3 cb 89 3d dd 92 09 be 25 b6 b8 3b
       -0.06487283 0.067283295 -0.1343493 0.0056369477
0003a0 f5 7b 71 bd 99 68 79 3d 45 90 9b 3d 0b 16 f7 3d
       -0.058956105 0.060890768 0.075958766 0.12064751
0003b0 34 a4 bb bd 68 21 94 3c 75 5f 07 3e 15 b8 b7 bd
       -0.09162179 0.018082336 0.13220008 -0.08970658
0003c0 2a 15 60 3d 76 30 08 be f3 f1 84 bd 4d 5b 87 3d
       0.054707684 -0.13299736 -0.06491461 0.06609211
0003d0 01 81 e8 bd 8f 6a ad bd 01 31 47 bd 0f 9e 54 3d
       -0.113527305 -0.0846759 -0.04863072 0.05190855
0003e0 47 d1 66 bd 6c ed 40 3d 7b 08 d9 3d b4 a2 5e bc
       -0.056351926 0.047101423 0.10597321 -0.013588596
0003f0 da 05 3b 3d e2 80 e3 ba 7f 3b 93 bd 1a d9 8b bd
       0.045659877 -0.0017357136 -0.07189082 -0.06828518

attention.w_k.bias f4 [64]
000000 f8 39 9c bd 92 0f d7 bd dc 8e 7f bc 1a 59 ec bd
       -0.07628244 -0.10501017 -0.015598025 -0.11540432
000010 ea 37 c5 bd 23 82 d1 bd 32 18 fe bd 4c 24 bd 3d
       -0.096298054 -0.102299 -0.12406959 0.09235439
000020 b0 b1 83 3c 16 8c b4 bd 0c e5 ff 3d a8 51 bf 3d
       0.016075939 -0.08815782 0.12494859 0.093417466
000030 3f 7a ec bd 6c 93 d5 3d 3c f1 45 3d 7c 74 89 3d
       -0.11546754 0.10428509 0.048325762 0.06711671
000040 70 b1 11 bd 5b bc e0 bd 99 6c b4 3d e9 b6 d0 3d
       -0.03556961 -0.10973426 0.08809776 0.10191137
000050 52 08 25 3d 89 47 90 bd 80 70 d2 3d 37 92 a2 3d
       0.040291138 -0.07044894 0.10275364 0.079380445
000060 b9 6e c1 bd 25 96 e4 bd 97 93 e6 bd 0e d7 08 3a
       -0.09444947 -0.1116145 -0.11258619 0.0005220034
000070 f3 db 6d 3d 48 18 7f 3d 49 02 30 3d 48 45 98 3d
       0.058071088 0.062279016 0.04297093 0.07435089
000080 a4 3f 30 3c 0a 51 50 3d 42 b7 6f bd 11 22 af bd
       0.010757361 0.050858535 -0.058524378 -0.085514195
000090 0e 64 d6 3d 1e db 9e bd 59 ab bd bb ae 57 29 bd
       0.10468303 -0.07756637 -0.0057882485 -0.041343383
0000a0 dc 6f 4a 3d 65 5a 44 b9 ac 9e 7f 3c 4c a1 a6 bc
       0.049423084 -0.00018725691 0.015601795 -0.020340584
0000b0 76 12 8d bd bf 83 95 bd a6 ab 37 bc 66 ae f7 3d
       -0.06888287 -0.07300519 -0.011210358 0.12093811
0000c0 91 e6 a3 3d 15 a7 7c bd 1d e8 94 3d e1 a3 cd 3d
       0.080029614 -0.06168278 0.072708346 0.10041023
0000d0 bb ea e3 bd 1c 7c 9e 3d 4b ab 52 3d 1d f0 2f 3c
       -0.11128756 0.07738516 0.05143289 0.0107384
0000e0 0d f5 52 3d 40 75 ef 3d ba fb 2b 3d 49 78 ea 3d
       0.05150323 0.116922855 0.041988112 0.11448724
0000f0 0e a4 6a bd e2 95 2f bd 89 08 51 3d 5b 1e 9b bd
       -0.05728536 -0.04286755 0.05103353 -0.07574149

attention.w_v.weight f4 [64, 64]
000000 ff 0b 28 39 34 2d be 3d 49 9e 9b 3d 46 54 d9 3d
       0.00016026197 0.092859656 0.0759855 0.10611777
000010 12 b7 59 3c 50 28 b0 3d 14 84 e2 3d 63 73 ab 3d
       0.013288276 0.08601439 0.11060348 0.08371618
000020 4d b4 37 bc e5 fc e0 bd d4 f4 fd bd 36 00 72 3d
       -0.011212421 -0.10985736 -0.12400213 0.059082232
000030 7e 12 48 bc fa 5b aa bd b7 ad 94 bb 8a c4 aa 3b
       -0.01221144 -0.083183244 -0.00453731 0.0052114176
000040 9d 0c 80 3d e7 bc d8 bd b5 34 e1 bd 9f 75 8a bb
       0.06252406 -0.10582905 -0.10996381 -0.0042254473
000050 91 44 ee 3d ea 8d ed bd 0d f6 64 bd e7 6f d1 3c
       0.11634172 -0.115993336 -0.055898715 0.025566055
000060 f0 b9 d2 3d 35 64 21 3a d8 ee c3 bd de 0c a8 3d
       0.10289371 0.00061565946 -0.0956704 0.08205579
000070 a5 0e 13 bd 53 db 57 3d ba 17 b3 3d 62 0f af 3c
       -0.035902638 0.0526994 0.0874476 0.02136964
000080 27 c0 d9 bc 97 ad ca bd e3 d8 05 3e de b7 c5 bc
       -0.026580883 -0.09896391 0.13071017 -0.024135526
000090 c7 19 aa 3d d6 1a 21 3d de dc a2 3d 42 b0 36 3d
       0.08305698 0.039332233 0.07952283 0.044601686
0000a0 2a a2 c1 bc 75 65 31 3d 6f ca 84 3d f5 d1 b7 bc
       -0.023636896 0.043309648 0.06483924 -0.022438983
0000b0 c2 3b 97 bc a3 f6 1f 3d be a4 64 3d 66 18 20 3d
       -0.018461112 0.03905357 0.055821173 0.03908577
0000c0 ba ae 62 3d d0 46 b9 3d 41 c6 a6 bd a9 23 a9 bb
       0.055342413 0.090467095 -0.08143283 -0.0051617217
0000d0 5f 98 ca 3d e4 2b 6b 3d d8 2a 38 bd 8a ca 16 bd
       0.09892344 0.057414904 -0.044962734 -0.03681425
0000e0 19 6d fc bd a2 b4 b1 3d e3 01 0e bd 01 f1 ab 3d
       -0.12325496 0.08677031 -0.034669768 0.08395577
0000f0 d5 de 5b bd f1 41 fa bb 17 a4 53 bb 3f c1 c8 bd
       -0.053679306 -0.0076372554 -0.003229385 -0.09802484
000100 21 c2 9a bc 70 b7 6a bd c3 91 ea 3d e2 81 e2 3d
       -0.018891396 -0.057303846 0.11453583 0.110599294
000110 2d e4 d7 bc b3 6c 85 bd dc a6 9d 3c ee 47 b1 bd
       -0.02635392 -0.06514873 0.019244604 -0.086562976
000120 cf f6 41 bd 66 06 a6 3c 08 78 02 be bb 28 3e bd
       -0.047354516 0.020266723 -0.12741101 -0.046425562
000130 5e 9f 67 3d 2b c4 88 bd 70 af 94 3c d6 58 d9 bd
       0.05654847 -0.06678041 0.018150061 -0.10612647
000140 2c 98 7d 3b ad de 9a bd ad 3a 23 3d bf 06 aa bd
       0.0038695438 -0.07562003 0.03985088 -0.08302068
000150 87 9e 95 3c a3 24 fa bd 7f f5 f5 3d 57 34 61 bd
       0.018264068 -0.12214019 0.12009715 -0.054981556
000160 9b 6e 32 3d cd f4 5e 3d 94 e8 19 bc 6e 78 86 bd
       0.043562513 0.05443268 -0.00939383 -0.06565939
000170 18 76 f4 bc 08 34 ed 3d 8f a6 f5 3c ba fb 91 3c
       -0.029841468 0.1158219 0.029986648 0.017820228
000180 8a b2 f1 bd 17 f5 f5 3d 1a 5d e2 3d 26 74 88 bd
       -0.11801632 0.12009638 0.11052914 -0.066627786
000190 1c dc cb 3d 96 36 6e bc 88 37 da 3d 99 dc 70 3d
       0.09954092 -0.0145393815 0.10655123 0.05880413
0001a0 10 97 96 3d 7b e8 97 bd 95 cf be 3d 74 27 85 3d
       0.07353032 -0.07417389 0.09316937 0.06501666
0001b0 cb 30 67 bd 2b 14 91 bd e0 b9 71 bd 30 3f d8 bc
       -0.056443017 -0.07083925 -0.059015155 -0.026397318
0001c0 05 08 04 3e c8 8f 95 bd e9 2d d2 bd 0d 7a ef 3d
       0.12893684 -0.07302815 -0.10262663 0.11693201
0001d0 3a 8e dd 3c 93 f9 eb 3d f6 a8 8f bd 8e b0 7b bc
       0.027045358 0.11522212 -0.070146486 -0.015361918
0001e0 9b 4f d0 3d 74 a9 7f bd d1 44 ab 3c 80 41 e0 bd
       0.101714335 -0.062417462 0.020906838 -0.10949993
0001f0 ee 33 cc 3d 93 b0 8d bd 82 d0 d8 3d d3 a1 b6 3d
       0.09970842 -0.069184445 0.10586645 0.08917584
000200 90 01 a4 3d 2a e9 07 3e 29 84 eb bd 21 02 2d 3d
       0.080081105 0.13272539 -0.11499817 0.04223836
000210 c7 07 0f 3c 74 fa bc bd be f5 01 be 24 9e e7 3d
       0.008729882 -0.09227458 -0.126914 0.1130946
000220 db 49 70 3d d7 bc da bc ae 16 72 ba 04 1b 3b bd
       0.058664184 -0.026701374 -0.0009234947 -0.04568006
000230 ef e7 88 3b 0a 09 bc bd 51 99 fa bd 86 df 8c bd
       0.0041780393 -0.091814116 -0.12236274 -0.06878571
000240 0b 89 52 bd ed 32 a6 bd cb 0c cc 3c f8 08 d0 bd
       -0.051400226 -0.08115182 0.024908444 -0.10157961
000250 9d 6b 87 3d 7c 0a d6 bb ac 90 18 bd 3c 84 47 3d
       0.066123225 -0.0065320116 -0.037247345 0.048710093
000260 7f e9 90 3d b0 b9 44 ba 17 02 d6 bd 37 47 be 3c
       0.07075786 -0.0007504476 -0.10449617 0.023227317
000270 4f 68 5e 3d 2f c9 1e bc 08 5d c9 bd 72 29 74 3d
       0.054298695 -0.009691521 -0.098321974 0.059609838
000280 dd df a8 bd 89 be 06 3d 2b 76 9b bd 63 fa f8 bd
       -0.082458235 0.032896552 -0.07590898 -0.121571325
000290 9f 94 cf 3d 75 9e b8 bd 58 5a 16 3d a9 15 e2 3d
       0.10135769 -0.09014598 0.036707252 0.110392876
0002a0 04 cc 41 3c be 81 f2 bd 42 69 30 bc 6f 42 58 bd
       0.011828426 -0.118411526 -0.010767283 -0.05279773
0002b0 54 59 c0 bb e8 77 e3 3d 27 e9 1f bd 86 c8 f1 3d
       -0.0058700237 0.11106855 -0.03904071 0.11805825
0002c0 c9 6a 17 3d ff 0b c7 3c 20 3a 23 3c 2f 7c b9 3c
       0.036967073 0.024297712 0.009962589 0.022642223
0002d0 a2 ec 32 3d 88 f2 ae bd 07 42 db bc 3c c4 7c 3d
       0.043682702 -0.08542353 -0.026764883 0.06171058
0002e0 f6 e1 f4 bd 31 ce 1f 3d f2 f9 89 bd 75 29 92 bd
       -0.11957161 0.039015 -0.067371264 -0.071368136
0002f0 f2 09 5e 3d 37 5a c3 3d 04 11 d2 bd 09 c7 d7 3d
       0.054208703 0.095386915 -0.10257152 0.1053601
000300 e0 ea cf bd 62 dc 08 bd d0 c8 bf bd 01 23 f1 3d
       -0.10152221 -0.0334133 -0.09364474 0.117742546
000310 49 e7 a2 bc 03 ad 6e 3c 2d 1e 12 3d 80 1f 91 3c
       -0.019885676 0.014567616 0.03567331 0.017715216
000320 3b 88 21 3d 11 cb 9c 3d bc 83 a7 bd c9 70 a7 3d
       0.03943656 0.07655919 -0.08179423 0.08175809
000330 70 a9 94 bd fd 0c 85 3d ff b6 3a 3d 4a f6 e2 3d
       -0.0725888 0.06496618 0.045584675 0.11082132
000340 44 34 c7 3d 58 c7 b4 bd d1 5d c9 bb 71 db a0 3c
       0.09726766 -0.08827084 -0.006145217 0.019635888
000350 9c 41 2a 3d 10 38 45 3c f5 88 d2 bd 14 d9 ef bd
       0.041566476 0.012037292 -0.10280029 -0.11711326
000360 84 6c 9f bd f2 c4 eb bc 5b 70 65 bc b1 9b 68 3d
       -0.077843696 -0.028780434 -0.014003838 0.056789104
000370 1d 83 ba 3d d0 1b ca 3b 15 63 b0 bc 45 ff 6d bd
       0.09107039 0.0061678663 -0.021531621 -0.058104772
000380 f4 bf e9 3d 8a 17 8c bc 45 08 a6 bd 4f 5a ca bd
       0.11413565 -0.017101068 -0.08107046 -0.09880506
000390 a3 9e 4d 3c 77 51 c2 3d ac 1c c2 3d d9 08 09 bd
       0.012550029 0.094881944 0.09478125 -0.033455703
0003a0 5c 7a eb 3d 95 e8 a7 bc 18 c1 ef bd bc 6b e8 bd
       0.114979476 -0.020496646 -0.117067516 -0.11348674
0003b0 81 0f 22 3c 10 6f de 3d dc 99 36 3d 97 4b 02 3e
       0.009891392 0.10861027 0.044580325 0.12724148
0003c0 89 ad e5 3c 7a 0c 72 3d 7e a5 96 bd 2e 84 98 3d
       0.02803685 0.05909393 -0.07355784 0.07447086
0003d0 54 ad a8 bd ee e5 bc 3d 0b 6f 1c 3d 82 3f a2 bd
       -0.08236185 0.09223543 0.038191836 -0.079222694
0003e0 4b 5f 24 bd a5 2a 1f bd d0 67 f9 bd 63 6d b3 bd
       -0.04012994 -0.03885903 -0.12178004 -0.08761098
0003f0 03 01 e8 bd d6 27 54 bd 9e 67 50 bd 41 1b c9 bd
       -0.11328318 -0.051795803 -0.050880067 -0.098196514

attention.w_v.bias f4 [64]
000000 8a 8e b8 3d 9d 8b a8 3d cc ef b2 bd 6c dd 71 3d
       0.09011562 0.08229754 -0.08737144 0.059049055
000010 0d aa af bd a8 87 32 3d 3c b6 6d bd 77 50 50 3d
       -0.085773565 0.043586403 -0.05803512 0.050857987
000020 15 3a d9 3c 43 98 99 bd 36 d6 a4 bd d0 ed 3d 3d
       0.026516953 -0.07499745 -0.0804867 0.046369374
000030 78 44 d1 bd 29 f7 8c bd 05 ef 2d 3d e5 d3 b7 3d
       -0.102181375 -0.068830796 0.042464275 0.089759625
000040 50 6a 49 3c 36 ab e3 3d 13 2b ac bc db b5 d4 bd
       0.012293413 0.1111664 -0.021016633 -0.10386249
000050 0d 00 9f 3d d1 ff 88 bd 99 08 24 3d 48 38 cd bd
       0.077636816 -0.06689418 0.040047262 -0.100205004
000060 27 41 8e 3d 6c b7 84 bd 3c 1b bb 3d b3 fa 90 bd
       0.069460206 -0.064802974 0.09136054 -0.07079067
000070 26 fb 84 3b 54 1c 92 bc 99 be fa 3c ba 62 fc 3d
       0.0040582595 -0.017835774 0.030608462 0.12323518
000080 9f 51 b5 bd f0 e7 29 bd 68 bf ce b9 32 f7 ad 3d
       -0.088534586 -0.04148096 -0.0003943399 0.084944144
000090 a1 c9 d6 bd 32 bb e0 3c 36 35 89 3d ae 5d e3 3d
       -0.104876764 0.027433012 0.06699602 0.11101852
0000a0 96 f9 cf 3b 11 eb 21 3b 2a 81 ef bd 75 b7 e9 bd
       0.0063468916 0.002470676 -0.11694558 -0.11411945
0000b0 cc e3 f9 bc 25 15 cb 3d d6 ad ba 3c 62 b3 df bd
       -0.03050413 0.099161424 0.02278797 -0.109228864
0000c0 30 f1 5b bd 83 13 b8 3d dc 4c d1 bc a1 b3 a8 bd
       -0.05369681 0.089880966 -0.025549345 -0.082373865
0000d0 f0 a4 bd 3d a0 07 75 bd 50 12 62 bd 9e a1 70 3d
       0.09259975 -0.059821725 -0.055193245 0.05874788
0000e0 bd ff 9c bd 5b 2b cf bc f7 12 ce bd 8e 85 9a bd
       -0.07665966 -0.025289228 -0.10062211 -0.07545005
0000f0 ab 9a 7e 3d e5 14 3b bd 7a d9 7b bd 32 c4 71 bd
       0.06215922 -0.045674223 -0.0614867 -0.059024997

attention.w_concat.weight f4 [64, 64]
000000 81 a9 17 3d 05 35 7d bd 3c 66 c3 bd e7 64 e8 bd
       0.037026886 -0.06181814 -0.09540984 -0.113473706
000010 a4 94 3d 3d 1c 5d f4 3c a6 00 0b 3d b9 3c b7 ba
       0.046284333 0.029829554 0.033936165 -0.0013979889
000020 f3 a9 93 3d 06 be 75 3c d7 78 d7 bd ed 0b c0 bd
       0.072101496 0.014998918 -0.10521095 -0.09377275
000030 51 25 db bc c0 de 4c bd 38 cc 21 3d f0 96 ce 3c
       -0.026751192 -0.05001712 0.0395014 0.025218457
000040 81 ac ce 3d c0 0d c5 3c ad 25 89 bc 20 2d 35 bd
       0.10091496 0.024054408 -0.016741598 -0.044232488
000050 47 2f ca bd 01 d4 82 3d 3d 48 55 bd e8 fe 04 be
       -0.09872299 0.06388093 -0.052070845 -0.12987864
000060 1b 23 3a 3d 59 43 dc bd 23 a4 19 bc f6 9a dd bd
       0.045443635 -0.10755033 -0.009377512 -0.10820572
000070 82 7d a7 bd a6 ab e7 bd 17 67 95 3d 87 19 24 bd
       -0.081782356 -0.11312036 0.072950535 -0.040063407
000080 14 3f e3 bd d8 07 ba 3d 47 15 8b bd 0c 4c 32 3c
       -0.110960156 0.09083527 -0.06791168 0.010882389
000090 65 ce c3 3b 48 c9 37 bd c7 a1 96 3b fe 4a 66 3d
       0.005975532 -0.04486969 0.004596922 0.056223862
0000a0 fe c7 ad bd 45 4f be 3c 68 90 00 be 07 f7 86 bc
       -0.08485411 0.023231158 -0.12555087 -0.016475214
0000b0 8f 3a 91 bd 11 d7 c9 3d f0 f9 05 be 05 03 ae 3c
       -0.07091247 0.09855474 -0.13083625 0.021241674
0000c0 d9 2d de 3d b9 7b 5c bd b8 31 97 3b c7 91 04 3e
       0.108485885 -0.05382893 0.0046140812 0.12946235
0000d0 27 70 6c 3d d0 45 b5 3d e4 9e 2a 3d 6b 6f 03 3e
       0.057724144 0.08851206 0.041655436 0.12835471
0000e0 1d 06 43 3d c2 88 5a 3d 19 60 cb bd d3 28 83 3d
       0.047613252 0.05335308 -0.099304385 0.06404271
0000f0 50 76 99 3d ef 8f 02 bc b7 d6 7f bd 09 03 de 3d
       0.074932694 -0.007968887 -0.062460627 0.10840423
000100 ba 2b 75 bc e9 a5 86 bd 8c e0 3a bd 68 00 d1 bb
       -0.0149640385 -0.065746136 -0.0456243 -0.0063782223
000110 83 48 eb bc e0 23 62 3d e6 5a ca bd ee b2 ab 3d
       -0.0287211 0.055209994 -0.09880619 0.083837375
000120 f6 3e 6a bd 31 a3 0b be 87 41 df 3d 0e ed d7 bc
       -0.05718895 -0.13636471 0.1090117 -0.026358154
000130 e9 7a 4f 3d aa d8 e3 bd ae 38 c2 3d 58 7f c9 3d
       0.050654326 -0.1112531 0.09483467 0.09838742
000140 91 ec bc bd 4c 29 a4 3d d8 b2 c8 bc d3 18 fa 3d
       -0.09224809 0.08015689 -0.024499342 0.12211766
000150 fe 27 8e 3d 57 6c c5 3c 0d ca 88 bc 66 f7 b5 3b
       0.06941222 0.024099512 -0.016697908 0.005553174
000160 a8 bb 1a bd c0 74 ca bd 20 93 80 bd 1b 14 db bd
       -0.03777662 -0.098855495 -0.06278062 -0.10697194
000170 30 d6 87 3b e0 4f 2b bd d0 66 d2 3d ef aa 11 bd
       0.004145406 -0.04182422 0.10273516 -0.035563406
000180 eb c3 61 3d 02 b9 b6 3c f8 6c aa bd 9a 90 35 3d
       0.055118483 0.022305015 -0.083215654 0.044327356
000190 d1 41 3b bd 6a e0 6d 3d 7f d4 fa bc 2a 9d 8a 3d
       -0.045717064 0.058075346 -0.030618904 0.06768258
0001a0 83 fc cc bc ec 79 16 bd 53 33 33 bb 1d ad a5 bd
       -0.02502275 -0.036737368 -0.0027343824 -0.08089659
0001b0 74 b2 cc bd f7 59 b2 3b e1 0a b0 bd 8b 23 89 bc
       -0.09994975 0.0054428536 -0.08595825 -0.016740581
0001c0 75 5d b2 3c 46 94 d7 3d 41 55 0b 3d e6 27 f8 3d
       0.02177308 0.10526328 0.03401685 0.12116985
0001d0 f7 df b8 3d 64 af d8 3d 17 0c 68 bd 22 18 62 bd
       0.09027093 0.10580328 -0.056652155 -0.055198796
0001e0 ed 07 e0 3d 87 62 ec 3d 27 ed da bc 21 09 54 3d
       0.10939012 0.1154223 -0.026724411 0.05176652
0001f0 40 ba 61 bd 09 83 05 be 43 84 67 3c 30 18 f4 bd
       -0.055109262 -0.13038267 0.014130655 -0.11918676
000200 d9 36 4b 3d a2 f3 0c be 0b f4 bc bd 60 8a fa bb
       0.049612854 -0.13764814 -0.09226235 -0.00764589
000210 b3 4c ab bd b3 4c 56 3d 25 f1 4c 3d be 8f bf 3d
       -0.083642386 0.05231924 0.05003466 0.093535885
000220 9f df c9 3d f8 9d 8d 3d 92 de bb bc eb d5 49 3d
       0.098571055 0.06914896 -0.022933278 0.049276274
000230 85 84 af bd ba f7 12 3c 9e 63 89 bd a8 57 e2 bc
       -0.08570198 0.008970195 -0.067084536 -0.027629688
000240 6e 94 0b bd e4 05 bc bd fc 08 65 bd 75 7b 85 3c
       -0.0340771 -0.09180811 -0.05591677 0.01629422
000250 95 26 bf 3d 12 d2 c1 3d 6c 32 11 3d 8b 43 5b 3a
       0.09333531 0.09463896 0.035448477 0.00083642517
000260 ee 29 91 bd 4c 42 80 3d 43 e5 24 3d 25 9c 44 bd
       -0.070880756 0.06262645 0.040257704 -0.048000474
000270 c0 c5 fe 3d f1 2c bb 3b 71 52 e3 3d b3 6c 8d bd
       0.124400616 0.0057121445 0.11099709 -0.06905498
000280 ea bf 29 bb 32 ee f8 bd 4a 68 10 bd 7f 62 1e 3d
       -0.0025901743 -0.12154807 -0.035255708 0.038668152
000290 58 02 06 3d f6 4e 45 3d 53 0c c9 3c 47 50 72 bd
       0.03271708 0.048171006 0.02454201 -0.05915859
0002a0 39 c2 82 bd e9 94 1e bd e7 d8 f4 bc 73 c6 8f 3b
       -0.06384701 -0.03871623 -0.029888583 0.0043876707
0002b0 b0 46 fc bd 27 17 a7 bd 80 4d 97 bd 96 95 35 3c
       -0.1231817 -0.08158713 -0.07387829 0.011083027
0002c0 47 c9 bf 3d bd 55 cd 3d d1 bf d0 3d 3e f9 87 bd
       0.093645625 0.10026119 0.10192836 -0.06639336
0002d0 f1 cb 34 3d 9a 72 bd bc 38 75 71 3d 62 c9 97 bc
       0.044139806 -0.023125935 0.05894968 -0.018528644
0002e0 fb 2c c8 bd e2 02 58 bd 91 85 fa 3d ac e6 47 bd
       -0.09774204 -0.052737124 0.12232507 -0.04880397
0002f0 f2 a6 86 3c 84 27 70 bd 38 97 12 ba af 2a fc bc
       0.016437028 -0.058631435 -0.00055919914 -0.030782072
000300 e2 a3 b1 bd fc 1c ec 3d 4e a6 da bd 9d 63 41 3d
       -0.08673836 0.11528966 -0.10676251 0.04721414
000310 4c 86 9c bc 67 fe ab bd 98 bb 8c 3d ec 54 09 bd
       -0.019107006 -0.08398133 0.06871718 -0.033528253
000320 7f ce aa bd 5a de 0a 3c a1 26 1f 3c 66 00 4b 3c
       -0.08340167 0.008475864 0.0097138 0.012390232
000330 51 29 a3 bd 95 fc c4 bd 86 c8 0f bd f3 89 1e 3d
       -0.07966865 -0.09618489 -0.035103343 0.038705777
000340 64 53 57 bb ab 85 5a 3d 3f 78 7a 3d a3 b1 80 3d
       -0.0032856101 0.053350132 0.06114983 0.062838815
000350 1d 01 54 3d 7d 84 b5 bd 40 26 13 bd 60 c5 f2 3d
       0.051758874 -0.08863161 -0.03592515 0.118540525
000360 70 4d 9f bd b3 9f 6d 3d f1 cc 9d bd 87 47 0d bd
       -0.07778442 0.05801363 -0.07705105 -0.034492042
000370 f6 f5 4d bd aa 7f 76 bd d4 d8 d2 3c 16 63 4d 3d
       -0.050283395 -0.060180344 0.025738157 0.050143324
000380 7a 0f 1a bd db 0f 8a 3d 54 5b d6 3b 6a 87 c5 bb
       -0.037612416 0.067413054 0.006541649 -0.0060281055
000390 52 83 68 3d e9 61 b6 bd b8 68 dd bd 19 c8 80 bd
       0.05676586 -0.08905394 -0.10810989 -0.062881656
0003a0 16 20 c0 bc ca b0 b6 3d 6e 35 5a bd 97 95 e8 3c
       -0.0234528 0.089204386 -0.05327361 0.028391642
0003b0 85 2e 8d 3c f0 85 6e bd f5 02 3d bd fb b2 97 bd
       0.017234096 -0.0582332 -0.0461454 -0.07407185
0003c0 1a 1c a2 bd 2d 49 86 bd 04 ea 5e 3c 44 c1 da 3d
       -0.07915516 -0.06556926 0.013605598 0.10681394
0003d0 5b a9 eb bd 8b 2a 26 bd 45 a2 72 bd d6 21 9f bd
       -0.11506911 -0.040567916 -0.059236784 -0.077701256
0003e0 29 a7 a2 3d 45 f7 03 bd 1c 8a f2 3b f9 c9 ac bd
       0.079420395 -0.032218236 0.007401718 -0.08436961
0003f0 6a d3 c9 bd ab bd 6e bd 3d e4 a5 3d 12 a4 6a bd
       -0.09854777 -0.05828635 0.081001736 -0.057285376

attention.w_concat.bias f4 [64]
000000 bf b3 58 3d 7d f0 a9 bd 9f 85 b4 bc f3 de a2 bd
       0.052905794 -0.082978226 -0.022036372 -0.079526804
000010 56 64 34 bd 5f 9a 51 3d 3a 9d f8 bc 96 46 57 3d
       -0.044041 0.05117261 -0.030348409 0.05255755
000020 09 ef 76 bd ec 80 3e bd ec 69 c0 3d 24 4a 6f 3c
       -0.060286555 -0.04650967 0.09395203 0.014605079
000030 05 af c6 bd 9b cd ac 3d ac ad 9d 3d 76 02 e9 3d
       -0.09701351 0.08437654 0.07699141 0.113774225
000040 41 94 a9 3d 7b f5 c4 bd c1 95 f0 bc f5 2c f5 bd
       0.0828023 -0.09617134 -0.029368283 -0.119714655
000050 9e db 5f bc d5 79 02 3e 83 e0 d7 bc f2 cd c0 3d
       -0.013663201 0.12741788 -0.026352173 0.09414281
000060 88 33 28 3d bb c6 ae 3d 0d 98 1f 3d 4b 41 fb bd
       0.04106477 0.085339986 0.038963366 -0.12268313
000070 ab 5b d3 3d 91 c5 9f 3c e0 16 9e bd bd 32 d0 3d
       0.10320219 0.019503387 -0.07719207 0.101659276
000080 a0 df d5 bd 22 ac 80 bb 9c dc 95 3d c1 b3 db bd
       -0.10443044 -0.00392677 0.073174685 -0.10727645
000090 1f 17 87 bd 5d 23 c3 bd 9c e0 83 3c d2 f6 1f bc
       -0.06596207 -0.095282294 0.016098313 -0.009763436
0000a0 ab af 54 bd 1d 62 af 3d 63 2b 29 3d a3 1e 9c 3d
       -0.051925343 0.085636355 0.041301142 0.07623031
0000b0 2e e4 d5 bd 50 4d 03 3a 83 bd e7 3d f7 a3 a3 bc
       -0.104439124 0.0005008774 0.11315443 -0.019975645
0000c0 24 d0 1e 3d 7c 24 e1 3d bf 4e b9 bd 56 92 4f 3d
       0.038772717 0.10993287 -0.09048223 0.050676666
0000d0 f7 f5 77 bd 31 2b db bc ba db db bd fc cb dd bd
       -0.060537305 -0.026753994 -0.10735269 -0.108299226
0000e0 9b 78 a2 bd 6b bc f4 3d 7d 5c a9 bb 3f f9 ff bd
       -0.0793316 0.119500004 -0.005168496 -0.12498712
0000f0 16 2c 96 bd 6d e4 e5 3d a2 6f 8a bc be f3 d6 3d
       -0.073326275 0.112252094 -0.016898934 0.10495709

norm1.weight f4 [64]
000000 d4 c8 81 3f c4 4a 81 3f f1 4f 7b 3f e4 cd 7e 3f
       1.0139413 1.0100942 0.98168856 0.99532914
000010 17 35 7c 3f 43 f6 81 3f e3 64 81 3f 3c e8 80 3f
       0.9851851 1.0153278 1.0108913 1.0070872
000020 f4 69 81 3f c6 fd 7e 3f b9 23 80 3f 26 4a 7e 3f
       1.0110459 0.9960598 1.0010902 0.9933189
000030 ca 6b 80 3f 41 a2 7e 3f 67 df 81 3f fd 4d 7d 3f
       1.0032895 0.9946633 1.0146302 0.98947126
000040 4e a0 7d 3f c2 f7 7f 3f ac ad 80 3f fc 14 82 3f
       0.9907273 0.99987423 1.0053 1.0162654
000050 bb 13 81 3f 58 a0 82 3f 88 97 7f 3f b0 d1 7c 3f
       1.0084146 1.0205183 0.99840593 0.9875746
000060 0b 21 80 3f 56 18 7c 3f 59 01 81 3f 2f 7f 7d 3f
       1.0010084 0.98474634 1.0078536 0.9902219
000070 9e bd 7e 3f 66 35 80 3f d9 0a 7e 3f e9 2a 80 3f
       0.9950808 1.0016296 0.992353 1.0013095
000080 1b e0 7b 3f 62 c6 80 3f e2 8f 81 3f 7b cf 81 3f
       0.9838883 1.0060542 1.0122035 1.0141443
000090 45 b2 7c 3f 9f 29 80 3f 4b 74 81 3f b9 39 7e 3f
       0.9870952 1.0012702 1.0113615 0.9930683
0000a0 b8 bc 7f 3f a9 07 7f 3f 6d 1d 7f 3f 87 cd 80 3f
       0.99897337 0.99621063 0.99654275 1.0062722
0000b0 0f 52 7f 3f dd 01 7a 3f 14 5b 80 3f af 76 7f 3f
       0.99734586 0.97659093 1.0027795 0.9979047
0000c0 79 f3 7c 3f a5 02 81 3f fc 2c 80 3f 04 29 81 3f
       0.9880901 1.0078932 1.0013728 1.0090642
0000d0 c2 1e 7c 3f 8a 25 7f 3f d6 99 80 3f 1c 17 80 3f
       0.9848443 0.99666655 1.0046947 1.0007052
0000e0 40 c1 7f 3f 56 71 7e 3f f1 7c 7f 3f 2d db 7d 3f
       0.9990425 0.99391687 0.9980002 0.9916256
0000f0 01 8d 7a 3f 5d 34 80 3f 9f 85 80 3f 18 7d 7d 3f
       0.97871405 1.001598 1.0040778 0.99019

norm1.bias f4 [64]
000000 b4 a3 23 bc ec 84 20 bc a7 55 1a 3c a7 0f 82 ba
       -0.00998776 -0.009797316 0.009419835 -0.0009922878
000010 6e af 3c 3c bc 60 61 bc 86 dc 58 bc d9 da 44 bb
       0.011516435 -0.013755973 -0.013236171 -0.003003767
000020 76 ea 0e 3a c7 1a 05 3c 92 4a 1c 3c 43 98 22 3c
       0.00054518075 0.00812406 0.009539263 0.009923997
000030 00 c4 07 bc 9f e0 58 bb 72 b5 f1 3a d2 51 10 bc
       -0.008286476 -0.003309287 0.0018440916 -0.00880857
000040 f1 94 f5 bb 59 21 40 bc 52 a6 34 bb be 5d 8a bb
       -0.007494562 -0.011726701 -0.0027564955 -0.0042226007
000050 70 db 0e 3c a0 f1 ae 3b 03 21 81 3b 06 2f 1c bc
       0.00871931 0.0053388625 0.003940703 -0.009532696
000060 82 50 3b 38 a6 8c b3 3b 72 61 25 bc ab 29 51 bc
       4.4659253e-05 0.005479413 -0.010094034 -0.012766282
000070 f9 c7 95 3b 9d 91 a1 39 47 75 9c 3b 35 07 c1 3a
       0.0045709577 0.00030816803 0.0047747227 0.0014726879
000080 9b b8 ae 3b 42 10 95 ba fa 49 a1 bb aa 67 77 3c
       0.0053320653 -0.0011372643 -0.004922149 0.015100399
000090 fa 1e b2 bb 84 5c d5 39 be 0c 30 bc 5c 67 3d bb
       -0.0054358216 0.00040695455 -0.0107452255 -0.0028900718
0000a0 fe 41 1f ba e1 12 09 bc 2f 61 ac 3b 8c ef 05 3c
       -0.0006075202 -0.0083663175 0.0052606086 0.008174788
0000b0 26 6f ff ba fa cd 37 bc 7a ee 84 3a 1b 3e e0 bb
       -0.0019488081 -0.011218542 0.0010141872 -0.006843341
0000c0 29 c2 dd 3b 67 17 f5 3b f7 94 66 bb 46 04 d8 bb
       0.0067675305 0.0074795964 -0.0035184005 -0.0065923063
0000d0 b5 8b 10 3b 00 e8 49 bb 24 2b e4 bb 34 bd cb 39
       0.0022055928 -0.0030808449 -0.0069631506 0.00038860145
0000e0 55 18 7f bb 4b 88 b2 bb 5b d7 38 3c 23 4b 86 bc
       -0.0038924415 -0.0054483763 0.0112818135 -0.01639325
0000f0 5e a3 d3 3b 2c b2 c8 38 72 79 02 bc 86 6c 30 bc
       0.006458684 9.56993e-05 -0.007963525 -0.0107680615

trans_sample.0.weight f4 [32, 64]
000000 f3 8c 87 bd f9 b6 63 bd b1 2d 89 bd 7f 2a 89 bc
       -0.06618681 -0.05559442 -0.06698168 -0.016743897
000010 c1 a4 92 3d b3 a0 6b bd 45 be 01 be bf 60 94 3d
       0.071603306 -0.0575263 -0.12670238 0.07245015
000020 1d ff b1 bd fa 44 ea 3d ab d3 33 3d f3 2b c3 3c
       -0.08691237 0.114389375 0.043903034 0.023824668
000030 7b 26 8c bd fb 0e 9a bd ee f7 bc bd 30 ed 9a bd
       -0.06843277 -0.075223885 -0.09226976 -0.07564771
000040 db 09 12 bd 10 7f f5 bd a9 3d d2 bd 72 12 71 3d
       -0.03565393 -0.11987126 -0.10265667 0.05885548
000050 96 90 c6 3d 2b fa 0f be dc ba 00 bd 9e 6a 8e 3d
       0.09695546 -0.14060275 -0.031428203 0.06953929
000060 3a fe 86 3d af a7 48 bd 43 0d cf bd f8 10 9b bd
       0.065914586 -0.04898804 -0.10109951 -0.07571596
000070 24 fd 71 3d 4b 71 f6 3d d1 e4 92 3c 4e 61 8b 3d
       0.059079304 0.12033328 0.017931374 0.06805669
000080 1b ac c2 bd 89 94 d2 3d b6 b9 28 3d d5 19 b7 3d
       -0.09505483 0.10282237 0.041192733 0.08940474
000090 8e 4f 07 bd 0a 64 99 3d 30 1c c6 bd 80 62 f4 3d
       -0.033034854 0.07489784 -0.09673345 0.1193285
0000a0 65 be d4 3d 7e 4e 3c 3d 4d 25 f4 bd ca ad 59 3d
       0.103878774 0.045973293 -0.11921177 0.053144254
0000b0 8d 8e 75 3d e1 9b c2 bd 07 88 e3 bd 98 72 93 3d
       0.0599504 -0.09502388 -0.111099295 0.071995914
0000c0 e5 68 aa 3c 68 2d 57 bd 3c a7 c0 3d b8 48 1f bd
       0.02080197 -0.052533537 0.094068974 -0.03888771
0000d0 29 ba d9 3c 62 ba 88 bd a3 57 02 bd 80 32 75 3d
       0.026578026 -0.06676175 -0.03182186 0.059862614
0000e0 43 9e 4e bd 2e fa 26 bd 59 61 e0 3d 56 dd 84 bd
       -0.0504439 -0.040765934 0.109560676 -0.06487529
0000f0 fa 94 e1 3d 1a c3 10 bd ea cc d3 3c 63 b5 b4 bd
       0.11014743 -0.035342313 0.025854547 -0.08823659
000100 60 9e 87 bd 5e cc c3 3d ae 9d 9c 3c 24 be c3 bd
       -0.066220045 0.09560464 0.019118156 -0.09557751
000110 42 ab 2c 3d 65 d9 29 bd e2 2e 98 bd f7 bd d5 3d
       0.04215551 -0.04146709 -0.07430817 0.104366235
000120 92 11 f2 bd aa 92 c6 bd ae b3 ba bd e5 0e 04 3c
       -0.118197575 -0.09695943 -0.091163024 0.008060192
000130 5b de be 3d 80 d8 bc bd b6 04 bf 3d 22 fa 07 bd
       0.09319755 -0.092209816 0.093270704 -0.03319753
000140 23 40 e2 3d aa ae f9 bd 93 d6 35 bd 00 e2 15 bd
       0.11047389 -0.12191518 -0.044394087 -0.036592484
000150 e6 40 b4 3d 48 ea a9 bd 29 82 9a 3a c7 6d 9a bc
       0.08801441 -0.08296639 0.0011788058 -0.018851174
000160 c2 3c 73 3d ba ce 92 bd 9e 74 fa bc da 7c bd 3b
       0.059384115 -0.07168336 -0.030573186 0.0057827057
000170 fc b5 83 bd d6 01 8a bd c6 d0 9d bc d6 66 d9 3d
       -0.06431195 -0.067386314 -0.01926459 0.106153175
000180 e5 c7 c5 3d 49 21 77 3d 6a 0d dd 3d 46 74 86 3d
       0.096572675 0.060334478 0.10793574 0.06565146
000190 ae 71 8e 3d 51 d6 e5 3d 3f 2b 0c 3b bb b9 01 bd
       0.069552764 0.11222518 0.0021388081 -0.031671267
0001a0 65 80 d5 3d 7e f0 2b bc 07 93 7c bd dc 2f 28 bc
       0.1042488 -0.0104943495 -0.061663654 -0.010265317
0001b0 1f 4e f0 3d e3 e0 ac bd 09 3a 78 3d d8 54 00 3d
       0.117336504 -0.08441331 0.06060222 0.031330913
0001c0 79 da 65 bd 52 c2 f4 bd 39 71 f1 bd 48 40 a9 bc
       -0.056116555 -0.11951126 -0.11789174 -0.020660535
0001d0 f8 63 0d 3d 79 62 a5 bd 78 f5 db 3d 8b 7b d4 3d
       0.034519166 -0.08075423 0.10740179 0.103751265
0001e0 0c 9f b3 3d 7e b2 a4 3d 30 d3 7e 3d df 70 c0 bd
       0.0877057 0.08041857 0.062213123 -0.093965285
0001f0 2a b3 b5 bb 3e 5a d6 3d c9 b8 a0 bb 5b a5 bf 3d
       -0.0055450397 0.10466431 -0.0049048406 0.09357711
000200 87 b8 a3 3d 75 9c 5b 3d 8e b2 e1 3c da 01 32 3c
       0.0799418 0.053616006 0.027550962 0.010864699
000210 83 c8 6e bd 65 87 e6 3d 22 6e 64 3d b8 4c bf bc
       -0.05829669 0.11256293 0.055769093 -0.023352012
000220 40 b7 57 bb e4 da 32 bd 33 ef 01 3d 38 e4 b8 3b
       -0.0032915622 -0.04366578 0.03172226 0.00564244
000230 fb 15 e8 bd a6 19 4c 3d 58 10 96 3d ed 41 85 bd
       -0.113323174 0.049829148 0.07327336 -0.06506715
000240 83 ff 86 bd 66 38 c1 3d 08 ea e9 bd d4 05 65 bd
       -0.06591704 0.09434585 -0.11421591 -0.05591376
000250 35 0b 63 bd ed 94 c6 3c eb 09 40 bc 3f b0 9c bd
       -0.05543061 0.024240935 -0.011721115 -0.07650804
000260 a7 b4 a6 bd 00 a1 e0 bd 58 8e 11 bb 6f 5e e5 3d
       -0.081399255 -0.10968208 -0.0022210088 0.111996524
000270 ae 6c 2c 3c 0d ef c3 bd c0 e8 d6 3d 6e 79 bf 3d
       0.010523958 -0.0956708 0.10493612 0.09349333
000280 5b 39 8c 3d 75 fa d9 3b 95 03 77 3d 29 a3 9e 3d
       0.06846877 0.0066521713 0.06030615 0.07745964
000290 63 f6 f4 3d a5 63 16 bd 5f 0c 1b bd 74 d5 9d bd
       0.11961057 -0.036716122 -0.037853595 -0.077067286
0002a0 73 fb d2 3d 36 d2 b4 bc f6 cf a8 3d 22 e7 8f 3d
       0.103018664 -0.022072893 0.082427904 0.07026507
0002b0 29 66 c5 3d e7 fe 94 bd 45 20 7e bd e2 d4 c3 bd
       0.09638626 -0.07275181 -0.062042493 -0.095620885
0002c0 67 4a 49 3d 17 67 f2 bd 81 df dc 3d eb a5 f8 3d
       0.04914322 -0.11836069 0.107848175 0.12141021
0002d0 47 15 95 3d a3 04 a6 3c 7b 68 1f 3b a8 96 41 3d
       0.07279449 0.020265883 0.002432375 0.047262818
0002e0 d3 62 a7 bd 97 89 e5 3d d0 2d 89 3d 2e 57 a6 3d
       -0.08173146 0.11207884 0.06698191 0.08122097
0002f0 c7 8f d1 3d 9e ee 92 bd 81 c2 ee bc d4 91 27 3d
       0.102325015 -0.07174419 -0.029145481 0.040910557
000300 91 62 c8 3d 4e d1 bd bd 01 71 b4 bd 39 9c e7 3d
       0.09784425 -0.09268437 -0.08810616 0.11309094
000310 03 9e 38 bd 4c ad 6d bd 4f 11 6e ba b7 66 d1 3d
       -0.045072567 -0.058026597 -0.00090815587 0.102246694
000320 9a 24 a4 3d 55 7e 1d bc 7b 71 a4 bc 74 4e 3d bd
       0.08014794 -0.009612639 -0.020073643 -0.046217397
000330 f7 90 86 bd b0 60 c6 bd 74 22 bf 3d 3d d0 d8 bd
       -0.065706186 -0.096864104 0.09332743 -0.10586593
000340 e8 a9 ef 3d 54 d4 75 3c b6 ba c8 bd 47 ab b9 3d
       0.11702329 0.015004236 -0.09801237 0.09065872
000350 b4 f0 9f bd b0 f5 e9 bb 08 43 0b 3e a1 ee 82 bd
       -0.07809582 -0.007139884 0.13599789 -0.06393171
000360 89 2a 11 3d 8f 32 d7 bd 11 40 de 3d 10 a4 be bd
       0.035440955 -0.1050769 0.108520634 -0.09308636
000370 76 33 b2 3d 06 17 03 be c4 be 71 3d bc 57 6c bd
       0.08701222 -0.12801751 0.05901982 -0.057700858
000380 e5 15 d7 3c 8d 21 d1 bc 0f 51 83 3d f3 cf e3 bd
       0.026255557 -0.025528694 0.06411945 -0.111236475
000390 d6 f2 4b 3c a8 39 7d 3c 5d 0b 3d 3d c5 dc 0d be
       0.012448033 0.015455641 0.046153415 -0.13853748
0003a0 5f 62 fb 3d 6d 6b db 3b 93 dc ee 3d 6c 69 e8 3d
       0.12274622 0.0066961558 0.11663165 0.113482326
0003b0 50 97 d3 bd a2 15 5c bd bf 2d 2c 3d 5c 2a e5 3d
       -0.10331595 -0.05373157 0.042035814 0.1118972
0003c0 b3 76 f7 3d 21 5f be 3d e5 2f d3 3c 63 35 3b 3d
       0.12083187 0.09295488 0.025779674 0.04570521
0003d0 c6 97 d4 bd 9c b9 57 3d 64 42 83 3b 7c 61 0e bd
       -0.10380511 0.052667245 0.004005717 -0.034760937
0003e0 1e 3f b5 bd 7c 40 48 bd 7e 6f e5 bd f7 ae e4 bd
       -0.08849929 -0.048889622 -0.11202906 -0.111661844
0003f0 45 57 74 3c d5 4c 46 bd 09 da da bd 24 2b c7 3d
       0.014913385 -0.048413116 -0.10686118 0.09725025

trans_sample.0.bias f4 [32]
000000 33 7b cc bd a1 1a 8c bd c8 61 bd 3d 0e 95 c3 3d
       -0.09984436 -0.068410166 0.09247166 0.09549914
000010 6e f0 cd 3c b3 c5 92 3d e1 78 8e 3d 6e 2f 16 bd
       0.02513906 0.071666144 0.069566496 -0.036666326
000020 3b f4 96 3d 33 83 7d 3d 49 67 25 bd 7c 0e 7d 3c
       0.07370802 0.0618927 -0.040381704 0.015445348
000030 e4 0c fb bc 2f f1 e4 3d 0c b1 fa bb 72 8f 7b bd
       -0.030645795 0.111788146 -0.0076505 -0.061416097
000040 ee 15 ba 3d 37 15 fd 3d 71 48 6a bc 9a e8 d5 bd
       0.09086214 0.12357562 -0.014299498 -0.10444756
000050 33 dc 20 3c 7c b5 a3 3d ed f3 48 bc 63 4c 07 bc
       0.009818125 0.079936 -0.012265188 -0.008257958
000060 d3 cd a2 3d 06 35 ca 3d 8d 2c 87 3c 60 6b 25 bd
       0.07949414 0.09873395 0.016500736 -0.040385604
000070 1b 58 96 3d 34 69 3b bd 40 a6 72 3d 54 95 9f bd
       0.073410235 -0.045754626 0.05924058 -0.07792154

norm2.weight f4 [32]
000000 b9 8e 81 3f a7 25 7f 3f 6e 16 81 3f cc bd 7f 3f
       1.012168 0.9966683 1.008497 0.9989898
000010 27 b8 7e 3f d5 c3 7c 3f cb a9 80 3f c6 88 7e 3f
       0.99499744 0.98736316 1.0051817 0.9942745
000020 25 9e 80 3f 20 f6 7d 3f db 60 80 3f b9 d7 7d 3f
       1.0048262 0.9920368 1.0029558 0.9915729
000030 08 ad 7f 3f b8 a8 7e 3f ce 5c 7e 3f 64 a2 80 3f
       0.998734 0.99476194 0.9936036 1.0049558
000040 44 91 7d 3f ff a2 80 3f 2c 6f 80 3f 6d 17 7e 3f
       0.9904978 1.0049742 1.0033927 0.99254495
000050 c3 ad 80 3f df 33 80 3f 68 52 81 3f c3 10 80 3f
       1.0053028 1.001583 1.0103273 1.0005115
000060 f4 5c 7d 3f ce cc 7c 3f 90 89 7e 3f 44 fd 81 3f
       0.9896996 0.9875001 0.99428654 1.0155416
000070 19 98 80 3f 1e 14 7f 3f 6c c6 80 3f 7d 1d 82 3f
       1.0046417 0.9964007 1.0060554 1.0165249

norm2.bias f4 [32]
000000 37 72 3d ba 30 9a d5 b9 a7 fc 12 bc 80 ef 7f 39
       -0.0007226797 -0.00040741405 -0.00897137 0.00024407916
000010 09 1d 58 3a 47 f8 12 3c 77 af 7d bb f6 eb c5 3b
       0.00082440727 0.008970327 -0.0038709322 0.0060400916
000020 2a 7c 10 bc 05 be 02 bc 3e 9d 1c bb 98 dd b3 ba
       -0.0088186655 -0.0079798745 -0.0023897435 -0.0013722656
000030 bd 27 be ba 7b 6f 50 b9 3a ad a9 3b 79 c3 48 bc
       -0.0014507693 -0.00019877955 0.005178121 -0.012253636
000040 06 e3 21 3c c6 b8 00 3c a0 66 5c 3b 9b 6a 9c 3b
       0.009880787 0.007856553 0.0033630505 0.0047734505
000050 fa 06 96 bb c9 28 ba 3b 7a dd 84 3b 34 98 93 b9
       -0.0045784684 0.0056811315 0.0040547224 -0.00028151425
000060 bb 29 10 3c 95 fd 27 bb 21 1d 29 3b 60 13 47 bc
       0.008799012 -0.0025633324 0.0025804716 -0.012150615
000070 a1 9f 92 bb ed 4c 1f bc 27 6c db 3b dc 24 e9 3a
       -0.0044745957 -0.00972293 0.0066962424 0.0017787474
