models/encoder_state_dict_width2.pth (torch, 420996 bytes, 57 tensors)

attention.w_q.weight f4 [128, 128]
0	0x3e029905	0.12753685
1	0x3eb1ea88	0.34749246
2	0xbe2203e9	-0.15821804
3	0x3ec34506	0.38138598
4	0x3db9f4db	0.090799056
5	0x3e0f8104	0.1401406
6	0xbd9adc16	-0.07561509
7	0xbdae2fba	-0.08505197
8	0x3ded5298	0.11588019
9	0x3e0b13a3	0.1358171
10	0xbdcb3df8	-0.09923929
11	0x3e053202	0.13007358
12	0xbe09d6c1	-0.13460828
13	0x3ccb602d	0.024826134
14	0xbcfccba5	-0.030858824
15	0x3d995042	0.07486011
16	0xbd9040a0	-0.07043576
17	0xbc69faa7	-0.014280952
18	0xbde84cbf	-0.11342763
19	0xbda5b59f	-0.08091282
20	0xba922f5c	-0.001115303
21	0x3e80ad31	0.25132135
22	0x3ddd1f9e	0.10797046
23	0xbd29fdae	-0.041501693
24	0xbdee3833	-0.11631813
25	0x3dbc044d	0.09180508
26	0xbcdf413f	-0.027252791
27	0x3e2025e0	0.15639448
28	0xbd5fe927	-0.05466571
29	0xbdb7ee56	-0.08981006
30	0xbd6e2957	-0.058144893
31	0xbe8c9c3e	-0.27462953
32	0xbd2990d9	-0.041397903
33	0x3dcba8f3	0.09944334
34	0xbdde5371	-0.10855759
35	0x3dff9f3d	0.12481544
36	0xbdce6f22	-0.10079791
37	0x3f0c4335	0.5479005
38	0x3d9e0c02	0.07717134
39	0x3d95094b	0.07277163
40	0xbe92a2dc	-0.28639877
41	0x3dd13148	0.10214478
42	0xbe535cb2	-0.20640829
43	0x3c105e22	0.0088115055
44	0xbe8506a2	-0.25981623
45	0x3c60049b	0.013672973
46	0x3d22eeab	0.039778393
47	0x3e2b340a	0.1671907
48	0xbe8c3973	-0.2738758
49	0x3e42e1ab	0.19031398
50	0x3ef17229	0.4715741
51	0xbd83ab04	-0.06429103
52	0xbd3058da	-0.043053485
53	0xbd5c3f26	-0.05377116
54	0x3e210fad	0.15728636
55	0x3d1debad	0.038554836
56	0x3c74efed	0.014949781
57	0xbc2086cf	-0.009797766
58	0x3cc6c3b3	0.024263239
59	0x3e02ece7	0.12785684
60	0xbf0e3307	-0.5554661
61	0xbca8f878	-0.020626292
62	0x3e020a4b	0.12699239
63	0x3dfd07b5	0.123549856
64	0x3ec1df5b	0.3786572
65	0x3d28f0fb	0.041245442
66	0x3eb1a730	0.34697866
67	0xbd048e01	-0.032361988
68	0x3e7c32f6	0.24628815
69	0xbe2a4e9c	-0.1663155
70	0x3e3ae1ab	0.18250148
71	0x3db50440	0.08838701
72	0x3e0a05b9	0.13478746
73	0x3f00becd	0.5029114
74	0xbe3819de	-0.17978618
75	0x3ce2ea2f	0.027699558
76	0xbdf00c48	-0.117210925
77	0xbdb8375d	-0.08994935
78	0x3e3ac676	0.1823977
79	0xbd79f633	-0.06102581
80	0x3edbf6ab	0.4296163
81	0xbdda782d	-0.10667453
82	0xbc7151bd	-0.014728961
83	0x3dcf2324	0.101141244
84	0xbf19cfcc	-0.600827
85	0xbbc7215f	-0.006076976
86	0x3dccf02b	0.10006746
87	0x3d54c8c3	0.051949274
88	0x3e35b437	0.17744528
89	0x3e298e87	0.16558276
90	0x3e860ae1	0.26180175
91	0x3c47444f	0.012162282
92	0x3d9f1e29	0.077694245
93	0xbe0e3894	-0.1388877
94	0x3de12e03	0.10995104
95	0xbc2ee683	-0.010675075
96	0x3e41b3ed	0.18916292
97	0xbcac594c	-0.021038674
98	0x3e5ea81b	0.21743815
99	0xbd00b2ac	-0.031420395
100	0x3e2ce62e	0.16884682
101	0xbdc20b5f	-0.09474825
102	0xbe16b23c	-0.14716429
103	0xbe6dfc11	-0.23240687
104	0x3d5a0406	0.053226493
105	0xbcf83a5d	-0.030301267
106	0xbea614ff	-0.32437894
107	0xbc968dcd	-0.018378163
108	0xbdfc7ec4	-0.12328866
109	0x3e6a924d	0.22907372
110	0xbe1c8156	-0.15283713
111	0x3c848db5	0.016180852
112	0x3ee37160	0.44422436
113	0x3db794a6	0.08963899
114	0xbed96ec7	-0.4246733
115	0xbe22ebc4	-0.1591025
116	0xbe1fe83b	-0.15615933
117	0xbd4a0138	-0.04931757
118	0x3f9e2ff7	1.2358388
119	0x3d2142f8	0.039370507
120	0xbdb6ef43	-0.08932354
121	0x3e2267a6	0.15859851
122	0xbe159bc9	-0.14610209
123	0xbe4a92fe	-0.19782636
124	0x3eca97cc	0.39568937
125	0xbd050b37	-0.0324814
126	0xbe420e34	-0.1895073
127	0x3d3282e1	0.043581847
128	0xbdd29973	-0.10283174
129	0x3e278325	0.16358621
130	0x3e472ede	0.19451472
131	0x3d71b932	0.059014507
132	0x3db0cced	0.086328365
133	0x3e9de51c	0.3083886
134	0x3bc55cee	0.006023041
135	0x3db4ba85	0.08824638
136	0xbd9d4a51	-0.0768019
137	0x3d5827fa	0.0527725
138	0xbe711e77	-0.23546778
139	0x3d027c07	0.031856563
140	0xbdc0e721	-0.09419084
141	0x3e62b32b	0.2213866
142	0x3e1714b4	0.14753991
143	0x3d69ac01	0.0570488
144	0x3df687d3	0.12037625
145	0x3d76cf13	0.060256075
146	0x3d865e53	0.0656096
147	0x3e0bc200	0.13648224
148	0x3db7be56	0.089718506
149	0x3d0c8d8d	0.03431468
150	0x3c6f3a2d	0.0146012725
151	0x3d9f2516	0.077707455
152	0x3d6fa357	0.058505382
153	0x3eaaaf43	0.3333684
154	0x3d961789	0.07328708
155	0x3e0ba5b0	0.13637424
156	0x3d82960e	0.06376277
157	0x3d02a3e4	0.03189458
158	0x3deb0582	0.1147566
159	0x3eb2af15	0.34899202
160	0xbbfc32bd	-0.007696478
161	0x3ea44653	0.32084903
162	0x3d833e3d	0.064083554
163	0x3f039ba4	0.51409364
164	0xbd94a165	-0.07257346
165	0xbe135d73	-0.14391117
166	0x3d5d8aac	0.054087326
167	0x3e1f67d5	0.15566953
168	0xbd16de09	-0.036832843
169	0x3e4ba230	0.19886088
170	0xbbcb81ca	-0.0062105404
171	0x3e9916af	0.2990012
172	0xbdb8a590	-0.090159535
173	0x3e22529b	0.15851824
174	0xbe1327e7	-0.1437069
175	0x3edcec82	0.4314919
176	0xbd930013	-0.071777485
177	0x3c8b57fd	0.01700973
178	0xbcd485a6	-0.025942635
179	0x3e88c52e	0.26712936
180	0xbe3e3708	-0.1857568
181	0x3e68150b	0.22664277
182	0xbdad1d0f	-0.08452808
183	0x3e9f9fa0	0.31176472
184	0xbe4547ef	-0.19265722
185	0x3c9552d2	0.018227968
186	0xbe1a350c	-0.15059298
187	0x3e2680f0	0.16260123
188	0xbc295cc8	-0.010337062
189	0x3df5133f	0.119665615
190	0x3df41453	0.11917939
191	0x3e040098	0.12890851
192	0xbc82eb85	-0.015981445
193	0x3d1aef24	0.03782572
194	0xbeb5bef2	-0.35497242
195	0x3dda110e	0.10647784
196	0xbd7420d8	-0.059601635
197	0x3e10e1e2	0.14148667
198	0xbfa56f02	-1.2924502
199	0x3e00f8fc	0.1259498
200	0xbe1e09e6	-0.15433463
201	0xbd551c81	-0.052029137
202	0xbc864c32	-0.016393755
203	0x3e1dba16	0.15403017
204	0x3d48d9cc	0.049035832
205	0x3e40e58b	0.18837564
206	0x3d51a5e3	0.051183593
207	0xbbf216ca	-0.0073879706
208	0xbefbbc9d	-0.49167338
209	0x3e182b4e	0.1486027
210	0xbd5ad5d9	-0.053426597
211	0x3e7a288e	0.24429533
212	0xbf8d06fb	-1.1017755
213	0x3e2f2d02	0.17107013
214	0xbe6054d6	-0.21907362
215	0x3e5ecc84	0.21757704
216	0x3e95825d	0.29201022
217	0x3cbd21f1	0.023087474
218	0xbe741111	-0.23834635
219	0x3e1429a1	0.14469005
220	0xbcb2a688	-0.021807924
221	0x3e3bf442	0.18354896
222	0x3ccfed1b	0.025381615
223	0x3d6a6fde	0.05723559
224	0xbd3e061a	-0.046392538
225	0x3d475ac8	0.04867056
226	0x3e90aec3	0.28258333
227	0x3c804aae	0.01566061
228	0x3dc7304e	0.0972601
229	0x3d884fd1	0.06655849
230	0x3e8286db	0.25493512
231	0x3df6ac63	0.12044599
232	0xbefae78d	-0.49004784
233	0x3db2945d	0.08719704
234	0x3e90970a	0.28240234
235	0x3e09163c	0.13387388
236	0x3d7018ec	0.058617517
237	0xbe1e7c5e	-0.1547713
238	0xbd8a08f4	-0.06739989
239	0x3d6e9dab	0.058255833
240	0x3d2113eb	0.039325636
241	0x3e0731db	0.13202612
242	0xbd99b1f8	-0.07504648
243	0x3e42542d	0.18977423
244	0x3c254f2d	0.010089678
245	0x3e78db32	0.24302366
246	0xbf523b93	-0.82122153
247	0x3e70dcb5	0.23521693
248	0x3dc54fc9	0.096343584
249	0x3e004ca6	0.12529239
250	0x3d6b9088	0.057510883
251	0xbe2eab84	-0.17057616
252	0xbe7b73f8	-0.24555957
253	0xbe4bf06f	-0.19915937
254	0x3e62ac00	0.22135925
255	0x3da1bc03	0.078971885

attention.w_q.bias f4 [128]
0	0x3bc10bc4	0.005891295
1	0x3eec1ad2	0.46114212
2	0x3eac8018	0.33691478
3	0x3e9a6178	0.30152488
4	0xbef50ca6	-0.47861212
5	0x3f0d869e	0.55283535
6	0xbe591c7b	-0.2120227
7	0xbec4c5d5	-0.38432184
8	0xbe2e20ad	-0.17004652
9	0xbe0165f8	-0.12636554
10	0xbe954bf7	-0.2915952
11	0x3e821c6b	0.25412306
12	0xbe49a540	-0.19691944
13	0x3ec278d9	0.37982824
14	0x3d39b576	0.04533907
15	0x3e2d4b25	0.16923197
16	0xbe1b4213	-0.15161924
17	0xbd25acad	-0.04044788
18	0xbe1898dd	-0.14902063
19	0xbe556dd5	-0.20842679
20	0x3e004241	0.12525274
21	0xbe3b2cf5	-0.18278868
22	0xbdc1b6f0	-0.09458721
23	0x3da68784	0.08131316
24	0xbc3adb7a	-0.011404866
25	0x3db57d34	0.08861771
26	0x3e0be5ca	0.13661876
27	0xbd0ddd80	-0.034635067
28	0xbd910450	-0.07080901
29	0xbde0784e	-0.10960446
30	0x3d6ab217	0.057298746
31	0xbd5f0afc	-0.054453835
32	0xbdd4514a	-0.10367067
33	0xbd149f9f	-0.03628504
34	0x3d9a4a51	0.07533706
35	0x3e08451a	0.1330761
36	0x3e0a18ab	0.13485973
37	0xbd663eca	-0.056212224
38	0x3f0daade	0.5533885
39	0xbe87ed9e	-0.26548475
40	0x3e1cde15	0.15319093
41	0x3d840a4c	0.064472765
42	0xbe973ef9	-0.29540232
43	0x3ead07ee	0.33795112
44	0xbe872c27	-0.26400873
45	0x3d80f576	0.06296818
46	0x3a5ae884	0.00083506876
47	0x3e13a526	0.14418468
48	0xbdc0aa0f	-0.09407436
49	0xbeadd72c	-0.33953226
50	0x3e87bfbc	0.2651347
51	0xbe74281d	-0.23843427
52	0xbede8937	-0.43464062
53	0xbea65ebf	-0.3249416
54	0x3c2edd65	0.010672902
55	0xbe34e36a	-0.17664877
56	0x3ea4c545	0.32181755
57	0x3e1a076f	0.15041898
58	0x3db54e71	0.08852852
59	0xbe68495b	-0.22684233
60	0xbef34dbf	-0.47520253
61	0x3e6a34c4	0.22871691
62	0x3e7e563b	0.24837582
63	0xbeb09061	-0.34485152
64	0x3e107341	0.14106466
65	0x3dda6cd2	0.10665287
66	0xbe9a925a	-0.30189782
67	0xbe81671f	-0.25273988
68	0x3d5fe6ea	0.054663576
69	0xbe324868	-0.17410433
70	0xbcfd53cc	-0.030923747
71	0x3d92a620	0.07160592
72	0xbcd60499	-0.02612524
73	0xbc6640ca	-0.014053533
74	0x3dfb68bf	0.12275838
75	0x39e3b344	0.00043430377
76	0x3e0eb729	0.13937058
77	0x3e84a760	0.25908947
78	0x3dbddb30	0.09270322
79	0xbd90e2fd	-0.070745446
80	0xbde5bcf3	-0.1121768
81	0xbb6caac3	-0.0036112524
82	0x3c289ad0	0.010290816
83	0x3d597940	0.05309415
84	0x3ddc2d18	0.107507885
85	0x3cec8001	0.02886963
86	0x3da54315	0.080694355
87	0xbd8a45a4	-0.06751564
88	0x3e1c1c39	0.15245141
89	0x3e1dcaba	0.15409365
90	0x3d94299a	0.07234497
91	0xbcc4924a	-0.023995537
92	0x3b0bfd64	0.002136075
93	0xbd622d5c	-0.05521904
94	0x3defbf10	0.11706364
95	0xbdd48641	-0.103771694
96	0x3ecdde82	0.40208822
97	0xbe4e524c	-0.20148581
98	0x3e7f5038	0.24932945
99	0xbeb66b35	-0.35628667
100	0xbe411b55	-0.18858083
101	0x3edfc398	0.43703914
102	0x3e8bb81d	0.27288905
103	0x3ef62574	0.4807545
104	0x3db20b9f	0.08693623
105	0xbe987b23	-0.29781446
106	0x3f20e586	0.62850225
107	0xbe7f4b47	-0.2493106
108	0x3ee40cf6	0.44541138
109	0xbea09962	-0.31367022
110	0x3c410ff9	0.011783593
111	0x3dfc6f76	0.12325947
112	0xbd8faae2	-0.07015015
113	0xbe40c8d9	-0.18826617
114	0x3e383076	0.17987236
115	0xbcdb133a	-0.026742566
116	0xbd511ae2	-0.051051028
117	0xbc458a32	-0.012056874
118	0xbd1dba34	-0.038507655
119	0xbcff83c8	-0.031190768
120	0x3d756b9c	0.059917077
121	0xbe54b3d0	-0.20771718
122	0xbe8b12b1	-0.27162698
123	0xbdb34b9c	-0.08754656
124	0xbe1b276a	-0.15151754
125	0xbe3ac344	-0.1823855
126	0x3e593485	0.21211441
127	0xbceee9f6	-0.029164296

attention.w_k.weight f4 [128, 128]
0	0x3d6b6c58	0.05747637
1	0x3dc4316b	0.09579738
2	0x3c926f2e	0.01787528
3	0x3d27d306	0.040972732
4	0xbe33cd6c	-0.17558831
5	0x3de74bad	0.11293731
6	0xbcc2e523	-0.023790902
7	0xbc7f58d4	-0.015585143
8	0xbd55880e	-0.052131705
9	0x3d83ee24	0.06441906
10	0xbe0d2dd8	-0.13787019
11	0xbdbaa245	-0.09112982
12	0xbdc92df3	-0.09823217
13	0x3d91b7f9	0.07115168
14	0xbd0f243e	-0.034946673
15	0xbdb3015e	-0.08740495
16	0x3c91dc13	0.017805135
17	0x3d23f206	0.040025733
18	0x3acecd60	0.0015777759
19	0x3d6e2228	0.058138043
20	0x3b1a1f7e	0.0023517306
21	0xbdf15c39	-0.11785168
22	0x3e9d09dc	0.30671585
23	0xbd9407c1	-0.072280414
24	0x3d4c6851	0.04990417
25	0xbd723370	-0.059131086
26	0x3ee48fbc	0.4464091
27	0x3d3ce6d2	0.046118565
28	0x3d87fccc	0.06640014
29	0xbe0b6e0a	-0.13616195
30	0x3e810c10	0.25204515
31	0xbc663e84	-0.014052991
32	0x3ec4fc44	0.38473713
33	0xbd681af8	-0.056666344
34	0x3ce3eba2	0.02782232
35	0xbe118aff	-0.14213179
36	0x3e4dadec	0.20085877
37	0xbcb9d530	-0.022684664
38	0x3e946ae3	0.28987798
39	0xbc3a7641	-0.011380733
40	0xbca5e2e3	-0.02024979
41	0xbe134783	-0.14382748
42	0xbc4cb019	-0.012493157
43	0xbe0cafa3	-0.13738875
44	0xbdca0800	-0.09864807
45	0xbe7568e9	-0.23965801
46	0xbce88bf5	-0.02838705
47	0xbe59cb8b	-0.21269052
48	0x3e3a648e	0.18202421
49	0xbd5a694d	-0.05332308
50	0x3e3e293c	0.18570417
51	0x3e4eb48c	0.2018606
52	0xbd4b9bcc	-0.049709126
53	0x3e89f08b	0.26941332
54	0xbe09f82b	-0.13473575
55	0x3d7bb6f7	0.061453786
56	0xbd0c4557	-0.034245815
57	0xbce4f925	-0.027950833
58	0xbdc56294	-0.09637943
59	0x3d8ded97	0.06930082
60	0x3e48f5e2	0.19625047
61	0xbe699d23	-0.22813849
62	0xbe2a14bd	-0.16609474
63	0xbe44241b	-0.19154398
64	0x3eaeff24	0.34179032
65	0xbbb14b04	-0.005410554
66	0xbd371113	-0.044694018
67	0x3e0ef7f2	0.13961771
68	0x3d10264e	0.03519278
69	0x3db80e5e	0.08987115
70	0x3c9a2ade	0.018819269
71	0xbc6fb4a6	-0.014630472
72	0xbe0d7694	-0.13814765
73	0xbc3288b3	-0.010896849
74	0xbd9b376d	-0.07578931
75	0x3dc23583	0.09482863
76	0xbc83369b	-0.016017249
77	0x3b8c6a3d	0.0042851255
78	0x3d462fd5	0.04838546
79	0x3e2dfa9c	0.16990131
80	0x3eca903d	0.3956317
81	0xbddc0a76	-0.10744183
82	0xbd707d01	-0.058712963
83	0x3db4571b	0.088056765
84	0x3d00f0f1	0.03147978
85	0xbb4db500	-0.0031388402
86	0xbe995134	-0.29944766
87	0x3e89fdda	0.26951486
88	0xbda0782e	-0.078354225
89	0xbd977abc	-0.073964566
90	0xbe5ec273	-0.21753864
91	0xbda2df96	-0.07952802
92	0xbe392570	-0.18080688
93	0xbcbfa01e	-0.02339178
94	0x3ce0f97e	0.027462717
95	0x3bf465e4	0.0074584354
96	0xbcb5daf1	-0.022199126
97	0x3cd4e5f2	0.025988553
98	0x3e06b78c	0.13155955
99	0xbcda43f7	-0.026643736
100	0x3e311a64	0.17295223
101	0xbd67ab40	-0.0565598
102	0x3ea0b572	0.31388432
103	0x3ac5cd7c	0.0015091146
104	0xbdb77091	-0.08957017
105	0xbd8b727c	-0.068089455
106	0x3deb687f	0.114945404
107	0xbd2d232a	-0.042269863
108	0xbe6a7f01	-0.2290001
109	0x3d6187c7	0.055061128
110	0xbe7c10b6	-0.2461575
111	0x3e0ed4ef	0.13948415
112	0xbe70b4cf	-0.23506473
113	0x3e9d891d	0.30768672
114	0xbd5760fc	-0.052582726
115	0xbd5c7ab6	-0.053827964
116	0xbcf999f9	-0.030468928
117	0x3e2fa496	0.17152628
118	0xbc10f8d0	-0.008848384
119	0x3d3a9bda	0.045558788
120	0xbe6a8ef9	-0.22906102
121	0x3d9878e0	0.0744493
122	0xbd182b28	-0.037150532
123	0xbe5fa992	-0.2184203
124	0xbd54e31e	-0.05197441
125	0xbdf7578f	-0.12077247
126	0x3df64ca9	0.120263405
127	0x3e37f820	0.17965746
128	0xbe6e1e02	-0.23253635
129	0x3e1823ae	0.1485736
130	0xbe5cacf9	-0.21550359
131	0x3dbaf98b	0.09129628
132	0xbeb79599	-0.3585632
133	0x3dcfdc24	0.1014941
134	0xbe8807ae	-0.2656836
135	0x3d811507	0.06302839
136	0xbe597df5	-0.21239455
137	0x3e11271c	0.14175075
138	0xbe00dca2	-0.12584165
139	0x3e07d1e2	0.13263658
140	0xbec9374f	-0.3930001
141	0x3deb1b56	0.11479823
142	0xbe89cd50	-0.26914454
143	0x3e247429	0.16059937
144	0xbe7f5198	-0.2493347
145	0x3d4d690f	0.05014902
146	0xbe1295ec	-0.14315003
147	0xbcc8a80f	-0.0244942
148	0xbe337912	-0.17526653
149	0x3de97012	0.11398329
150	0xbef1dcc2	-0.47238737
151	0x3da656eb	0.08122047
152	0xbe20066f	-0.15627454
153	0x3daaaaa6	0.0833333
154	0xbf105fca	-0.5639616
155	0x3e5349cf	0.20633624
156	0xbe0af7d6	-0.13571104
157	0x3e2640db	0.16235678
158	0xbe9005f8	-0.28129554
159	0x3e140a82	0.14457133
160	0xbda8ef39	-0.08248753
161	0xbd1833f9	-0.03715894
162	0xbd6abf19	-0.05731115
163	0x3cca0a21	0.024663033
164	0xbe11db7e	-0.14243886
165	0x3dad68e2	0.084672704
166	0xbf01deb3	-0.5073044
167	0xbccac580	-0.024752378
168	0xbe34e540	-0.17665577
169	0xbc87fe2a	-0.016600687
170	0x3d2903da	0.04126344
171	0xbe2c26d5	-0.16811688
172	0xbd1c3b0c	-0.03814225
173	0xbbe5d264	-0.007013606
174	0xbe08934f	-0.13337444
175	0xbe073e64	-0.13207394
176	0xbd0aae32	-0.03385753
177	0x3e0bda92	0.13657597
178	0xbe69cc73	-0.22831897
179	0x3d36b71b	0.044608217
180	0xbd0de42b	-0.034641426
181	0x3df97a8b	0.12181576
182	0x3ca9b3d2	0.020715628
183	0xbe28c933	-0.16483001
184	0x3d0c7aa7	0.034296658
185	0xbd710434	-0.0588419
186	0x3dab0dc4	0.08352235
187	0x3d615ed3	0.055022072
188	0x3e066a09	0.13126387
189	0xbd8826dd	-0.066480376
190	0xbe9b25b7	-0.30302212
191	0x3cf6a88b	0.030109664
192	0xbd9b97b5	-0.07597295
193	0xbdf03d1b	-0.11730405
194	0xbbd6712d	-0.0065442533
195	0x3dc12cb5	0.09432355
196	0x3c37bc12	0.011214273
197	0x3e5e13da	0.2168726
198	0xbcfdaf93	-0.03096751
199	0xbcd4ecd1	-0.02599183
200	0xbe0e726b	-0.13910834
201	0x3d22d496	0.03975352
202	0xbd0cb530	-0.03435248
203	0xbd95af77	-0.07308858
204	0xbe02cd12	-0.1277354
205	0xbc8b223c	-0.016984098
206	0xbda207ed	-0.07911668
207	0x3e6f9866	0.23397979
208	0x3e937902	0.2880326
209	0xbde22234	-0.1104168
210	0x3d4a86f8	0.049445122
211	0xbd145127	-0.036210205
212	0x3db1ac22	0.0867541
213	0x3c8555d4	0.016276278
214	0xbe63db46	-0.22251615
215	0x3e5c72df	0.21528195
216	0x3d1b64bb	0.03793786
217	0xbe00ac6e	-0.12565777
218	0xbd14e3d6	-0.036350094
219	0xbd953453	-0.07285371
220	0x3d0ef02d	0.03489702
221	0xbe103687	-0.140833
222	0xbd8433e3	-0.06455209
223	0xbdb73dd4	-0.0894734
224	0xbe1ffaf2	-0.15623072
225	0xbe5c5e1e	-0.21520278
226	0xbd2b79f4	-0.04186435
227	0x3dcc8074	0.09985438
228	0x3e68ce3e	0.22734925
229	0xbe01d7a3	-0.12679915
230	0x3e3c9477	0.1841601
231	0x3e2c6c84	0.1683827
232	0xbd5ddfaa	-0.05416838
233	0xbd99bc2a	-0.075065926
234	0xbe9137d4	-0.28362906
235	0xbd3ebfe8	-0.046569735
236	0xbe38b57e	-0.18037984
237	0x3c2520ed	0.010078651
238	0xbcef2fb3	-0.02919755
239	0x3e31b966	0.1735588
240	0xbe3b0473	-0.18263416
241	0x3d75a086	0.05996754
242	0x3e3561db	0.1771311
243	0xbe044bf5	-0.129196
244	0xbcfc6eb3	-0.030814504
245	0x3dbe5816	0.09294145
246	0xbe0073c6	-0.12544164
247	0x3d4df968	0.05028668
248	0xbe017a53	-0.12644319
249	0xbd675c73	-0.05648465
250	0xbdcf83dd	-0.10132573
251	0x3e2b0b1d	0.16703458
252	0x3e120b6a	0.14262167
253	0xbe295705	-0.16537102
254	0x3e11e2a6	0.14246616
255	0x3d8ff175	0.07028476

attention.w_k.bias f4 [128]
0	0x3d8e23bf	0.06940412
1	0xbc95570e	-0.018229987
2	0xbd339f19	-0.0438529
3	0x3da2dd6f	0.07952391
4	0x3c7a7df3	0.015288818
5	0x3d920c76	0.07131283
6	0xbda6a4ca	-0.081369
7	0x3ce18f01	0.02753401
8	0x3c918384	0.017762907
9	0x3d2e337b	0.042529564
10	0x3d1d6530	0.038426578
11	0xbd863373	-0.06552782
12	0x3d8a6b6f	0.067587726
13	0x3daf795f	0.085680716
14	0x3d608e5c	0.054823264
15	0xbcb669b5	-0.022267202
16	0xbced7a8a	-0.028989095
17	0x3c52ec7d	0.012873766
18	0x3d9802d1	0.07422412
19	0xbd876eca	-0.06612928
20	0x3d3427d0	0.04398328
21	0xbc924376	-0.017854434
22	0x3d98b1a4	0.07455757
23	0x3d3268ed	0.043557096
24	0xbd357387	-0.04429963
25	0xbc93be7a	-0.018035162
26	0xbd5f19dc	-0.05446802
27	0xbd1ae311	-0.037814204
28	0xbda65d6f	-0.0812329
29	0x3da7f902	0.08201791
30	0xbce71397	-0.028207583
31	0x3d92aa5b	0.07161399
32	0xbc91b2a1	-0.017785372
33	0xbcdce93e	-0.026966687
34	0xbc5287df	-0.012849777
35	0x3d0e04c3	0.03467251
36	0xbd22eb09	-0.03977493
37	0xbd288681	-0.041143898
38	0xbd486ce7	-0.048931982
39	0xbcf45803	-0.029827124
40	0x3da8fdc3	0.08251526
41	0xbd4e0bcd	-0.050304223
42	0xbd888a93	-0.06667056
43	0xbda9838b	-0.08277043
44	0x3d6231c1	0.05522323
45	0xbd4ccc3d	-0.049999464
46	0xbd03bfe9	-0.03216544
47	0x3db2ae5c	0.08724663
48	0xbc7ce5a0	-0.015435606
49	0x3c20b456	0.00980862
50	0xbd520a93	-0.051279616
51	0xbd9386b0	-0.07203424
52	0x3dae4567	0.08509331
53	0xbc6ded5e	-0.014521925
54	0xbd119ca9	-0.035549793
55	0xbd3b9d5e	-0.045804374
56	0x3d1d0bd2	0.03834135
57	0x3d7744a6	0.060368203
58	0xbd7729ce	-0.060342602
59	0x3d947b09	0.072500296
60	0x3da31d81	0.07964612
61	0x3d60ca66	0.054880522
62	0x3c1fd33f	0.009754955
63	0x3c810428	0.015749052
64	0x3d3ac83c	0.045601115
65	0xbc205a7d	-0.009787199
66	0xbcef617b	-0.029221287
67	0x3d10322a	0.03520409
68	0xbcc15447	-0.023599757
69	0x3d1ded4d	0.038556386
70	0xbdab932e	-0.08377682
71	0xbd02e750	-0.031958878
72	0xbd621874	-0.0551991
73	0x3d39a68a	0.04532484
74	0xbd32e7d3	-0.043678116
75	0x3d5703f5	0.052494008
76	0xbc51418c	-0.012771975
77	0xbcdbe5bc	-0.026842944
78	0x3d77004d	0.06030302
79	0xbd8b6dee	-0.06808077
80	0x3cc515b0	0.024058193
81	0x3c1bfd11	0.009520785
82	0x3cacd8ce	0.021099474
83	0x3cfadc04	0.03062249
84	0xbcd82dae	-0.02638897
85	0x3b92b274	0.0044768397
86	0x3d7c8a81	0.061655525
87	0x3c9e97b4	0.019359447
88	0x3cb88950	0.022526413
89	0x3d0fa1d4	0.03506644
90	0x3d87717e	0.06613444
91	0xbbaa8cb7	-0.005204763
92	0xbda2adbb	-0.07943293
93	0x3d891e65	0.066952504
94	0xbd119b8c	-0.03554873
95	0xbd8b2f8d	-0.06796179
96	0xbd4ba82c	-0.049720928
97	0x3d967718	0.07346934
98	0x3c6e5fbf	0.014549195
99	0xbd19291f	-0.03739273
100	0x3d78fef9	0.060790036
101	0xbda577a6	-0.08079462
102	0x3d9e0ef8	0.07717699
103	0x3da5800e	0.08081065
104	0x3d630f58	0.055434555
105	0xbc96f804	-0.01842881
106	0x3d2bf20d	0.041978884
107	0x3d1df1f7	0.038560834
108	0xbda36471	-0.07978142
109	0xbbc601f7	-0.0060427147
110	0xbd3c1947	-0.045922544
111	0x3c908984	0.017643698
112	0xbdaedf67	-0.08538704
113	0xbd9dd4ce	-0.07706605
114	0x3b8f823b	0.0043795384
115	0x3c37f802	0.011228563
116	0x3d538021	0.051635865
117	0x3bd877d1	0.00660608
118	0xbd777262	-0.06041182
119	0xbcc8f3a9	-0.024530249
120	0xbc0dba03	-0.008650306
121	0x3b97f1fd	0.0046370015
122	0xbd559978	-0.052148312
123	0xbc65a40d	-0.014016164
124	0xbd9cb89d	-0.076524
125	0xbcea6458	-0.0286123
126	0xbd526941	-0.05136991
127	0x3d5b866a	0.053594984

attention.w_v.weight f4 [128, 128]
0	0x3e0b7e04	0.1362229
1	0xbe540bd7	-0.20707642
2	0x3f112f6e	0.56712997
3	0x3caae89c	0.02086287
4	0x3ec61e45	0.3869497
5	0xbd4d1b76	-0.050075017
6	0xbd972472	-0.07379998
7	0x3dbbf767	0.091780476
8	0xbd8b07ff	-0.067886345
9	0xbe3b596f	-0.18295835
10	0x3d56db55	0.052455265
11	0x3d061631	0.032736007
12	0xbd9f02b3	-0.07764187
13	0xbdef069a	-0.11671181
14	0xbe2507b1	-0.16116215
15	0xbe351fb5	-0.17687877
16	0xbe9c126c	-0.30482805
17	0xbd9ed85f	-0.07756113
18	0x3d38e072	0.045135923
19	0xbde7ca85	-0.113179244
20	0xbedbccb5	-0.42929617
21	0xbe71e46f	-0.23622297
22	0xbd4f7620	-0.050649762
23	0xbd7c9b53	-0.061671566
24	0xbd8b91a5	-0.06814889
25	0xbcb43042	-0.021995667
26	0x3ea91798	0.33025813
27	0xbd57e4f5	-0.052708585
28	0x3ef1e171	0.4724231
29	0xbe74494f	-0.2385609
30	0x3e0c7419	0.13716163
31	0xbe483002	-0.19549564
32	0x3ee8c835	0.45465246
33	0x3d2bbef5	0.041930158
34	0x3e999384	0.29995358
35	0xbe7634c5	-0.24043567
36	0xbd53d845	-0.051719923
37	0xbe800689	-0.25004986
38	0x3de175c7	0.11008792
39	0xbd124dba	-0.035718657
40	0x3e051025	0.1299444
41	0xbd97a2ed	-0.074041225
42	0xbd4ed027	-0.05049148
43	0xbe08fcd3	-0.13377695
44	0xbc4c2dec	-0.0124621205
45	0x3d1dc2fb	0.038516026
46	0x3e163e0d	0.14672108
47	0xb9df81f5	-0.000426307
48	0xbdd9212c	-0.1060203
49	0x3cdcb7e6	0.026943158
50	0x3ed21569	0.4103196
51	0xba7533e3	-0.000935374
52	0xbd3a7e0e	-0.04553037
53	0xbe02364a	-0.12716022
54	0xbee901f8	-0.45509315
55	0x3c8f7ea7	0.017516447
56	0xbea61f81	-0.3244591
57	0x3e17e07c	0.14831728
58	0x3e1ee57f	0.15517233
59	0xbe591fce	-0.21203539
60	0x3e8478c9	0.25873402
61	0xbd4f52e3	-0.050616156
62	0x3f62c5b6	0.8858293
63	0x3c354f75	0.011066307
64	0xbd916af4	-0.07100478
65	0x3e679981	0.22617151
66	0xbd2a4b4a	-0.041575707
67	0xba22699b	-0.0006195546
68	0x3d2cda5f	0.042200442
69	0xbe3658f7	-0.17807375
70	0xbe1b18b9	-0.1514615
71	0x3d52a527	0.051427033
72	0x3e3ba9f9	0.18326558
73	0x3dac668e	0.08417998
74	0xbf48b0aa	-0.7839457
75	0x3e0bab33	0.13639526
76	0x3f2205a5	0.6328986
77	0xbecd24ce	-0.40067142
78	0xbe9832b3	-0.2972618
79	0x3e01874a	0.12649265
80	0xbf1ccc96	-0.61249673
81	0x3d586bd6	0.052837215
82	0x3c549cc5	0.01297683
83	0x3d9847de	0.074355826
84	0x3cbf79a6	0.023373436
85	0x3d0f25c1	0.034948114
86	0x3d3721a9	0.044709835
87	0xbd5f58ee	-0.05452817
88	0xbdd067ed	-0.10176072
89	0x3db9e158	0.09076184
90	0xbe056043	-0.13025002
91	0xbea5ec0c	-0.32406652
92	0xbc2de0d5	-0.010612686
93	0x3d7cc9e1	0.061715964
94	0x3e332bb8	0.17497146
95	0xbcb5409b	-0.022125533
96	0x3d9186a9	0.071057625
97	0xbcaeb312	-0.021325622
98	0xbd4463a7	-0.0479466
99	0xbe0dc30e	-0.13843939
100	0xbbfb57cb	-0.007670378
101	0xbb4aa6c9	-0.0030922166
102	0xbeac5753	-0.33660373
103	0x3e73ac45	0.23796184
104	0x3e06bf2f	0.13158868
105	0x3daa44b2	0.08313884
106	0x3e506f6a	0.20355001
107	0x3a9266ad	0.0011169516
108	0x3e5eb383	0.21748166
109	0x3c874647	0.016513003
110	0x3d148e8e	0.036268763
111	0xbe365747	-0.17806731
112	0xbf2a54b5	-0.665355
113	0xbe7e7de9	-0.24852718
114	0xbead7f62	-0.33886248
115	0xbe470d45	-0.19438656
116	0xbeaf71eb	-0.342666
117	0xbde470ca	-0.11154325
118	0xbe3bd022	-0.18341115
119	0xbd4c46e6	-0.0498723
120	0x3e047e37	0.12938772
121	0xbe063c9f	-0.13109063
122	0x3ea61ac3	0.32442293
123	0xbe348bba	-0.17631426
124	0xbeba5ea8	-0.36400342
125	0x3e1a52dc	0.15070671
126	0xbd8b05c9	-0.06788213
127	0xbdf63f53	-0.12023797
128	0x3ef027b1	0.46905282
129	0xbad15269	-0.0015969995
130	0x3e3fb869	0.1872269
131	0xbcd6ad1e	-0.026205596
132	0xbe8c0fab	-0.27355704
133	0xbc0c4fa7	-0.0085639125
134	0x3d11a1c3	0.03555466
135	0xbeff8154	-0.49903357
136	0x3f330437	0.69928306
137	0x3d2b179a	0.041770555
138	0x3dd86aad	0.10567222
139	0xbdacb3a5	-0.08432702
140	0x3e9cab47	0.30599424
141	0xbda5ffbc	-0.08105418
142	0x3f23e5de	0.64022624
143	0xbdb00d93	-0.08596339
144	0x3ec47ffa	0.38378888
145	0xbc10037a	-0.008789891
146	0x3f4bf768	0.79674387
147	0xbc88905b	-0.016670397
148	0x3da4434b	0.080206476
149	0xbd9cada9	-0.076503105
150	0x3dceefc4	0.101043254
151	0xbdb13eea	-0.08654578
152	0x3e18675e	0.14883181
153	0xbc1855e0	-0.009297818
154	0xbed288c8	-0.4111998
155	0x3cc26f87	0.023734821
156	0x3e124ee5	0.14287908
157	0x3dc041de	0.09387563
158	0xbdbaafff	-0.091156
159	0xbea49b32	-0.32149655
160	0x3ed6d0aa	0.41956073
161	0xbd8983c7	-0.06714588
162	0x3f078a0a	0.52945006
163	0x3e1c053e	0.15236375
164	0x3ea93916	0.33051366
165	0x3d2ea508	0.042637855
166	0xbe7b24bd	-0.24525733
167	0xbda6cff0	-0.0814513
168	0xbd9f9ad3	-0.07793202
169	0x3db929d1	0.09041179
170	0x3f21ffdb	0.6328103
171	0x3e5d9a03	0.21640782
172	0x3df8f3e7	0.12155896
173	0xbdce8450	-0.1008383
174	0x3ea4f3b3	0.32217178
175	0x3dc2988e	0.09501754
176	0x3da2db8c	0.079520315
177	0x3c883caf	0.016630499
178	0xbf2ac527	-0.6670708
179	0xbd10d9a3	-0.035363805
180	0x3f895fb4	1.0732331
181	0xbe3956b4	-0.18099481
182	0x3eb1b7ea	0.34710628
183	0xbdddf421	-0.108375795
184	0x3efecbb0	0.49764776
185	0xbe159f5a	-0.14611569
186	0x3e0c3711	0.13692881
187	0xbe2230d9	-0.15838946
188	0x3e8fe59d	0.2810487
189	0xbd8c5b04	-0.06853297
190	0xbf247f83	-0.6425707
191	0x3d4b4b6a	0.049632467
192	0xbd24d8a5	-0.04024567
193	0xbcb084de	-0.021547731
194	0x3ccd47c8	0.025058642
195	0xb9c610a4	-0.000377779
196	0x3d678cb5	0.056530673
197	0x3cd00f10	0.025397807
198	0xbe4d4a2e	-0.20047829
199	0xbe0d1196	-0.1377624
200	0xbe84060f	-0.25785872
201	0x3da4be8a	0.08044155
202	0x3f348287	0.7051167
203	0xbe37e3ec	-0.17958039
204	0xbe035b34	-0.1282776
205	0xbde53883	-0.111924194
206	0xbd2ebf27	-0.042662766
207	0x3da91cd9	0.082574554
208	0xbe03e69e	-0.12880942
209	0xbd0abbca	-0.033870496
210	0x3e4eb69f	0.20186852
211	0xbdaf4847	-0.08558708
212	0xbd042f25	-0.032271523
213	0x3d1a30a3	0.03764404
214	0xbe742cd0	-0.2384522
215	0x3df63ed1	0.120237
216	0x3debad71	0.11507691
217	0x3d5dd6ff	0.054160114
218	0x3f014da1	0.5050908
219	0xbdb74e35	-0.08950464
220	0x3cc3b978	0.02389215
221	0x3e263ee6	0.16234931
222	0xbef4bd20	-0.4780054
223	0xbe98234e	-0.29714435
224	0xbe9e9429	-0.30972412
225	0x3e574df5	0.21025832
226	0xbd630a68	-0.055429846
227	0x3d1c19bf	0.03811049
228	0x3e215495	0.15754922
229	0x3bc8a24b	0.0061228625
230	0x3d50f148	0.051011354
231	0x3cbf465b	0.023348978
232	0xbea52e8c	-0.32262075
233	0xbe359004	-0.17730719
234	0xbde9ec11	-0.11421979
235	0xbe9f5ac0	-0.31123924
236	0x3d6a7a4a	0.05724553
237	0x3c0a81fb	0.008453841
238	0xbe08e384	-0.1336804
239	0xbcc55096	-0.024086278
240	0xbdc1bb98	-0.09459609
241	0xbb5427b2	-0.0032372293
242	0x3e96ce46	0.2945425
243	0x3d1d7700	0.038443565
244	0xbdc59b87	-0.09648805
245	0xbd7c864c	-0.061651513
246	0xbe959a65	-0.29219356
247	0xbde1406c	-0.109986156
248	0x3ced8e88	0.028998628
249	0xbd12b5c4	-0.035817876
250	0x3e026c73	0.12736683
251	0x3da8e544	0.08246854
252	0x3ec2e392	0.38064247
253	0x3db82c40	0.08992815
254	0x3d9cd83d	0.07658432
255	0x3d34ceda	0.04414258

attention.w_v.bias f4 [128]
0	0x3d892821	0.06697107
1	0x3db0ccf5	0.086328425
2	0x3d5611a1	0.052262906
3	0xbd8c8f8e	-0.068633184
4	0x3d6a8f73	0.05726571
5	0x3ac8b641	0.0015313105
6	0x3c84a803	0.016193395
7	0x3dc568f4	0.09639159
8	0x3bfd32a7	0.0077269855
9	0x3bd53dc6	0.006507608
10	0xbdae73af	-0.08518159
11	0x3c3c67e6	0.011499381
12	0xbd4a5f1e	-0.049407117
13	0x3c27b48e	0.010235919
14	0xbdd00adc	-0.10158321
15	0x3d96b5fd	0.0735893
16	0x3c96206e	0.01832601
17	0x3d18bfaa	0.03729216
18	0x3c7e0d93	0.015506166
19	0x3d037923	0.032097947
20	0xbcab5e8c	-0.020919107
21	0x3d6ce9b5	0.057840068
22	0x3e0f87c1	0.1401663
23	0x3d57de7e	0.05270242
24	0x3d24bf49	0.040221486
25	0xbd0c4e20	-0.034254193
26	0xbd1dadef	-0.038495954
27	0x3e6b08bb	0.22952549
28	0xbe210554	-0.15724689
29	0x3d03faee	0.032221727
30	0xbd178969	-0.03699628
31	0x3d8f84b0	0.0700773
32	0x3dc92de8	0.09823209
33	0xbd65d5ec	-0.056112215
34	0xbe2f335a	-0.17109433
35	0xbe03b748	-0.12862885
36	0xbd87383d	-0.066025235
37	0x3dec0ab0	0.11525476
38	0x3e17d71e	0.14828154
39	0x3dcf9042	0.10134937
40	0xbdba1769	-0.090864964
41	0x3d9c0ab2	0.076192275
42	0xbd868f70	-0.06570327
43	0xbdb259ef	-0.0870856
44	0x3a2bf680	0.00065598637
45	0x3dcc195a	0.09965773
46	0x3d554abc	0.052073225
47	0xbcfbbd8f	-0.030730037
48	0x3d49fe76	0.04931494
49	0x3d245998	0.040124506
50	0x3c128bf5	0.008944501
51	0xbc3ff97c	-0.011717197
52	0x3caa92b8	0.020821914
53	0x3cc6fc93	0.024290359
54	0x3c2838ca	0.010267446
55	0x3db1513b	0.086580716
56	0x3b337d10	0.0027387775
57	0x3e2169c5	0.15763004
58	0xbccb95cf	-0.024851708
59	0x3db0f530	0.08640516
60	0xbdac51d0	-0.08414042
61	0xbc9cb9c6	-0.019131552
62	0xbd21e690	-0.039526522
63	0x3d3d403a	0.04620383
64	0xbac8ec1f	-0.0015329159
65	0x3c7494f0	0.014928088
66	0xbdc3cf45	-0.09561018
67	0x3da3e81b	0.08003255
68	0x3d9fcd75	0.0780286
69	0xbc928831	-0.017887207
70	0xbe2c3e87	-0.16820727
71	0xbd89bdc9	-0.06725652
72	0x3c8b8979	0.017033326
73	0xbc42971f	-0.01187685
74	0x3db7531c	0.08951399
75	0xbccd6104	-0.025070675
76	0xbe11704b	-0.14202993
77	0xbd689f92	-0.056792803
78	0xbc8ec86c	-0.017429553
79	0xbd8ba675	-0.068188585
80	0xbce701c9	-0.028199093
81	0xbd8f4eb3	-0.069974326
82	0x3d09b68c	0.033621356
83	0x3d280816	0.041023336
84	0xbd18ed41	-0.037335638
85	0x3c9b454c	0.018953942
86	0x3da6d083	0.08145239
87	0x3d00c15d	0.031434406
88	0x3e0acc5c	0.1355452
89	0xbe04b820	-0.12960863
90	0xbd2c55dd	-0.042074073
91	0xbd9b5376	-0.07584278
92	0xbd2eb48a	-0.042652644
93	0xb9f1ebbc	-0.00046142738
94	0xbd00a627	-0.031408455
95	0x3c1586f3	0.009126413
96	0x3d579b78	0.0526385
97	0x3d918c37	0.07106822
98	0xbcb2c18d	-0.021820808
99	0xbdceb04d	-0.100922205
100	0x3cde1634	0.027110197
101	0x3d544bcb	0.051830094
102	0x3d90a02d	0.07061801
103	0xbd839df0	-0.064266086
104	0xbddb8316	-0.10718362
105	0xbca42674	-0.020037867
106	0xbddb25ad	-0.107005455
107	0xbc314b42	-0.0108211655
108	0xbdbfc645	-0.09363989
109	0xbbaba1dd	-0.0052378015
110	0xbd3073d1	-0.0430792
111	0xbe09d211	-0.1345904
112	0x3b43743c	0.002982392
113	0xbdf1437c	-0.1178045
114	0x3dea9710	0.11454594
115	0xbd9ae043	-0.07562306
116	0xbe170a87	-0.1475011
117	0x3e08497d	0.13309284
118	0xbd94a285	-0.07257561
119	0xbe76bbd3	-0.24095087
120	0x3dd0a2f2	0.10187329
121	0x3d53c6ca	0.051703252
122	0x3cc0326a	0.02346154
123	0xbd9a554a	-0.07535799
124	0x3dfa8c84	0.122338325
125	0x3c6fce47	0.014636583
126	0x3e4b52f9	0.1985587
127	0x3d846b2d	0.06465755

attention.w_concat.weight f4 [128, 128]
0	0x3dcdbe72	0.1004609
1	0x3dcb7495	0.09934346
2	0xbe9882b7	-0.29787228
3	0xbe48b3e6	-0.19599876
4	0xbde6ed0d	-0.112756826
5	0x3ce6a913	0.028156793
6	0xbba369b8	-0.004986968
7	0x3ea2dc16	0.31808537
8	0x3dcb8c2d	0.09938846
9	0x3d047323	0.032336365
10	0xbea09875	-0.31366315
11	0x3bf67b08	0.0075219907
12	0x3cc2b684	0.02376867
13	0x3db3951b	0.08768674
14	0xbd40b77a	-0.047049977
15	0x3d3bd7d8	0.04586014
16	0xbbbf3993	-0.005835721
17	0xbe2570e3	-0.16156344
18	0xbdbe3cb2	-0.092889205
19	0xbdd4def5	-0.10394088
20	0xbc1da7bd	-0.009622511
21	0xbd8bc76a	-0.068251446
22	0x3caa7572	0.020807955
23	0x3d90e2dd	0.07074521
24	0xbe34d6b6	-0.1766003
25	0x3ce2ab70	0.027669638
26	0x3d98b077	0.07455533
27	0x3da9fc16	0.08300035
28	0x3ea0e551	0.31424955
29	0xbdd3338b	-0.103125654
30	0x3e3ab93d	0.18234725
31	0x3e1916b8	0.14950073
32	0x3ddf8be7	0.10915356
33	0x3e0b8f91	0.13628985
34	0xbe02e664	-0.127832
35	0x3be95cb2	0.007121646
36	0xbea2efcc	-0.31823575
37	0x3ea64450	0.32473993
38	0x3b9feb8f	0.0048803757
39	0x3d81250e	0.06305896
40	0xbd0c7c23	-0.034298074
41	0x3bbb7842	0.005721123
42	0xbe9cc07c	-0.30615604
43	0xbe1b292a	-0.15152422
44	0xbe0c9e4c	-0.1373226
45	0x3db74f44	0.089506656
46	0x3d9f001a	0.07763691
47	0xbe758e99	-0.23980178
48	0x3e072325	0.13197
49	0xbd449740	-0.047995806
50	0xbf062bcc	-0.5241058
51	0x3e89210e	0.2678303
52	0x3e09a8eb	0.13443343
53	0xbe99a751	-0.30010465
54	0x3e7b2f73	0.24529819
55	0xbe8825a8	-0.2659123
56	0xbd9e6e07	-0.0773583
57	0x3d4df130	0.050278842
58	0xbee07974	-0.4384266
59	0x3e35a322	0.17738011
60	0x3eb245d5	0.34818903
61	0xbe3a63d3	-0.18202142
62	0x3e569d2d	0.20958395
63	0xbd442829	-0.047889862
64	0xbdb17b14	-0.086660534
65	0xbe985d31	-0.297586
66	0x3dcea167	0.10089379
67	0x3e5b189e	0.2139611
68	0x3ac02b23	0.0014661293
69	0x3dbc6f66	0.09200935
70	0xbd723bc0	-0.059139013
71	0xbdf82a91	-0.12117494
72	0x3e0c780b	0.13717668
73	0xbd9ce78f	-0.07661354
74	0xbe2373b7	-0.1596211
75	0x3e3de21f	0.1854329
76	0xbdc937e5	-0.09825114
77	0xbd6be725	-0.057593483
78	0xbe03e763	-0.12881236
79	0xbe46cd18	-0.19414175
80	0x3e0a6a63	0.13517146
81	0x3e9240f0	0.28565168
82	0x3d7fe245	0.062471647
83	0xbcbcd85b	-0.023052385
84	0x3ca1334b	0.019677779
85	0x3d47b174	0.048753217
86	0xbd653bc1	-0.05596519
87	0xbd469b87	-0.048488166
88	0xbe273e17	-0.16332279
89	0x3d015eeb	0.03158466
90	0x3d67078f	0.056403693
91	0x3de410e8	0.11136037
92	0x3e0bf2fe	0.13666913
93	0xbcc52e2c	-0.024069868
94	0xbcfa2e40	-0.030539632
95	0x3cba0a25	0.022709915
96	0xbd16587d	-0.036705483
97	0x3dcfd5b7	0.10148185
98	0xbe298137	-0.16553198
99	0x3df9364a	0.12168558
100	0x3dd188c2	0.102311626
101	0xbe0a5275	-0.13508017
102	0xbd1b3198	-0.037889093
103	0xbeb97545	-0.36222282
104	0xbd8ac837	-0.06776469
105	0x3db562ae	0.08856712
106	0x3db652b2	0.08902492
107	0x3e2b0f91	0.16705157
108	0x3e778bad	0.24174376
109	0xbca16c54	-0.019704975
110	0xbe132a24	-0.14371544
111	0xbe83b019	-0.2572029
112	0xbee38a86	-0.44441622
113	0x3d5f9e1c	0.054594144
114	0xbe316d52	-0.17326859
115	0xbed457c2	-0.41473204
116	0x3e15d11f	0.14630555
117	0x3ebb39c1	0.365675
118	0x3cb5eb36	0.022206884
119	0xbe09cd3b	-0.13457195
120	0xbe486b65	-0.19572218
121	0xbee63036	-0.44958657
122	0x3e4e4c53	0.20146303
123	0x3d416277	0.047213044
124	0x3e70b39f	0.2350602
125	0xbebfb754	-0.37444556
126	0x3e883c71	0.26608613
127	0x3e4caa8f	0.19986938
128	0x3e8ccb1d	0.27498713
129	0xbd978c71	-0.07399834
130	0xbf0dc2f9	-0.5537563
131	0x3e9bee16	0.30455083
132	0x3d573f7c	0.052550778
133	0xbe354dec	-0.17705506
134	0x3f4dc581	0.8037949
135	0xbddb9f1c	-0.10723707
136	0x3ea22010	0.31665087
137	0xbd13cb26	-0.03608241
138	0x3e35bee4	0.177486
139	0xbdb5c406	-0.08875279
140	0xbeb7e9ce	-0.35920566
141	0xbe2d6caf	-0.16935991
142	0x3bdb49ad	0.0066921324
143	0xbf125cb5	-0.5717271
144	0xbeafe5c0	-0.34354973
145	0xbe7e578a	-0.24838081
146	0xbe2622e4	-0.16224247
147	0xbd57e3c3	-0.052707445
148	0x3e0c96c4	0.13729388
149	0x3e31a0b4	0.1734646
150	0x3d73ebb4	0.059550956
151	0xbed01b60	-0.40645885
152	0xbdcedf0e	-0.10101138
153	0xbcf9bfc5	-0.03048695
154	0xbe266cb3	-0.16252403
155	0xbecb7492	-0.39737374
156	0x3dc7f692	0.097638264
157	0xbdbaa505	-0.09113506
158	0x3d547cd7	0.05187687
159	0xbdf09fd5	-0.117492355
160	0x3e5b1cff	0.2139778
161	0x3f3cfdda	0.73824847
162	0xbdbc5799	-0.091963954
163	0x3d18fd54	0.037350968
164	0xbc47b7d1	-0.012189821
165	0x3ebf348e	0.37344784
166	0x3b18004a	0.0023193532
167	0x3e2acc37	0.16679464
168	0xbe907b83	-0.28219232
169	0x3e8895d8	0.26676822
170	0xbea79c2f	-0.32736346
171	0xbcfbc517	-0.030733628
172	0xbe6c64ae	-0.23085281
173	0x3df20ab0	0.11818445
174	0xbcbc468f	-0.022982864
175	0xbd07469b	-0.03302632
176	0x3dd55631	0.1041683
177	0x3de21e65	0.110409535
178	0x3e01a2d1	0.12659766
179	0x3d387b2e	0.04503935
180	0x3f06b12b	0.52614087
181	0x3cb481df	0.022034584
182	0xbda31966	-0.07963829
183	0x3c00c7f3	0.007860172
184	0x3ee26239	0.44215563
185	0x3d13f39f	0.036121007
186	0xbddecbe5	-0.108787335
187	0x3b630c48	0.0034644771
188	0xbdac402a	-0.08410676
189	0xbf2589fc	-0.6466367
190	0x3e0e2782	0.13882259
191	0xbf8f8938	-1.1213751
192	0x3e2e88ed	0.1704442
193	0xbe3bb59c	-0.18330997
194	0x3d7cd340	0.0617249
195	0x3d902113	0.070375584
196	0xbd025a89	-0.031824622
197	0x3d9a51f9	0.07535166
198	0x3e7dc575	0.24782355
199	0x3d3546f4	0.04425712
200	0x3e43b672	0.19112566
201	0x3e27ade4	0.16374928
202	0xbdb46667	-0.08808594
203	0x3dd1702d	0.10226474
204	0x3cdde247	0.027085437
205	0xbe0b3add	-0.13596673
206	0xbea2114e	-0.31653827
207	0x3d78e1c9	0.0607622
208	0xbe5bb4a9	-0.21455635
209	0xbd59bd66	-0.05315914
210	0x3e6766b5	0.22597773
211	0x3e70f6cd	0.23531647
212	0x3e788881	0.24270822
213	0xbdfe67d9	-0.12422151
214	0x3ddf0efa	0.108915284
215	0x3e0e9ab6	0.13926205
216	0xbec42221	-0.38307288
217	0x3c0f70fd	0.008754966
218	0x3d511bf1	0.051052038
219	0xbe03b763	-0.12862925
220	0x3e6eed12	0.23332623
221	0xbd785912	-0.06063182
222	0xbd68e805	-0.056861896
223	0x3e4debe8	0.20109522
224	0x3f08a1a3	0.5337164
225	0xbea1c0f2	-0.31592518
226	0x3e62d47c	0.22151369
227	0xbd2092f4	-0.039202645
228	0xbded746d	-0.11594472
229	0xbdb507bf	-0.08839368
230	0xbeea6e70	-0.45787382
231	0x3e15ce4f	0.14629482
232	0xbe3dded5	-0.18542035
233	0x3f430ff0	0.76196194
234	0x3e4f584b	0.20248525
235	0x3d50f9ff	0.051019665
236	0xbe63e89e	-0.22256705
237	0x3ee424bc	0.44559276
238	0x3f6c7223	0.9236166
239	0x3e85857b	0.260784
240	0xbe169068	-0.14703524
241	0xbddf574f	-0.10905325
242	0x3dbd8f1d	0.09255812
243	0x3f03ae85	0.5143817
244	0xbdcd7ee7	-0.1003397
245	0xbd775387	-0.060382392
246	0xbe9170f4	-0.2840649
247	0xbdbb2d8e	-0.09139548
248	0xbf2620b8	-0.64893675
249	0xbedab349	-0.4271491
250	0x3e315acb	0.17319791
251	0x3e150609	0.14553083
252	0x3d1b2f5e	0.03788697
253	0x3d578d5e	0.052625053
254	0x3d983232	0.07431449
255	0x3c405ab1	0.0117403725

attention.w_concat.bias f4 [128]
0	0x3c821a69	0.015881734
1	0xbc8a5097	-0.016884131
2	0x3e088f20	0.13335848
3	0x3d1686f4	0.036749795
4	0xbbd7e785	-0.0065888786
5	0x3d5d984c	0.05410032
6	0x3e0ea0d0	0.13928533
7	0xbd780d8d	-0.060559798
8	0xbe70c2ba	-0.23511782
9	0x3d6c04e4	0.05762185
10	0x3c88733d	0.016656512
11	0xbd96c384	-0.073615104
12	0x3d891a40	0.0669446
13	0xbd7de004	-0.061981216
14	0xbe0e01c9	-0.13867868
15	0xbe873bb3	-0.26412734
16	0x3ccf00e9	0.025268989
17	0xbcddbbd1	-0.027067097
18	0x3d9160c1	0.070985325
19	0xbe03026c	-0.12793893
20	0x3e1d5368	0.15363848
21	0x3dae5458	0.08512181
22	0x3dd5667a	0.104199365
23	0xbcbb6d8c	-0.022879384
24	0xbde144d7	-0.10999458
25	0xbd474a55	-0.048654873
26	0x3db428e7	0.08796864
27	0x3c837fa7	0.01605208
28	0xbdb4c824	-0.08827236
29	0xbcc40aac	-0.02393087
30	0xbd7b07e4	-0.061286822
31	0xbda64483	-0.08118536
32	0x3cd660a5	0.02616913
33	0xbdc43570	-0.09580505
34	0xbcd6b8af	-0.02621111
35	0xbdb73ff8	-0.08947748
36	0xbca04637	-0.019564731
37	0xbe2e0b3b	-0.16996472
38	0xbe150493	-0.14552526
39	0xbe18418d	-0.14868756
40	0x3decf73d	0.115705945
41	0xbdf80aaf	-0.12111413
42	0x3d1ae8d4	0.0378197
43	0xbda0d7a5	-0.07853631
44	0x3c075338	0.008259587
45	0xbdd8bf47	-0.10583358
46	0xbcfdcfea	-0.03098293
47	0xbdd86b86	-0.105673835
48	0xbbf4a048	-0.007465396
49	0xbe2b32c5	-0.16718586
50	0x3dcf326c	0.10117039
51	0x3cded471	0.02720091
52	0xbe41c7b8	-0.18923843
53	0xbda2d025	-0.07949857
54	0x3e19017b	0.14941971
55	0x3dded2db	0.10880061
56	0xbe0df812	-0.13864163
57	0xbe42b200	-0.19013214
58	0xbdd66c59	-0.104698844
59	0xbdc814e4	-0.097696096
60	0x3d1d1a73	0.038355302
61	0xbd8b367f	-0.06797504
62	0xbd01acf3	-0.031659078
63	0xbe8ad6b5	-0.27116933
64	0x3db8bbfb	0.090202294
65	0x3debff54	0.11523309
66	0xbd11b404	-0.035572067
67	0xbd84611c	-0.06463835
68	0x3de3c7fc	0.11122128
69	0xbe66d4aa	-0.22542062
70	0x3dce9a71	0.10088051
71	0xbd3b99d6	-0.045801006
72	0xbd0ab4a7	-0.03386369
73	0xbd1701ca	-0.03686694
74	0x3d0ef65f	0.034902927
75	0xbe3e210c	-0.18567294
76	0xbd3d2e9f	-0.04618704
77	0xbe52e888	-0.20596516
78	0xbbc68a5c	-0.006058974
79	0xbe17966f	-0.1480348
80	0x3d2d09ff	0.04224586
81	0xbe244666	-0.1604248
82	0x3e10c76b	0.14138572
83	0xbe56fbac	-0.20994443
84	0x3da8bea5	0.082394876
85	0xbcc463b2	-0.02397332
86	0x3c9a9e54	0.018874325
87	0xbd9afe5b	-0.07568046
88	0x3da74fab	0.08169492
89	0xbe0f0cc5	-0.13969715
90	0x3ab85efa	0.0014066391
91	0xbe0d28bf	-0.13785075
92	0x3dd6b842	0.10484363
93	0xbe499f5a	-0.19689694
94	0x3cb86e7d	0.022513622
95	0xbc56ef00	-0.0131185055
96	0xbdbd07b2	-0.092299834
97	0x3dd7b2f2	0.10532178
98	0xbd152395	-0.036410887
99	0xbe620ea5	-0.22075899
100	0xbc919c14	-0.01777462
101	0x3c1272c0	0.008938491
102	0x3d339a2f	0.043848213
103	0xbd28e46e	-0.041233473
104	0xbdd01338	-0.10159916
105	0xbe8d223f	-0.2756519
106	0xbd4a17fd	-0.049339283
107	0x3d969eee	0.07354532
108	0xbdd8af5a	-0.10580321
109	0xbdd41113	-0.10354819
110	0xbd8b35c1	-0.06797362
111	0xbd86b4b4	-0.06577435
112	0xbb1c1830	-0.0023818128
113	0xbe97a0c2	-0.29614836
114	0xbcb044bd	-0.021517152
115	0xbe0ccc64	-0.13749844
116	0x3da04f81	0.07827664
117	0xbe913ad8	-0.28365207
118	0xbdf04832	-0.1173252
119	0xbd3bf52c	-0.04588811
120	0xbe263d88	-0.1623441
121	0xbe07377b	-0.13204758
122	0x3b9195ef	0.0044429223
123	0xbdaf5928	-0.08561927
124	0xbe194e7a	-0.14971343
125	0x3c7382c6	0.014862722
126	0xbe2eb0a1	-0.17059566
127	0x3d64aaee	0.055827074

norm1.weight f4 [128]
0	0x3f45a40e	0.7720345
1	0x3f85735a	1.0425828
2	0x3edd47c3	0.43218812
3	0x3f6a7f9b	0.9160096
4	0x3f933441	1.1500322
5	0x3f84ff85	1.0390478
6	0x3f5535f2	0.8328544
7	0x3f4a8549	0.79109627
8	0x3f7b3539	0.98128086
9	0x3f69f928	0.9139581
10	0x3f298e65	0.662329
11	0x3f865d0a	1.0497143
12	0x3f8b567d	1.0885769
13	0x3f7f0bf6	0.99627626
14	0x3f7cb585	0.98714477
15	0x3f7c115f	0.98464006
16	0x3f7ad3a8	0.9797921
17	0x3f8b0cf1	1.0863324
18	0x3f725fd5	0.9467748
19	0x3f1933ea	0.5984484
20	0x3f93c806	1.1545417
21	0x3f7d3e34	0.9892304
22	0x3f6f0be0	0.93377495
23	0x3f8e583d	1.1120678
24	0x3f87e85a	1.0617783
25	0x3f6255a3	0.8841192
26	0x3f893f70	1.0722485
27	0x3f815b63	1.0106014
28	0x3f97ddad	1.1864525
29	0x3f822e27	1.0170335
30	0x3f4de7dc	0.80431914
31	0x3f9e8bfc	1.238647
32	0x3f7719f6	0.9652399
33	0x3f3e5997	0.74355453
34	0x3f6ed1a1	0.9328862
35	0x3f2cd559	0.6751304
36	0x3f4beea3	0.79661006
37	0x3f8cf129	1.1011096
38	0x3fa0315c	1.2515063
39	0x3f81efe4	1.0151334
40	0x3f91c2ce	1.1387575
41	0x3f9af8b1	1.2107145
42	0x3fa95835	1.3230044
43	0x3f3ee07a	0.74561274
44	0x3f68afd0	0.9089327
45	0x3f9be384	1.2178807
46	0x3f9f8d94	1.2465081
47	0x3f0b2eb4	0.5436814
48	0x3fa98d39	1.3246223
49	0x3f792cc1	0.97333914
50	0x3f141790	0.57848454
51	0x3f8a66b7	1.0812596
52	0x3f758786	0.9590992
53	0x3f4ff026	0.8122581
54	0x3f66ba0c	0.90127635
55	0x3f978d0d	1.183992
56	0x3fa65144	1.299355
57	0x3f6e5564	0.93099046
58	0x3f9d8951	1.2307531
59	0x3f707aa3	0.9393713
60	0x3fa7f72d	1.3122307
61	0x3f87d0d2	1.0610602
62	0x3fa89aec	1.3172278
63	0x3f9a7a6a	1.2068608
64	0x3f9ff602	1.2496951
65	0x3f90b23c	1.1304393
66	0x3fa76c9b	1.3080019
67	0x3f67f6ea	0.90611136
68	0x3f871eb9	1.0556251
69	0x3f79e49e	0.9761447
70	0x3f8cb048	1.0991297
71	0x3f4ddf7e	0.80419147
72	0x3f847e3f	1.0351027
73	0x3f91a8e0	1.1379662
74	0x3f463b68	0.77434397
75	0x3f7b8b55	0.9825948
76	0x3f82a600	1.0206909
77	0x3f818b11	1.0120565
78	0x3f9aee48	1.2103968
79	0x3f4e7ded	0.806609
80	0x3f988ab7	1.1917332
81	0x3f4c74f7	0.79865974
82	0x3faa130b	1.3287061
83	0x3f68e747	0.909779
84	0x3fc9222c	1.5713553
85	0x3f5bcee9	0.85862595
86	0x3fa76e3a	1.3080513
87	0x3f51f11e	0.8200854
88	0x3fb2f752	1.3981726
89	0x3f3da345	0.74077255
90	0x3f9f0bce	1.2425478
91	0x3f96494b	1.1741117
92	0x3f6f8069	0.93555313
93	0x3f93f588	1.1559305
94	0x3f866083	1.0498203
95	0x3f9345e2	1.1505702
96	0x3f73009a	0.9492279
97	0x3f9787e1	1.1838342
98	0x3f82f8d7	1.023219
99	0x3f65a8e8	0.89710855
100	0x3f871bd2	1.0555365
101	0x3f9f4b4f	1.2444857
102	0x3f8b4bfc	1.0882564
103	0x3f80f0b1	1.0073453
104	0x3fab4ea4	1.3383374
105	0x3f8b6003	1.0888675
106	0x3f97e9f6	1.1868274
107	0x3f6de012	0.9292003
108	0x3f971e7c	1.1806178
109	0x3f3eee0b	0.74581975
110	0x3f948c28	1.1605272
111	0x3f61af22	0.88157856
112	0x3f2a792b	0.6659114
113	0x3f5a002f	0.8515653
114	0x3f8c821e	1.0977209
115	0x3f7c7c5b	0.9862725
116	0x3f96a961	1.177044
117	0x3f76b7d6	0.9637426
118	0x3fa4587f	1.2839507
119	0x3f4fc865	0.8116515
120	0x3fa7e86d	1.3117806
121	0x3f78700c	0.9704597
122	0x3fa8764b	1.31611
123	0x3f794ed9	0.97385937
124	0x3fb0c40c	1.3809829
125	0x3f3c2ded	0.7350758
126	0x3fa12f33	1.2592529
127	0x3f4ade92	0.79245865

norm1.bias f4 [128]
0	0xbbc1f6c0	-0.0059193075
1	0xbd271205	-0.04078867
2	0x3d980e0c	0.07424554
3	0x3ced2527	0.02894838
4	0x3cb41b3a	0.021985639
5	0xbc88c672	-0.016696189
6	0x3e08201a	0.13293496
7	0x3da4483b	0.08021589
8	0x3c260d92	0.010135071
9	0x3d7589f7	0.059946027
10	0x3c8091d7	0.015694542
11	0xbded260e	-0.11579524
12	0xbd9e062c	-0.07716021
13	0xbacde2ae	-0.0015707815
14	0xbc63ad60	-0.013896316
15	0x3d81a978	0.06331152
16	0xbd819792	-0.06327738
17	0x3dceb5d3	0.10093274
18	0x3d2cd3e5	0.042194266
19	0x3e196e9a	0.14983597
20	0xbd7d04fb	-0.061772328
21	0xbddb0c4c	-0.10695705
22	0x3d69d3ee	0.057086878
23	0x3d0eeebd	0.034895647
24	0xbc8999f2	-0.01679704
25	0x3ce62ab6	0.028096538
26	0x3cf63c2e	0.030057993
27	0x3c83e8e5	0.016102264
28	0xbd20f570	-0.039296567
29	0xbc530e68	-0.012881853
30	0x3926f2b1	0.00015921403
31	0xbd15049a	-0.03638134
32	0x3d6972c2	0.056994207
33	0x3e04f138	0.12982643
34	0xbdb38163	-0.08764913
35	0x3e0e8c9a	0.13920823
36	0xbd7a9f3e	-0.06118702
37	0x3dfef879	0.12449736
38	0x3b97b00e	0.0046291417
39	0x3b8fcfc6	0.004388782
40	0x3c0a556d	0.008443219
41	0x3d67125c	0.056413993
42	0xbd9d4420	-0.076790094
43	0x3df6912c	0.12039408
44	0x3d66e1b9	0.05636761
45	0xbdec9c10	-0.11553204
46	0x3d11da02	0.0356083
47	0x3e1f2085	0.15539749
48	0xbdcc2f57	-0.09969967
49	0x3dc45a0e	0.09587489
50	0xb9379319	-0.00017507038
51	0xbb9cb2e7	-0.004782069
52	0x3dd8c465	0.10584334
53	0x3c0f6f3a	0.008754546
54	0x3d4ae537	0.049535003
55	0x3d97e262	0.07416226
56	0x3ced0b24	0.028935976
57	0x3d77a941	0.060464147
58	0xbded7422	-0.11594416
59	0x3cecd123	0.028908318
60	0xbc094cd9	-0.008380138
61	0xbb5cdbca	-0.003370034
62	0xbd1e649d	-0.03867017
63	0xbc18f11e	-0.009334831
64	0x3d95446c	0.07288441
65	0x3e3e0019	0.18554725
66	0xbe29dd1e	-0.16588256
67	0x3b6b7fdb	0.0035934362
68	0x3bf3044b	0.0074162832
69	0x3cd58c43	0.026067859
70	0xbd2226a5	-0.039587636
71	0xbd2bdfc4	-0.041961446
72	0x3d312304	0.043246284
73	0xbd17a7e7	-0.03702536
74	0xba38e04f	-0.00070524676
75	0x3e288eb5	0.16460688
76	0x3d9bbd96	0.0760452
77	0xbccf059c	-0.02527123
78	0xbc08ae39	-0.008342319
79	0x3bc9a9b2	0.0061542625
80	0xbd6c70cb	-0.057724755
81	0x3daceda7	0.08443766
82	0x3ccdce29	0.025122719
83	0x3d918d3e	0.07107018
84	0x3d917142	0.0710168
85	0x3dbb2488	0.09137827
86	0xbc9b9a54	-0.018994488
87	0x3d0c6362	0.034274466
88	0xbe424514	-0.18971664
89	0x3e1a4a99	0.15067519
90	0x3d307715	0.043082315
91	0x3c9dfa09	0.019284265
92	0x3c910b16	0.017705481
93	0x3d227519	0.039662454
94	0x3da1da1f	0.079029314
95	0x3b6ddb6d	0.0036294118
96	0x3da82fde	0.08212255
97	0x3dbd5d8a	0.09246357
98	0x3d9cbb10	0.07652867
99	0x3d8cd91f	0.0687735
100	0xbc5709c0	-0.013124883
101	0x3a681f0d	0.00088547246
102	0x3d326815	0.04355629
103	0x3c838b49	0.016057627
104	0xbd65d008	-0.056106597
105	0xbe40feea	-0.18847242
106	0x3cf326cb	0.029681584
107	0x3d62af84	0.055343166
108	0xbc2b49fc	-0.010454651
109	0x3da92fbf	0.0826106
110	0xbcdf7488	-0.027277246
111	0x3ac5a0ac	0.0015077791
112	0xbc0733e9	-0.008252122
113	0x3dfff926	0.12498693
114	0xbdf58831	-0.11988867
115	0x3dee1118	0.11624354
116	0x3c4563d3	0.012047726
117	0x3e083a1d	0.13303418
118	0xbd39bfc3	-0.045348894
119	0x3e3e3155	0.18573506
120	0x3dd39cf2	0.10332669
121	0x3de09220	0.10965371
122	0xbc55ff20	-0.013061315
123	0x3c94744d	0.018121863
124	0xbddd16b8	-0.10795349
125	0x3c9bd347	0.019021643
126	0x3da33e72	0.07970895
127	0x3d065323	0.03279413
