models/encoder_state_dict_width4.pth (torch, 420996 bytes, 57 tensors)

attention.w_q.weight f4 [128, 128]
00000000: 81eb 3c3d 7507 e63e 143e aebe 663a df3e
00000010: 2430 8cbd 94c3 b53d 0efc 01be d4a2 03be
00000020: ef4b 7e3c ebc0 2dbd 9667 63be 3fa9 2a3d
00000030: 61fd 5dbe 6d36 a5bd 5b8a 04be 998f 703d
00000040: 6706 acbd 4c6a bdbd dfd3 03be ac87 3fbe
00000050: 2878 a2bd ff57 3d3e b8ff a53d 0fdd fdbd
00000060: 6ab8 fcbd 1f18 a7bd be09 09bd f5ba 0f3d
00000070: 84b4 debd 1229 0ebd d39e cabd 424a 62be
00000080: 4815 2fbd 25a2 b3bd 42da e4bd 5ee2 81be
00000090: 2196 e9bd d738 de3e 2435 353e 8c9f b5ba
000000a0: 7920 0abd 6161 14bd 12d8 30be babb f53c
000000b0: 0014 8ebe 7be3 dfbd 4f62 afba 1cb8 10bd
000000c0: f9bc 7fbe 40e3 683c f96a 173f 086c 95bd
000000d0: 12de 10be 4a51 84bd 62e5 ab3d 42b2 a3bd
000000e0: bab1 47bd 58d3 2ebd fb62 453d fcad f13c
000000f0: 607f debe 6422 d8bd ef53 173e 8802 743d
00000100: e8eb af3e 7d2a 22bc 763f c23e a924 a1bd
00000110: 1078 9b3d d23f e3bd a202 733e ba37 bb3d
00000120: 347d 723e daa8 6b3e 2a4a 68be 6af6 513c
00000130: 1177 fcbd 56a1 2cbe 88f0 c83d 66c3 34be
00000140: d142 4e3d e1f0 10be c0aa a73d 8cb6 c33b
00000150: 79fd 01bd ad78 62bd 3b89 c53e 44eb 87bd
00000160: ecb9 24be 5ad7 ef3d f9fc 2b3e 8aec 94bd
00000170: e997 a43e d8b1 35be 344f 523e b675 21be
00000180: d8c2 2f3d d97d a6bc 4ee0 163e 4ba1 66bd
00000190: 480a 8c3d 5071 bdbd 0756 90be 2b87 88ba
000001a0: e2cc d13e d9d5 bcbc 5983 18be 6fef c63b
000001b0: 5f36 33bd c250 473d a4e8 833d e020 f4bc
000001c0: 88ef 6a3e 15b3 5e3d ebcd e1be 0cf2 40be
000001d0: d406 0dbd 9701 67bd 1253 963f 8ea0 efb8
000001e0: a88e ffbd 177d f33d 19aa 1bbe ad56 70bd
000001f0: d44f be3e 7cbd f1bd 6b0e 47be a056 e1bc
00000200: 290d 1fbd c131 223e 03a3 233e 7331 cd3d
00000210: 236e b53d 4f47 0b3e 4a5b a33c 89ae 993e
00000220: 7d52 a7bd 31dc 123e 0135 6dbe 228a 7f3d
00000230: f540 4bbd b9e1 fe3d f546 da3d 856b 6d3d
00000240: 8e5d 913d 35d3 353e 47c1 893d ccf5 1c3e
00000250: d78d f4bc 11c9 263d 2c3b 063c 8fcb c73d
00000260: 14a0 a93c 1590 083e 10ed 813b d6d1 e43d
00000270: 1c7d 8b3d 43b5 993d 1fa5 043e 3507 5d3e
00000280: 8f77 fdbc 62bf 143e 1ae4 b03d d333 793e
00000290: df49 ecbc f08e b8be 2d3b 0c3d 1066 cc3d
000002a0: 2c4f 933d 5f16 473e 5027 863d 06bb 183e
000002b0: 94dc 04be 1b90 aa3e 1420 3dbd 9779 443e
000002c0: 8862 e93d f7d2 803d 9c01 74be 025d 7a3e
000002d0: e830 97bc b69e 323e ff6b 2cbe 66fe f33d
000002e0: 4070 053e e8f1 033c a0e1 90bc 63e8 013e
000002f0: 2653 a6bd c71a ff3d df7a 633d 046c e63d
00000300: 9395 d3bc 8ea2 43bd ee29 d4be 70d3 693d
00000310: fa56 21bd 753e db3d 9340 dbbe 78d4 f3bc
00000320: 5dfc 75bd 1289 88bd 30e2 693d a8da 0a3e
00000330: be93 c43c a10e 123e f474 1a3e 0e21 383d
00000340: ee95 26be 4af9 b73d dce8 9a3c 6e1b 263e
00000350: d6e9 46be 23e4 1c3e a972 c1be 0cd7 d13d
00000360: d83f d43e 6dde 543d d362 b7be 3b6f 763d
00000370: 2bff 963d 9065 a93d 8841 1bbe b161 0c3c
00000380: e175 263c 6551 333d 4998 ff3d 742a fb3d
00000390: 154c 283e 5b72 c33d 1872 463e 7fb6 0b3e
000003a0: 88e8 093e 2be8 613c 80df a93d f206 a83d
000003b0: ddee 013e 4beb 9dbd c116 ccbc 5f64 3abc
000003c0: d711 aebd 2a4b 893c 21cf 4d3e dbb1 493e
000003d0: eea7 aa3d 9487 823d 5187 b1bf 9ee0 123e
000003e0: 37ef 103e 1d86 1d3c c381 c93d d15e 17bc
000003f0: 6275 70be 54a9 113e f85e d03e 2f51 0c3d
0.04612303 0.44927564 -0.34031737 0.43599242 -0.068451196 0.08875194 -0.12693807 -0.12855083
0.015521034 -0.04242031 -0.22207484 0.041665312 -0.21678688 -0.080670215 -0.12943403 0.058730695
-0.08399659 -0.0924879 -0.12873791 -0.18704098 -0.07933074 0.18490599 0.08105415 -0.12395679
-0.12339862 -0.081588976 -0.033456556 0.035090405 -0.108742744 -0.034707136 -0.098935746 -0.2209864
-0.042744905 -0.08771161 -0.11174442 -0.25368017 -0.11405588 0.4340274 0.17696053 -0.0013856753
-0.033722375 -0.03622568 -0.17269924 0.029996742 -0.27749634 -0.1093206 -0.0013380739 -0.03533183
-0.24974431 0.014214337 0.591476 -0.07295996 -0.14147213 -0.06460817 0.08393361 -0.07992984
-0.048753478 -0.04268202 0.0481901 0.029501908 -0.43456554 -0.105534345 0.14778112 0.059572726
0.3435967 -0.009897825 0.37939042 -0.078683205 0.075912595 -0.11096157 0.23731473 0.091414884
0.23680574 0.2301363 -0.22684541 0.012815097 -0.123273976 -0.1685842 0.09811503 -0.17652664
0.05035669 -0.14154388 0.08186865 0.005972689 -0.03173587 -0.055290867 0.3858126 -0.0663667
-0.16086549 0.11710997 0.1679572 -0.07271679 0.32147148 -0.17743623 0.20538026 -0.1576756
0.042910427 -0.02032368 0.14734003 -0.056306165 0.068378985 -0.09250128 -0.28190634 -0.001041626
0.40976626 -0.02305119 -0.14893855 0.006071023 -0.043753024 0.048661 0.06440857 -0.029800832
0.22942936 0.054370005 -0.44102415 -0.18842334 -0.03443034 -0.056398 1.1744101 -0.00011426314
-0.124783814 0.11889093 -0.15201606 -0.05867641 0.3717028 -0.118037194 -0.19439094 -0.027507126
-0.03883091 0.15839292 0.15980153 0.10019197 0.088588975 0.13601421 0.019940991 0.30015972
-0.0817003 0.14341809 -0.2316475 0.062387593 -0.049622495 0.12445397 0.10658065 0.057963867
0.07097922 0.1775635 0.06726318 0.15328139 -0.02985279 0.040719096 0.008192819 0.097556226
0.020706214 0.13336213 0.0039650276 0.111728355 0.06810972 0.07505276 0.12953614 0.2158478
-0.030940799 0.14526132 0.08637257 0.24336176 -0.028843818 -0.36046553 0.034236122 0.099804044
0.07192835 0.19442128 0.06550467 0.14915094 -0.12974769 0.3331307 -0.04617317 0.19187008
0.113957465 0.06290238 -0.23828739 0.24449542 -0.018455938 0.17443356 -0.16838072 0.11913757
0.13031101 0.00805328 -0.017685711 0.12686305 -0.08121328 0.12456279 0.0555371 0.11251071
-0.025828158 -0.047762446 -0.4143824 0.05708641 -0.039389588 0.10705272 -0.42822704 -0.029764399
-0.060055126 -0.06666769 0.057100475 0.13559973 0.02399623 0.14263393 0.15083677 0.0449534
-0.16268131 0.08983095 0.018909864 0.16221401 -0.19425139 0.15321402 -0.3778279 0.10246095
0.4145496 0.051969934 -0.35817584 0.06016467 0.07372888 0.08271325 -0.15161717 0.008568213
0.01015994 0.043778796 0.12480218 0.12263957 0.16435273 0.09543296 0.19379461 0.13643835
0.1346761 0.013788263 0.08294582 0.0820445 0.12688775 -0.07710894 -0.024913194 -0.011376469
-0.084994964 0.016759474 0.20098545 0.19696753 0.08332811 0.06373516 -1.386942 0.14343497
0.14153753 0.009614495 0.09839203 -0.009238915 -0.23482278 0.1422475 0.40697455 0.03425711

attention.w_q.bias f4 [128]
00000000: b65b d8bd 5b92 563e 75e4 e23d bc27 183e
00000010: 8352 79be 0af7 923e 0fd5 933b 7589 08be
00000020: c0e4 6e3d a5b6 fb3b aff4 eabd bef4 aa3d
00000030: 8578 6cbd 9d80 013e 2359 4dbd bbcd 473d
00000040: 63fc 0abe b624 d2bd db6e 9dbd 574b 3bbe
00000050: bff6 5f3d aaef 32be 4024 1dbe 4d40 f93d
00000060: b5e8 5fbc f960 9f3c 7dce 043e b396 a1bd
00000070: bb8a d8bd ab4d 50be 1a71 a33d e163 1cbd
00000080: 0626 4fbc b0d4 0abd f494 f5bd 6603 d83b
00000090: a19d 033e 33d8 87be 7b3f e43e fa49 46be
000000a0: 1fca b4bd 1253 09be 5a81 bebd 4f43 9e3d
000000b0: dd2a 23be 9307 a23d 6dac 5b3b 5fc0 023e
000000c0: a70d 16bd 81aa 43be e865 473d e3e2 ddbd
000000d0: b2b3 26be 3b88 aebd c6fa 373c 7ba3 c0bd
000000e0: a84d be3d 87f9 8b3d e184 8e3d 052d d53b
000000f0: c8b9 15be 929a fe3d 693f 54bd a2a7 07be
00000100: e0db 8e3d bfaa 0c3d ba02 3cbe 7bf9 6bbd
00000110: cb29 ae3c cb7c dbbd ccdf 083d 1f7d 743d
00000120: 8b78 d6bc af55 afbd 0e36 f33d 240f a83d
00000130: 6267 593d b4f3 d33d 2831 56bd 159d 123d
00000140: cad3 e0bc b9df 78bd c16d 5bbd fa42 303c
00000150: 847b ad3d a74b 923d 692b 943d d09c ae3c
00000160: 5b6b d63d 24fc 873d 3382 923c 024d 25bc
00000170: e263 d6bc c9b5 d2bd 5a2a 553d ef5f f0bc
00000180: 7aff 833e a1b4 31be 6be1 4f3e 2e07 7dbe
00000190: 201f 08be 39e4 a13e bc53 803e d550 9a3e
000001a0: c325 b43d b27e 55be d101 e53e 4fc0 6cbe
000001b0: 1d7d c63e e2ff 47be 214a 243c 2424 d13d
000001c0: f5cd d4bd b8f6 b6bd 6b8e f03d bb43 943d
000001d0: c678 8bbd a2f2 143e ecbd 123e c6d7 22bd
000001e0: 9dda d1bd c75c 0cbd 697b e5bd 149a f43c
000001f0: 4d50 85bd 6a6b fbbd 32e6 153e 962e a6bd
-0.105643675 0.20954268 0.11078731 0.14858907 -0.24347882 0.287041 0.0045114825 -0.13333686
0.05832362 0.007681685 -0.11472451 0.08347462 -0.057732124 0.12646718 -0.050133836 0.048780184
-0.1357284 -0.10260908 -0.0768716 -0.18290459 0.054678675 -0.17474237 -0.1534586 0.121704675
-0.0136663215 0.01945542 0.12969394 -0.07890072 -0.10573336 -0.20342128 0.07980557 -0.03818119
-0.012643343 -0.03389424 -0.11991301 0.006592202 0.128531 -0.26532134 0.44579682 -0.19364157
-0.08827614 -0.13410595 -0.093020156 0.07727682 -0.1593432 0.07911601 0.0033519522 0.12768696
-0.036634114 -0.19108011 0.04868117 -0.10834291 -0.16279486 -0.08522078 0.011229223 -0.094061814
0.092921555 0.06834703 0.069589384 0.006505611 -0.14621651 0.12431826 -0.051818285 -0.1324754
0.069755316 0.034342524 -0.18360415 -0.05761097 0.021260163 -0.10717162 0.033416554 0.059689637
-0.026180526 -0.08561265 0.118755445 0.08206013 0.05307711 0.10349217 -0.052292973 0.035794336
-0.027444739 -0.060760234 -0.053571466 0.010758156 0.08470824 0.07143336 0.07234842 0.021315008
0.10469695 0.06639889 0.01788435 -0.010089161 -0.026170675 -0.10288579 0.052042343 -0.02934262
0.2578085 -0.1735406 0.20300834 -0.2470977 -0.13293123 0.31619433 0.25063884 0.30139795
0.08796265 -0.20849112 0.44727948 -0.23120235 0.3876733 -0.19531205 0.010027439 0.102119714
-0.10390846 -0.089337766 0.11745914 0.07239481 -0.06810145 0.14545682 0.14330262 -0.03975656
-0.10246775 -0.034268167 -0.11205179 0.029858626 -0.06509457 -0.12276347 0.14638594 -0.08114354

attention.w_k.weight f4 [128, 128]
00000000: 9c11 ab3d b7d1 3d3d 116f 913d 621f d5bd
00000010: ecdf 123d 5526 a93c eb45 1c3e 9701 87bd
00000020: ad90 8cba ec53 88bd a8d3 5d3d 88ea 76bd
00000030: ec6d 0c3e 89b0 3ebd 1313 4cbc 0753 92bd
00000040: 6b2b 213d 5e5f 603d d52a f33d 6bf3 e4bc
00000050: 3e85 08bd 1b45 eebd 63d2 923e 1544 57bd
00000060: ecfa 6e3e bc14 c3bd 929f f93d 88f2 b83d
00000070: b195 ae3d 1c92 0b3c a044 723d 91e1 303d
00000080: cd64 c33e a794 c83b 80af dfbd 6318 4fbd
00000090: 9964 cd3d b9f6 f5bc 14bb ff3e afde 6cbd
000000a0: 4097 c63b 2a81 53bd cc9b a5bc 8558 b4bc
000000b0: 375b 5d3d d4f6 a8be 9bfc a6bc 0bd1 cdbd
000000c0: 433a 2a3e 6d49 3fbd 5c6a 2c3d 24a6 163e
000000d0: 0719 96bd 5731 3c3e e861 fabd d7fd e5bd
000000e0: d845 d03c 8bf5 cc3c 7682 0dbe be4b 1dbb
000000f0: c61e b63d 32fd 1abe 50ba 9bbe f9c0 0ebe
00000100: 1b38 b93d ae39 173c 24e0 913d a668 473e
00000110: 1bff ab3d dd49 d33d 9a43 8bbc ba6b a23a
00000120: f27a b8bd 7dbc 77bc 58f4 8fbc 5d8f 623c
00000130: c65a 46be aed7 48bd 02b3 0abd 0732 2f3e
00000140: d5ac a33e da73 ffbd 8706 1e3d 526d 663b
00000150: bc04 f6bc 9605 28bc ede8 91be c083 133e
00000160: eaad c03c ea57 e6bd 3ec8 4fbe 6cdf 00be
00000170: 6507 8fbc 45f5 07bd a7bc 3b3b 988e 993c
00000180: c6d8 09be 37e5 da3c 3921 913d 7bdb 3b3d
00000190: dd3e 9e3e 009b eebd 7b12 963e 8d75 213e
000001a0: 4db3 febd f221 12be e18a d83b 32b8 01be
000001b0: f14d 69be 82ff e43c 53bb f4bd 22a0 9b3d
000001c0: 4894 40be 536d 553e 8ceb a9bd b2e9 49bc
000001d0: 9459 ff3d 34e8 9b3d 8429 1abd e172 573d
000001e0: 773d 5bbe c16b 98bc d6b9 ab3d dfd5 02be
000001f0: 5769 313d db1d a9bd b5d9 613e bded 8b3d
00000200: 7353 1cbe a81b c13d 1e52 cdbd f0c4 c73c
00000210: 12a3 04be 76e0 01b8 de56 5cbe b832 6fbc
00000220: 8b61 49be 376d 393d 92bd efbd 4b99 383d
00000230: 7834 85be 3e4a e23d 9b4c 0fbe d47c c53d
00000240: 4a22 03be fba3 0e3d 7db9 5dbe ebf0 b2bd
00000250: b9e8 1cbd 2aef e73d 3bd2 b3be b008 aa3d
00000260: c3d3 7cbd cb03 673d 2127 ccbd ccf6 233e
00000270: cbe2 29be 1a00 d13c ac57 0ebe 2e9e 2f3d
00000280: c85a 5abe 2516 27bd a8e4 2d3d 0cd9 8bbd
00000290: adec 81bd d835 b83d 0aaf 35bf d65b abbd
000002a0: 48ce f3bd acf2 9fbd ff84 c0bb fb74 22be
000002b0: ebf7 a13d 944f b9bd 73cc 43be e07a 0bbe
000002c0: d4b4 933d 9d84 d73d 6bbf c0bd b358 9f3b
000002d0: 9a9d 48ba f57d 1e3e b3f1 cebd 53e2 1fbe
000002e0: 94a7 d8bc 5d9e 45bd dfd7 c83c e1bb 103e
000002f0: aea5 543e 9d54 d5bd bf23 62be 1375 a9bc
00000300: 5144 923d 72e6 b4bd 25dc 143c 6bc9 cf3d
00000310: d793 85bd 803d 3e3e dea0 a6bd da8b 56bc
00000320: 6141 0ebe ca8c 833d 83b6 11be a3b9 e1bc
00000330: 3192 92bd f5bf c6bd 248a 57bd c8e4 693e
00000340: 0034 8c3e 5982 d3bd a30c 5c3d 814a 47bc
00000350: 7fc2 fcbb faec 523b 4102 2dbe b4e8 6b3e
00000360: 704d aabc e877 09be 0be0 08bd 4723 a4bd
00000370: 248d 8dbc 3125 debd 6556 d9bc d614 c03c
00000380: 1289 d0bd 7657 41be 3636 883c 769e db3c
00000390: ecb6 5a3e 2b2c 14be 9a78 223e 4efc 113e
000003a0: 6225 cdbd fd72 97bd 1b4d 35be 3b14 66bc
000003b0: 8229 cfbd 8384 5b3c c48f 6cbb 0978 d73d
000003c0: b7c7 58be 9938 203c bc55 423e 1bff f7bd
000003d0: cd07 1dbd 3f43 cf3d 368f babd 508d ad3d
000003e0: 1d63 91bd 8aeb 75bd 5a14 1dbd 1474 c6bb
000003f0: 5741 e93c cc64 02be d486 093e 1bd2 4e3d
0.08352968 0.046342578 0.07101262 -0.104063764 0.03585808 0.020648161 0.15261047 -0.065921
-0.0010724269 -0.06656632 0.05415693 -0.06028226 0.13713807 -0.046555076 -0.0124557195 -0.071447425
0.039348047 0.05477845 0.11873404 -0.027948102 -0.033330195 -0.116342746 0.28676137 -0.052555162
0.23337907 -0.09525439 0.12188639 0.09030634 0.08524645 0.008518722 0.059147477 0.043183867
0.38162842 0.0061212364 -0.10922146 -0.050560366 0.10028953 -0.030024873 0.49947417 -0.057829555
0.006060511 -0.051636852 -0.020215891 -0.022014866 0.054042067 -0.33000815 -0.020384124 -0.100496374
0.16623788 -0.046700884 0.04209362 0.14711815 -0.07328992 0.18378197 -0.122257054 -0.11230057
0.02542393 0.025019428 -0.13819298 -0.0024001445 0.08892588 -0.15135649 -0.30415583 -0.139408
0.090439044 0.0092300605 0.071228296 0.19473514 0.08398267 0.10316823 -0.017000008 0.0012391724
-0.09007825 -0.015120623 -0.017572567 0.013828126 -0.19370565 -0.049033813 -0.03386212 0.17108928
0.31967798 -0.12473269 0.038580444 0.0035160375 -0.030031554 -0.010255238 -0.2849802 0.14405727
0.023520429 -0.11247237 -0.2029123 -0.12585229 -0.01745958 -0.03319289 0.002864638 0.018744752
-0.13461599 0.026720626 0.07086415 0.04586361 0.30907336 -0.11650658 0.29310974 0.15767498
-0.12436543 -0.14270762 0.0066083525 -0.12667921 -0.22783639 0.027953867 -0.11949792 0.07598902
-0.18806565 0.20842485 -0.0829688 -0.012323784 0.124682575 0.076126486 -0.03763725 0.05259979
-0.21410166 -0.018606069 0.08385055 -0.12776898 0.04331335 -0.082576476 0.22055705 0.06832454
-0.15266208 0.09429103 -0.10025428 0.0243859 -0.12952831 -3.0965042e-05 -0.21517512 -0.014599495
-0.19666116 0.04527017 -0.117060795 0.045068067 -0.26016593 0.11049317 -0.13994066 0.0964295
-0.12806049 0.034824353 -0.2165279 -0.08737358 -0.03830788 0.11324914 -0.3512133 0.08302438
-0.06172539 0.0564001 -0.09968401 0.16012114 -0.16590421 0.025512744 -0.13900632 0.04287546
-0.21323693 -0.040792603 0.04245439 -0.06828508 -0.063439704 0.08994645 -0.70970213 -0.08367126
-0.119045794 -0.07809958 -0.0058752294 -0.15864937 0.07908615 -0.090483814 -0.1912096 -0.13621092
0.072122246 0.10523341 -0.0941151 0.0048628687 -0.0007652879 0.15477736 -0.10104694 -0.1561368
-0.026447095 -0.04824673 0.024516998 0.1413417 0.20766327 -0.10416529 -0.22083949 -0.020685708
0.071419366 -0.088330165 0.00908569 0.10145839 -0.06522339 0.18578148 -0.08136152 -0.013094867
-0.13892128 0.06423338 -0.14229779 -0.027554339 -0.0715679 -0.09704582 -0.052621976 0.2284118
0.27383423 -0.10327596 0.05372299 -0.012163759 -0.0077136154 0.0032184706 -0.16895391 0.23037988
-0.020788878 -0.13424647 -0.03341679 -0.08014541 -0.017279215 -0.108469374 -0.026530454 0.023447435
-0.10182394 -0.1888102 0.016627412 0.026808959 0.21358842 -0.14469974 0.15866318 0.14256403
-0.10016896 -0.07394979 -0.17705195 -0.014042909 -0.10115339 0.0133982925 -0.0036096433 0.10520942
-0.21169935 0.009779119 0.18978018 -0.121092044 -0.038337518 0.10120248 -0.091093466 0.08474219
-0.070989825 -0.06003908 -0.038349487 -0.006056318 0.02847354 -0.12733763 0.13430339 0.05049334

attention.w_k.bias f4 [128]
00000000: f0df 8d3d 8b22 94bc 39f5 32bd 9add a23d
00000010: 828f 743c 827a 923d bffc a6bd 9c67 de3c
00000020: cb33 903c e88e 2d3d 9be6 1c3d ee70 85bd
00000030: feb4 893d 5cf1 af3d fcff 603d 8e64 b4bc
00000040: 4d97 edbc d4b0 533c 04f2 973d ddd6 87bd
00000050: c583 343d 6134 92bc 5ecd 983d cd2a 333d
00000060: 833a 35bd a223 92bc b361 5ebd 8546 1bbd
00000070: 5937 a6bd 5cd8 a73d b091 e6bc 21de 923d
00000080: 376c 8ebc b5b0 dbbc 60ed 55bc 368f 0c3d
00000090: c74c 22bd 281a 28bd 76ab 46bd e605 e9bc
000000a0: 0568 a83d da37 4fbd e7fc 88bd 92ca a9bd
000000b0: a21e 673d 9a9e 4cbd be46 04bd c3e9 b13d
000000c0: 9e82 7cbc 95a8 233c 5503 53bd 207a 93bd
000000d0: f5c6 ae3d ee92 6abc eef5 11bd 259a 3bbd
000000e0: 3722 1c3d 75b0 763d 7a17 77bd 5edd 943d
000000f0: 8e87 a33d be85 603d 8014 1a3c 122d 823c
00000100: 3e07 3a3d bb3a 1dbc 2c81 edbc bf08 103d
00000110: 0e07 c0bc 6d71 1d3d 4596 abbd 4e7c 02bd
00000120: da10 62bd 8a7c 393d aa4b 33bd c477 573d
00000130: 05b1 4fbc 128a dabc 25e4 763d ee79 8bbd
00000140: 5e17 c33c f6ce 1a3c b4ba ac3c bdbd fa3c
00000150: f265 d8bc 33bb 8f3b 65c6 7c3d d22a 9f3c
00000160: 4b2f b83c 568c 0f3d e442 873d b889 aabb
00000170: 05ab a2bd 8724 893d 3be3 11bd 7b1f 8bbd
00000180: 5f31 4abd 0455 963d 221a 723c 2555 1abd
00000190: ee81 783d 3cb1 a4bd 4349 9e3d f426 a63d
000001a0: 2f5a 633d 7b24 98bc f08e 2d3d 45c2 1c3d
000001b0: 6879 a2bd 0bbb cdbb d564 3cbd 56d8 913c
000001c0: 978d afbd b932 9ebd 9279 8c3b f3aa 363c
000001d0: 421f 523d 99b6 d53b c2aa 77bd 6114 c9bc
000001e0: 5399 0ebc 4bcb 863b 9fce 55bd 5e2d 67bc
000001f0: c241 9dbd 1e44 ebbc 979d 51bd 434e 5b3d
0.06927478 -0.018082878 -0.043690894 0.079524234 0.014926793 0.07152273 -0.08153676 0.027149014
0.017602822 0.042372614 0.03830586 -0.0651568 0.06723975 0.085909575 0.054931626 -0.022020604
-0.02900281 0.012920577 0.07419208 -0.06632779 0.044070978 -0.017847242 0.07461046 0.04374199
-0.044245254 -0.017839257 -0.054292392 -0.03790905 -0.081160255 0.08195564 -0.028145641 0.07171274
-0.017385585 -0.026817659 -0.013057083 0.034316264 -0.039624 -0.04104057 -0.04850336 -0.028445195
0.08222965 -0.050590374 -0.06688862 -0.0829059 0.056425698 -0.04995594 -0.032294028 0.08687165
-0.015412001 0.009988924 -0.05151685 -0.07201028 0.08534042 -0.014317257 -0.035634927 -0.0458013
0.038118567 0.060226876 -0.060325123 0.07268785 0.079848394 0.054815046 0.009404302 0.015890632
0.045417063 -0.009596522 -0.028992258 0.03516459 -0.023440864 0.03843825 -0.08378271 -0.031856827
-0.055191852 0.045284785 -0.04377333 0.05260445 -0.012676482 -0.026677165 0.06027617 -0.068103656
0.023814853 0.009448757 0.02108512 0.030608052 -0.026415799 0.0043863296 0.06171264 0.019429598
0.022483489 0.035045944 0.06604555 -0.0052044056 -0.07942776 0.0669642 -0.035617094 -0.06793114
-0.04936349 0.07340434 0.014776738 -0.037678856 0.060670786 -0.08041617 0.07728817 0.081128985
0.055505928 -0.018572083 0.042372644 0.038271207 -0.07933313 -0.006278401 -0.0459946 0.017803352
-0.08571928 -0.07724518 0.0042869532 0.011149156 0.05129934 0.0065220115 -0.06046558 -0.02454585
-0.0087035475 0.00411359 -0.052199002 -0.0141099375 -0.07678558 -0.028719004 -0.05117568 0.053541433

attention.w_v.weight f4 [128, 128]
00000000: 55f9 363e b15c 3ebe eed4 d43e aa12 93bd
00000010: d1d5 573c ad6c dfbd 42d2 6cbe 2088 243d
00000020: 3e0e 1f3e 015e 8abd 3598 3c3e e796 023d
00000030: 27bc 74bd 2ca7 3abe df9a d3bd e484 91bd
00000040: d703 cabd c053 373c 556b 0c3f bdf1 f2bc
00000050: f992 8a3c c61f 97bc bf8d bbbd 291e 35be
00000060: a975 e5bd 028b d6bc 6e2f 25bd c6c2 bebd
00000070: fee2 043f 6516 45be 22e1 49bd 2f61 83be
00000080: 9ee0 e23e 7a69 d23c d9d0 e23e c84f 443c
00000090: 28fd 18be f079 23be 372c db3d 2c0b ae3d
000000a0: 2e7f 25bd 118a 39be 247e 1a3d b277 11be
000000b0: 91f2 d5bd 27a6 89bd ace8 b03e cc7c c13d
000000c0: 0a1a 6cbd ce9f f23c 1c76 f23d 9392 edbd
000000d0: 37ef bb3e a965 fabd 4ed2 72bd 8aef c23c
000000e0: 7b25 afbd 2ecd 19be e337 efbc ba49 05be
000000f0: bebe 753e 8b9e 11be 1156 883e ac02 0e3d
00000100: b5db 583e d751 ac3d 7c1d 9cbd 1a02 cdbc
00000110: 3edd 3d3d 2fbe a43d 1966 1ebd c55b a0bb
00000120: 5dc9 ee3c f3cd bd3d 78f4 11be 7ec9 e23c
00000130: b1fc e03e e23d 9fbe 149e 8ebd 1de9 083d
00000140: ea42 19bf a2b2 0a3d 93d0 6fbc 55e3 823d
00000150: 2b53 973d 8dde b33c c073 9a3d 26cf 583d
00000160: a238 b53b 2f7d 153d c4fd d03d 3a1c 6dbe
00000170: 50a9 0a3c 7d48 9a3d 290c b2bd 028a 43be
00000180: df2d 8a3d e9d5 6f3c 7e55 303d 0db4 e6bc
00000190: eb89 9fbc ada2 983c 733b 71be 6a3f 16be
000001a0: 05d2 733e d3f9 ba3d e64a 493c 23f0 2abe
000001b0: a2b5 2d3e 3db9 54bc 182a 1f3d d176 6abe
000001c0: a96c 10bf 489c 71be 7649 6ebe 50de c1bd
000001d0: aaae c8be 4bbb bcbd c3a5 60be 2ead b43c
000001e0: c11b a03d 84ae d3bd 9b62 3e3d 0326 33bd
000001f0: 5f91 fdbd 8f88 d73c 6822 f8bd 9af5 1cbe
00000200: b326 633e 91f1 63bc 0ccd 543e b303 e1bd
00000210: ec3a 45bd 73af 8ebd eaa0 0b3e 33ad eabd
00000220: 0705 843e 859b 3ebd f113 3c3e 7ed8 84bd
00000230: bcf8 5e3e e145 08be f2ce 0e3d 10db ebbd
00000240: 29a4 51bd 4563 263d d6ce a53e 8166 6abc
00000250: 0d40 fa3d 3347 06be f544 0a3e 8761 d9bd
00000260: 6319 9f3c 1a43 8c3c 0798 1e3d 18d0 0f3d
00000270: decb 603e ebe9 953d 01e2 cebd 229e 1fbd
00000280: 8f82 9d3e 51f0 28bd 6bff 873e 597b b83c
00000290: d6ca 653e d446 a8bd 5924 1e3e e891 c0bd
000002a0: b9df 0abe d3c6 813c 5076 91bd c704 0c3c
000002b0: 0536 1a3e 36a4 29bd 9e1d b03c 9eac 18bc
000002c0: ae4c 3a3e 1990 e83c a0e0 d03b 244c bd3d
000002d0: 24df 7f3e b17c e5bd 4490 d2bd d82f 0cbd
000002e0: c7e7 9fbd ba92 0bbe 5c90 d43d 6f53 bb3d
000002f0: 3f5c bf3e 02e6 e5bd 9ce5 a53e 87ce 893d
00000300: 4568 c33d 2e30 2ebc 878f 543c 73ee 4bbc
00000310: 241a 93bc f95f 9dbd a620 18bd 10b9 03be
00000320: 3a32 c8be 1ae0 273b dd50 253e 38d8 d4bd
00000330: 1465 33bd c659 37be 1fc7 963d e760 933d
00000340: 95f0 9ebd 3983 15bd 7203 6e3c 31b7 67bd
00000350: 2c10 babd a00a 593c 1881 38be ae68 b73d
00000360: e6a6 093e aba4 ed3c fa93 8cbe e603 edbd
00000370: 64a7 86bd 85e2 0c3e da00 443d 889f cbbd
00000380: 3df5 a7bd 44be d43d 2984 ddbd c978 363c
00000390: 3dc3 fa3d 5b44 84bc 6b62 c43d bbe1 8e3d
000003a0: 2323 cbbe 2a7f 1dbe 7c35 48bd 9055 2abe
000003b0: af30 cd3d 1684 5fbd abde 5cbe d821 51bd
000003c0: cd9d 27be db8c a9bd 90cb 01be ddec 863d
000003d0: 144d 97be 2eb0 e5bc 3a83 1cbd 5f9f 2fbe
000003e0: 4a70 33be 47d4 1ebe b0a0 283d 7d66 72bd
000003f0: 98d8 363e 6ea6 243d 540d d53d a2bc 8b3c
0.1786855 -0.18590046 0.41568702 -0.07181294 0.013173536 -0.109094 -0.23127082 0.04016888
0.15532777 -0.06756211 0.18417437 0.031882193 -0.05974975 -0.18227834 -0.10332274 -0.07105425
-0.09864014 0.011189401 0.54851276 -0.029656285 0.016915785 -0.018447768 -0.09157895 -0.17687286
-0.112040825 -0.026189331 -0.040328436 -0.09314494 0.5190886 -0.19246824 -0.04928697 -0.25660083
0.44311994 0.02568506 0.44299963 0.011981912 -0.14940321 -0.15964484 0.10701793 0.084982246
-0.04040449 -0.18119074 0.037717953 -0.14205816 -0.104466565 -0.06721144 0.34552515 0.09447631
-0.05764202 0.029617216 0.11838934 -0.116002224 0.36705944 -0.122264214 -0.059282593 0.023795862
-0.08552071 -0.15019676 -0.029201454 -0.13016406 0.23998544 -0.14220636 0.26628163 0.034670517
0.21177562 0.08414047 -0.07622811 -0.025025416 0.04635357 0.08044087 -0.038671587 -0.0048937523
0.029148752 0.09267797 -0.14253414 0.02768397 0.43942788 -0.311019 -0.06963745 0.03342544
-0.5986773 0.033861764 -0.01463713 0.063910164 0.0738891 0.021956706 0.07541609 0.052931927
0.005530433 0.036496338 0.10204652 -0.23155299 0.008463219 0.07533357 -0.086937256 -0.19095615
0.067470305 0.0146384025 0.04305028 -0.028162027 -0.019474944 0.018632257 -0.23557834 -0.14672628
0.23810585 0.091296814 0.012285924 -0.16693167 0.16963819 -0.012983617 0.038858503 -0.22896887
-0.564158 -0.23594773 -0.2327021 -0.09466231 -0.39195758 -0.09215411 -0.21938233 0.022055235
0.07817794 -0.103360206 0.046480756 -0.043737423 -0.12381243 0.026310233 -0.121159375 -0.15328065
0.22182731 -0.013912574 0.20781344 -0.10987034 -0.048151895 -0.06967058 0.13635603 -0.114588164
0.25785086 -0.046535034 0.18366982 -0.06486605 0.21774572 -0.13307907 0.034865327 -0.11516392
-0.051181946 0.040622015 0.32384366 -0.014306665 0.12219248 -0.13113098 0.13502868 -0.10614305
0.019421285 0.01712184 0.038719203 0.035110563 0.21952769 0.07320007 -0.101017006 -0.038969167
0.3076367 -0.04124481 0.26562056 0.022519754 0.22440657 -0.082166344 0.15443553 -0.094028294
-0.13561906 0.015841877 -0.071026444 0.008546061 0.1505967 -0.04141637 0.021498498 -0.009318499
0.18193313 0.028389024 0.0063744336 0.09243038 0.24987465 -0.112054236 -0.10281423 -0.034225315
-0.0780788 -0.1363019 0.10379097 0.09146773 0.37375066 -0.11225511 0.3240174 0.06728845
0.09541372 -0.010631604 0.012973673 -0.012446987 -0.0179568 -0.07684321 -0.03714051 -0.12863564
-0.3910082 0.0025615753 0.16144128 -0.10392803 -0.043797567 -0.1790534 0.07362198 0.07196217
-0.07760731 -0.036502097 0.014527189 -0.05657119 -0.09085116 0.013247162 -0.18017995 0.08955513
0.13442573 0.029009184 -0.27456647 -0.11573009 -0.06574896 0.13758285 0.047852375 -0.099425375
-0.08201072 0.10387853 -0.10816223 0.011137196 0.1224427 -0.016145876 0.09589084 0.069766484
-0.39675245 -0.1538054 -0.04887913 -0.16634202 0.10019051 -0.054569326 -0.21569316 -0.051057667
-0.1636879 -0.08278819 -0.12675309 0.06588147 -0.29550993 -0.02803811 -0.038211085 -0.17150639
-0.17523304 -0.15510665 0.04116887 -0.05917977 0.17856061 0.040197782 0.10402933 0.01705772

attention.w_v.bias f4 [128]
00000000: 45f4 3f3c 85c9 b93d e641 8b3c 0904 90bd
00000010: be3f 5c3d 7879 1c3d db60 bc3d 71e5 3a3d
00000020: 1f87 3e3d a209 d03c 773e 77bd e83c bb3c
00000030: 70b4 7bbd 8f88 b43c c3cd 62bd e82a 403d
00000040: 38f1 da3c 5894 36bc 0f36 80bb 3dab 563d
00000050: 9ab7 1abd 9a69 613d 70fb 773d 5550 763d
00000060: c0b2 5b3d 876a cfbd 6d0d 33bd 2769 cd3d
00000070: 4bc1 9cbd 2216 aa3d bde9 9abc d1e2 863d
00000080: 40e2 4e3d f6f8 0ebc a509 fabd 07c3 e6bd
00000090: f1bc b33c b9e7 383d 6ae7 803d e108 a73d
000000a0: 9ea5 b5bd ae2a 6b3d 94a8 a1bd c788 fc3c
000000b0: 2b6d 353c d937 db3d 6fa2 073d c2a3 34bd
000000c0: c676 8cbd b188 fb3c da0c 2b3d 254f 37bc
000000d0: 4943 13bb 0367 833c c815 063d 787e fc3d
000000e0: c563 0e3d 7e4c fb3d af50 7c3c 2c41 a53d
000000f0: 2c24 98bd d2c1 233d 52f6 6abd cb59 e53c
00000100: 5662 ddbc 30cb 21bc 97d4 51bd 37f1 923d
00000110: bbf7 313c 2d90 1a3c 08db b9bd ba5a 0cbd
00000120: 535f cf3c 1d9b 51bc ad74 533d 54c5 dabc
00000130: 7f4a debd 71ea 95bd 0b7d 03bd 1330 98bd
00000140: b2d1 40bd 5e9a 6abd 690b 7c3d 71b1 7e3d
00000150: 4a55 473d 2f59 b33c 0899 b33d 1289 243d
00000160: 7199 a43d aca7 c03c 89dc 13bd 8b45 c9bd
00000170: ace8 50bd d698 9dbc af76 b1bc b8dd abbc
00000180: 4292 6d3c 1327 823b 0371 f13b f528 86bd
00000190: d2d6 f03c baef 6d3d 8745 81bc a202 0fbd
000001a0: 0e46 afbd de4c cc3c 44bc a1bd 48bc 333d
000001b0: b43e 07be 1055 113d 5aa9 8abc 4c8b a2bd
000001c0: e10d 9d3d eebb 41bd 3704 8b3d 1a49 acbd
000001d0: 0270 51bd 2e7f 8e3d a29c cdbd d2a9 f2bd
000001e0: e42f 2b3c d2d7 903d c23c 033c c768 5abd
000001f0: d138 873d 500a 233d ff71 143e 3f4f 013d
0.011715953 0.0907164 0.016999196 -0.0703202 0.053771727 0.03820178 0.09198161 0.04562897
0.04651558 0.025395218 -0.060362305 0.02285619 -0.061451375 0.022037772 -0.05537201 0.04691592
0.02672635 -0.011143766 -0.0039126943 0.0524094 -0.037772752 0.05503235 0.060542524 0.060135204
0.053637266 -0.1012774 -0.043713976 0.10029822 -0.07654055 0.08305003 -0.018910283 0.065862305
0.050508738 -0.008726349 -0.12208871 -0.11267667 0.02194068 0.045142863 0.06294139 0.081559904
-0.088694796 0.05741375 -0.07893482 0.03082694 0.011073391 0.107040115 0.033113893 -0.044101484
-0.06858592 0.030704828 0.041760303 -0.011188303 -0.0022470525 0.01604033 0.032735616 0.123288095
0.034763116 0.12270449 0.015400096 0.08069071 -0.07428774 0.039979763 -0.057363816 0.027996918
-0.02702443 -0.009875104 -0.051228132 0.07174914 0.010862286 0.009433788 -0.0907498 -0.03426621
0.025314009 -0.01279333 0.051624943 -0.026705422 -0.10854053 -0.07320107 -0.032101672 -0.074310444
-0.04707498 -0.057276122 0.06153432 0.06218094 0.048665322 0.021893112 0.08769423 0.040169783
0.08037079 0.023517452 -0.03609899 -0.098277174 -0.051003143 -0.019237917 -0.021663038 -0.020979747
0.014500203 0.003971943 0.0073682084 -0.06550781 0.02939931 0.05808995 -0.015780224 -0.03491462
-0.08558284 0.024938997 -0.07897237 0.04388073 -0.13207513 0.035481513 -0.016926456 -0.07936725
0.07668663 -0.047298364 0.06787913 -0.084123805 -0.05113221 0.06957851 -0.10039641 -0.11848797
0.01044843 0.070724145 0.008010091 -0.05332258 0.06602634 0.039804757 0.14496611 0.031569716

attention.w_concat.weight f4 [128, 128]
00000000: c485 2dbe d17c 0c3e bdf5 93be c754 09be
00000010: 625e 443d fb0e 5e3d 3d39 44bd 050c fd3c
00000020: 1876 fb3c da0c abbb 5609 34be 924f acbc
00000030: c7da c4bb f05c 853d 7fca 5abd bf68 79bd
00000040: 22d4 a33d 2acc 20bd a87c 23bd 9493 e2bc
00000050: bdef 89bd 6794 02bd 681c d73d 3769 023e
00000060: 428e 40be 96de 203d 3bd2 ab3d 7d3d 913d
00000070: 2166 be3d a333 28bd c097 1a3e 1476 df3d
00000080: 7df8 f3bd fdc1 81bd 5845 663e cb9b fabb
00000090: d5a4 503d 1c8f e6bd 7278 cdbd 4d03 c53c
000000a0: 4a16 ef3d 1637 35bd 2979 6dbc a305 3dbd
000000b0: d63d 0d3d f354 c03d f433 063d e7cd 43be
000000c0: f988 af3d 87bc 673d ba5e 1fbd a675 b1bd
000000d0: 1f27 e33d 6d6a 88be 409f af3d 8bb3 87bd
000000e0: f967 f9bd 455b a63d ee04 50bd 10e8 933d
000000f0: dfcf 913e 514e 3fbe 73ec 6d3e 0514 ddbc
00000100: 21e0 76bc c6cf 22bd 92b5 653d 5d7e 0f3e
00000110: 714a 48bd be9f 78bd 69e4 15be 43e2 23bd
00000120: bba9 793d 4e8a a4bc aa1d 47bd 3580 093c
00000130: 8b98 bbbd 20cf 87bc 3b28 0bbd 1a48 9dbd
00000140: f50c 3b3d f481 5e3e d10b 77bd 3b36 1bbe
00000150: 76f8 0dbe ffbb 3c3d 8460 07be 74cb 72bd
00000160: e2a8 1d39 e3f5 01be f6d0 203d 2a32 083d
00000170: 0393 813e 7d99 5e3d a773 e0bb 38bf 26bd
00000180: c944 41bd aa67 0f3c 01f0 36bd 2796 31bd
00000190: bf9f bb3d 31c0 b4bd 6c14 d4bd 443a 99bd
000001a0: 7ddb 3d3b 72ce a23d a846 28bd beab ad3d
000001b0: e508 633e 0a03 4cbc 5bfe bbbc 2c07 4a3d
000001c0: 57f2 9bbd 7994 f73d 63fa 17be f723 a0bd
000001d0: 6e91 3b3d 0014 c7bc 7aba 8b3d 899b 003c
000001e0: 61f2 3fbe 4a5b 80be b743 843d 9aad 04bd
000001f0: 2996 e73d 8bc0 2abe 4146 123e f543 cf3d
00000200: fe02 2c3d a707 1fbd 8700 f1be f092 873e
00000210: 0dbf b1bc 25f4 08be cc02 543f f488 2bbe
00000220: 3a56 d2bd 148f a8bd 8050 7ebe 855b f2bd
00000230: ec3b c6be d292 55be 9d78 213d d280 22bf
00000240: 8a89 943d 1b2d 00be cdf0 f7bc 778c d63d
00000250: 4c77 d63c 69af 9f3d 33c2 23bd 95ae 743d
00000260: 71ac b03e f3eb e93d dc87 03be b517 b0be
00000270: 4691 4cbd 0225 ac3d 657b 47bc 2c86 f93c
00000280: c6a3 733e 5498 103f 0766 363e 2517 e6bc
00000290: 3d66 7f3e cf75 f73c 865a bbbd f413 83bc
000002a0: f6e5 09bd eb5c 503e 28fd 82be 96f7 ff3a
000002b0: 9a6f 46be 2ef2 cb3d 35e3 66bc dd48 44bd
000002c0: b14c 91bd 7d99 1d3d ee3e c53d 8d80 c3bb
000002d0: f200 fb3d 004e 983c ebe0 b7bd c486 af3c
000002e0: bfd9 c43e 6aa6 cd3d fa55 dbbd d8a2 dfbc
000002f0: 5d10 86bd f2ae c3bd cca8 063e 40b5 3bbb
00000300: c3bd 2dbe 8329 6d3d acfe 433d 26e9 243e
00000310: 708f 283d d062 8abd b02f d1bd d441 543d
00000320: 9d0c 63bd 2a5c e83c 52ac 5fbc 75b4 9abd
00000330: 4e2f 08bc e679 f0bd e752 23be d1ad 1dbd
00000340: 7389 8abe 7954 24be 6dd0 493e d740 383e
00000350: e3f7 103e c5d2 a5bd e888 cf3d 0008 6a3d
00000360: 65cc 9e3d 881d 1bbd 1ef9 9ebd 0f30 21be
00000370: 54c1 853e d3af 72bd f04e 4abd 0ffa fb3d
00000380: 6a67 713e c8d1 92be 623e 923e 49c1 bcbd
00000390: d2c7 19be 5947 fbbd f2d4 debe 3f3d 2d3d
000003a0: 95fa 18bd 3802 553f ce3f 4a3e 5edb 05be
000003b0: 3a7f 8ebe f2a1 b63e 6e58 653f bfd2 ad3d
000003c0: d82b 523d 643a b6bb 62c1 fd3d c89b 1bbe
000003d0: 9472 073d a5cd bc3d 2982 1abe b011 2dbc
000003e0: 9b1e afbc 998f 39bd dc61 8fbe d8dc f6bd
000003f0: 0684 47be a57b 68bc fb4a 7bbd f1d8 78bb
-0.16945559 0.13719489 -0.2889842 -0.13411246 0.047941573 0.054213505 -0.04790615 0.03088952
0.03069596 -0.005220038 -0.17581686 -0.021034036 -0.0060075256 0.06511867 -0.05341577 -0.06089091
0.079994455 -0.039257206 -0.039913803 -0.027658261 -0.067351796 -0.03187981 0.10503465 0.12735449
-0.18804267 0.039274774 0.08389708 0.07091806 0.09296823 -0.04106487 0.1509695 0.109111935
-0.1191263 -0.063358285 0.2248739 -0.0076479665 0.050938446 -0.11257765 -0.10032739 0.024049425
0.11674173 -0.044241987 -0.014494219 -0.046147954 0.0344828 0.09391203 0.03276439 -0.19121514
0.08571047 0.056576278 -0.038908698 -0.08665018 0.11091446 -0.26643696 0.085752964 -0.06626042
-0.12178034 0.08122877 -0.05078595 0.07221997 0.28478906 -0.18682219 0.2323473 -0.026987085
-0.015068085 -0.03974893 0.056081362 0.14013048 -0.048899118 -0.060699217 -0.14637913 -0.040010702
0.060952883 -0.02008548 -0.048612274 0.008392383 -0.09159955 -0.016578257 -0.033973914 -0.07679768
0.045666654 0.2172926 -0.060314003 -0.15157406 -0.13864312 0.046077725 -0.13220412 -0.05927606
0.000150356 -0.12691455 0.03926178 0.033250965 0.25307474 0.054345597 -0.0068497243 -0.040709704
-0.04718474 0.008752743 -0.04466248 -0.043356087 0.091613285 -0.0882572 -0.10355458 -0.074818164
0.0028969937 0.079495326 -0.041083008 0.08480023 0.22171362 -0.012451896 -0.022948435 0.049323246
-0.07614582 0.12088866 -0.14841609 -0.0781936 0.04579299 -0.024301529 0.06822677 0.0078495825
-0.18744804 -0.25069648 0.06458228 -0.03239212 0.11307938 -0.16675012 0.14284612 0.10120384
0.04199504 -0.038825657 -0.47070715 0.26479292 -0.021697545 -0.13374384 0.8281677 -0.16751462
-0.10270353 -0.08230415 -0.24835396 -0.11833862 -0.38717592 -0.20856789 0.039421666 -0.63477814
0.07252796 -0.12517206 -0.03026619 0.1047601 0.026179932 0.07797129 -0.039980125 0.059736807
0.34506562 0.11421957 -0.12844795 -0.34393087 -0.04994323 0.08405496 -0.012175416 0.030459486
0.23792943 0.56482434 0.17812358 -0.028087208 0.24941345 0.030207543 -0.09148125 -0.016000725
-0.033666573 0.20347945 -0.25583768 0.0019528742 -0.1937851 0.099583015 -0.014092256 -0.04792105
-0.07094706 0.038476456 0.096311435 -0.005966252 0.1225604 0.01859188 -0.089784466 0.021426566
0.38447377 0.100415066 -0.10709758 -0.02729933 -0.0654609 -0.095548525 0.13150328 -0.002864197
-0.1696692 0.057900917 0.047850296 0.16104564 0.041152418 -0.06757128 -0.10214174 0.05182059
-0.05543195 0.02836426 -0.013651924 -0.07553951 -0.00831206 -0.11742 -0.15949593 -0.038495842
-0.2705799 -0.16047849 0.19708414 0.17993484 0.14157061 -0.08096842 0.10133535 0.057136536
0.07753829 -0.03786996 -0.07762359 -0.15740989 0.2612406 -0.05924971 -0.049391687 0.12303554
0.23574606 -0.28675675 0.2856322 -0.09216554 -0.15017632 -0.12269468 -0.4352184 0.042294737
-0.03734835 0.8320651 0.19750902 -0.13071963 -0.2783144 0.3567043 0.8958806 0.08487462
0.051311344 -0.00556116 0.123904005 -0.15196145 0.033068255 0.09218911 -0.15088715 -0.010563299
-0.021376899 -0.04530296 -0.28004348 -0.12053841 -0.19483957 -0.014189635 -0.061350804 -0.0037971104

attention.w_concat.bias f4 [128]
00000000: 22da b43c d7a5 953d 7c78 a23d 85b4 063d
00000010: a3a2 c6bd afb3 a0bd 6b5c b53c 23cb a73b
00000020: 2c3d 4ebd a3bb aabc 6e97 24bd c95d 213d
00000030: 5609 6cbd ce55 39bd 4a2c 8bbd 7de0 edbd
00000040: b4f9 4bbc 4928 123b ebc3 2a3d 0894 65bd
00000050: 3c68 9d3d a8f4 2e3c d0b6 a53d 21cb 8c3c
00000060: 457b 9bbd 0967 49bd 30d8 143d 6808 903d
00000070: 68a2 83bd e5b4 debd 47b9 14bd 5d35 7a3b
00000080: 1156 4c3c 8faf ddbd 8a00 613b fe9a 4abb
00000090: 1250 bf3c 3d49 c5bd 18fe 70bd f44a 26bd
000000a0: 9a5f 813d 3f28 a8bc 0fe2 173d 73d2 89bc
000000b0: 5723 753d ff6f c0bc 88ef 2c3d 44bf bdbd
000000c0: 798e 0abc bbef d6bd 4d86 653d e33d 623d
000000d0: aae5 c5bd d179 233c a41f 193e fc94 b03d
000000e0: 2911 a3bd d9b3 41be 2ee1 14bd 6205 d4bc
000000f0: bac3 bcbb a609 99bc 55a6 df3c 5d25 05be
00000100: baf9 15bc 5935 a53d d349 ed3d 0a65 a7bd
00000110: de95 cc3d ca02 9bbd eea9 273c 1a32 acbb
00000120: 8502 e03c 900b 22be 70f4 49bd 4c19 d2bd
00000130: 80ba 603d b04d c3bd a988 68bc 85c6 b6bd
00000140: b619 0f3e aced fbbd 1727 383e 9988 09be
00000150: ffe7 b33d a02a 11bb 35e5 873d 5617 1ebd
00000160: 6ea8 943d b123 4dbd 6865 373d f6fa debb
00000170: 22de b93d 4344 0dbd 1062 f23d fb99 0dbd
00000180: 7a4d d9bd 5ac7 1a3d 2a77 283d 4acd e6bd
00000190: 0b7c 123d 74d0 91bc 1046 763d f3d1 4dbd
000001a0: 80d5 86bd b2ce 47be 8215 f03c b0b3 f93a
000001b0: 3003 1dbc 602a 08bd 219b 323d 6603 95bd
000001c0: a26c 0dbd 22f2 8bbd d02a 513d c0e8 093d
000001d0: 3307 b83d 9fb5 45be 3f68 3f3c df72 acbd
000001e0: 10ce 67bc 66b2 34bd 72b7 32bd cdc5 d0bb
000001f0: 3ce0 ac3d 57e7 213d 8dff a8bd 4456 303d
0.02207667 0.07307022 0.07933137 0.032887 -0.09698989 -0.07846772 0.022138795 0.0051206513
-0.050351307 -0.020841425 -0.040183477 0.03939608 -0.05762609 -0.045247845 -0.06795557 -0.11615083
-0.012449671 0.0022301844 0.04169075 -0.056049377 0.07685897 0.010678448 0.08091509 0.017186703
-0.07591871 -0.049170528 0.036338985 0.07032853 -0.06427461 -0.10874347 -0.036309507 0.003817878
0.012471692 -0.10824501 0.0034332597 -0.0030915136 0.02335361 -0.0963311 -0.058836073 -0.040598825
0.06317063 -0.020527003 0.03708082 -0.016823983 0.059848156 -0.023490904 0.042220622 -0.09264997
-0.00845682 -0.10494944 0.056036282 0.0552348 -0.096629456 0.009977774 0.14953476 0.086221665
-0.079622574 -0.18916263 -0.03634756 -0.025881473 -0.005760637 -0.018681359 0.027300993 -0.13002534
-0.009153778 0.08066816 0.115863465 -0.081735685 0.099895224 -0.07568891 0.0102333855 -0.005254996
0.027344951 -0.15824723 -0.04930538 -0.10258731 0.05486536 -0.09536302 -0.014192739 -0.08924583
0.13974652 -0.12301192 0.17983662 -0.13431014 0.08784484 -0.002215065 0.06635515 -0.038596474
0.07258688 -0.050082866 0.044774443 -0.006804819 0.090755716 -0.034488928 0.1183511 -0.034570675
-0.106104806 0.037787773 0.04112927 -0.112696245 0.035762828 -0.017799594 0.06012541 -0.05024905
-0.06583691 -0.19512442 0.02930713 0.0019050743 -0.0095832795 -0.033243537 0.043604974 -0.07276039
-0.03452743 -0.068332925 0.05106622 0.033669233 0.08985748 -0.19307564 0.011682569 -0.084203474
-0.01414825 -0.044115447 -0.04363198 -0.006371236 0.08441207 0.039527263 -0.082518674 0.04305102

norm1.weight f4 [128]
00000000: 3c6b 543f 4039 583f 14de 2f3f 08f3 383f
00000010: 1529 863f 2fb8 853f 1694 423f d8c5 3b3f
00000020: 3194 853f c1fe 6e3f eaf6 4f3f acf5 973f
00000030: 3b3a 893f 2932 603f 3f27 603f 7983 6c3f
00000040: 8ed6 6a3f 89e6 673f 7605 6c3f 23a2 4a3f
00000050: 9b33 943f 4384 7f3f 561c 763f d966 8d3f
00000060: 0c89 943f fbb7 673f 2182 843f aad9 893f
00000070: 68a9 853f b368 763f 5772 563f 00a0 a43f
00000080: a937 6f3f cb06 633f 2d15 773f 452d 4b3f
00000090: 0c1e 7a3f e36d 5d3f 4d4f 873f 5507 7b3f
000000a0: 4b60 883f 090b 613f aff6 a13f bc26 3c3f
000000b0: 2b37 833f feb4 973f 1ce7 933f c92d fa3e
000000c0: 18ec 803f 4583 7f3f 0ba5 853f 9030 7f3f
000000d0: 49be 773f f1a8 5d3f b805 713f a199 763f
000000e0: e642 993f 0b17 723f 706e 823f 7591 833f
000000f0: 4c4d 9b3f 61c9 923f a80d 9b3f 02b8 823f
00000100: 3d99 8f3f 8934 753f 5ef4 7b3f ed60 673f
00000110: e1cb 803f 8b89 7c3f e26d 8e3f 6317 613f
00000120: 6e9e 8a3f 79db 803f 0679 963f 2e6f 653f
00000130: 004c 863f ae6d 8d3f fc36 873f 6653 633f
00000140: e8a0 8c3f a125 643f 2ac0 8b3f 3f30 6a3f
00000150: ae08 8e3f fa2a 603f 2eb3 9a3f b899 5c3f
00000160: 39e0 943f 06c7 223f 16ce 8e3f 4d07 7b3f
00000170: 8274 8a3f 1191 973f b2a9 743f 4816 8c3f
00000180: 3e00 753f 3f87 8a3f 0206 813f 8a5f 633f
00000190: d118 8b3f d285 7b3f 43a5 813f f5cf 653f
000001a0: 20e2 b23f 1330 633f bfc8 953f 121a 613f
000001b0: 88c2 963f a2d7 483f a73a 8e3f bf74 7e3f
000001c0: 133d 843f 48eb 363f c282 8f3f a90e a83f
000001d0: 028c 883f 4d37 903f 81de 973f 0756 5e3f
000001e0: f5ba 8f3f 52e6 823f 1d15 993f 824f 7d3f
000001f0: 90bd a33f 1020 5c3f bffb 8c3f b8e1 533f
0.82976127 0.84462357 0.6869824 0.72245836 1.0481287 1.0446833 0.7600721 0.7334876
1.043585 0.93357474 0.81236136 1.1871848 1.0720896 0.8757654 0.87559885 0.9238811
0.91733634 0.90586144 0.9219583 0.7915365 1.1578249 0.9981119 0.9613699 1.1047012
1.1604323 0.90515107 1.0352212 1.0769551 1.0442324 0.9625351 0.8376822 1.2861328
0.93444306 0.8868224 0.96516687 0.7936595 0.977021 0.864958 1.0571076 0.9805806
1.0654386 0.87907463 1.2653407 0.73496604 1.0251211 1.185211 1.1554904 0.48863056
1.007205 0.99809676 1.0440992 0.99683475 0.9677473 0.8658591 0.9414935 0.9632817
1.1973541 0.9456641 1.0189953 1.0278765 1.2132964 1.1467706 1.2113543 1.0212405
1.121864 0.9578329 0.9841975 0.9038227 1.0062219 0.98647374 1.1127284 0.8792631
1.0829599 1.0066978 1.1755683 0.8962277 1.0491943 1.1049097 1.0563655 0.8879913
1.0986605 0.8911992 1.0918019 0.9147987 1.1096399 0.8756558 1.2085931 0.86172056
1.1630927 0.63584936 1.1156642 0.98058015 1.0816805 1.1841146 0.95571434 1.09443
0.95703495 1.0822524 1.0079958 0.88817656 1.0866948 0.9825107 1.0128559 0.8977044
1.3975258 0.8874523 1.1701888 0.87930405 1.1778116 0.7845403 1.1111649 0.9939689
1.0331138 0.7145276 1.1211779 1.3129474 1.0667727 1.1266876 1.1864778 0.8685002
1.122893 1.0226538 1.1959568 0.98949444 1.2792225 0.85986423 1.1014327 0.82766294

norm1.bias f4 [128]
00000000: 8e50 b7bc 3fa9 223c 917f 233d 320c 4b3d
00000010: e038 873d 5207 fc3b 412b e53d 330a f73b
00000020: 3658 0d3d 6ede 353d a646 833c c67f 3dbd
00000030: 0d46 a1bd 660c 6cbb 4641 b7bb cbb0 5c3d
00000040: 4a22 40bd 3531 a13d 6315 043d 35dd 5a3d
00000050: 2294 0fbc 088c 33bd 07b9 a33c b3a7 0a3d
00000060: 5c34 fd3c c1bf 9d3c 3c57 183b 600c 3fbc
00000070: a7c9 f0bc 5303 b0bb f32c aabc 04ad 50bc
00000080: 4b3a 543d 9825 2a3c f52f cdbd 5979 453d
00000090: c761 ecbb 46c6 0f3d b4d8 f43b 978a 0ebd
000000a0: d688 bdbc 45c8 a0bc 607e f5bc d77e 683d
000000b0: 042a f53c ff57 c0bd 6ea6 cb3b 7498 3e3d
000000c0: 992e 5ebd 5cc5 073d 28b4 d63a 4dea 18bc
000000d0: 90e6 733c 77b5 d5bc d9cc 803d 449b 35bb
000000e0: 4156 3c3c e6e4 013d 15dd 5cbc f237 083d
000000f0: 1d10 883c f142 85bc 5cfb 0cbd 6139 163c
00000100: eb0c 6b3d ddde b53d f526 953d ee49 cabc
00000110: 426a 3e3d 4ffc 0bba 22c0 f9bb 21d8 78bd
00000120: 3ad3 733b dd6d 42bd 847a 75bb ca75 0b3e
00000130: 3584 c03c a953 a73a 8449 7cbc 0fcd bdb9
00000140: 6f6b 463d 1223 e3bb 0bf6 423d 45a3 be3c
00000150: 5844 513d 24b2 5ebb 30a7 3b3a 0167 4a3a
00000160: 45df 9cbd 3591 cd3c 0576 733c f591 ab3c
00000170: a335 3c3d 43e0 09bd 32cb e83d a816 09bd
00000180: c614 bc3c fb6c 333d 492f 173d 827e 0e3d
00000190: ff2e 31bc 44c9 cbbc 380e 2b3d bd19 6c3c
000001a0: e70f 76bd cab1 14be 3726 663d 18ab 0b3c
000001b0: cf4f 4fbc 977c 073d fc26 3e3c 3079 01bd
000001c0: da9d ff3c 87c3 0b3d 6cdc 5dbd a252 01bc
000001d0: 2448 1a3d ea6b 923d 70ff 4a3b ccb4 883d
000001e0: 6f1a d43c 5172 363d 7068 833d 3cbb cc3b
000001f0: 5c11 e4bc 2b7a cb3c 9e67 7b3d 98d3 b23c
-0.022377279 0.009928047 0.03991658 0.049572177 0.06602645 0.0076913023 0.11189891 0.0075390576
0.034507953 0.04440158 0.016024899 -0.046264432 -0.07874689 -0.0036018132 -0.005592498 0.05387954
-0.0469077 0.078707136 0.03224696 0.053433616 -0.008763345 -0.043834716 0.019985689 0.033851337
0.030908756 0.019256474 0.0023245355 -0.011660665 -0.02939303 -0.00537149 -0.020773387 -0.012736563
0.051813405 0.01038494 -0.10018913 0.04821143 -0.0072138044 0.035101198 0.007472122 -0.03480014
-0.023136538 -0.019626746 -0.029967487 0.05676159 0.029927261 -0.09391784 0.0062149083 0.04653211
-0.054243658 0.0331472 0.0016380595 -0.009333205 0.014886513 -0.026087506 0.062890716 -0.0027710954
0.011495174 0.031712435 -0.013480444 0.03325648 0.016609246 -0.016267272 -0.034419402 0.009168954
0.057385366 0.088803984 0.07282821 -0.024693456 0.046488054 -0.0005340026 -0.007621781 -0.06075299
0.0037204758 -0.047468055 -0.0037457058 0.13619152 0.023500541 0.0012766022 -0.015398387 -0.0003620167
0.0484423 -0.006931671 0.047597926 0.023271212 0.05109057 -0.0033980692 0.0007158397 0.0007721037
-0.07659773 0.025093654 0.014859681 0.020943621 0.04594959 -0.03366114 0.113668814 -0.033468872
0.022959124 0.043805104 0.03691033 0.034788616 -0.010814427 -0.024876244 0.041761607 0.014410433
-0.06007376 -0.14520946 0.05618879 0.008524679 -0.012653305 0.033077803 0.011605974 -0.031609714
0.0312032 0.034122016 -0.05416529 -0.007893236 0.037666455 0.07149489 0.0030975007 0.06675109
0.02589151 0.044542614 0.06416404 0.006247906 -0.027840309 0.024838528 0.061378114 0.021829411

trans_sample.0.weight f4 [64, 128]
00000000: ef67 3ebd 0c44 c7bc 5f86 853d d361 243d
00000010: 14e3 0b3e 8027 a33c 519b 6bbb ff66 99bd
00000020: 89b9 0c3e d75e d5bd 62f7 893d 7ee2 183e
00000030: b9dd 823d 0de2 4abc 2ada 3b3d 4e8b 34be
00000040: 0f6d ba3d b51c 79bd 0098 4f3d 9a2b a6bc
00000050: f87a c73d 3fbc 90bd d190 b63d 6b6d a13d
00000060: 88d6 14bd ce07 22be a1d1 313c 5949 5fbe
00000070: 75e7 9b3d f34c 663d 3b9a a73c 308a 8b3d
00000080: b136 ccba c069 40be e55b dcbd df6b 073c
00000090: 8a4a 35bc e37c 4fbd b3e6 663d e2a2 7cbd
000000a0: f217 1b3d beb0 c1bd 64ee b63d 34a7 89bb
000000b0: af03 03be 5e67 0c3d 55c0 38bd f670 0e3d
000000c0: 5773 873d a183 09be 3958 bc3d 7cd7 c03d
000000d0: 8d7a 55be 8e26 84be f11b e13d 963c 1f3d
000000e0: 503e fbbe 3cac d5bd 330a 13bc a869 dd3d
000000f0: 217f d5bd 5d6b 463d 3f3b 313e 365c 3dbd
00000100: 37ea 743c 9c5b d83d 6c86 003d eb1b 1a3c
00000110: 26d1 913d 8f82 2dbe c299 ec3c 4d3e 9b3b
00000120: b105 753d 74c4 eabd c8b3 bc3d 117e 83bc
00000130: da2d f13c fb77 823c 1a7d 423d 7f75 e8bd
00000140: 8901 e13b b25b 8ebd c19a 1d3c 43e3 babe
00000150: bccb cb3d efad c2bb 6a5b f03e 9308 33bd
00000160: 918c 2dbd 9969 133d 8663 5bbd 583d 583d
00000170: 86b5 1b3d bbbe 4ebc b922 cf3e 8184 133e
00000180: b672 14be edb9 f33d a032 59bd 6152 a83d
00000190: dd7d d1bd 3381 d63b f9be eabc b7bc 97be
000001a0: b000 1bbe 0883 a3bd 1516 31bc adc4 ea3c
000001b0: 1926 12be d3bc 83bd eda2 c63e 1f4a 67bd
000001c0: 6368 b73e a270 c73c 1189 133d 3b1a c1bb
000001d0: f39f 7d3e 1f97 cfbd 88f3 c03e 49e8 47bd
000001e0: 4257 e2bd 8e56 25bd 454c 0dbd c934 333d
000001f0: fc81 2d3e f836 c93c a59b fdbd 8449 a33d
00000200: 266d d23c f5b0 993d 3911 9abe acf2 363d
00000210: ebb4 8c3e fa98 cabc d070 a83d fb99 cbbd
00000220: 960a 523c f55e cfbd 1469 d93d 4fe1 bf3d
00000230: 7143 2e3e 099a 903d 6e48 4ebe 6429 933d
00000240: 3e28 65bd 9e60 44be ec57 373d 2192 26bd
00000250: 1cf0 683e b5e1 b13e 02c5 ccbd 2bb7 70bd
00000260: 4a50 3e3c aa41 2abe b24f aa3d b641 f63d
00000270: 4bf5 74bd f55a 1e3e 1ede 5d3d 96cd 153d
00000280: 5769 b33d 7d8e eebd d7dc bb3e 06e0 86bc
00000290: 7a86 4b3e 23de 5abe e724 59be 300b a2be
000002a0: ed22 813d 7cc3 1abe 7862 883d 59d3 58bd
000002b0: 48c9 cdbd ee7c 6d3e f7be 223e 853b 91be
000002c0: e857 80bd e50d 09bd a77a 4e3c 632d 5fbd
000002d0: 2c87 013d 665b b6bd 1865 173e 52e5 6cbd
000002e0: 723f 2dbe f789 b43c 93d9 2fbd 8ce1 5ebe
000002f0: 5022 ea3d 9396 9fbe b554 97be ab46 273e
00000300: 58e0 873d 9115 4cbe 1653 c03b ed30 50be
00000310: 08d2 09bd 9b58 67bd e14b 1abd 2d59 803b
00000320: f98e 39be 3aaf 0f3d 579c 563e d6f0 29be
00000330: b433 e63b 600c b73d 3609 a13d a350 ab3d
00000340: 6069 e63d 259a f9be c2ee 713e 9c02 5fbe
00000350: a151 9e3e a53c 39bd 6032 693d 0bd8 94be
00000360: 01b7 ab3e a849 debc fc8d b439 c47c 28be
00000370: 0115 233e a10d 933d 7fd2 043e 8d77 8ebd
00000380: 27cf 28bd 7d99 11be f11d d8bc 91e8 97bc
00000390: 6a05 833d 0451 673c da2e 00be 699f 4e3d
000003a0: f89e 90bd 10ca 2a3e 3bb6 9dbc 36b6 183c
000003b0: e3f5 00bf 2d15 2b3c ebfe 10bd 3853 acbd
000003c0: cefa 0b3f b837 b6be 2f02 a4bc c821 61bc
000003d0: f94e 9abc d441 febe e724 b63d 5a82 01bf
000003e0: 3491 363d 5809 363e 6aef 063d ca23 26be
000003f0: 8738 973d bd08 383e 287e b83d b70d 66bd
-0.046485838 -0.02432444 0.0651977 0.040132355 0.13660842 0.019916296 -0.003595073 -0.07490348
0.13742651 -0.1041848 0.06736638 0.1493015 0.063899465 -0.012382996 0.045862354 -0.17631266
0.091028325 -0.060818393 0.050682068 -0.020284463 0.09740251 -0.07067155 0.0891434 0.07882198
-0.036337405 -0.1582329 0.010853202 -0.21805324 0.07612506 0.05622573 0.020459285 0.068134665
-0.0015580264 -0.1879034 -0.10759715 0.008265465 -0.011065135 -0.05065621 0.056372356 -0.061678775
0.037864633 -0.09457539 0.08932188 -0.0042008404 -0.12794374 0.034278266 -0.045105297 0.034775697
0.06613796 -0.13429119 0.09196515 0.094161004 -0.2084753 -0.25810665 0.109916575 0.03887614
-0.49070978 -0.10433242 -0.0089746 0.10811168 -0.104246385 0.048442233 0.17307757 -0.046230517
0.014948419 0.10564348 0.031378195 0.00940607 0.0711997 -0.16944335 0.028881911 0.0047376514
0.05981988 -0.11463252 0.09213978 -0.016051324 0.029440809 0.015926352 0.047482587 -0.113505356
0.006866638 -0.06951083 0.009619416 -0.36501512 0.099509686 -0.0059411447 0.46944743 -0.04370935
-0.042370383 0.035989378 -0.05356171 0.052792877 0.03801491 -0.012618716 0.4045618 0.14406015
-0.14496884 0.11900697 -0.053026795 0.082188375 -0.10229085 0.0065461635 -0.028655516 -0.29636165
-0.15136981 -0.079839766 -0.010808487 0.028658235 -0.14272346 -0.064325 0.38796178 -0.05646717
0.35821828 0.0243457 0.03601939 -0.0058930195 0.24768047 -0.10136246 0.376858 -0.04880551
-0.11051799 -0.040365748 -0.034496564 0.04375151 0.16944116 0.024562344 -0.123832025 0.07973006
0.025686812 0.07504455 -0.30091265 0.044665024 0.2748178 -0.024731148 0.08224642 -0.09941479
0.012819907 -0.101255335 0.10615745 0.09369146 0.17017914 0.0706063 -0.20144817 0.07185629
-0.05594658 -0.19177482 0.044761583 -0.040666703 0.22747844 0.34742513 -0.09998514 -0.058768433
0.011615822 -0.16626611 0.08315982 0.12024252 -0.059804242 0.15464385 0.054166906 0.036573015
0.08760326 -0.11648271 0.36691925 -0.016464245 0.19875517 -0.21373801 -0.21205483 -0.3164916
0.0630549 -0.15113634 0.066594064 -0.05293593 -0.10048157 0.23192188 0.1589316 -0.28365722
-0.06266767 -0.033460516 0.012602485 -0.054486644 0.03162305 -0.089041516 0.14784658 -0.057835884
-0.16918734 0.022038443 -0.042932104 -0.21765727 0.11432326 -0.31169567 -0.29556814 0.16335551
0.06634587 -0.19930102 0.0058692796 -0.20331164 -0.033647567 -0.056480985 -0.03767002 0.0039168806
-0.18120946 0.03507922 0.20958076 -0.16595778 0.0070252065 0.08937907 0.07863085 0.083649896
0.112505674 -0.48750415 0.23626235 -0.21778339 0.30921653 -0.04522385 0.056932807 -0.29071078
0.33538058 -0.027134731 0.00034438062 -0.16453844 0.15925981 0.07180334 0.12970923 -0.06956396
-0.04121318 -0.14218707 -0.026381465 -0.018543513 0.06397517 0.014118437 -0.12517872 0.050444994
-0.07061571 0.16678643 -0.019251933 0.009320786 -0.50375193 0.01044206 -0.03539936 -0.0841431
0.5467957 -0.35589385 -0.020020572 -0.013740964 -0.018836485 -0.49659598 0.08893757 -0.50589526
0.04457207 0.17777002 0.032943167 -0.1622459 0.073838286 0.17972083 0.090084374 -0.056165423
