models/encoder_state_dict_width1.pth (torch, 125602 bytes, 59 tensors)

dim_up.weight f4 [64, 8]
00000000: 3d53 de3f 5075 0f3e 65b4 d1be 9284 fdbf
00000010: 540c 2d3e 6665 7c3d 161f f63e 0899 253d
00000020: 1c88 833f dd43 293e 2484 7c3e 80a3 833e
00000030: 8e94 a53d c7fd 91be 713d d83d 3cc4 9abb
00000040: cda6 ef3f 7878 14be bfcd 6c3e 71eb 3bbf
00000050: 902b 92bd e8db 513e 9785 0a3f 02f1 993c
00000060: 904f 0ec0 66f2 2fbe 1f21 21be 0969 70bd
00000070: be3b 37be 8f79 84be fa35 e2bc fa5e 74bd
00000080: 9ef9 3740 f5f6 2ebf b38c 1ebe 6b90 0f3f
00000090: df8d 84bd 9470 94be 00c3 0ebf a3c0 713d
000000a0: a392 0740 b703 f03e a443 46be 9ac2 84bf
000000b0: 3fbe 86bd c821 afbe b2c5 d1bb f613 5a3e
000000c0: 10a6 2340 ddcd ae3e b6aa 7dbd 582f a0bf
000000d0: 73a5 d33b 49fa 1fbe 639f e53e 8aa9 25bd
000000e0: e2b0 0440 5e8f 863e bd32 883e 31a3 8ebf
000000f0: 2237 1bbd 9e01 a53d 6288 58bd 62d1 3abc
00000100: b111 3640 8b72 18bf 2591 1c3e 23df 03bf
00000110: a965 58be 4b3b 87be 4545 8ebe 2375 5ebe
00000120: 09b5 16c0 c6d5 d1be 08be 91be 4b9d 2c3f
00000130: cdee 5f3d 62a1 54bd e674 b53e 8293 93be
00000140: ed8c 00c0 a375 6c3c 713e 453e 737b 803f
00000150: 3236 6bbe f272 41be d765 903e 292d 5dbe
00000160: 3dea 3440 ba27 933e 7b81 563e 2ed7 cfbc
00000170: 005b 1abe c1be 8d3d 6910 14be 7177 d93d
00000180: 756c 32bf c877 24bf b2cb 68be e8e6 0240
00000190: 3132 7c3d 9cb5 123f 47b9 573e e776 5e3c
000001a0: b074 2ec0 4a09 463e 83cf 2cbe 2206 32bc
000001b0: 6e96 51be 7b94 10be 1851 de3d e828 dcbd
000001c0: 31ba e4bf 657d 02bf efed dcbe cb68 b3bf
000001d0: bb12 a2bd 8992 52bf 5ba8 edbc deb2 57be
000001e0: 6549 66c0 c615 61bf 6208 5fba 4bb8 d9bf
000001f0: 074d 693d d53d c23e 8244 36bd 9c66 df3a
00000200: 50e0 1340 02d0 d03e ad44 e639 8c09 bdbf
00000210: 17e7 a73b c2ce 7dbd 4cb2 ddbe 0808 63bc
00000220: 173b 05c0 d1ec 2bbf f851 fc3c 715d 8f3d
00000230: b241 58be 3779 873e 5b5c 14bd 54cc 0a3e
00000240: 98fa 3ac0 2449 0f3a 9591 4abe 28f1 1c40
00000250: 31c4 f33b bad2 edbd 3fc6 0a3d cdf3 54bc
00000260: da58 dcbf b625 f93d 709f 893e 71c4 9b3f
00000270: 40e6 92bd 92d2 09bf 478f 43be 6d59 873d
00000280: 89ee 27c0 214d 463e 82d3 c8be bf05 1640
00000290: 0458 26bc 2327 d03e 2831 97bd bad2 9cbc
000002a0: 321f 58bf 2195 963d 605b 863d 9ce5 c03f
000002b0: b359 8dbe 0cb3 533e b5f0 343e 6eee 2cbe
000002c0: 4a19 40c0 3e3c 35bf 6dd5 a83e 791b a23e
000002d0: 3e44 823d f36b cdbc 3158 f63e 2996 56bd
000002e0: 2d8f 1540 0f59 0abe 5ad2 adbe f3ea 50bf
000002f0: dd68 42be edd4 e83e 9c47 6c3d 2bf9 6a3d
00000300: 9ec4 9640 7588 5f3e b988 8d3e e124 8cbe
00000310: dcdb 57bc a35c 113c 34a9 ca3b 4c6d f9bb
00000320: b47b 2940 68ce c53d aa3e c0be 0984 f63e
00000330: 513e 603e bdfe d2be d288 e6be 75ad 3c3e
00000340: 0087 ff3f a4b6 2b3e 3a77 4f3e aaae 34c0
00000350: 83f5 21bc 7b2d 9ebc 5254 72bc af80 2eb9
00000360: 9bbb 89bf 29a9 923e 609f a4bc 3fd5 103f
00000370: 0a7c 9c3e bee2 833e 4bb6 cb3d f8cf f4bd
00000380: e2b6 3ec0 7af1 a6be 2c57 4d3e c7a5 aa3f
00000390: c6a7 37bd 0c46 33bf d430 373d c9bc d7bd
000003a0: 9564 f5bf 075e f2be 0817 493e 545f f73e
000003b0: c66e 84be a943 313e b138 b53d cd09 d93d
000003c0: 1b9d 3d40 b2cb 5a3e dd94 ecbd 6a5c 21bf
000003d0: 0ddf 19bc d0bc 92bf aca6 83bc 1841 63bc
000003e0: 5f7b 2bc0 2bb4 50be 6c48 1ebe 672e 3b3f
000003f0: a58f 7c3e c6f2 0cbf 5de6 ce3d a1f7 853e
1.7369152 0.14009595 -0.40957943 -1.9806082 0.16899234 0.06162014 0.48070592 0.040429145
1.0275912 0.16529794 0.24659783 0.25710678 0.08084975 -0.2851393 0.10558594 -0.0047231
1.8722779 -0.1449908 0.23125361 -0.7340613 -0.07137215 0.20494044 0.5411009 0.01879168
-2.223606 -0.17182311 -0.15735291 -0.05869392 -0.17893884 -0.25873992 -0.027613629 -0.05966089
2.8746104 -0.68345577 -0.1548336 0.5607974 -0.06472372 -0.2899214 -0.55766296 0.059021603
2.118325 0.46877834 -0.1936174 -1.0371888 -0.06579255 -0.3420546 -0.006401741 0.21296677
2.5570107 0.34141436 -0.06193038 -1.2514448 0.006458932 -0.1562282 0.44848165 -0.04044489
2.073296 0.26281255 0.2660121 -1.1143552 -0.037894376 0.08056949 -0.05286444 -0.01140246
2.8448298 -0.5954978 0.15289743 -0.51512355 -0.2113253 -0.26412424 -0.27787223 -0.21724372
-2.3547995 -0.4098341 -0.28465295 0.6742751 0.054671098 -0.05191172 0.3544075 -0.28823477
-2.0086014 0.014432344 0.19262101 1.0037674 -0.22969893 -0.18891504 0.28202698 -0.21599258
2.8267968 0.28741246 0.2094783 -0.02537116 -0.15073776 0.06921149 -0.14459385 0.10618485
-0.6969674 -0.6424527 -0.22733954 2.0453434 0.061571304 0.57308364 0.21066771 0.013578153
-2.725872 0.19339481 -0.16876034 -0.01086572 -0.2046754 -0.14119141 0.10855311 -0.1074999
-1.7869321 -0.50972587 -0.4315028 -1.4016355 -0.07913729 -0.82254845 -0.029010942 -0.21064326
-3.5982296 -0.8792385 -0.0008508024 -1.7009367 0.056958225 0.379378 -0.044498928 0.001704413
2.310566 0.40783697 0.00043920186 -1.4768538 0.0051239836 -0.061964758 -0.43300092 -0.013856895
-2.0817316 -0.6715823 0.030800804 0.070002444 -0.21118811 0.26459667 -0.03622089 0.13554507
-2.921545 0.0005465916 -0.19782098 2.452219 0.0074391593 -0.116124585 0.03388047 -0.01299758
-1.7214615 0.12165396 0.26879454 1.2169324 -0.07172823 -0.5383693 -0.19097625 0.066088535
-2.623934 0.1936536 -0.39223868 2.3441007 -0.0101528205 0.4065486 -0.07382423 -0.019143451
-0.844226 0.07352663 0.06560397 1.5070071 -0.27607498 0.2067377 0.17669947 -0.16887829
-3.0015435 -0.7079505 0.3297533 0.31661585 0.063606724 -0.025075888 0.4811416 -0.052389298
2.3368638 -0.13510536 -0.33949548 -0.81608504 -0.18985315 0.4547495 0.05768548 0.05736653
4.711501 0.21829398 0.27643374 -0.27371886 -0.013174977 0.008872184 0.0061847214 -0.007611906
2.6481752 0.096585095 -0.3754781 0.4814761 0.21898772 -0.41209975 -0.4502626 0.18425544
1.9963074 0.1676889 0.20260325 -2.8231606 -0.009885195 -0.019308796 -0.014790611 -0.00016641871
-1.0760378 0.28644684 -0.020095527 0.5657539 0.30563384 0.25758928 0.09946879 -0.119537294
-2.9799123 -0.32606107 0.20052785 1.3331841 -0.044837736 -0.7002876 0.0447243 -0.10534055
-1.917132 -0.47337362 0.19637692 0.48314917 -0.25865763 0.17310967 0.08848704 0.105975725
2.962714 0.21366766 -0.11551831 -0.6303164 -0.009391558 -1.1463871 -0.016070686 -0.0138705
-2.679405 -0.20381229 -0.15457314 0.7311768 0.24664171 -0.5505794 0.10102532 0.26165488

dim_up.bias f4 [64]
00000000: 89fc d13c 010b babe 7904 62be a132 8cbe
00000010: 29a9 55bc 07a2 4fbe 4d42 13be 6897 a23e
00000020: 0bd5 3d3e c3b1 12be b396 7ebd 4cfe 143e
00000030: d21b f2be 39fc 36bd 1fcc 21be 754d d8be
00000040: 7a8f 3bbe 1858 853d c388 d4be 25bb b2be
00000050: d737 46be 17a0 4e3d 99a7 8cbc 0184 adbe
00000060: b2e3 68be 5581 29bc a116 86bd cb7f 213e
00000070: ce83 893d 7ea7 55be 42ae 5dbd cead debe
00000080: a038 01be 9d87 08be f72a c2bc eca7 3ebe
00000090: 6d64 0fbe c27b 2d3d 2658 94bd cc40 e33d
000000a0: d255 a9bc 0fe4 ebbe 4d9f fbbb 7753 b3bd
000000b0: b040 e4bc a86c c4be 886b 13bc 1524 5bbe
000000c0: 1fe9 7dbd 46ca 81bd 1846 543c 1023 003e
000000d0: 55c2 5d3e 93ab 81be f1d4 e7bb 0796 96bd
000000e0: cdf6 b13a 653f dabe f5bd 9c3d 7a3d 27bf
000000f0: 67ef 18be cd4c 7abe 8bde 9aba 4791 f9be
0.025633113 -0.3633652 -0.22072019 -0.27382377 -0.013040819 -0.20276652 -0.1438076 0.3175614
0.185383 -0.14325623 -0.062155437 0.14550132 -0.4728685 -0.044674132 -0.15800522 -0.42246595
-0.1831645 0.06510943 -0.4151059 -0.34908405 -0.19357239 0.050445642 -0.01716976 -0.33889773
-0.22743109 -0.010345777 -0.06547285 0.15771405 0.06714593 -0.20864674 -0.054121263 -0.43491977
-0.12619257 -0.13332982 -0.023702128 -0.18618745 -0.14003153 0.042354353 -0.072433755 0.110963434
-0.020670805 -0.46072432 -0.0076789022 -0.08756154 -0.027862877 -0.38364148 -0.008997805 -0.21400483
-0.0619899 -0.06337409 0.012956165 0.12513375 0.21656163 -0.25326213 -0.007074945 -0.07352834
0.0013577581 -0.4262649 0.07653419 -0.6532818 -0.14935075 -0.2444336 -0.001181559 -0.4874365

attention.w_q.weight f4 [64, 64]
00000000: 5496 053d a485 fcbd c080 f03c 2fd1 14bc
00000010: d543 093e 8731 bdbd 005c 813d aa8d 3e3e
00000020: 3bd5 b1bd c345 a23d d370 863d 4628 9d3d
00000030: be41 5d3d ac37 89bd 711c f43c 09e4 333d
00000040: 93c6 96bd 23b6 5b3d 6089 a03d 7f8e af3c
00000050: 0be9 403d 8809 83bd 7114 403c 34a8 ff3c
00000060: 6de1 85bd 8fcc b93d 18f9 f9be 16a9 aa3b
00000070: 26f8 c2bc 4b1c 00be c7e3 0abd 7d7f d1bd
00000080: 14cb 2abd cc4a 043e 1fbb ec3d a243 b7bd
00000090: cc82 e83d b794 ac3d 4073 a83e 4046 85bd
000000a0: a59e bc3d 6625 023e 5e64 273f a223 c03c
000000b0: f190 8cbd 7d1e 0dbe 385f 41be e4bd 3f3d
000000c0: febc 88bc 9f40 cabc 995e 223e 31d1 243d
000000d0: 9993 f63c 814d 51bd be4f 45bd e6d1 dd3d
000000e0: 2461 fabd 1241 6cbd c1f9 0c3d d700 dc3d
000000f0: b51b e3be 176d 2b3d 1a00 61be a214 64bc
00000100: 7304 53bc 02ea 57bd aa8c 2abd f8eb c1bd
00000110: 9093 e0bc a777 4bbe 61ab e5bd 2fef 1cbe
00000120: c7ac 97bd 9b4a ed3c 6572 623d 6ece 113d
00000130: 62a7 d03d 4328 88bd 353d 2cbd 51b8 1fbe
00000140: e0a7 fdbd bcc5 3fbd 076e 713e 2a45 863d
00000150: bdff 4b3c bc9d 853d dede d33c 302d dbbc
00000160: 92d5 bc3d f35f 41bc b5fd 38bf 1bb8 4fbd
00000170: 5f5c 453d bccf e3bd 31df 073d 6bdb b13d
00000180: efe4 88bd 5239 b03d 2ae3 90bd dd87 f13c
00000190: 2466 30bb 43bf dcbd 5fc3 cf3e 1060 58bd
000001a0: 3398 6e3e e9af cebd 2961 293f e48b 80bd
000001b0: 353f 88ba 3a95 08be e2cf b3bd 0538 873c
000001c0: 3089 34be 922d 903d 6c5c 7f3e f2b4 bc3c
000001d0: 4963 6fbd 8a34 40bc fa27 57bd 039c 30bc
000001e0: 241e d8be fc57 85bd 172b d63d 27f1 a23d
000001f0: d134 a5be 3ebc 19bd 23b5 d4be f39a c03d
00000200: e401 f03d 2c2c babb f5f7 743d 2cf7 cb3c
00000210: 085c 33be 4b17 b1bc 3105 07bd 55a4 03be
00000220: 07cf 283d afa4 93bc 4927 69bd 8610 d13c
00000230: 3f1e 36bd b4f5 3bbd 2c27 6f3d 59f6 a8bd
00000240: b07f 81bc b3f1 883b 5612 5f3e 325b 9fbc
00000250: ae5f 313e aa57 633c 529e 153e 273d 5f3d
00000260: 5b6b d63d cf63 8dbd 707c c7be e435 113d
00000270: 6850 2b3d 7c09 3f3d c7e2 a43d e1d7 d13d
00000280: 4259 19bd 0ba7 aa3d b754 cc3d 6023 783d
00000290: 6729 12bd e233 d63d 3147 2b3e 4aab 633c
000002a0: c1b7 a13c 2b25 333d d10b 8d3e 5419 233e
000002b0: 5c20 e33b d04d d93d 84df ddbd 08db 853d
000002c0: 75b1 34be 5b86 bfbc 0f0a 193e c98e e23d
000002d0: b80c 1dbd 9a92 5a3d 01e8 6abc 5298 18bd
000002e0: 78fb 04be 25b5 81bd 142e 4abd 2a3f 6a3c
000002f0: 595a 8cbe f138 793d 177f 0cbe 47eb c93c
00000300: 21ed c63b a474 99bc 8e3e 89bb cee7 d73d
00000310: 6aeb 79bd d642 573e 6a0c 49bd 0db7 8abd
00000320: ba2c 88bc 7416 f1bd f340 ee3b 18e0 5abd
00000330: ee8e 0dbc 55a3 8c3d cd33 e63d 9084 2a3d
00000340: 61de 95bd e9fa 16bd a8f4 353e 09b5 b13d
00000350: cc3e 063e 59e8 733c aa53 a9bd 259c 37bc
00000360: 2e6e ecbd aea4 95bd f170 b2be 07ac 77bd
00000370: 0bce 283e 8e69 2c3d 829e a0bd b300 023d
00000380: 1617 ccbd a605 d6bd 91f7 5abd 9284 57bd
00000390: d2cd 743d c79d e83c 55d7 c23e a773 5e3d
000003a0: c9e9 833e a99d d43c 6565 163f 1b31 64bc
000003b0: 21b5 a3bd 25dd 133d 985e ff38 8bac 5bbd
000003c0: dd37 a4bc 1f75 933d 7ad7 e3bd 6bf3 cdbc
000003d0: f6d6 2bbe 43dd 0ebe 53e5 f63d 0247 c5bd
000003e0: 7bcd bbbe d50f 0fbd a9d3 8a3d 9ae7 6abd
000003f0: 7a20 5bbd e92f 8dbd a744 3cbf 1b79 01be
0.032614067 -0.123301774 0.029358268 -0.009083076 0.13404782 -0.09237962 0.06316376 0.18608728
-0.086832486 0.07923462 0.06564488 0.07673697 0.054017775 -0.06700072 0.029798718 0.043918643
-0.07362094 0.053640496 0.07838702 0.021430252 0.047097247 -0.06398302 0.011723624 0.031208135
-0.06537137 0.090722196 -0.48822856 0.005208145 -0.023799967 -0.12510793 -0.03390863 -0.102293946
-0.041697577 0.12919158 0.11559128 -0.08948447 0.113530725 0.084268026 0.3290043 -0.0650754
0.092099465 0.12709579 0.65387523 0.023454491 -0.06863583 -0.13781162 -0.1888398 0.046811953
-0.016691681 -0.024689017 0.15856399 0.040238563 0.030099677 -0.051099304 -0.04817175 0.108310506
-0.12225559 -0.057679243 0.03441787 0.10742348 -0.44357076 0.041852083 -0.21972695 -0.013920935
-0.012879479 -0.0527134 -0.041638054 -0.094688356 -0.027414113 -0.19869862 -0.112143286 -0.15325616
-0.074060015 0.028966239 0.055284876 0.035597257 0.10188176 -0.06648304 -0.04205056 -0.15597655
-0.12385535 -0.046819434 0.23577128 0.06556161 0.0124511095 0.06524226 0.025863107 -0.026754946
0.09220423 -0.011802661 -0.72262126 -0.050712686 0.048183795 -0.111236066 0.033171836 0.08684429
-0.066842906 0.08604683 -0.07074578 0.02948373 -0.002691635 -0.10778668 0.40578744 -0.052825987
0.23300247 -0.10092146 0.6616388 -0.06276682 -0.0010394814 -0.13338175 -0.08779885 0.016506204
-0.17630458 0.07039942 0.249376 0.0230355 -0.058444295 -0.011731276 -0.05252836 -0.010779384
-0.42210495 -0.06510922 0.104574375 0.079561524 -0.32266858 -0.037533037 -0.41544446 0.09404554
0.117191106 -0.005681535 0.059806783 0.024898134 -0.17515576 -0.021617552 -0.032963935 -0.12855656
0.04121306 -0.018022863 -0.05692223 0.025520574 -0.04446244 -0.045888618 0.058386967 -0.08250112
-0.015807956 0.0041792034 0.21784338 -0.019452665 0.17321655 0.013875881 0.14611176 0.05450168
0.10469695 -0.069038026 -0.38962126 0.035451785 0.04182473 0.046639904 0.08051067 0.10246254
-0.03743864 0.08332642 0.099770956 0.06058061 -0.035684016 0.104591146 0.16726376 0.013895819
0.019740941 0.043736618 0.27548078 0.1592763 0.006931348 0.10610545 -0.10833648 0.065359175
-0.1764582 -0.023379495 0.14945243 0.1106239 -0.038342208 0.053362466 -0.014337541 -0.03725464
-0.12986553 -0.06333379 -0.04936035 0.014297286 -0.2741268 0.06084532 -0.13720356 0.024648322
0.0060707484 -0.018732376 -0.0041883653 0.1054226 -0.061015524 0.2102159 -0.049084105 -0.067731954
-0.01662289 -0.11771861 0.007270926 -0.05343637 -0.008640034 0.068670906 0.11240349 0.041630328
-0.07317806 -0.03686038 0.1776911 0.08677108 0.13109893 0.014886939 -0.08267911 -0.011206661
-0.115444526 -0.07306801 -0.34851792 -0.060466792 0.16484849 0.042092852 -0.07842733 0.031738948
-0.09965341 -0.10450296 -0.053458754 -0.052616663 0.059766598 0.028395547 0.3805491 0.054309513
0.257643 0.025954084 0.58748466 -0.013927723 -0.07993532 0.03609957 0.00012176967 -0.053631347
-0.020046169 0.072000735 -0.11125083 -0.025140485 -0.1678122 -0.13951592 0.12055459 -0.09632684
-0.36680207 -0.034927208 0.06778652 -0.05734978 -0.05349777 -0.06893904 -0.73542255 -0.12643854

attention.w_q.bias f4 [64]
00000000: 3eaa e43d 570e 9fbd 0288 3abd 0749 073c
00000010: a76b 23be cebc 4a3c 0a1d 1d3c fcc9 bd3c
00000020: 935d efbd 87dd 1dbd 010d eebb 602e dd3d
00000030: ae6d aabd 1169 613e 6a50 fd3b b0b7 0a3e
00000040: 59f9 b93d 6f7e b63d 3d48 213d a564 fbbc
00000050: 4fd5 c83c 986b e93c 0a0e 59bd f852 0ebd
00000060: a065 0ebe dcd2 9cbe 03b2 0dbe 1990 3abe
00000070: 3735 9ebd 2a1d e63e f882 033e 3d1b 1cbe
00000080: 42c6 07b9 b4fe 353e ab98 5dbe f617 3bbd
00000090: e256 143d 2d5a 8fbd 5bd3 78be dfdd 053d
000000a0: d210 44bd 6901 e3bd 6743 95bd 2cc7 b1bc
000000b0: d766 053e 2ac2 a1bc ae12 ca3c a420 943d
000000c0: afd3 1fbc eb66 a13d b4fb 5cbe ce35 963d
000000d0: eb3f a1bd 429a 43bc 477c 6a3d 5efd a7bd
000000e0: 0738 a1bd fd15 273d d33c f23d 6418 893d
000000f0: d567 aabd bfca 9fbc 75ba 42bd 341b 113d
0.111652836 -0.07766407 -0.045539863 0.008257157 -0.15959035 0.012374116 0.009589443 0.023167603
-0.1168777 -0.038541343 -0.007264734 0.10799861 -0.08321701 0.22012736 0.0077305334 0.13546634
0.090807624 0.08910834 0.039375532 -0.03068764 0.024515776 0.028493688 -0.052991904 -0.034747094
-0.13905954 -0.30629623 -0.13837437 -0.18219031 -0.07724994 0.44944125 0.1284293 -0.15244766
-0.0001294846 0.17772943 -0.2164027 -0.045677148 0.03621567 -0.069996215 -0.24299376 0.032682296
-0.047867604 -0.11084253 -0.072882466 -0.021701418 0.13027512 -0.019745905 0.02466711 0.07232788
-0.009755059 0.07880958 -0.21580392 0.07334481 -0.078735195 -0.011938633 0.057247426 -0.08202623
-0.078720145 0.040792454 0.118280075 0.06694105 -0.08320586 -0.019505857 -0.0475411 0.035426334

attention.w_k.weight f4 [64, 64]
00000000: 8eca ba3d 4cdc 83bd f40d 6abc ef07 1abe
00000010: 7c48 173c 1183 21be fc33 d93d 64af 55bc
00000020: 21ca 2fbd b068 2c3e e15d b73c d86d 883d
00000030: 5d1f 823d 6321 fcbd 0d15 25bd 8004 6f3d
00000040: 82c6 0ebe 6e72 7a3d b613 f93d c310 23be
00000050: 5d7b 263e b3d3 36bc 329a f3bd 3997 9b3d
00000060: f553 debd 53cc 9ebb 2fed 34be d5cc 04bd
00000070: 3e0c b8bd 1025 d6bc 89c0 1abe 3a79 a7bc
00000080: 0be1 603e 2ec0 9dbd aa0a 6d3d 0ea3 79ba
00000090: fa3e c73c d380 5f3d 7b29 76be 2e96 953d
000000a0: e60b e73d 4c45 46bd 1f64 1b3d a3eb 1b3d
000000b0: 2821 913b 70fa 5cbe ddd3 b2bc d3fe ca3a
000000c0: ee4e 133d ee26 c5ba 5df5 dbbd 7aeb 8cbd
000000d0: ca22 c53d 658b b0bd 147b 90bd 40ec f4bd
000000e0: 4ccb 2b3c 2bd7 48be 8431 97b9 1036 00bd
000000f0: 67ed 803b 8417 e4bd 585b 26be e7e0 d23c
00000100: 2f39 1a3e 4cbd 03be 14da 293e a26b 2fbe
00000110: 814e fbbd 6621 3ebe d4c9 83bc 7a9d 3dbe
00000120: 573f dcbd 2e30 5cbe 72f2 b43d c7e8 ad3c
00000130: 37d5 4c3e 5378 06be eb29 f83d 746f 623d
00000140: ee92 b33e 3a94 47bd 6e36 a83d 43e4 54be
00000150: 5db6 fd3d 82a6 03be 2ce6 cc3d 0e87 e73d
00000160: 137b d53d 32a9 c1bc fd5e 133e 3bb4 853b
00000170: 2caf 5ebd 5738 55bd cf63 a3bd d821 9dbd
00000180: d690 933d c575 943d 6f1a 97bd 2496 8c3c
00000190: 02fe 13bd 8458 293e 7f3a 1dbe 85ae d23b
000001a0: 7432 d6bd b0d7 ddbc 98c0 143d c5d1 a03d
000001b0: 026b 27be 7494 853d 0bdd d3bc b87b 12bd
000001c0: 0e3b 16bd 57cb 7abd 30d9 c3ba 5ab3 013d
000001d0: 2f51 b23d 92e4 14bd ffdc edbb d817 4abc
000001e0: bf16 0f3e 7999 4abc 4e5b cabc 1281 373d
000001f0: 4c62 3d3c 828b b8bb d63e d33d ab8a 393e
00000200: e3a3 1f3d 07ea a1bd b187 a03b c4da 1dbe
00000210: 169b 15bd 3728 013c 44bb bdbd aa49 8cbd
00000220: cb87 2ebb b08a 60bc f5a8 debb acc6 26bd
00000230: 561e 95bd b028 6fbd 632b 45bd 4ffd 9d3d
00000240: e493 183d 0570 833d 4182 0f3e f9ce e2bb
00000250: b768 563c 0b98 ecbc cc97 26be 2b73 f4bd
00000260: 1221 cb3b c7ad c4bd c68f 95be e8ee a03d
00000270: 929e e13d 6d50 a1bd 28b9 b83d 8773 bc3c
00000280: ba49 103e cae2 8a3c 61f2 6dbd b21b 09be
00000290: c984 a33d f71a 473d b2d6 00bd ab6a 95bc
000002a0: 762f 2cbd 02ef 1ebc 5a4b 073e 4aeb f23d
000002b0: 939f 9dbc bed0 53be 518c 413c 8d09 e83c
000002c0: 8beb f9bd 6d1a 71bc cb9e b83d d92d 4f3d
000002d0: 5385 84bc 9b3f 303d 873e ccbd 99b5 c1bd
000002e0: c32a 8d3d 3dfe cdbc efed b0bd d294 173e
000002f0: 52e6 73bd 7519 8abe 0e44 f4bc 786c 27bc
00000300: 34e1 023e 026f ed3c 7bd1 60bd 3786 a2bd
00000310: 202b 54be 8574 e9bd 0bd9 2fbe 91b3 173d
00000320: a829 11be 82d1 67be f70d 1c3d 22e0 3e3d
00000330: 72af 793e 8e23 babd c79f f6bd 2cfe 313d
00000340: 4b66 5e3b 892a f8bd a378 dd3d 358f 80bd
00000350: bbc0 003c c6e9 27be b57a 7f3e 47d1 90bd
00000360: e2b0 7b3e 57c4 8fba 26ad a73d 6012 613d
00000370: 333f 79bd e1ed 753d e841 89bd 2874 6b3d
00000380: 8ec6 293e 7c48 cbbc 4c3c 483c 4d37 1e3d
00000390: 454f 213d 6f78 a83d aacd fbbd 8ccc 3c3d
000003a0: e0b1 523e e2ac 2c3d 4c3a d0bd 3e0f 233e
000003b0: 669c 28be 897d 2bbe dbe7 093d 1768 4e3d
000003c0: 293c 013e 1f21 b2bc 8a9c 88be 7017 163d
000003d0: 1c82 a23d a277 ad3d 1a1d 03bc d604 f9bd
000003e0: abb5 dc3d 59f8 a6bd b573 b2bc 247e ba3c
000003f0: 5583 83bc 01c1 2e3e e3ec 0bbd f204 e33d
0.091206655 -0.06438503 -0.014285553 -0.15042089 0.00923359 -0.15772654 0.10605618 -0.013042305
-0.042917375 0.1683681 0.022383632 0.06661576 0.06353638 -0.123110555 -0.04030328 0.0583539
-0.13942912 0.061144285 0.12161963 -0.15924363 0.16257997 -0.011158871 -0.11894645 0.07597203
-0.10855857 -0.0048461347 -0.17668603 -0.032421906 -0.0898671 -0.02614072 -0.15112509 -0.020443548
0.21960847 -0.07702671 0.0578715 -0.0009522893 0.024322022 0.054566216 -0.24039261 0.07304035
0.11281566 -0.04840593 0.03793728 0.038066518 0.0044290014 -0.2157991 -0.02182954 0.001548732
0.035963945 -0.0015041509 -0.10740159 -0.06880851 0.09625776 -0.086203374 -0.07054725 -0.119591236
0.0104854815 -0.1961333 -0.00028837856 -0.031301558 0.0039345506 -0.11137298 -0.16245782 0.025742007
0.15060876 -0.1286518 0.16587096 -0.17130902 -0.12270833 -0.18567428 -0.01608745 -0.18517104
-0.107542686 -0.21502754 0.08835305 0.021229161 0.2000321 -0.13131838 0.1211737 0.05528207
0.35073036 -0.048725344 0.08213507 -0.207902 0.12388299 -0.12856486 0.10004839 0.113050565
0.10423865 -0.023640249 0.14391704 0.004080323 -0.054366276 -0.052055683 -0.07978021 -0.07672471
0.0720536 0.07249025 -0.07378089 0.017161436 -0.036130913 0.16537672 -0.15354346 0.0064294958
-0.10458842 -0.027080387 0.036316484 0.0785251 -0.16349414 0.06522456 -0.025862237 -0.03576252
-0.036677413 -0.061229076 -0.0014942046 0.031665184 0.08706891 -0.036350794 -0.007259011 -0.012334786
0.1397352 -0.012365692 -0.02470174 0.044800825 0.01155908 -0.005631865 0.103147194 0.18119304
0.038974654 -0.07905965 0.004898988 -0.15415484 -0.036524855 0.007883123 -0.09264234 -0.06849988
-0.0026631232 -0.013704941 -0.0067950436 -0.040716812 -0.07281177 -0.058388412 -0.04813708 0.077143304
0.037250414 0.064178504 0.14014532 -0.0069216457 0.013086489 -0.028881093 -0.16268843 -0.11936029
0.0061990106 -0.09603458 -0.29211253 0.07858068 0.11016573 -0.07876668 0.09019691 0.023004306
0.14090624 0.016953845 -0.05809248 -0.13389471 0.07984311 0.0486097 -0.03145475 -0.01823934
-0.04203745 -0.009700539 0.13212338 0.11861284 -0.01924113 -0.20685098 0.011813239 0.028324867
-0.122031294 -0.014715773 0.09014662 0.050580833 -0.016176855 0.04302941 -0.09972864 -0.09458465
0.06892922 -0.025145644 -0.08639132 0.14802864 -0.059545822 -0.26972547 -0.029817607 -0.010218732
0.1278122 0.028983597 -0.054887276 -0.07935756 -0.20719576 -0.113991775 -0.17172639 0.037036482
-0.14176047 -0.22638515 0.038099255 0.04660047 0.24383333 -0.09088813 -0.12042194 0.043455288
0.0033935483 -0.12117488 0.10814025 -0.062773146 0.0078584505 -0.16397771 0.24949153 -0.070711665
0.24579194 -0.0010968548 0.08187322 0.054949164 -0.060851287 0.060041312 -0.06702024 0.057483822
0.16579649 -0.024814837 0.012221407 0.038626958 0.039382238 0.08226096 -0.12295087 0.04609351
0.20575666 0.04215706 -0.10167369 0.15923783 -0.16465911 -0.16747107 0.03366838 0.050392237
0.12620606 -0.021744309 -0.2668193 0.036643445 0.07934973 0.08470084 -0.008002544 -0.121591255
0.10776838 -0.08152837 -0.021783689 0.022765227 -0.016053835 0.17065813 -0.03416146 0.110849276

attention.w_k.bias f4 [64]
00000000: 585f 093c 61e0 efbd 1e16 1dbd 8d92 c63d
00000010: 978c 3c3d eca4 6bbd 3780 41bb b7df 503d
00000020: dfb6 91ba 4d5a 54bd 7533 c73c 500c ebbb
00000030: 24b8 fc3d 0550 6b3d 549e 27bd 5a9a 99bd
00000040: 5ab1 10bd 2cce 8c3d f9a6 db3d 8e60 143d
00000050: 56b6 a33d 02fd f43d 3e56 b73b 0424 16bd
00000060: af5c 273d ab76 a13d 7453 d2bd b187 043d
00000070: ac8a 453d cedf acbc 23f4 f5bd a762 f7bd
00000080: 0904 ee3b 591c 03bc 9ca3 d83d a740 f6bd
00000090: 1ca3 d9bc a822 09bd f62f 82bd 0705 bfbb
000000a0: c4df d3bd 2dba 78bd 1d90 e43d 33b2 56bd
000000b0: ac0e 123d 01c4 e53d 2ca7 033c 8a42 2bbd
000000c0: 6204 7dbd 8b95 a23d b330 3d3c 0f0c 82bd
000000d0: b78a ba3c e7f8 31bc 0189 e93d c1e4 2cbd
000000e0: 30cd 043d deea 3dbd 2cc7 bd3b d031 f3bd
000000f0: f819 b93d 3f70 8c3c 20bf 8f3d df1f bebd
0.008384548 -0.11712719 -0.03835117 0.09695921 0.046032514 -0.05753033 -0.0029525885 0.0509946
-0.0011117122 -0.05184393 0.024316529 -0.0071730986 0.123398095 0.05744936 -0.040922478 -0.07500143
-0.035325386 0.06875262 0.10725207 0.036224894 0.07993762 0.1196232 0.0055949977 -0.03665544
0.040859874 0.07883962 -0.10269824 0.032355968 0.04822795 -0.021102812 -0.12009456 -0.12079363
0.0072636646 -0.008002364 0.10578081 -0.1202405 -0.026567034 -0.033480316 -0.06356804 -0.0058294567
-0.10345414 -0.060724426 0.111603 -0.052416038 0.035658523 0.112190254 0.008035462 -0.041811503
-0.061771758 0.07938679 0.011547255 -0.06349956 0.022771223 -0.010862566 0.114030845 -0.042210344
0.032422245 -0.046366565 0.0057915654 -0.11874735 0.09038156 0.017143367 0.07018876 -0.09283423

attention.w_v.weight f4 [64, 64]
00000000: c0ae 923d cf82 47bd 983e 09bb bde8 2e3c
00000010: 2ab5 0abe b703 2e3d 56d0 58bd 46bc 1d3c
00000020: 06a1 b93d 7ef9 3fbe 1d46 8b3d 1a2d 88bd
00000030: 851d ba3d 2c6e 363d dd1b 213d 8cce 98bd
00000040: 1599 843d df16 aa3d 8397 143d 1282 95bd
00000050: f79d 0ebd 1180 aebc 3d6e af3e 4ec7 bb3c
00000060: 6aca 0f3c e18e 613c 6fb4 95bc 3d19 76bb
00000070: 1faa a93d ae16 003e feea 07be 6144 0e3d
00000080: 2d51 27bd 2893 453c db9d 52bd 6c1c a23d
00000090: 1d2a 96bd fa4b ebbd a773 c53c 94ee 07bd
000000a0: e722 eabc 29f6 5cbd 659c 85bd 6b54 c03d
000000b0: b84b fc3d ac43 27bd 3722 dabb 7460 63bd
000000c0: 370b 083d fac3 bc3d 098e 42be e8f4 e0bd
000000d0: 627d 22bb f1e0 4d3d e302 bfbd 2558 08be
000000e0: 1fc7 013e 7547 f3bd f865 7dbd ec22 603d
000000f0: 1782 29bd cd40 ddbc eaed 35be d866 e53b
00000100: b340 c4bd 1bf3 a4bb 4fb7 a83d 1022 f1bd
00000110: 5f77 ac3c 5d5c a4bd 4071 bdbd 81ab aebd
00000120: b587 b63c b240 1abe 91cb 663d 17cc 53bc
00000130: adfe 9f3b 36eb b63c c9b8 d3bd cf88 c63d
00000140: 60ee 9b3d 8f6e 9b3d 39a7 233d 9376 b73c
00000150: 702d 96bd b1e1 833d 6f60 97bc c904 89bd
00000160: f77c d83d 8057 02be 6239 d93d a1f1 97bc
00000170: 12be df3c 7b37 183e fb4b ae3d 30e1 67bd
00000180: ff3a 403d f0d9 3fbd 3eaa ca3d 5ec7 a33d
00000190: 65fc fcbd b9ed 0dbe a273 5d3d 5579 853d
000001a0: 6f60 02bf 854c c2bc dea7 a0bd be50 833d
000001b0: 90f3 923c db43 ecba 67f6 73be 6898 67bd
000001c0: b05e 533c 3cd9 44bc 2f91 9abd 07f3 c73d
000001d0: 118d 7039 b8b5 83bd 454e c73d 8c23 5bbd
000001e0: c316 073e 8391 8e3d 8975 5b3c 7a71 7a39
000001f0: 4b9f f9bd acd7 c5bd 533d 903e 08d2 bb3d
00000200: e107 1ebb 7482 a0bd f431 813c ba34 0d3e
00000210: 1f08 183e 1e58 0c3e 167b 4d3c 1d33 433e
00000220: 537e 5f3d 2061 9c3c 0756 8bbd 1b59 0a3e
00000230: 97d8 89bd d0ea 3f3d 921d ca3d c704 d6bd
00000240: 322f a93d f41c f6bc 51fd 13be 413d a73d
00000250: a1f5 c3bc 20ad 953c db2f 39bc e44e 7f3c
00000260: c3ff b2bc e146 1c3d 9221 683e 312f 1dbc
00000270: f272 7abd fe73 5cbd 9a27 86bc 6346 8ebd
00000280: b685 febc ad1d 383d 903c 07be 4dde 6d3c
00000290: 9725 5cbe e2cd 88bd 1907 d6bd 8259 36bd
000002a0: 7c17 39be 1971 80bd 4d01 84be 119e e5bd
000002b0: e3da dbba 61f5 0cbd 1413 c4be 608d d4bc
000002c0: 0dcc 1d3b cc80 ca3d 3fa9 6f3c 0a4f c0bc
000002d0: ae3d 08be c188 8dbd b1d7 15bc 6a36 be3d
000002e0: ced4 043e 3d7f 8d3b 4abf c73d 6479 84bd
000002f0: 862c 3a3e 2687 6dbd 6255 ce3e 394c bebc
00000300: 1e48 9a3c 64ed babb bf5c d2bd e5ef 993c
00000310: ed04 8bbd 704f 36bd 2408 88bc 61ed e5bd
00000320: 0d76 5cbd 2478 84bd 2961 bfbd d61d 3abd
00000330: 63a9 f2bc 5361 bc3d b9da 5e3d 142f bbbd
00000340: 4400 543e fd2f d4bd 9fd0 8a3d 03c8 2a3c
00000350: de4a 86bd e8c7 05bd 48d9 cfbd d451 e9bd
00000360: 5c5b 2c3e 4203 c73c b595 143e 89ea 6c3d
00000370: 7d86 c43d 6596 42bd 519b 923d 3791 ad3c
00000380: 1323 af3d 79f1 14bd 2b54 d9bd 2435 5dbc
00000390: 9684 8f3d 9afc 963d 54a7 d03c b75e 803c
000003a0: 447c febe 7fc0 3abd 7af0 82be 89c8 b33d
000003b0: 9bdf 5ebd 455b d13d 1f27 93be 29e2 a73c
000003c0: fdb9 af3d 68a0 50bd 514b 253d b9ac acbd
000003d0: 28c9 2cbd 9596 cdbd a44a 803d dd56 b03d
000003e0: 3f46 ab3e 049e d2bd 2427 ae3d b383 c83c
000003f0: 0a52 e5bc f8f9 fcbd 2f3d 013f c1df 70bd
0.07162237 -0.048708733 -0.002094185 0.010675606 -0.13545671 0.04248401 -0.05293306 0.009627407
0.09063916 -0.18747517 0.068004824 -0.066492274 0.09087662 0.04453866 0.039333213 -0.07461271
0.064745106 0.083051436 0.036277305 -0.073001996 -0.034818616 -0.021301301 0.34263793 0.022922184
0.008776287 0.013766975 -0.018274514 -0.0037551664 0.08284401 0.12508652 -0.13273236 0.03473318
-0.0408489 0.012059011 -0.051420074 0.07915577 -0.07332251 -0.11489101 0.024102999 -0.03318651
-0.028581096 -0.053945694 -0.065239705 0.093911014 0.1231913 -0.04083602 -0.0066569108 -0.055511907
0.03321382 0.09217067 -0.18999495 -0.10984212 -0.0024793972 0.05026335 -0.093267225 -0.13314874
0.12673615 -0.11878864 -0.061864823 0.054720804 -0.04138383 -0.027008438 -0.17766538 0.0070007853
-0.09582653 -0.0050338632 0.08238088 -0.11774075 0.021053014 -0.080254294 -0.09250116 -0.085288055
0.022281507 -0.15063742 0.05634648 -0.012927077 0.0048826546 0.022328954 -0.10337979 0.09694063
0.07613826 0.07589447 0.039954398 0.022395408 -0.07332885 0.064395316 -0.0184786 -0.06690366
0.1057071 -0.12728691 0.10606648 -0.018547835 0.027312312 0.14864914 0.08510586 -0.05661124
0.046931263 -0.0468387 0.09895752 0.07997011 -0.12352828 -0.13860215 0.054065354 0.06517283
-0.50928396 -0.023718128 -0.07844518 0.06411885 0.017938405 -0.0018025594 -0.23824464 -0.05654183
0.012900993 -0.012014683 -0.07547223 0.09763151 0.00022940735 -0.064311445 0.097317256 -0.053500697
0.13192277 0.06961348 0.013394722 0.00023884131 -0.12188586 -0.09660277 0.28171787 0.0917092
-0.0024113583 -0.07837382 0.01577089 0.13789645 0.14846848 0.13705489 0.012541553 0.19062467
0.05456383 0.019089282 -0.06803518 0.13510554 -0.06730764 0.046854794 0.09868921 -0.1045013
0.08260955 -0.030043103 -0.14452101 0.0816598 -0.023920836 0.018271029 -0.011302914 0.015582774
-0.021850472 0.038153533 0.22669056 -0.009593771 -0.061144777 -0.053821556 -0.016376305 -0.06947019
-0.031069618 0.044950176 -0.13206697 0.014518333 -0.21498714 -0.06679894 -0.104505725 -0.044518955
-0.18075365 -0.06271572 -0.25782242 -0.112117894 -0.0016773607 -0.0344137 -0.38295805 -0.02594632
0.0024077923 0.09887847 0.014627754 -0.023475189 -0.13304779 -0.06910849 -0.009145663 0.092877224
0.12971804 0.0043181465 0.09753282 -0.06468466 0.18181047 -0.057990216 0.40299517 -0.023229705
0.018833216 -0.0057045687 -0.10271596 0.018791148 -0.06788049 -0.04450935 -0.016605444 -0.11226917
-0.05382352 -0.064682275 -0.09344704 -0.04543861 -0.029621786 0.091982506 0.05440781 -0.09139839
0.20703226 -0.103607155 0.067780726 0.010423663 -0.065572485 -0.03266135 -0.10148865 -0.113925606
0.16831726 0.024293546 0.14510234 0.057840858 0.09595964 -0.04750671 0.071585305 0.021187408
0.08551612 -0.0363631 -0.10611757 -0.013501439 0.07007711 0.07372399 0.025470413 0.015670164
-0.49704182 -0.045593735 -0.25574094 0.087784834 -0.054412466 0.102224864 -0.28740785 0.020493584
0.08580396 -0.050934225 0.04035503 -0.08431382 -0.042184025 -0.10038487 0.062642366 0.08610318
0.3345203 -0.10284045 0.08503559 0.024476862 -0.02799322 -0.12352365 0.50483984 -0.05880714

attention.w_v.bias f4 [64]
00000000: ab47 b63d b1d6 2dbd 4dbb 933d 0207 943d
00000010: 6ce8 9cbd b960 9f3d 5aa3 eb3c 9104 db3d
00000020: f932 043e 4465 01bd fdf9 873c 9476 cf3d
00000030: a71d 00bd 6816 97bd 497f 8bbd 288b 033e
00000040: 866a a0bc 8f11 f5bd 64cc 74bd b17f 0fbe
00000050: 7ff6 253d d988 283d 4ef7 023e 87b2 00bd
00000060: 6eb1 22bb 1002 e23d 95e0 273b e1f4 c43d
00000070: 7f0b 8f3c ec82 e4bb 568f 08be 4e43 4f3d
00000080: deee d2bd 2752 65bd 4d8c 66bd 1e47 0fbd
00000090: 46b9 18bd e8c3 413d 9e25 523d ba4b 633d
000000a0: e9b2 15bd 5e53 b3bc 0f94 04be 9069 193d
000000b0: f3e7 ccbc 6a54 bdbc e691 323c a896 d2bd
000000c0: 1448 b2bc dfb0 87bd a2a7 c5bd 9506 7cbd
000000d0: 5029 723d 8964 4a3d 0244 45bd d4d5 223d
000000e0: f4d6 fe3c 1fa8 253e f13f dcbd 8dac d2bd
000000f0: 90ad c23d 394c 063e 5b6f 87bd cc08 f5bd
0.08900388 -0.042441074 0.07213459 0.07227899 -0.076615185 0.0778212 0.028764416 0.1069423
0.1291007 -0.031590715 0.016598696 0.10130039 -0.03127828 -0.073773205 -0.06811387 0.12846053
-0.019582044 -0.1196624 -0.059765235 -0.14013554 0.04051828 0.041146133 0.12789652 -0.031420257
-0.0024824995 0.1103555 0.002561604 0.096170194 0.017461536 -0.006973615 -0.13335928 0.050601296
-0.102994666 -0.05598655 -0.056286145 -0.034979932 -0.037286066 0.04730597 0.051305406 0.05549214
-0.036547575 -0.021890339 -0.12947105 0.037454188 -0.025012946 -0.02311154 0.010899043 -0.10282642
-0.021762885 -0.06625532 -0.09651114 -0.061529715 0.05912143 0.049412284 -0.04816056 0.039754704
0.031108357 0.16177414 -0.10754383 -0.10286818 0.09505761 0.13115014 -0.06613036 -0.119645685

attention.w_concat.weight f4 [64, 64]
00000000: e95a e23b 23fd 62bc 7bcf 793e 13c4 bbbd
00000010: a9bd b0bd 044b 19be 5992 8abd 7c14 a3ba
00000020: 7f95 3d3d 3313 06be b9dc 28be c357 ce3c
00000030: 3093 213d 3a57 c0bc 9143 16be 8b75 52be
00000040: 90c9 46bd 545c b3ba 677f 8ebb 5c46 36be
00000050: cc83 a8bc cdd2 fabd 7cd3 c93d 2be2 90bd
00000060: 86bd abbd 70bb aebe c5d3 043e 0203 88bd
00000070: c598 f83d c4bd 943e 773d a8bc 477d bcbe
00000080: 842e 343e 68c1 a03d 50d7 6d3a 3b68 0f3e
00000090: 8062 81be b629 e43b 6e29 8e3c ab17 243e
000000a0: 6f8b f73d 310c 9f3c 2a8d c33d da49 92bd
000000b0: d0c6 0fbd d00e e03d 608f 32be a3de 72bb
000000c0: 1422 303e 07f3 4abe 78de a5be df62 69bd
000000d0: 3fe8 053d 00b5 46bb 2c52 07bd db22 f7bd
000000e0: 6974 353d 4ffd b2bd 62e6 41bd cf7c e7bd
000000f0: e8c7 09be 18e9 0e3e 4f7e 09bd 5c47 833e
00000100: 54a1 a0bd c757 5d39 b2ea 763c af85 dd3d
00000110: b4a4 503d c937 9dbc c951 d13d d870 19bd
00000120: 6860 8d3d c478 bebd a3a5 913d 746b 1c3e
00000130: 8eac e73c 6253 2abd f691 99bd af2a fcbc
00000140: cf5b abbd a8e4 e53d 671f b8bd e3c0 0e3e
00000150: 30bc 063d 615a 02bd a6f6 40bd 4f57 9bbc
00000160: ac46 dcbb ea5d 06bd 0c5f b2bd 0038 e93d
00000170: aa8e 0d3d a9ac 79bc 011c df3b 0c6b 053e
00000180: 620d b63d 1882 42bd 6a1f 2bbd 7c45 aebc
00000190: f593 b5bd 5edb cdbd 6660 4bbd 5807 1c3e
000001a0: 9b2b e4bc 5977 863d b911 4bbc f4d1 b9bd
000001b0: b07a 0dbd 9c8c c7bd 056e d7bc 906e 943b
000001c0: 4b01 263e 8cfa 88bc f911 ca3c e977 093e
000001d0: 4178 2b3d f2d7 df3d 6017 44be fead 80bd
000001e0: e7fa 383d 938d 9e3d 334f b4bd 7d33 58bb
000001f0: 6d2d edbd 50ac dcbb cf48 b6bc df1c 033c
00000200: f300 063e 441a d83b b24f 983d 5146 9f3d
00000210: 33a2 0f3e 59b3 053e d61a e1bd 033d 1ebe
00000220: 96ca 86bd 70f4 a53d 6675 f83d e2b6 c7bb
00000230: b72b bdbb 3f21 7f3d 3977 84bd dffd 20be
00000240: 4e76 f93b d8fb 01be 31e7 153e 8ff1 9f3d
00000250: cbc2 14be 32b2 553e fa57 853d 11d3 c33d
00000260: 16b9 053e b76b 7b3c 231d f0bd 62aa 99bd
00000270: bad6 ecbd dd9c 09be 3cbe 28be d792 723e
00000280: 8621 b73c 9e68 e13c 8773 e9bd 91e8 d63c
00000290: 4323 723d 1ee0 00bd 6274 d8bc 25c7 c9bd
000002a0: e755 013e 3e1f ce3d 30cd c63c e844 443d
000002b0: a911 e53d 5588 843b 819d 18bd 99a4 b53c
000002c0: c3ca b3bd a184 d83c cc01 66bc a688 933d
000002d0: fa2a 653c b6f0 843d e49d e4bc e1ee a83d
000002e0: 5724 bdbd 40d5 f5bd 0731 a3bd 429e 933c
000002f0: f56d aebd a867 cfbd 722b 833d 9acb 89bd
00000300: 0ef7 d23d f56c 423e ebf8 b1bd 89e8 4b3c
00000310: ebc4 d0bc 2c28 f6bb e1a9 9f3d 0fe7 ef3d
00000320: 8f95 78bd b0d5 5fbe 0bf3 723e f804 cfbd
00000330: 0745 113d 037b 483d a9b4 b93d fe68 09be
00000340: 87b4 823d 688d e3bc 5727 8f3b f7cb 7a3e
00000350: 5b3d 35bc 89f6 da3c 2c84 d43d 39e8 c83d
00000360: e089 a13d 828a d43e d324 fabc ff90 36bd
00000370: 8a3d febd f937 04bf e4e7 bdbd 32dc 7f3e
00000380: b1de 36be 70a8 a2bd 7675 fd3c 46b9 a4bc
00000390: a764 943d 134f ef3d de6f e4bd 09dc 23bd
000003a0: 1edb 813d da1b 883d 98e8 593c 7976 e6bc
000003b0: 16de 28bd 8bf7 a5bd c07b 393e 7065 8dbc
000003c0: 2d50 d3bd 185b 2abe 0d99 31be 10ae 25be
000003d0: be77 cf3c f6e9 603e b21f 9abd 5074 08bd
000003e0: c314 cf3c 882e 98bd e0ec a33d 2272 7e3e
000003f0: dabd f03d da75 afbc 5064 ee3d d712 553d
0.00690781 -0.013854298 0.24395554 -0.091682576 -0.08629925 -0.14970022 -0.06766195 -0.0012442018
0.04628515 -0.13093261 -0.16490449 0.025188332 0.03944701 -0.023479093 -0.14674212 -0.20552652
-0.04853207 -0.0013684132 -0.0043486836 -0.17800277 -0.020570658 -0.12247238 0.098547906 -0.07074388
-0.08385758 -0.34127378 0.12971409 -0.06641199 0.121385135 0.2905103 -0.020537121 -0.3681433
0.1759587 0.07849389 0.00090729166 0.14004605 -0.25270462 0.00696298 0.01735374 0.16024654
0.12087142 0.019414993 0.09548409 -0.07142992 -0.03510171 0.10940325 -0.17437506 -0.0037058971
0.172005 -0.1981927 -0.32396293 -0.056979056 0.03269219 -0.0030320287 -0.03303735 -0.12067195
0.04430047 -0.08739721 -0.04733885 -0.11303102 -0.13455164 0.13956106 -0.033567723 0.2564038
-0.07843271 0.00021108902 0.015070604 0.10816514 0.050938323 -0.01919164 0.102206774 -0.03746113
0.06903154 -0.09300378 0.07111671 0.15275365 0.028280523 -0.041583426 -0.07498543 -0.030782072
-0.083671205 0.11225253 -0.089903645 0.13940768 0.032894313 -0.031824473 -0.047110222 -0.01896253
-0.006722292 -0.032804407 -0.08709535 0.11387634 0.034559883 -0.015238919 0.0068087582 0.13029116
0.08889271 -0.04748735 -0.041778006 -0.021273367 -0.08866111 -0.100516066 -0.04965248 0.15237176
-0.027852824 0.065657325 -0.012394362 -0.090732485 -0.034540832 -0.09743616 -0.026297579 0.0045297816
0.1621143 -0.016721033 0.024666773 0.13424648 0.04186273 0.1092986 -0.19149542 -0.062831864
0.045161154 0.07741847 -0.088041686 -0.0032989674 -0.1158093 -0.0067344084 -0.022251515 0.008002489
0.130863 0.006594928 0.07437076 0.07777084 0.14026718 0.13056697 -0.10991447 -0.15452962
-0.06581609 0.081032634 0.12131767 -0.0060947994 -0.0057730335 0.062287565 -0.064680524 -0.15721844
0.00761298 -0.12693727 0.14638974 0.078097455 -0.14527433 0.20868757 0.06510921 0.09561742
0.13058886 0.015345505 -0.117243074 -0.07503201 -0.11564393 -0.13438745 -0.16478819 0.23688827
0.022354852 0.027515706 -0.11398988 0.026233943 0.05911566 -0.031463735 -0.026422683 -0.09852437
0.12630425 0.10064553 0.024267763 0.047917277 0.11185009 0.0040445724 -0.037259582 0.022173213
-0.08778908 0.02643043 -0.014038514 0.07203798 0.013987297 0.064912245 -0.02790732 0.082486875
-0.09235447 -0.12003565 -0.079683356 0.0180198 -0.085170664 -0.10127193 0.06404771 -0.06728287
0.10301028 0.18986876 -0.086900555 0.012445577 -0.025484523 -0.007512113 0.07796074 0.11713993
-0.060689505 -0.21858859 0.23725526 -0.101083696 0.03546622 0.048945438 0.09067661 -0.13418958
0.06382089 -0.027777389 0.0043687033 0.24491869 -0.011061992 0.026728885 0.10376772 0.09809918
0.07887626 0.41511923 -0.030535137 -0.044571873 -0.124140814 -0.5164791 -0.09272745 0.24986342
-0.17858388 -0.07942283 0.030939799 -0.020107877 0.072457604 0.11685004 -0.111541495 -0.040004764
0.063406214 0.06645937 0.013300084 -0.028132664 -0.041227423 -0.08103856 0.18113613 -0.017260283
-0.10318027 -0.16636312 -0.1734354 -0.16179681 0.025325652 0.21964249 -0.07525577 -0.03331405
0.025278455 -0.0743075 0.08004165 0.24848226 0.11754961 -0.0214185 0.11640227 0.05201992

attention.w_concat.bias f4 [64]
00000000: 5773 983d fe16 84be c382 5e3d ad59 c6bd
00000010: 2415 02be c25a febd d071 bcbd 62b6 a13d
00000020: 1771 52bd 966c 01bd 0495 163e 558d 2f3e
00000030: b3e9 e7bd eb77 993c 18a7 343e d6f8 c6bd
00000040: 5c75 a9bc 7f17 6d3e 5fc5 803d 5be7 02bd
00000050: dd9c 96bd bc5a 253e 1e81 bf3c 8924 973d
00000060: 3d8f 393b 116f dc3d ccb1 1dbc 7cc6 423e
00000070: 8d2b 3cbd ba6b a7bd 9cd1 033d f323 e2bd
00000080: 8222 2abe d153 173e c46a 5c3c 7dee 493d
00000090: 19b2 a13d 992c 4c3d 50d9 99bd c464 b13d
000000a0: 3410 e0bd 04e8 cabc 8912 95bd 8497 253e
000000b0: 74ed 003e 99bc 3d3e f3df dabd 25c0 efbb
000000c0: c340 f5bc 4a11 a93d 305d 31be 9a1c e73d
000000d0: 9dfc 023d 000b e73d aba9 c9bd 6fab 853d
000000e0: 5301 b3ba d440 0b3d 39e1 94bd 09fe ad3d
000000f0: 3e88 0c3d a891 1cbd d4df fdbc 2c62 923d
0.07443874 -0.25798792 0.054323923 -0.09685073 -0.12703377 -0.124196544 -0.092013955 0.07896115
-0.051377382 -0.031597696 0.14705282 0.17143758 -0.113238715 0.01873394 0.17641866 -0.097154304
-0.020685844 0.23153494 0.062876455 -0.03195892 -0.07354138 0.16147894 0.023376998 0.073800154
0.0028314136 0.10763372 -0.00962491 0.19021028 -0.04593997 -0.08174844 0.03218232 -0.11042013
-0.16614726 0.14778067 0.013453189 0.049299706 0.078952976 0.04984722 -0.07512152 0.08661798
-0.109405905 -0.024768837 -0.07278926 0.1617108 0.12590581 0.18528976 -0.10687246 -0.0073166066
-0.029938107 0.08255251 -0.17320704 0.11284752 0.031979192 0.11281395 -0.09846815 0.06526839
-0.0013657011 0.03399737 -0.0726952 0.08495719 0.03430962 -0.038224846 -0.030990519 0.07147631

norm1.weight f4 [64]
00000000: f1a6 583f a22f 733f bbf8 6c3f 3955 4e3f
00000010: 4f54 433f 971c 713f cbe9 813f 3262 323f
00000020: 008e 733f b964 3c3f f36e 6a3f 335e 493f
00000030: 0906 843f 8b18 5d3f 631b 713f c09d 7f3f
00000040: 1d2c 693f 9347 723f 1694 8e3f 86bc 653f
00000050: b9df 953f d675 5d3f 5758 843f d662 793f
00000060: 4ea4 8a3f 07d1 5a3f 6b17 8d3f 3177 773f
00000070: c07b 833f f779 6a3f 4cfa 823f b8e7 673f
00000080: 76ca 8d3f 1467 3e3f 2e17 863f b5a4 543f
00000090: b6b2 743f e1da 7a3f 6560 933f e48a 783f
000000a0: b18a 903f 5d8a 763f c7f5 963f 4a8b 813f
000000b0: c8b0 693f 96e2 4d3f 6f1a 8f3f fd8e 6c3f
000000c0: 2d74 8a3f 2c58 5e3f d330 873f 8e07 7a3f
000000d0: 1db6 7b3f c2c4 6e3f f926 8e3f 7242 553f
000000e0: c578 963f 3622 7c3f cbe5 883f efb0 853f
000000f0: 4f41 823f ce23 763f e584 973f c829 4f3f
0.8462973 0.94994557 0.9256703 0.8059879 0.7630052 0.9418425 1.0149473 0.69681084
0.9513855 0.7359119 0.91575545 0.7865936 1.0314342 0.86365575 0.94182414 0.9985008
0.91082937 0.94640464 1.1138942 0.8974079 1.17089 0.8650793 1.0339459 0.97416437
1.0831392 0.854752 1.1022772 0.96666247 1.027214 0.91592354 1.0232635 0.9058795
1.1077411 0.74376035 1.0475824 0.83063823 0.9558519 0.9799023 1.1513792 0.9708693
1.1292325 0.96304876 1.1793755 1.0120633 0.9128537 0.8042387 1.1179942 0.9240568
1.0816704 0.8685329 1.0561775 0.9766778 0.9832476 0.9326898 1.1105644 0.8330451
1.1755606 0.984897 1.0695127 1.0444621 1.0176181 0.96148384 1.1837431 0.8092313

norm1.bias f4 [64]
00000000: 0d06 153e ab14 e8bb 40c6 60bc 87b6 abbd
00000010: aedf e43d 28c3 2fbd 1334 5abd 0334 53be
00000020: 3116 99bd d79b 163e b661 123d fe98 84bd
00000030: aa82 083d 674a e1bc 2872 993c a154 ecbd
00000040: 642c 203d 08d9 253c c64d 0f3d 7628 f7bc
00000050: 4ccf bf3c f90c a03b 0a01 033e fd25 143c
00000060: d6af 683d b1db 18be 4ebd 80bd 1c1a 253c
00000070: 10c8 813c dd39 aabc 6da7 bb3d 4220 0abd
00000080: 72a1 b73d e41f 21bc df29 833d ebe3 74bc
00000090: a8f8 bf3d 8d11 e73c 1f52 093c 3830 20bd
000000a0: c105 72bd 31eb 0fbe a407 503d 9170 8ebd
000000b0: d471 18bd 60e5 e7bd e7d9 993d 1870 7ebd
000000c0: f8e0 8cbd e22c 1f3d 25cb 0a3e 2d75 96bc
000000d0: 42eb 843b 7611 86bc 80a7 b73d 9da3 ed3c
000000e0: 5849 71bd a402 b23c 30c7 6cbc 87b5 89bd
000000f0: 5d60 323d ef6f 663c 2356 50bc 70fd d3bc
0.1455309 -0.007082542 -0.0137191415 -0.08384424 0.11175476 -0.042910725 -0.053272318 -0.2062531
-0.07474936 0.14707886 0.035737716 -0.064744934 0.033327736 -0.027501298 0.018731192 -0.11539579
0.039104834 0.010122545 0.03498628 -0.03017066 0.023414277 0.004884359 0.12793365 0.00904226
0.056808315 -0.14927556 -0.06286107 0.010077026 0.015842468 -0.020779544 0.09162793 -0.03372217
0.0896634 -0.0098342635 0.06404471 -0.014946918 0.09373599 0.028206611 0.008381396 -0.039108485
-0.05908752 -0.14054562 0.050788537 -0.06955064 -0.03721793 -0.11323047 0.07512265 -0.06211862
-0.06878847 0.038861163 0.13554056 -0.01836642 0.004056365 -0.016365748 0.08967495 0.029008681
-0.058907837 0.021729775 -0.014451787 -0.06724077 0.04354893 0.014064773 -0.012715849 -0.025877684

trans_sample.0.weight f4 [32, 64]
00000000: c7a8 52bd 17b7 203d 7450 4dbd e2b1 b63c
00000010: f535 a43d cf47 3e3d b1de f139 0970 083d
00000020: d059 073c 9cbe 353b 976b 693c c1c6 6e3d
00000030: 7a6e 15be 0e3d 91bc 417d 87ba d7a6 f13b
00000040: b440 e43d 0805 ea3c f8d3 53bd e1e0 913c
00000050: 3d96 f03c 0a97 c53b bd10 1abd 3ec6 f9bc
00000060: f2b1 fcbd 481d 2f3d 8724 883e 53ab ca3b
00000070: bbc8 7d3d 2c56 ec3c bfab 503d 8a7e 1c3d
00000080: ee9c 46bc c380 51bd 1670 813d 3751 833c
00000090: c0e9 f5bd a9b5 32bd 9e32 1e3e bf60 35bc
000000a0: 5883 8f3d 2f00 cc3c 28ea f9bd bcad 5f3d
000000b0: 9b23 fcbc 9614 5e3d 5d5b f33d ffe7 453d
000000c0: 4f0a 3a3d 4ebc 90bc 7dd2 8ebc f532 debc
000000d0: af68 b33c a7b2 d63c e24c cd3c 6b9e 09bc
000000e0: 7e72 19be 0eeb d23c b024 1bba 3cb7 843d
000000f0: 59cc 393d 2c89 45bc eed3 ca3c c0f0 94bd
00000100: 4faa 8ebc de6c bc3d 629e 463d e92f b8ba
00000110: 2117 0b3d 0093 333e f910 4c3e 97bc 20ba
00000120: ea80 babd 070c a23d abb8 0cbe 6d65 d03b
00000130: eaaa 923d b6a4 66bc f3ea e1bd 6af3 f93b
00000140: 101d b53d 71d2 0bbe 60cb 093d 6b61 9ebd
00000150: 7f41 88bc beab 41be 8c1c 28bd e7fe d1bc
00000160: 91b3 123e 3186 79bd f45a 633d 8582 56bb
00000170: 2b15 88be 0c3d 76be 8a5b 14bd 255b 9bbc
00000180: 7d14 a93e 27cc 3fbd f78b 9238 513b 80be
00000190: 7971 6c3e 2b2f c6bc ca68 003e 23f0 c6bb
000001a0: bbb8 0f3e 1525 503c 164b 753d 7879 57bb
000001b0: d93a 09be f171 96be d753 8c3e f500 bc3c
000001c0: 8837 2d3e 16ae 21bd 4d10 523e 553e 44bd
000001d0: 58f6 f93c f116 8e3b 41c4 853c 2df4 4cbe
000001e0: bcd2 8c3c c2e6 e7bd 6344 9a3d b2c3 be3c
000001f0: d03b 533e 3e03 2cbe e947 823d 0013 713d
00000200: f9c1 c6bb ed80 0b3c 1c9d 343d 5059 b8bb
00000210: ace2 cbbd 5a72 70bd 6790 d03c 1444 20bd
00000220: 7a77 03be 0b98 cfbd a474 9e3d 2c0b 83bd
00000230: 6595 d73d 3b39 16bd ba56 87be dea0 4c3d
00000240: 8ac0 f1bd 27e5 b1bd eb39 66bc 3e77 583c
00000250: 5563 933d cdb0 b7bc ce03 54bd 9e68 2ebc
00000260: 37eb e9bd 5748 8cbc 764c 77bd 887b cdbc
00000270: d342 eebd 3b51 eabc d67c c5bd fbc8 e3bb
00000280: 6140 66bc fbd2 023d 0205 df3a 001d 4c3d
00000290: d5c3 59bd 5aee 7dbd 3a0c 4cbb 55ec 54bd
000002a0: 295e 753e a46d 3f3d b949 1b3e 34fb f8bc
000002b0: 3d19 903b bf38 233b fb30 0e3c cb5c 763d
000002c0: b8b1 5d3c 451f 193d 6f50 ddbc 9624 37bd
000002d0: 2765 2abd a006 943d 93db 0dbe 38c6 0bbe
000002e0: ac40 fc3d 624a 79be e82d 653d 18ce cb3d
000002f0: 00ce 4bbd 1a37 83bd 5600 e5bd 607b 693d
00000300: 177c 563d a787 b43c 77cf 61bc 758a 1fbd
00000310: a013 20bc 33a2 a73d c695 d33c a20a 993c
00000320: 1150 7f3c 2587 9f3c 5bd1 68bc c0ab 4e3d
00000330: 7061 c43d bd50 253c 4142 d53c 2ad2 fbbc
00000340: 988b 6d3d 1625 fb3c 65c5 36bd 85db 9a3c
00000350: f9f3 06be 50f2 6d3c 1c68 6ebd 3a0c 76bc
00000360: aacb 7e3e 97d1 193d 567f 24bc 1c54 3d3c
00000370: dfbc 683d ff66 433c 6d2b 25bd 6143 83bc
00000380: 3346 40bb c959 723c b3c4 f43d cfcd 8e3c
00000390: e110 853d 72b7 b33c c4da df3d 5be7 6d3c
000003a0: 155c 243c 7ca2 3a3d b06d a43c 884f a63c
000003b0: 5140 f0bc 0d6f 293d abf8 9bbb 02a5 1ebc
000003c0: 19cd d1bd f0ec 433c 03ee 92bd 0a49 183c
000003d0: 9fa4 ddbd c38e a03c fa93 2c3d c083 293d
000003e0: 62c8 37be 2c43 803d 1982 de3d d2da a2bd
000003f0: 949f f53d bbee d9b8 4078 40bd 1c49 95bc
-0.05143049 0.039237108 -0.050125554 0.022301618 0.08018104 0.0464552 0.0004613302 0.03330997
0.008261159 0.002773202 0.014246843 0.058295015 -0.14592925 -0.017729308 -0.0010337011 0.007374625
0.11145154 0.028566852 -0.05171582 0.017807426 0.029368514 0.006029968 -0.03761362 -0.030490037
-0.12338628 0.042752534 0.26590368 0.006184974 0.06195901 0.028849684 0.05094504 0.038206615
-0.012122376 -0.051148187 0.06320207 0.016029937 -0.12007475 -0.043630276 0.15448996 -0.011070429
0.07007474 0.024902431 -0.12202865 0.054609045 -0.030778697 0.05421885 0.118826605 0.04831695
0.045419987 -0.017667916 -0.017434353 -0.027123908 0.021900503 0.026208235 0.025061075 -0.008399586
-0.14985082 0.025746848 -0.00059182476 0.06480262 0.045360897 -0.01205663 0.02475926 -0.07272482
-0.017415194 0.09200452 0.04849089 -0.0014052364 0.033957604 0.17536545 0.1992835 -0.00061316177
-0.0910662 0.0791245 -0.1374232 0.006359747 0.071615055 -0.014077356 -0.11031141 0.007627894
0.08843434 -0.13654496 0.03364122 -0.07733425 -0.016632793 -0.1891317 -0.04104285 -0.025634242
0.14326312 -0.06091899 0.05550666 -0.0032731604 -0.2657865 -0.24046725 -0.03622011 -0.01896436
0.33023444 -0.046825554 6.987893e-05 -0.25045255 0.23090161 -0.024192413 0.12539974 -0.006071107
0.14035313 0.012704154 0.05988606 -0.0032878798 -0.13401355 -0.29383805 0.27407715 0.022949675
0.16915715 -0.039472662 0.20514031 -0.047911007 0.030512974 0.004336231 0.016328933 -0.2001502
0.01719033 -0.113233104 0.07532575 0.023286674 0.20628285 -0.16798112 0.06361372 0.05885601
-0.006065604 0.008514625 0.044095144 -0.0056258813 -0.099553436 -0.058702804 0.025459481 -0.039127424
-0.12838545 -0.10136422 0.07737091 -0.06398615 0.105265416 -0.036675673 -0.26433355 0.049958102
-0.11804302 -0.086862855 -0.014051895 0.013212023 0.071966805 -0.022423172 -0.05176144 -0.01064506
-0.11421817 -0.017124338 -0.060375653 -0.025083318 -0.116338395 -0.028603187 -0.09642951 -0.006951449
-0.014053435 0.031939488 0.0017015042 0.049832344 -0.053165276 -0.061994888 -0.0031135217 -0.051983196
0.239617 0.04673542 0.15164842 -0.03039322 0.00439754 0.002490565 0.00867867 0.060147088
0.013531141 0.037383337 -0.027015893 -0.044712625 -0.041600373 0.07227826 -0.13853292 -0.13649833
0.12317023 -0.24344781 0.055951983 0.09951419 -0.049757004 -0.06406994 -0.11181705 0.057002425
0.052364435 0.02203734 -0.013782374 -0.038950402 -0.009770304 0.08185234 0.025828253 0.018681828
0.015583054 0.019473622 -0.0142100705 0.050456762 0.09588897 0.01009005 0.026032569 -0.030739862
0.057994455 0.030657332 -0.044621844 0.018903503 -0.13179006 0.014523104 -0.058204755 -0.0150175635
0.24882379 0.037553396 -0.010040125 0.011555698 0.056820747 0.011926412 -0.040324617 -0.01602334
-0.0029338717 0.014791914 0.1195158 0.017432122 0.0649736 0.02193806 0.10930398 0.0145204915
0.01003172 0.045565113 0.020071834 0.020301595 -0.029327543 0.041365672 -0.004759868 -0.009682896
-0.102441974 0.011958346 -0.071743034 0.009294758 -0.108224146 0.019599324 0.04213331 0.041385412
-0.17947534 0.06262812 0.10864658 -0.07951893 0.11993328 -0.00010391833 -0.04698968 -0.018223338

trans_sample.0.bias f4 [32]
00000000: aca6 fbbd c3da bcbd 1d31 f3bb 6614 2abd
00000010: 940e 5f3d 8b3e 7f3c b461 8c3d e5e7 a83e
00000020: 0ef8 04be 9840 a4bd fcb8 3abd 5596 a0be
00000030: f58b fd3d 7a00 e8bd b9c8 8ebd 3b01 743d
00000040: 6e90 c3bc f84a 2dbd 9945 533d c008 79be
00000050: 5930 15be 55de a03d ec93 d9ba d255 92bd
00000060: ba58 0bbe 82c3 babe 374a 85bc d507 41be
00000070: 5c5c 21be 9ecd abbd 147c dbbc 820b 963c
-0.122876495 -0.09221413 -0.0074216262 -0.04152336 0.054457262 0.015578876 0.06854573 0.3298942
-0.1298525 -0.08020133 -0.04558657 -0.31364694 0.1238021 -0.11328216 -0.069718786 0.059571486
-0.02387258 -0.042307824 0.051580045 -0.24319744 -0.14569224 0.078549065 -0.001659987 -0.07145275
-0.13608065 -0.36477286 -0.01627074 -0.18850644 -0.15757889 -0.08388828 -0.026792563 0.018316034

norm2.weight f4 [32]
00000000: a347 7d3f 012a 973f 3867 6d3f 7c03 7b3f
00000010: 0d54 853f 14bc 913f bce5 853f 9caf a03f
00000020: 14b0 5a3f bc77 823f 0b6b 6c3f 8b2e 833f
00000030: 58a8 813f 9d4a 893f 864f 513f a575 883f
00000040: d935 843f 1012 903f 236b 8d3f 6cf8 953f
00000050: 725e 833f 665e 813f 2a85 873f 21a1 883f
00000060: ca7a 8d3f 9efa 9b3f 08db 903f 5e44 833f
00000070: f930 823f 9480 6d3f ce7f 913f b090 913f
0.98937434 1.1809694 0.92735624 0.9805219 1.0416275 1.1385522 1.0460734 1.2553592
0.85424924 1.019279 0.92350835 1.0248579 1.01295 1.0725895 0.8176197 1.0660902
1.0328933 1.1255512 1.104832 1.1716437 1.0263197 1.0106933 1.0587513 1.0674173
1.1053097 1.2185857 1.1316843 1.0255239 1.0171195 0.9277432 1.1367128 1.137228
