models/error_encoder_all_state_dict_best_-1362.85062.pth (torch, 283803 bytes, 125 tensors)

embedder.dim_up.weight f4 [64, 8]
0.1987583 0.017133659 0.126724 0.04325151 0.30433285 0.015245211 0.2778328 -0.14725278
0.11437357 -0.053274866 0.3675881 0.22925392 0.3559008 0.099274516 0.046548568 -0.088738754
-0.15158148 -0.10886207 -0.13386457 -0.16109411 -0.18259114 -0.13838257 -0.20936677 0.44444436
-0.2873103 0.019815646 0.014144081 -0.27245516 0.266011 0.19915895 0.33176962 -0.30397356
0.08014211 0.27244964 -0.20283729 -0.25652623 -0.15599753 -0.29662448 0.15774591 0.08968158
0.0025363348 0.067356385 0.30194354 -0.070505306 0.23425946 0.11487932 0.13433444 0.07093146
-0.081547335 -0.032496013 0.308876 0.1810441 -0.10548797 0.30639592 -0.025466653 0.060108602
0.040945146 0.15341365 -0.23482676 0.17933944 -0.24534662 -0.10026038 -0.058999937 -0.07894874
-0.052029993 0.09408378 0.1010055 -0.091465496 0.10282262 0.18691593 0.21898836 0.036804724
0.19733189 -0.0060540196 0.14640436 0.02355119 0.16571404 0.3484212 0.28126523 0.34031987
-0.07266463 -0.011308279 0.17687508 -0.27191365 0.24994735 -0.24547908 -0.08681467 -0.25590795
-0.19296065 -0.13158605 0.2353033 0.18465242 0.32958308 -0.032816313 -0.041131683 -0.15924707
-0.31402898 -0.22453073 0.06584461 -0.101412125 -0.18731374 0.31053036 0.20543571 0.011747023
-0.22161241 -0.2511232 0.038510043 0.2621533 -0.023412522 -0.09625755 0.2276049 0.16777186
0.279566 -0.24709645 -0.07878371 -0.1433828 -0.1904034 -0.3444273 0.12825929 0.17811026
0.16308248 0.111753516 0.065596074 0.10308312 -0.17647469 -0.31723487 -0.17209233 0.34429666
0.018451352 0.251572 0.41305467 0.12709625 0.054847464 0.31485403 0.37227255 -0.33670637
-0.0069261533 -0.3110178 0.0732581 0.10140499 -0.11956447 0.28808925 0.017888993 0.25376564
0.32614133 -0.1821057 0.10631337 -0.3000012 -0.14471832 0.26059204 -0.047358494 -0.38742557
0.2055605 0.2510166 0.14275686 -0.011230046 -0.066999204 0.27892593 -0.25004897 0.27398726
0.21432692 0.01456518 -0.21432383 -0.4168703 0.05971627 -0.31211996 -0.035714578 -0.0037884866
-0.010315252 -0.31057954 0.04616003 0.17249627 -0.33219382 -0.09572473 0.015285356 -0.046261467
0.23820052 -0.09832983 -0.18534519 -0.41564316 0.3759124 0.2727061 0.024443453 -0.33971512
0.07629903 0.036320724 0.06452897 -0.14056057 -0.30209407 -0.18874402 -0.1387945 0.03474298
-0.045228172 0.01209273 0.33935913 -0.14683487 0.16628242 -0.031773645 0.24658912 0.36321625
-0.06469209 0.17479748 -0.23533748 0.18211317 0.28755996 0.3481807 0.020227047 -0.17913781
0.29685903 -0.10615375 0.39438304 -0.045496188 0.19584166 -0.023883142 0.38552472 -0.008008765
0.04103939 -0.111992545 -0.11588956 0.20849065 0.41371122 0.38259503 0.30049923 2.2689932e-05
0.22290339 0.16031973 -0.040430658 -0.32051504 0.35443822 -0.080286205 0.01730304 -0.09530596
0.2547427 -0.034845747 0.035696056 -0.26003003 0.09538436 -0.22430535 -0.15717661 0.3794
0.17616157 -0.0012039329 -0.22569843 -0.0055076135 0.36691716 0.14327028 0.10807062 -0.18885645
0.07571344 -0.042924628 -0.2815347 -0.07965488 -0.06520589 0.047542077 -0.16176707 0.20947865
00000000: 4c87 4b3e e35b 8c3c f0c3 013e 7f28 313d
00000010: 84d1 9b3e 0dc7 793c 1a40 8e3e 6fc9 16be
00000020: b13c ea3d bf36 5abd 8234 bc3e 8ac1 6a3e
00000030: a138 b63e 7050 cb3d b6a9 3e3d aabc b5bd
00000040: 2d38 1bbe 14f3 debd cb13 09be dbf5 24be
00000050: 2cf9 3abe 29b4 0dbe 3e64 56be 368e e33e
00000060: 561a 93be 6c54 a23c 93bc 673c 3e7f 8bbe
00000070: 9832 883e 53f0 4b3e b5dd a93e 6ca2 9bbe
00000080: 8c21 a43d 857e 8b3e 94b4 4fbe 6857 83be
00000090: d1bd 1fbe 2adf 97be 2588 213e faaa b73d
000000a0: a338 263b 25f2 893d 5898 9a3e 1665 90bd
000000b0: b6e1 6f3e d945 eb3d f88e 093e 8344 913d
000000c0: 4a02 a7bd 8a1a 05bd ff24 9e3e a063 393e
000000d0: 140a d8bd eddf 9c3e 719f d0bc 7034 763d
000000e0: 19b6 273d 7818 1d3e 6d76 70be c2a4 373e
000000f0: 253c 7bbe 5055 cdbd eba9 71bd e1af a1bd
00000100: 671d 55bd ffae c03d f9db ce3d 4352 bbbd
00000110: aa94 d23d e466 3f3e 7c3e 603e 8dc0 163d
00000120: 5f11 4a3e cc60 c6bb 06eb 153e 6dee c03c
00000130: f1b0 293e 4364 b23e ff01 903e 683e ae3e
00000140: 32d1 94bd 5c46 39bc be1e 353e 4438 8bbe
00000150: 33f2 7f3e de5e 7bbe e4cb b1bd 5e06 83be
00000160: 7a97 45be 7ebe 06be 59f3 703e 8615 3d3e
00000170: 1dbf a83e 666a 06bd b279 28bd aa11 23be
00000180: 68c8 a0be 62eb 65be 8ad9 863d 29b1 cfbd
00000190: 2ccf 3fbe d6fd 9e3e bd5d 523e 9676 403c
000001a0: 5dee 62be 3893 80be b5bc 1d3d f538 863e
000001b0: 9ecb bfbc ae22 c5bd 4211 693e 63cc 2b3e
000001c0: 4623 8f3e da06 7dbe 5b59 a1bd f1d2 12be
000001d0: 1cf9 42be c658 b0be 6756 033e 8962 363e
000001e0: 18ff 263e 07df e43d 3c57 863d 3e1d d33d
000001f0: c8b5 34be 9c6c a2be f938 30be a747 b03e
00000200: 4a27 973c 0cce 803e e77b d33e 8525 023e
00000210: bca7 603d 8c34 a13e 829a be3e c764 acbe
00000220: c9f4 e2bb ba3d 9fbe 5808 963d 6bad cf3d
00000230: 38de f4bd 6f80 933e f08b 923c 92ed 813e
00000240: fffb a63e eb79 3abe d3ba d93d c299 99be
00000250: 0a31 14be 526c 853e fbfa 41bd a55c c6be
00000260: 747e 523e 3f85 803e db2e 123e 3afe 37bc
00000270: e136 89bd 61cf 8e3e 6b06 80be 0f48 8c3e
00000280: 8478 5b3e cba2 6e3c b577 5bbe 0670 d5be
00000290: 0c99 743d 30ce 9fbe 7349 12bd 4248 78bb
000002a0: 4d01 29bc 4804 9fbe 4d12 3d3d dda2 303e
000002b0: 4f15 aabe 540b c4bd 6e6f 7a3c aa7c 3dbd
000002c0: d6ea 733e 2661 c9bd 21cb 3dbe 2ecf d4be
000002d0: 9777 c03e 22a0 8b3e a33d c83c 24ef adbe
000002e0: aa42 9c3d 0ac5 143d c427 843d 1cef 0fbe
000002f0: 13ac 9abe 1d46 41be 2520 0ebe a84e 0e3d
00000300: 2d41 39bd 9620 463c 7bc0 ad3e e15b 16be
00000310: f045 2a3e 1525 02bd dc81 7c3e 7bf7 b93e
00000320: 497d 84bd 1cfe 323e 4ffc 70be e07b 3a3e
00000330: 0f3b 933e be44 b23e 31b3 a53c e76f 37be
00000340: e8fd 973e 2367 d9bd 93ec c93e 365a 3abd
00000350: b78a 483e 94a6 c3bc 7f63 c53e 3237 03bc
00000360: eb18 283d 595c e5bd 8157 edbd 937e 553e
00000370: f5d1 d33e 7fe3 c33e 09db 993e 4256 be37
00000380: c940 643e db2a 243e 9e9a 25bd 8c1a a4be
00000390: ed78 b53e 186d a4bd 1bbf 8d3c c52f c3bd
000003a0: a36d 823e 6aba 0ebd 0736 123d a822 85be
000003b0: e058 c33d 4db0 65be e8f2 20be b840 c23e
000003c0: b363 343e 49cd 9dba 7d1d 67be 3679 b4bb
000003d0: 91dc bb3e 72b5 123e 2154 dd3d 9663 41be
000003e0: a60f 9b3d bcd1 2fbd 5125 90be 1922 a3bd
000003f0: aa8a 85bd 7bbb 423d 44a6 25be 9281 563e

embedder.dim_up.bias f4 [64]
0.16269366 0.1169956 -0.26640514 -0.19280684 0.21063909 0.27461135 0.15413074 -0.13814837
0.3482666 -0.31621847 -0.01679865 0.08462488 0.21649718 0.17616445 0.34588155 -0.12618557
-0.018519254 -0.060743656 0.33034483 -0.013468512 -0.25606143 -0.17053749 0.30773684 0.30388308
-0.026348777 -0.31527427 0.17023088 -0.34417707 -0.062036894 0.26044467 0.18309233 0.1584171
-0.112677 0.29823458 -0.18280582 0.18193826 0.028032715 -0.25423127 0.24290971 0.19590849
-0.04805736 -0.004929151 -0.18962337 -0.17700018 -0.365527 -0.07945673 -0.074085966 0.0672658
0.18102044 0.13126995 0.039141204 0.3220234 0.2823798 0.14818354 0.27797467 -0.34134656
0.2193973 0.04226672 0.28917563 0.12544626 -0.2866299 -0.15631491 0.062276844 -0.1365136
00000000: 2b99 263e 649b ef3d 4166 88be 286f 45be
00000010: c6b1 573e dc99 8c3e 73d4 1d3e c476 0dbe
00000020: 0050 b23e 63e7 a1be 539d 89bc cf4f ad3d
00000030: 70b1 5d3e 7464 343e 6317 b13e ca36 01be
00000040: b1b5 97bc 57ce 78bd f522 a93e 09ab 5cbc
00000050: 7c1a 83be 61a1 2ebe af8f 9d3e 9096 9b3e
00000060: 64d9 d7bc a16b a1be 0151 2e3e fa37 b0be
00000070: 661a 7ebd 0159 853e 8e7c 3b3e 1838 223e
00000080: 33c3 e6bd 34b2 983e 7331 3bbe 064e 3a3e
00000090: dda4 e53c 9a2a 82be 53bd 783e 3c9c 483e
000000a0: cbd7 44bd b784 a1bb a12c 42be 893f 35be
000000b0: 5b26 bbbe 36ba a2bd 62ba 97bd a7c2 893d
000000c0: 6c5d 393e a16b 063e 8752 203d 40e0 a43e
000000d0: 1694 903e 6dbd 173e b252 8e3e fac4 aebe
000000e0: b0a9 603e de1f 2d3d d40e 943e fc74 003e
000000f0: 27c1 92be 0411 20be 0116 7f3d 39ca 0bbe

encoder_block1.attention.w_q.weight f4 [64, 64]
0.124871776 0.09379549 0.061351206 -0.10657729 -0.06540642 0.0648926 -0.046647537 -0.1324557
0.12104208 -0.06662806 -0.0956258 0.10277914 0.06031171 -0.11884247 0.011556586 -0.08304038
-0.014249943 0.04828395 -0.05504368 0.09932315 0.019740552 0.025771938 0.10398575 0.020853879
0.11926296 0.08049406 -0.11191834 0.12896508 0.096869625 -0.007830604 0.065693565 -0.01004636
0.083542325 -0.027440611 -0.093005486 -0.062018454 0.07396833 0.12597261 -0.01897037 0.03757374
0.09890518 0.11194103 0.0745584 0.12623441 -0.025531212 -0.030796697 0.10605845 -0.010239851
-0.08041084 -0.11984804 -0.11070407 0.07754138 0.031147292 -0.00092057185 0.097581014 -0.1375257
-0.07750084 -0.02168516 0.0026422201 0.059260283 -0.10453016 0.012099458 -0.10591196 0.11748101
-0.07339859 -0.1387115 0.039460566 0.05847228 -0.07180321 -0.011189667 0.05293945 0.02768084
0.07551019 -0.116255514 0.022176825 0.02165864 -0.10136038 -0.006082341 -0.09094018 -0.038941953
-0.012261888 -0.02069626 -0.0036779507 -0.06846557 0.07372096 0.11303181 -0.10001793 0.08011658
-0.04791898 -0.12334926 -0.013931832 0.0060902326 0.093215935 0.013430131 -0.081749596 0.09376801
-0.061203882 0.00050813396 0.102004364 -0.036066845 0.05060723 0.0793634 0.12871225 -0.1050797
0.01223025 -0.017203731 -0.086898506 0.09392664 0.103939764 -0.1044626 -0.048760902 0.023098357
-0.09240468 -0.103146195 -0.10408758 -0.07436294 -0.08506867 -0.033814773 -0.028810125 -0.005926245
0.06308485 0.10727258 -0.07260365 0.08728087 -0.019629054 0.13939506 -0.07139178 -0.039730165
0.1124697 -0.0606593 -0.0999921 0.06892991 0.075682804 0.028058885 -0.05822846 0.06591619
-0.036873866 -0.10674793 -0.009175785 -0.104489215 -0.10495682 -0.06617476 0.036265314 -0.039258044
-0.09203426 -0.039339468 -0.08881787 -0.016539171 0.07875471 -0.075688265 0.11421082 0.124801695
-0.07995025 -0.05951385 0.11412291 -0.096140586 -0.0028658728 -0.05382638 -0.0684708 -0.055562038
-0.0011366956 0.025187733 0.042378645 0.033021796 -0.08888217 0.003235776 -0.08246772 -0.103186555
-0.123605676 0.11389959 -0.12710159 -0.108317204 0.0676531 0.08385183 -0.053735897 0.11853051
0.097637296 -0.068293735 -0.027948678 -0.05349694 -0.07559173 -0.077574626 0.12269383 0.10247018
-0.078215726 0.067082554 -0.05064531 0.0095589 -0.12126695 0.11580064 -0.020362603 0.048317403
-0.061383147 -0.102376774 0.01506641 0.014476513 0.0850332 -0.046053465 0.008719795 -0.0359544
0.049880024 0.10998979 0.13740072 -0.008420269 0.0022878468 0.024002401 0.0853657 -0.043724123
0.12565629 -0.09927577 0.016608818 0.11642118 -0.08575249 -0.14057538 0.08264555 -0.04337968
-0.0067942035 0.012148741 -0.11881505 -0.08319098 0.031366553 0.06681081 0.010510068 -0.072452165
-0.009588699 0.09286682 0.081537515 0.07077158 0.060002357 0.104071476 -0.098365664 -0.027466126
0.07160713 0.12207781 0.024099058 0.09515772 -0.11040942 0.05494087 -0.08286238 0.05679458
-0.036873855 0.10426392 -0.06482484 0.108783856 -0.0065789833 -0.081261456 -0.03170947 0.0550615
-0.039936583 0.05470228 0.05659718 0.07882777 -0.062372632 0.00037238238 -0.012473277 -0.009119641
00000000: c6bc ff3d da17 c03d 674b 7b3d 3245 dabd
00000010: cdf3 85bd 69e6 843d 7d11 3fbd 78a2 07be
00000020: e9e4 f73d 4b74 88bd 76d7 c3bd df7d d23d
00000030: 6909 773d ae63 f3bd d657 3d3c 1311 aabd
00000040: 9878 69bc 64c5 453d 7b75 61bd f069 cb3d
00000050: f0b6 a13c ac1f d33c 7bf6 d43d c1d5 aa3c
00000060: 2440 f43d 12da a43d 7135 e5bd 6c0f 043e
00000070: 9563 c63d ef4b 00bc 598a 863d 7d99 24bc
00000080: 3d18 ab3d 22cb e0bc a979 bebd 1007 7ebd
00000090: b57c 973d f7fe 003e c067 9bbc ece6 193d
000000a0: cd8e ca3d 5741 e53d 13b2 983d 9843 013e
000000b0: d526 d1bc 5b49 fcbc 2c35 d93d 0cc5 27bc
000000c0: 70ae a4bd e472 f5bd d1b8 e2bd 04ce 9e3d
000000d0: 9b28 ff3c 8852 71ba 8ed8 c73d 89d3 0cbe
000000e0: c3b8 9ebd 14a5 b1bc 1929 2d3b e9ba 723d
000000f0: e913 d6bd ce3c 463c 5fe8 d8bd e299 f03d
00000100: 0052 96bd 630a 0ebe 67a1 213d a180 6f3d
00000110: 900d 93bd dd54 37bc 09d7 583d eec2 e23c
00000120: 16a5 9a3d 5f17 eebd 2cac b53c 766d b13c
00000130: 0896 cfbd 604e c7bb d83e babd 9981 1fbd
00000140: 16e6 48bc 348b a9bc c609 71bb ad37 8cbd
00000150: 04fb 963d 397d e73d 33d6 ccbd 2914 a43d
00000160: b146 44bd 899e fcbd 5742 64bc 9390 c73b
00000170: ffe7 be3d 0d0a 5c3c 556c a7bd 7109 c03d
00000180: ecb0 7abd 4b34 053a aae7 d03d d4ba 13bd
00000190: 8749 4f3d 4789 a23d 25cd 033e 0734 d7bd
000001a0: 6361 483c d7ee 8cbc d8f7 b1bd 9c5c c03d
000001b0: 5fde d43d 7df0 d5bd 83b9 47bd c438 bd3c
000001c0: aa3e bdbd 503e d3bd df2b d5bd 994b 98bd
000001d0: 7c38 aebd 5c81 0abd 3603 ecbc f230 c2bb
000001e0: a132 813d bab1 db3d 39b1 94bd 50c0 b23d
000001f0: 1ccd a0bc 94bd 0e3e db35 92bd 19bc 22bd
00000200: 8456 e63d e375 78bd a8c8 ccbd 202b 8d3d
00000210: 96ff 9a3d bfdb e53c f780 6ebd 11ff 863d
00000220: 0d09 17bd a99e dabd 0856 16bc 71fe d5bd
00000230: 9af3 d6bd a286 87bd f08a 143d 0bcd 20bd
00000240: 757c bcbd 6c22 21bd 25e6 b5bd 287d 87bc
00000250: 264a a13d 7302 9bbd 5de7 e93d 0898 ff3d
00000260: f5bc a3bd cbc4 73bd 46b9 e93d 5be5 c4bd
00000270: 5ed1 3bbb 0d79 5cbd 6b3a 8cbd 0595 63bd
00000280: 2dfd 94ba 8156 ce3c 3b95 2d3d dd41 073d
00000290: db07 b6bd 500f 543b d6e4 a8bd 7953 d3bd
000002a0: f924 fdbd 3044 e93d eb26 02be 69d5 ddbd
000002b0: b58d 8a3d 82ba ab3d 2c1a 5cbd 20c0 f23d
000002c0: 10f6 c73d 96dd 8bbd a0f4 e4bc 9b1f 5bbd
000002d0: d6cf 9abd 72df 9ebd e746 fb3d e3db d13d
000002e0: 912f a0bd 9462 893d 7571 4fbd ef9c 1c3c
000002f0: cf5a f8bd e328 ed3d 79cf a6bc 78e8 453d
00000300: e56c 7bbd eaaa d1bd 1bd9 763c e52e 6d3c
00000310: e325 ae3d 8fa2 3cbd 79dd 0e3c ec44 13bd
00000320: ff4e 4c3d 5442 e13d c6b2 0c3e 2bf5 09bc
00000330: b3ef 153b afa0 c43c 36d4 ae3d 1118 33bd
00000340: 0bac 003e 1851 cbbd 370f 883c 3a6e ee3d
00000350: 009f afbd fef2 0fbe 1242 a93d e4ae 31bd
00000360: e9a1 debb 830b 473c 4e55 f3bd 0860 aabd
00000370: 377a 003d 1bd4 883d 6c32 2c3c cd61 94bd
00000380: eb19 1dbc f630 be3d 24fd a63d b1f0 903d
00000390: 08c5 753d 6d23 d53d f073 c9bd a400 e1bc
000003a0: c2a6 923d ee03 fa3d 636b c53c 0de2 c23d
000003b0: 561e e2bd ad09 613d c0b3 a9bd 6fa1 683d
000003c0: 0a09 17bd 5288 d53d e3c2 84bd 12ca de3d
000003d0: 8394 d7bb 686c a6bd cae1 01bd 2b88 613d
000003e0: 8b94 23bd 7f0f 603d 72d2 673d 7470 a13d
000003f0: 727a 7fbd 513c c339 b75c 4cbc 8c6a 15bc

encoder_block1.attention.w_q.bias f4 [64]
0.015065344 0.07751211 -0.0021386882 0.09117021 -0.016414953 -0.11223775 0.044024725 -0.022648843
0.16321683 0.13143104 0.090759456 -0.048740868 0.09025712 0.09066816 0.06744558 -0.046188906
0.054146536 -0.03197289 -0.026178878 -0.012552568 -0.06891118 0.08993561 0.13045786 0.06707699
0.0413693 -0.06505482 -0.073998034 -0.1279138 -0.037144158 -0.086521186 0.021212008 0.0346167
-0.052410394 -0.08215617 0.057616092 0.03213565 -0.08995851 -0.0077739106 0.107370175 -0.021383066
-0.11340391 -0.109822616 -0.016960066 -0.05436489 -0.08088299 -0.014226217 0.09576924 0.033158902
0.07583422 -0.02298286 -0.13210109 -0.08668175 -0.028846689 0.128411 -0.014889528 -0.09168829
0.040040493 -0.08696771 0.027273461 -0.072753616 -0.014101972 0.03813462 -0.1343412 0.058087856
00000000: a2d4 763c abbe 9e3d 3c29 0cbb 72b7 ba3d
00000010: a778 86bc e8dc e5bd 4553 343d 118a b9bc
00000020: 5022 273e dc95 063e 18e0 b93d 81a4 47bd
00000030: bad8 b83d 3ab0 b93d e920 8a3d 9430 3dbd
00000040: c2c8 5d3d 01f6 02bd 1675 d6bc 49a9 4dbc
00000050: 4e21 8dbd 2930 b83d bf96 053e a95f 893d
00000060: db72 293d 763b 85bd 488c 97bd d6fb 02be
00000070: 7924 18bd 0532 b1bd cec4 ad3c 3eca 0d3d
00000080: 48ac 56bd 7e41 a8bd dafe 6b3d aca0 033d
00000090: 2b3c b8bd 4abc febb e5e4 db3d 8a2b afbc
000000a0: 4f40 e8bd aeea e0bd d6ef 8abc b8ad 5ebd
000000b0: fba5 a5bd 1415 69bc aa22 c43d a1d1 073d
000000c0: f94e 9b3d 8d46 bcbc 8245 07be 3486 b1bd
000000d0: e44f ecbc 2c7e 033e 35f3 73bc 12c7 bbbd
000000e0: 8001 243d 201c b2bd 986c df3c d9ff 94bd
000000f0: f50b 67bc 0c33 1c3d bd90 09be 88ed 6d3d

encoder_block1.attention.w_k.weight f4 [64, 64]
0.024388213 0.08893073 -0.021685163 0.106814854 0.00033239846 0.050133266 0.040414598 -0.099748045
0.082213834 -0.081306376 0.09934321 0.115395814 0.1301621 -0.048810594 0.093940355 -0.046817143
0.012887742 0.031230254 -0.06783629 0.08033701 -0.07567701 0.05126385 -0.10287352 -0.009597332
0.085315645 -0.08964321 -0.012813007 -0.1310302 0.028164688 -0.1442371 -0.06022165 0.036653873
-0.057435203 0.08952265 -0.14046171 0.14243661 0.08298677 -0.0012532492 0.06872359 -0.06321118
0.012289072 0.102670215 -0.06534268 0.11916181 0.0007191628 0.032395966 0.048018027 0.12689655
0.07335525 -0.102341086 -0.12884007 0.13719754 0.02836821 -0.14225803 0.012935047 -0.087960735
0.12718599 -0.045937706 0.109695315 0.07350607 -0.019852256 0.014696082 0.0084480215 -0.11091868
0.10857298 0.040451802 0.028556634 0.0071115317 0.09870661 -0.08902165 -0.012437018 0.02990515
-0.07003878 0.079668224 0.10731852 0.024857266 0.007056661 0.01158375 -0.10953064 0.04575961
-0.040782567 0.07256054 -0.008160598 -0.07545027 -0.07338836 0.0042969487 -0.08341084 -0.059604697
-0.011570477 0.07708258 -0.008412896 0.011874916 0.072121285 0.032996055 0.051301178 0.040490877
-0.05778013 0.055121113 0.051031984 -0.07759639 0.002777951 -0.10894488 -0.028577534 -0.084699206
-0.013861647 -0.017431272 0.0748233 0.056707233 0.08798122 -0.13014594 -0.08329494 -0.10851335
0.080069184 -0.091699846 -0.092379786 0.05563136 0.013014197 -0.0060262405 -0.11035342 -0.10994369
0.05998511 -0.06434274 0.11914917 -0.10353719 -0.054282892 -0.04021771 -0.011176065 0.062828496
-0.07812199 -0.09198097 0.036544885 0.08059883 0.06190448 -0.03972534 0.0765913 -0.10993877
-0.024633229 -1.9696967e-05 0.0811644 0.06512352 -0.05852953 -0.061010864 -0.06950171 -0.0032980826
-0.042100016 0.050531726 0.11755865 0.0030553525 0.08584516 -0.02093452 0.069044665 -0.032542884
0.071770065 -0.03644647 0.12411727 0.11571758 0.07907141 0.0587856 0.04133056 -0.014470225
0.029410983 -0.11496127 -0.038076334 0.093424864 -0.06277141 0.075186804 0.042095874 0.04534035
-0.05428758 -0.020069376 0.061308313 -0.0012546415 -0.10077425 -0.031217908 0.048066743 0.027700137
-0.1013709 0.025915388 0.13837665 -0.097123854 -0.024857791 -0.053777855 0.09617704 -0.06311947
0.047885746 0.108272694 -0.08331098 -0.064806245 0.09910026 0.008512615 0.060763616 0.027769428
0.013560304 -0.06523102 0.11382256 -0.04880773 0.017183155 -0.118141614 -0.020008886 -0.066803485
-0.049217783 -0.075022 0.1040415 0.12421109 -0.08067182 0.12941055 0.050128967 -0.11928633
0.035570215 -0.05399552 0.007039642 -0.046338268 0.07200125 0.05926632 0.02646071 0.07617168
0.018647242 -0.03240427 -0.08625291 0.039367136 0.09585049 -0.06162171 0.019458083 0.040210154
0.1362193 -0.06913631 -0.0688544 -0.09663677 0.0461367 0.1112463 -0.10337697 -0.10551325
0.09037218 0.035735648 -0.01510026 0.048094016 0.11064251 0.113118105 -0.13690577 0.013412284
-0.03915319 -0.1368681 -0.118471816 -0.026383402 0.097265944 -0.052644312 0.11936731 -0.07565886
-0.09935987 0.09352737 0.0684976 -0.073983215 0.1190463 0.07782651 0.03407847 0.08826109
00000000: cac9 c73c 5121 b63d 15a5 b1bc bfc1 da3d
00000010: c445 ae39 8a58 4d3d c789 253d b448 ccbd
00000020: ba5f a83d f583 a6bd 7474 cb3d a454 ec3d
00000030: 3749 053e 9eed 47bd cd63 c03d 55c3 3fbd
00000040: 1c27 533c 97d6 ff3c c1ed 8abd bb87 a43d
00000050: 8cfc 9abd 0bfa 513d 5aaf d2bd 213e 1dbc
00000060: f8b9 ae3d dc96 b7bd a6ed 51bc c82c 06be
00000070: a2b9 e63c e4b2 13be faaa 76bd 5f22 163d
00000080: 2d41 6bbd a757 b73d 32d5 0fbe e7da 113e
00000090: f8f4 a93d 1144 a4ba f4be 8c3d dd74 81bd
000000a0: 1b58 493c c344 d23d 62d2 85bd 1b0b f43d
000000b0: 3386 3c3a a2b1 043d 8dae 443d 2bf1 013e
000000c0: 473b 963d 3498 d1bd a7ee 03be 837d 0c3e
000000d0: 7364 e83c 17ac 11be 85ed 533c c224 b4bd
000000e0: 0b3d 023e 2d29 3cbd f0a7 e03d 5a8a 963d
000000f0: 33a1 a2bc d6c7 703c 9269 0a3c 5529 e3bd
00000100: 835b de3d cab0 253d 9aef e93c da07 e93b
00000110: b126 ca3d fc50 b6bd a2c4 4bbc a5fb f43c
00000120: 7e70 8fbd 1829 a33d d0c9 db3d 77a1 cb3c
00000130: 903b e73b c5c9 3d3c 9a51 e0bd 6e6e 3b3d
00000140: 9f0b 27bd 9f9a 943d 07b4 05bc ac85 9abd
00000150: a34c 96bd 6bcd 8c3b 4dd3 aabd 0e24 74bd
00000160: 1992 3dbc 79dd 9d3d 3ed6 09bc 028f 423c
00000170: 53b4 933d df26 073d 2f21 523d c3d9 253d
00000180: dcaa 6cbd adc6 613d ea06 513d dbea 9ebd
00000190: 490e 363b 7e1e dfbd 6f1b eabc c776 adbd
000001a0: f61b 63bc 07cc 8ebc f53c 993d d845 683d
000001b0: 7f2f b43d fa44 05be 8a96 aabd 3f3c debd
000001c0: 50fb a33d 21cd bbbd 9d31 bdbd b5dd 633d
000001d0: 8039 553c c577 c5bb f900 e2bd 282a e1bd
000001e0: f2b2 753d 20c6 83bd 7b04 f43d 4e0b d4bd
000001f0: bd57 5ebd 53bb 24bd d01b 37bc 3aac 803d
00000200: 6cfe 9fbd 8560 bcbd 17b0 153d 0011 a53d
00000210: 8d8f 7d3d 0ab7 22bd e6db 9c3d 9427 e1bd
00000220: a0cb c9bc ea3a a5b7 8539 a63d 7b5f 853d
00000230: a9bc 6fbd 87e6 79bd ea56 8ebd a524 58bb
00000240: 1171 2cbd 5bfa 4e3d 97c2 f03d 4f3c 483b
00000250: 96cf af3d df7e abbc 4a67 8d3d b04b 05bd
00000260: 2ffc 923d e548 15bd 3231 fe3d 57fd ec3d
00000270: 31f0 a13d 2bc9 703d 3c4a 293d 8614 6dbc
00000280: 4def f03c d070 ebbd eef5 1bbd 8955 bf3d
00000290: 4c8e 80bd 8afb 993d b96c 2c3d ceb6 393d
000002a0: a75c 5ebd 8868 a4bc 6d1e 7b3d c872 a4ba
000002b0: bb62 cebd b3bc ffbc a2e1 443d 66eb e23c
000002c0: 8c9b cfbd 824c d43c 9cb2 0d3e dfe8 c6bd
000002d0: 91a2 cbbc 2b46 5cbd 78f8 c43d c844 81bd
000002e0: d823 443d 13be dd3d f29e aabd 23b9 84bd
000002f0: 14f5 ca3d 7f78 0b3c 45e3 783d b67c e33c
00000300: 0a2c 5e3c d797 85bd cd1b e93d 9dea 47bd
00000310: b0c3 8c3c 3bf4 f1bd ade9 a3bc 44d0 88bd
00000320: 9698 49bd 22a5 99bd b613 d53d 6262 fe3d
00000330: 4437 a5bd 3384 043e 0854 4d3d 644c f4bd
00000340: 13b2 113d 682a 5dbd ccac e63b 32cd 3dbd
00000350: 6475 933d 3ec1 723d 22c4 d83c e6ff 9b3d
00000360: 1ac2 983c 57ba 04bd 5ea5 b0bd 6f3f 213d
00000370: 434d c43d 0c67 7cbd 8f66 9f3c 67b3 243d
00000380: 127d 0b3e 5697 8dbd 8903 8dbd 80e9 c5bd
00000390: d6f9 3c3d 1ad5 e33d 4eb7 d3bd 5517 d8bd
000003a0: 0d15 b93d 8b5f 123d 1567 77bc 3bfe 443d
000003b0: 8a98 e23d 77aa e73d 0731 0cbe 32bf 5b3c
000003c0: 185f 20bd 2727 0cbe 5aa1 f2bd 0122 d8bc
000003d0: 5e33 c73d 90a1 57bd d976 f43d 08f3 9abd
000003e0: 307d cbbd 478b bf3d 7848 8c3d 8384 97bd
000003f0: 8cce f33d 8163 9f3d de95 0b3d 3bc2 b43d

encoder_block1.attention.w_k.bias f4 [64]
0.088177964 -0.0009349084 0.09823502 -0.06525701 0.030526116 -0.07276557 0.08676009 -0.11732904
-0.07204459 0.053029504 -0.035063326 -0.028094374 3.1543238e-06 -0.114192255 -0.04194564 -0.08488135
0.07013329 0.016230017 0.12393597 0.015923738 0.037600014 0.047750246 -0.085662164 -0.08309315
0.11644237 0.106861375 0.05853935 0.094146945 0.033942167 0.040333897 0.08811994 0.048238304
0.00089746254 -0.011573786 0.098884 0.06795744 -0.09181745 0.05879693 0.092634164 -0.08747731
-0.0188103 0.052023694 0.08783407 0.0745311 -0.048983846 -0.052186035 0.024190493 -0.03318414
-0.078656815 0.082782224 0.0060318504 -0.08436994 -4.3616084e-05 -0.06785182 -0.04492843 0.073610544
-0.025836846 0.08493417 -0.08961564 0.003029419 0.07761444 0.07540665 0.013162411 -0.07754657
00000000: a696 b43d a414 75ba 712f c93d 78a5 85bd
00000010: e811 fa3c 1d06 95bd 46af b13d 354a f0bd
00000020: 1d8c 93bd 7735 593d 909e 0fbd 2c26 e6bc
00000030: dfae 5336 a1dd e9bd 31cf 2bbd 46d6 adbd
00000040: 0ba2 8f3d d0f4 843c 24d2 fd3d 8072 823c
00000050: 7902 1a3d c395 433d a56f afbd be2c aabd
00000060: 5679 ee3d 23da da3d f5c6 6f3d 1dd0 c03d
00000070: f106 0b3d 2835 253d 3a78 b43d 8795 453d
00000080: b143 6b3a fa9f 3dbc b283 ca3d 452d 8b3d
00000090: ca0a bcbd 0dd5 703d fbb6 bd3d 4e27 b3bd
000000a0: 0f18 9abc cc16 553d 59e2 b33d c3a3 983d
000000b0: 49a3 48bd 06c1 55bd 242b c63c 18ec 07bd
000000c0: d316 a1bd ba89 a93d d4a6 c53b 26ca acbd
000000d0: 6af0 36b8 e5f5 8abd e006 38bd 20c1 963d
000000e0: cba7 d3bc f7f1 ad3d 6888 b7bd 3889 463b
000000f0: 52f4 9e3d cd6e 9a3d 27a7 573c bcd0 9ebd

encoder_block1.attention.w_v.weight f4 [64, 64]
0.0499476 0.061245363 0.0022783997 -0.060324978 -0.068284184 0.037048943 -0.0005504364 -0.10786125
0.01276551 0.017435735 -0.107327245 -0.092885755 0.050121315 -0.08198211 -0.074637994 0.016932307
0.033659227 0.06757688 0.051558115 -0.10798756 -0.02312301 -0.03371671 0.12630045 -0.017081529
0.12094202 0.03822135 -0.099332094 0.04814348 -0.042280752 -0.121406 -0.0954294 -0.08481624
0.029820897 0.08674163 -0.0062964717 0.0795828 -0.09599086 0.054380562 -0.0020487234 -0.057304334
0.09000724 0.10325253 -0.115646414 0.0069235065 0.099377945 -0.113500245 -0.056211524 0.015785977
-0.11073456 0.09251576 0.01060714 -0.09602507 -0.06862749 0.111823216 0.037683204 -0.03422043
0.006440512 0.12744689 -0.020410905 -0.011278307 0.103091784 0.117780276 -0.105354235 0.03467157
0.010452911 0.013774949 0.014662125 -0.0524227 0.0924968 0.07590103 0.05779598 0.036712453
-0.0062764063 -0.09852793 0.076958634 0.03942615 0.09529475 -0.10230363 0.06666206 0.06390514
0.02253289 -0.11223252 0.08014186 -0.1246021 0.0593948 0.09164702 0.037894364 -0.06034519
0.10081409 0.043090314 0.041344333 0.07693799 0.04691636 -0.09371232 0.0046696207 0.068287686
-0.051646866 -0.120877005 0.06458639 0.059834335 0.10480618 0.10294003 -0.1114956 -0.08926869
-0.11997578 0.05189609 0.12857442 -0.10043449 0.061575122 -0.10347513 0.10995567 -0.12398082
-0.13962694 -0.08444608 0.049840838 -0.13658567 0.07636769 -0.03838553 -0.00024343717 -0.07639751
-0.11109428 -0.011786053 -0.05673626 0.059576564 0.12192451 -0.05981273 -0.082980365 -0.035747554
-0.0061552557 0.118721366 0.045006663 0.09842388 0.0010600948 -0.106807955 0.08658656 0.07276988
0.0015286738 -0.042737376 -0.101610266 -0.023092004 0.12857571 0.034277882 -0.09390774 0.11732547
-0.12828264 -0.0077665495 -0.044940982 0.11716256 0.08526455 0.13278697 0.034107983 0.08102538
-0.12078331 0.11842892 0.061089374 -0.039621636 -0.036568966 -0.09345255 0.05376151 0.036373258
-0.07596457 0.017902793 -0.05447331 0.054872718 -0.124613084 -0.03116151 0.08927648 0.0015424653
0.11598249 0.07552972 0.062199242 -0.02898355 -0.08696214 0.124999925 -0.0048590936 0.01854339
-0.023651231 -0.07375805 -0.07461015 -0.07693018 0.06311545 -0.028292922 -0.07167677 -0.015311127
0.09506426 -0.07506946 -0.06443043 -0.02723217 0.043293636 -0.07494783 -0.09426047 -0.006901441
-0.026405705 0.03331403 -0.013184348 0.06700127 0.109343626 -0.07115586 0.040761918 0.015761489
0.11328978 0.0031640392 -0.09824889 0.011918726 -0.06025435 0.052256517 0.08567944 -0.12640196
0.07990175 -0.048771854 0.11699299 -0.13269593 -0.14422171 -0.050925497 -0.03193404 -0.06998307
-0.10241736 -0.055550884 -0.050022673 0.090375155 0.03988715 -0.08666582 0.119379826 -0.12425545
-0.039038945 0.017149748 -0.07778364 0.051081173 0.039424013 -0.10351634 0.07906473 -0.06322804
0.12530838 0.019236367 -0.11637959 -0.04957234 -0.08442161 -0.027113885 0.010911726 -0.10181514
-0.09090985 -0.0831169 0.011653594 0.07294919 0.09110364 0.08229997 0.031189991 -0.11343819
0.04766697 0.043878715 0.061463844 -0.11439049 0.012160859 -0.10339329 -0.07893022 -0.06972808
00000000: db95 4c3d 6bdc 7a3d 3451 153b 5317 77bd
00000010: 94d8 8bbd a2c0 173d 294b 10ba 5ce6 dcbd
00000020: 6e26 513c 63d5 8e3c 63ce dbbd e33a bebd
00000030: 024c 4d3d 3de6 a7bd cedb 98bd 9fb5 8a3c
00000040: 42de 093d bf65 8a3d 9a2e 533d 9528 ddbd
00000050: 776c bdbc 881a 0abd e854 013e 90ee 8bbc
00000060: 73b0 f73d fe8d 1c3d a06e cbbd 1932 453d
00000070: 952e 2dbd b5a3 f8bd 7d70 c3bd 23b4 adbd
00000080: f44a f43c 99a5 b13d a252 cebb 4ffc a23d
00000090: db96 c4bd 27be 5e3d e043 06bb f3b7 6abd
000000a0: b755 b83d 1076 d33d 07d8 ecbd 95de e23b
000000b0: aa86 cb3d d172 e8bd 0e3e 66bd 9851 813c
000000c0: cdc8 e2bd e778 bd3d 92c9 2d3c cba8 c4bd
000000d0: 928c 8cbd 9203 e53d b459 1a3d b92a 0cbd
000000e0: ee0a d33b 7081 023e c534 a7bc a6c8 38bc
000000f0: c921 d33d c936 f13d f6c3 d7bd c703 0e3d
00000100: b042 2b3c 53b0 613c 6939 703c 2fb9 56bd
00000110: f66e bd3d 0072 9b3d 7abb 6c3d cc5f 163d
00000120: 50aa cdbb 03c9 c9bd 7d9c 9d3d 517d 213d
00000130: e529 c33d 9184 d1bd 1e86 883d b3e0 823d
00000140: e596 b83c 2ada e5bd 6a21 a43d 632f ffbd
00000150: f647 733d 6fb1 bb3d 1f37 1b3d 852c 77bd
00000160: 9e77 ce3d 787f 303d ad58 293d aa91 9d3d
00000170: 5e2b 403d 3fec bfbd 9e03 993b 6ada 8b3d
00000180: aa8b 53bd 5d8e f7bd df45 843d d914 753d
00000190: 9fa4 d63d 39d2 d23d ce57 e4bd 81d2 b6bd
000001a0: ddb5 f5bd ff90 543d 03a9 033e 99b0 cdbd
000001b0: 3236 7c3d c5ea d3bd 7030 e13d a8e9 fdbd
000001c0: 5dfa 0ebe 11f2 acbd e825 4c3d 1ddd 0bbe
000001d0: aa66 9c3d 253a 1dbd 2b43 7fb9 4c76 9cbd
000001e0: 6685 e3bd 4a1a 41bc 4864 68bd 8e06 743d
000001f0: 8fb3 f93d 31fe 74bd 9cf1 a9bd 076c 12bd
00000200: 07b2 c9bb 3024 f33d e858 383d 7692 c93d
00000210: e1f2 8a3a 21be dabd 4b54 b13d 6008 953d
00000220: c85d c83a 630d 2fbd 0b19 d0bd 712b bdbc
00000230: 5aa9 033e f766 0c3d b452 c0bd 5648 f03d
00000240: 865c 03be 8a7e febb 0914 38bd edf2 ef3d
00000250: 2e9f ae3d 4ff9 073e d0b4 0b3d a2f0 a53d
00000260: 3d5d f7bd dd8a f23d da38 7a3d 4c4a 22bd
00000270: 57c9 15bd 0d64 bfbd 0735 5c3d 20fc 143d
00000280: 5093 9bbd e1a8 923c 681f 5fbd 37c2 603d
00000290: 2535 ffbd 6c46 ffbc 96d6 b63d 8c2c ca3a
000002a0: 3a88 ed3d 53af 9a3d a2c4 7e3d e96e edbc
000002b0: 3519 b2bd f6ff ff3d 0839 9fbb 4fe8 973c
000002c0: 3ac0 c1bc 760e 97bd 35cd 98bd 928d 9dbd
000002d0: ac42 813d 8fc6 e7bc 45cb 92bd 85db 7abc
000002e0: 0db1 c23d 04be 99bd 1af4 83bd 0016 dfbc
000002f0: ab54 313d 3f7e 99bd a20b c1bd 7c25 e2bb
00000300: c750 d8bc 4b74 083d 2a03 58bc f637 893d
00000310: 8def df3d 2aba 91bd f8f5 263d 3d1e 813c
00000320: 7904 e83d c55b 4f3b b736 c9bd c346 433c
00000330: 44cd 76bd ee0a 563d b478 af3d 846f 01be
00000340: 87a3 a33d ffc4 47bd 059a ef3d 71e1 07be
00000350: dbae 13be 4197 50bd 45cd 02bd 4953 8fbd
00000360: 31c0 d1bd 5389 63bd 93e4 4cbd 9c16 b93d
00000370: b560 233d d97d b1bd 697d f43d a479 febd
00000380: 4de7 1fbd a17d 8c3c 074d 9fbd 7e3a 513d
00000390: 137b 213d 6000 d4bd b0ec a13d b47d 81bd
000003a0: d750 003e 9695 9d3c 6c58 eebd 5e0c 4bbd
000003b0: 3de5 acbd f01d debc 19c7 323c 7584 d0bd
000003c0: f22e babd 3139 aabd b7ee 3e3c 6366 953d
000003d0: 8c94 ba3d e38c a83d 2782 ff3c 4852 e8bd
000003e0: 713e 433d 2bba 333d 83c1 7b3d 9045 eabd
000003f0: 573e 473c dcbf d3bd 2ba6 a1bd 98cd 8ebd

encoder_block1.attention.w_v.bias f4 [64]
0.1107787 -0.061865933 0.05296674 0.092282176 -0.080579944 -0.07585244 0.10285146 0.100461386
0.08032179 -0.026842482 -0.06001876 -0.0008130489 -0.009523793 0.06876654 -0.03619052 0.023204375
0.012655795 0.037607305 -0.04637417 -0.07612429 -0.12675838 -0.012974435 0.075269915 -0.11426679
0.06831033 0.040410258 0.012750102 0.07236297 -0.03519252 -0.023844419 0.122732684 0.033842288
0.12127522 0.033421203 -0.1043153 0.068965375 0.10273946 0.08069578 -0.0025267254 0.0026909143
0.04613564 0.09191273 0.053370748 -0.050951183 0.06474152 -0.023087481 0.12195197 0.04410108
0.039749127 0.07596866 -0.097916715 -0.06066233 -0.1098677 -0.007215488 -0.0043698237 -0.03207924
-0.023900438 -0.09672306 0.11829841 -0.0014183563 0.06314127 0.074108616 -0.1065947 -0.022319395
00000000: f1df e23d 2267 7dbd a7f3 583d 70fe bc3d
00000010: 1907 a5bd 8658 9bbd c9a3 d23d b3be cd3d
00000020: c07f a43d c4e4 dbbc 3bd6 75bd ca22 55ba
00000030: af09 1cbc 79d5 8c3d 833c 14bd 1a17 be3c
00000040: 405a 4f3c 1e0a 1a3d d7f2 3dbd 0de7 9bbd
00000050: f3cc 01be ba92 54bc 1d27 9a3d b504 eabd
00000060: 49e6 8b3d 3a85 253d cee5 503c 0933 943d
00000070: 0826 10bd 5f55 c3bc 465b fb3d 369e 0a3d
00000080: 245f f83d ace4 083d 43a3 d5bd b83d 8d3d
00000090: 1169 d23d d443 a53d 6b97 25bb 0d5a 303b
000000a0: baf8 3c3d be3c bc3d 499b 5a3d 30b2 50bd
000000b0: 3497 843d f521 bdbc f4c1 f93d 56a3 343d
000000c0: fbcf 223d 7595 9b3d 8f88 c8bd 1079 78bd
000000d0: 5102 e1bd e66f ecbb bd30 8fbb 8565 03bd
000000e0: daca c3bc bd16 c6bd 7046 f23d 24e8 b9ba
000000f0: 3650 813d 42c6 973d 524e dabd 2ad7 b6bc

encoder_block1.attention.w_concat.weight f4 [64, 64]
-0.115332454 -0.046270076 0.028254285 -0.10622847 -0.054120097 -0.08749077 -0.12962705 0.0785135
-0.04699002 -0.010378231 0.054299206 -0.11000529 0.071454406 -0.108988866 -0.10858305 0.08701844
-0.063948885 -0.07289098 0.094446935 -0.079651885 0.0736352 -0.07473981 -0.09442688 -0.009192248
0.11885324 -0.06129281 -0.07520606 -0.045146085 -0.09656271 0.06317102 -0.09442573 -0.12470482
-0.13138202 0.087569915 0.107858494 -0.073289014 -0.108003184 0.018673444 -0.0818246 -0.061565522
-0.062512204 0.06297333 0.022232966 0.09276957 0.08293359 0.008997728 0.13735095 0.045491315
-0.073651835 0.09316694 0.02088308 0.10046616 -0.019156205 0.096449934 0.0068362597 -0.0037930978
0.12883079 -0.053417996 -0.09349489 -0.020642934 -0.07163934 0.0031317542 0.08459303 0.12149119
-0.099513695 0.098177455 0.059441447 0.115056925 0.11036983 -0.089735515 -0.09057992 -0.09062221
0.09880676 0.036544528 0.08583444 -0.019402547 -0.024818284 -0.09463468 0.09546347 -0.032845657
-0.10711333 -0.017990248 0.09408413 0.05575534 -0.11871471 0.0072600613 -0.003624505 0.13671349
0.03468111 -0.10971081 0.08646533 -0.042528585 -0.08424833 -0.101728246 0.027527235 0.024632461
-0.08422461 0.04402851 0.12369757 0.07887046 -0.11865315 -0.07538698 0.06099382 0.018941782
-0.10145028 -0.111311816 -0.008509755 -0.098514214 -0.12506917 -0.005523569 0.09115058 0.056005973
-0.060305096 0.051347252 0.035187323 -0.018312588 -0.08710976 0.023971029 -0.06862701 -0.0015331814
-0.072121315 0.11196183 0.0017807755 0.02736399 0.077689335 0.042133648 0.0536084 -0.0043960176
-0.101729855 0.12319948 -0.04661112 0.028785532 0.0022723633 0.05008397 0.1148933 -0.090629116
-0.030457575 -0.036207754 -0.10064364 -0.07328226 -0.020831397 0.044263348 0.08042295 0.0729772
-0.06810016 0.028082311 0.035739698 -0.08823948 0.04216969 -0.04842564 -0.043270875 0.06616937
-0.077618055 -0.08841759 -0.0655048 -0.08006851 -0.04352689 0.04303637 -0.048039846 -0.028961556
-0.138971 -0.008921018 -0.09568172 -0.057970673 0.045473248 -0.031189196 -0.034017287 -0.01223982
-0.038091063 -0.12797005 0.078148074 0.061823625 -0.12176681 0.093981124 0.12746228 0.05327554
-0.046226792 0.050065346 -0.079438105 0.085797034 0.010075001 -0.0044193626 -0.11305049 -0.04864356
0.08611367 -0.023624422 -0.11935488 0.11644254 -0.05864576 0.12017903 -0.062734835 0.07927526
0.06329693 -0.08467715 -0.017464925 0.11487109 0.04776307 0.0753413 -0.014769086 0.024798563
-0.040349722 -0.019501375 0.047779024 -0.051610127 -0.07842544 0.016939664 -0.029736295 -0.1205255
-0.06134882 0.03054999 -0.021615574 0.040662803 0.12765214 0.06497122 -0.08693469 0.011271792
0.019193148 -0.07391557 0.010406351 -0.093953535 0.061969545 0.02636011 -0.044290155 -0.04358377
0.15822694 0.015787018 0.039849535 0.092203684 0.053172044 -0.081973724 -0.0635692 -0.0393031
0.08685437 -0.04356445 0.052923933 0.101531066 0.05569384 0.12563752 -0.05102056 0.06865226
0.11747333 -0.060886398 -0.077398084 0.020283284 -0.039620608 0.02320946 0.04768479 -0.093309864
-0.10490871 -0.11755134 -0.10328445 -0.11662908 -0.038590048 0.01746001 0.019685498 -0.012711601
00000000: 6c33 ecbd b185 3dbd 8875 e73c 508e d9bd
00000010: 09ad 5dbd 5c2e b3bd f4bc 04be b0cb a03d
00000020: 9b78 40bd 7509 2abc d868 5e3d 744a e1bd
00000030: b056 923d 8e35 dfbd ca60 debd b936 b23d
00000040: a2f7 82bd de47 95bd 656d c13d 8720 a3bd
00000050: 0dce 963d 2f11 99bd e162 c1bd 159b 16bc
00000060: 5469 f33d 2b0e 7bbd a305 9abd 1aeb 38bd
00000070: acc2 c5bd cf5f 813d 4762 c1bd 3e65 ffbd
00000080: 0289 06be db57 b33d eae4 dc3d 8d18 96bd
00000090: c630 ddbd 0df9 983c a893 a7bd 212c 7cbd
000000a0: 6606 80bd 29f8 803d e921 b63c f9fd bd3d
000000b0: 16d9 a93d 356b 133c baa5 0c3e 1a55 3a3d
000000c0: c6d6 96bd 4fce be3d fe12 ab3c 34c1 cd3d
000000d0: 79ed 9cbc 8b87 c53d b402 e03b 9f95 78bb
000000e0: 38ec 033e d4cc 5abd 407a bfbd 5f1b a9bc
000000f0: a5b7 92bd 1e3e 4d3b 1c3f ad3d 5fd0 f83d
00000100: d6cd cbbd 4311 c93d e078 733d f7a2 eb3d
00000110: 9409 e23d 41c7 b7bd f781 b9bd 2398 b9bd
00000120: 335b ca3d b7af 153d f8c9 af3d 17f2 9ebc
00000130: b74f cbbc d4cf c1bd 5a82 c33d 2b89 06bd
00000140: 3c5e dbbd 4960 93bc 2eaf c03d b65f 643d
00000150: b320 f3bd cfe5 ed3b 1a89 6dbb 9ffe 0b3e
00000160: c80d 0e3d 10b0 e0bd bc14 b13d 7432 2ebd
00000170: 638a acbd e656 d0bd cc80 e13c 04ca c93c
00000180: f47d acbd 3d57 343d 2755 fd3d d686 a13d
00000190: 6c00 f3bd 7d64 9abd a8d4 793d cc2b 9b3c
000001a0: 2ac5 cfbd 73f7 e3bd 806c 0bbc d2c1 c9bd
000001b0: 2212 00be 0eff b4bb 28ad ba3d 8566 653d
000001c0: 7a02 77bd 7f51 523d 9520 103d 4804 96bc
000001d0: 9a66 b2bd e45e c43c 518c 8cbd 08f5 c8ba
000001e0: 57b4 93bd 3e4c e53d e968 e93a 722a e03c
000001f0: 961b 9f3d 5594 2c3d 7b94 5b3d 780c 90bb
00000200: be57 d0bd 0250 fc3d 4deb 3ebd a3cf eb3c
00000210: eeeb 143b d924 4d3d 2e4d eb3d c29b b9bd
00000220: 2a82 f9bc 954e 14bd 411e cebd 0215 96bd
00000230: 9ba6 aabc 7c4d 353d cab4 a43d 1275 953d
00000240: 1978 8bbd e00c e63c ca63 123d e7b6 b4bd
00000250: 20ba 2c3d f759 46bd cd3c 31bd cf83 873d
00000260: 37f6 9ebd 4814 b5bd 6127 86bd f5fa a3bd
00000270: 4149 32bd e846 303d 6ec5 44bd c940 edbc
00000280: 6a4e 0ebe 7629 12bc c7f4 c3bd a872 6dbd
00000290: 2842 3a3d 7c80 ffbc b655 0bbd 8789 48bc
000002a0: 6005 1cbd 950a 03be 190c a03d c53a 7d3d
000002b0: e160 f9bd 2d79 c03d 7985 023e 7437 5a3d
000002c0: 4e58 3dbd 5211 4d3d 72b0 a2bd 5bb6 af3d
000002d0: 9e11 253c 4dd0 90bb 0487 e7bd 783e 47bd
000002e0: 5d5c b03d 0188 c1bc 5570 f4bd 6d79 ee3d
000002f0: 8936 70bd 6c20 f63d 1f7b 80bd 115b a23d
00000300: d2a1 813d 376b adbd 9a12 8fbc 8941 eb3d
00000310: 35a3 433d 8a4c 9a3d 09fa 71bc 5b26 cb3c
00000320: c045 25bd 59c1 9fbc f0b3 433d 2465 53bd
00000330: 849d a0bd 0dc5 8a3c 8899 f3bc 13d6 f6bd
00000340: e648 7bbd f943 fa3c 2513 b1bc 0a8e 263d
00000350: 3eb7 023e a20f 853d d10a b2bd 53ad 383c
00000360: f33a 9d3c 0c61 97bd 667f 2a3c b66a c0bd
00000370: c7d3 7d3d 28f1 d73c 9869 35bd e584 32bd
00000380: 3e06 223e c753 813c 4439 233d 49d5 bc3d
00000390: eeca 593d d7e1 a7bd 9230 82bd 4afc 20bd
000003a0: b4e0 b13d a370 32bd c4c6 583d 85ef cf3d
000003b0: 391f 643d 1fa7 003e effa 50bd 8e99 8c3d
000003c0: db95 f03d 0464 79bd e382 9ebd 2129 a63c
000003d0: 3849 22bd c421 be3c 2051 433d 3e19 bfbd
000003e0: 61da d6bd c2be f0bd cc86 d3bd 3adb eebd
000003f0: 9910 1ebd 4b08 8f3c 7b43 a13c 5244 50bc

encoder_block1.attention.w_concat.bias f4 [64]
-0.048085246 -0.0878483 0.07985245 0.04282603 -0.10560326 0.12591688 0.07493312 0.0093487
0.06615889 -0.073918454 -0.12201895 0.064598754 0.03422991 -0.0377311 -0.038159203 -0.10690308
-0.027670337 0.086351186 0.0069808457 0.047868453 0.004592239 0.022660976 0.086937584 0.117104925
0.06880512 -0.0035931962 -0.03920385 0.061326146 -0.094192736 -0.057518292 -0.006379137 -0.08693008
0.0061543956 -0.04021466 0.1220529 0.0077374415 0.06334297 -0.097981974 -0.09808606 0.0078259045
6.676188e-05 0.11427063 0.12232442 -0.10459302 0.01642597 -0.12675257 -0.055620003 -0.006139128
-0.023170652 -0.04190923 0.09363224 0.09394647 -0.10393101 0.10331181 -0.10510367 -0.12502424
0.060191292 -0.09400983 -0.031464107 0.030814933 0.020903466 0.0138687305 0.11854665 -0.009031853
00000000: 09f5 44bd cfe9 b3bd ae89 a33d 596a 2f3d
00000010: 8646 d8bd 5bf0 003e 8976 993d 4a2b 193c
00000020: 507e 873d 8f62 97bd 12e5 f9bd 5a4c 843d
00000030: a934 0c3d ed8b 1abd d34c 1cbd 01f0 dabd
00000040: e7ac e2bc e4d8 b03d 94bf e43b b611 443d
00000050: 7e7a 963b 83a3 b93c 550c b23d b5d4 ef3d
00000060: b3e9 8c3d d47b 6bbb 3794 20bd 2031 7b3d
00000070: 1fe8 c0bd 4d98 6bbd 1408 d1bb 6608 b2bd
00000080: d0aa c93b 21b8 24bd dff6 f93d 5d8a fd3b
00000090: f6b9 813d c6aa c8bd 58e1 c8bd 3938 003c
000000a0: 8302 8c38 b806 ea3d 3a85 fa3d de34 d6bd
000000b0: c18f 863c 6dcb 01be cdd1 63bd bd2a c9bb
000000c0: 61d0 bdbc 03a9 2bbd 43c2 bf3d 0267 c03d
000000d0: c8d9 d4bd 2495 d33d 9840 d7bd 5b06 00be
000000e0: 258b 763d 3a88 c0bd 82e0 00bd 996f fc3c
000000f0: bf3d ab3c ac39 633c 96c8 f23d 56fa 13bc

encoder_block1.norm1.weight f4 [64]
0.9736369 0.9959818 0.9997971 0.99659544 0.9912501 1.0003824 0.9956386 0.99837923
1.0092369 0.9953406 1.0026425 0.99697113 0.991348 1.0060433 0.98161143 1.0001994
1.0248263 1.0043557 0.9937829 0.99623793 0.9965846 0.98843676 1.0076494 0.9951231
1.0086142 0.99499017 1.0156873 0.996283 1.0056937 0.99879605 0.99669933 0.9804479
1.003417 0.99866223 0.98922443 0.9956616 0.98447955 0.9713428 1.0118737 0.9787559
1.0002842 1.0043995 0.9969397 0.98787796 0.99869776 0.99762475 1.0104119 0.99772793
1.0080031 1.0141906 0.9945994 0.9999793 1.0084794 1.0077893 0.9899391 1.0355957
1.0215721 1.0015848 1.0141996 0.99934775 1.0084252 0.99292624 0.9984616 0.9770326
00000000: 4540 793f aaf8 7e3f b4f2 7f3f e120 7f3f
00000010: 91c2 7d3f 880c 803f 2ce2 7e3f c895 7f3f
00000020: ad2e 813f a4ce 7e3f 9756 803f 8039 7f3f
00000030: fcc8 7d3f 07c6 803f e34a 7b3f 8906 803f
00000040: 822d 833f ba8e 803f 8e68 7e3f 7309 7f3f
00000050: 2b20 7f3f 310a 7d3f a8fa 803f 63c0 7e3f
00000060: 451a 813f adb7 7e3f 0b02 823f 670c 7f3f
00000070: 92ba 803f 19b1 7f3f b027 7f3f a2fe 7a3f
00000080: f86f 803f 54a8 7f3f d03d 7d3f aee3 7e3f
00000090: da06 7c3f eca9 783f 1485 813f bf8f 7a3f
000000a0: 5009 803f 2a90 803f 7137 7f3f 92e5 7c3f
000000b0: a8aa 7f3f 5664 7f3f 2d55 813f 196b 7f3f
000000c0: 3f06 813f ffd0 813f 119e 7e3f a5fe 7f3f
000000d0: da15 813f 3dff 803f a66c 7d3f 668e 843f
000000e0: e0c2 823f ee33 803f 4bd1 813f 41d5 7f3f
000000f0: 1414 813f 6a30 7e3f 2e9b 7f3f cf1e 7a3f

encoder_block1.norm1.bias f4 [64]
0.010159018 -0.0058400733 -0.0016097211 -0.0098379105 0.0037661537 0.0066710003 0.019735545 -0.0050551603
0.01674446 0.009593549 -0.0019898096 0.0013078143 -0.005597093 0.012563179 -0.011127872 -0.002543176
-0.01998134 0.008015521 0.0025320377 0.0031026087 0.007046772 -0.015366054 0.0028671178 0.00015475196
-0.0006284209 -0.00869426 -0.0076622437 -0.012811067 0.0075528002 0.018281037 -0.00022515844 -0.011450325
-0.009157876 0.0033807931 0.01830435 -0.0009994647 0.0069052028 -0.008405826 -0.007214777 0.004275155
-0.0054130475 0.0073438114 0.009024905 -0.0041204556 -0.00896354 -0.023282373 -0.0038632764 0.007266352
-0.009576269 0.004406308 -0.0011654511 0.007632147 0.0026924093 0.015837135 0.003925467 -0.034158934
-0.005783793 0.0127253905 -0.010781863 0.0044925874 -0.011642548 -0.0027892624 -0.005134048 -0.01791879
00000000: 0372 263c 165e bfbb 47fd d2ba 302f 21bc
00000010: 93d1 763b 6898 da3b 70ac a13c c2a5 a5bb
00000020: ae2b 893c 432e 1d3c 7767 02bb f76a ab3a
00000030: d267 b7bb cbd5 4d3c ae51 36bc 6aab 26bb
00000040: e8af a3bc 8853 033c 8bf0 253b 2355 4b3b
00000050: 9ce8 e63b e7c1 7bbc 41e6 3b3b ea44 2239
00000060: 9dbc 24ba 5f72 0ebc 8f13 fbbb 82e5 51bc
00000070: 7b7d f73b 1dc2 953c 8218 6cb9 259a 3bbc
00000080: ea0a 16bc 4c90 5d3b 01f3 953c 7800 83ba
00000090: 0a45 e23b 97b8 09bc f069 ecbb 9916 8c3b
000000a0: ef5f b1bb 5ba4 f03b 32dd 133c e304 87bb
000000b0: d0db 12bc adba bebc 062f 7dbb 941a ee3b
000000c0: c9e5 1cbc ca62 903b 0dc2 98ba 1717 fa3b
000000d0: 2273 303b e1bc 813c 34a1 803b 3dea 0bbd
000000e0: f985 bdbb 287e 503c 69a6 30bc 8e36 933b
000000f0: 63c0 3ebc 0fcc 36bb 843b a8bb 6dca 92bc

encoder_block1.trans_sample.0.weight f4 [32, 64]
0.09851207 0.10003134 0.049658235 -0.09594328 0.09176767 0.040896837 0.07800659 0.0806586
0.021372467 0.09570291 0.06330963 0.11210583 -0.013663021 0.11716602 -0.0004910591 -0.06367165
0.023408836 -0.09373515 0.11143757 -0.1362506 0.04892224 0.05016795 0.10240791 -0.059874877
0.045659736 -0.08704599 0.0063356883 -0.11403786 0.020329807 0.09333184 0.0682447 -0.002900712
0.12147818 0.08895676 0.08505644 -0.107687265 -0.12347635 0.05816722 0.1031131 -0.05411866
-0.037938852 -0.043439884 0.07576633 -0.021421002 -0.05888289 -0.04441325 0.068676226 -0.11023472
-0.013267005 0.095815316 -0.08065634 0.09824124 -0.058655504 -0.11031281 -0.030704552 0.10760136
-0.11309842 -0.11039578 -0.114373736 0.037505448 0.116399564 -0.09710775 -0.07405446 -0.10701652
-0.009753441 0.06344947 -0.044234145 0.12457062 -0.08561392 0.06765552 0.058170438 -0.11628756
0.030393671 -0.0029590065 -0.03824432 -0.112317204 -0.07341318 0.01604656 -0.04623741 -0.1282973
-0.0023126479 -0.06868643 -0.025372727 0.09839244 -0.042160418 -0.0922255 0.026333177 -0.02753842
0.087872505 -0.06763022 -0.037569143 -0.12424969 -0.03194304 -0.060828004 -0.11272296 -0.10709914
-0.03768742 0.0054483837 0.032813482 0.0034520573 -0.051236484 0.06157703 0.11350084 0.032440476
-0.08719225 -0.043946072 0.048451044 -0.119712606 0.12137061 0.027596064 0.116066694 0.09683649
-0.084449366 0.013569856 -0.012942256 0.00010330895 0.08454797 0.037169762 0.09370304 -0.017928837
-0.03084888 0.06684946 0.095611215 -0.060937513 0.0081324475 0.06409361 -0.009485719 -0.069545716
-0.083575875 0.074701734 0.06624048 0.0903982 -0.042550106 0.05544266 0.019222928 0.11722356
-0.08116148 -0.03484235 0.08548001 0.02435053 -0.056157723 0.07559519 -0.034297846 0.123066984
-0.0364931 0.023736546 -0.08071549 0.10627178 -0.07046397 0.08047475 -0.021562902 -0.12258836
-0.003029196 0.09828871 -0.076261975 0.00026794468 -0.016476793 0.10835016 0.09547492 0.08764257
0.082569525 0.017495802 0.025085412 0.0920285 0.0018241737 0.055454418 -0.025889847 0.022932328
0.11350121 -0.060268793 0.12330211 0.020657552 0.09036074 0.14869946 -0.0134177245 -0.13387416
0.12895462 0.016135734 -0.07639007 -0.08551566 0.077178836 0.02170301 -0.027911056 0.036184378
0.025558922 0.099318065 0.11619391 -0.104637824 0.024328193 0.049254395 -0.02080455 0.09862725
-0.072051756 -0.07786902 0.09650355 -0.019591372 0.09422786 -0.041032895 -0.10016481 -0.014315899
0.025914496 -0.08877203 -0.07616149 -0.016885258 0.051415164 0.030113366 0.08778959 0.09842202
-0.096109696 -0.10703741 -0.069161415 -0.08766626 0.10446149 -0.060192272 0.11545226 -0.10148952
0.13771997 -0.041032884 0.13879631 0.08012571 -0.10352566 -0.050296657 -0.0702713 0.07118781
0.017599393 0.05836721 0.07209696 -0.1295444 0.084047824 -0.01563695 0.04246296 0.0003832531
0.020283213 0.030103045 -0.022505825 0.029811302 0.04996102 -0.102946 -0.099538736 -0.011134272
0.03129508 -0.010697897 0.062316723 0.037305146 0.14369954 0.030205507 -0.028151274 0.05256159
0.048632223 0.103764504 -0.079477325 -0.07827465 0.0035678288 0.06697909 -0.051532608 -0.079908326
00000000: b2c0 c93d 3bdd cc3d 6f66 4b3d e97d c4bd
00000010: b0f0 bb3d 7183 273d ebc1 9f3d 5630 a53d
00000020: 5015 af3c e3ff c33d 7ba8 813d be97 e53d
00000030: ddda 5fbc bdf4 ef3d 6bba 00ba 4866 82bd
00000040: e3c3 bf3c 37f8 bfbd 6139 e43d 4785 0bbe
00000050: b062 483d e97c 4d3d 3dbb d13d 5c3f 75bd
00000060: b405 3b3d 2b45 b2bd 9b9b cf3b ae8c e9bd
00000070: b28a a63c c424 bf3d e1c3 8b3d df19 3ebb
00000080: 8dc9 f83d f62e b63d 1232 ae3d 248b dcbd
00000090: 2be1 fcbd c040 6e3d f62c d33d 87ab 5dbd
000000a0: c565 1bbd 05ee 31bd 612b 9b3d 197b afbc
000000b0: 2f2f 71bd abea 35bd 1fa6 8c3d bec2 e1bd
000000c0: da5d 59bc d23a c43d 272f a5bd b432 c93d
000000d0: c140 70bd afeb e1bd 1d88 fbbc 1a5e dc3d
000000e0: 25a0 e7bd 2f17 e2bd c73c eabd 509f 193d
000000f0: e562 ee3d 6ee0 c6bd dda9 97bd 7a2b dbbd
00000100: e6cc 1fbc ccf1 813d dd2e 35bd e21e ff3d
00000110: 5a56 afbd fa8e 8a3d 2044 6e3d 2c28 eebd
00000120: 26fc f83c e4eb 41bb 13a6 1cbd 9006 e6bd
00000130: a659 96bd 1374 833c 7063 3dbd 5e60 03be
00000140: cb8f 17bb 79ab 8cbd 77da cfbc fa81 c93d
00000150: 67b0 2cbd b9e0 bcbd adb8 d73c 4198 e1bc
00000160: 80f6 b33d b681 8abd 1ae2 19bd 9f76 febd
00000170: b5d6 02bd c926 79bd 4cdb e6bd cb56 dbbd
00000180: 205e 1abd 5b88 b23b 6e67 063d e93b 623b
00000190: 59dd 51bd 3238 7c3d 2173 e83d 4ee0 043d
000001a0: da91 b2bd cc00 34bd 9a74 463d e22b f5bd
000001b0: 2891 f83d 2411 e23c 60b4 ed3d 3652 c63d
000001c0: caf3 acbd 1a54 5e3c c20b 54bc 92a7 d838
000001d0: 7c27 ad3d 523f 183d 61e7 bf3d 7fdf 92bc
000001e0: cab6 fcbc 5fe8 883d d0cf c33d 9d99 79bd
000001f0: f53d 053c 8343 833d fd69 1bbc fc6d 8ebd
00000200: d429 abbd 39fd 983d 17a9 873d b122 b93d
00000210: 0549 2ebd d817 633d 6779 9d3c e812 f03d
00000220: fd37 a6bd dab6 0ebd 2510 af3d c37a c73c
00000230: a405 66bd a7d1 9a3d e67b 0cbd 8b0a fc3d
00000240: ca79 15bd 2573 c23c 2a4e a5bd 05a5 d93d
00000250: 6a4f 90bd f2cf a43d afa4 b0bc 9b0f fbbd
00000260: 7a85 46bb 974b c93d 3d2f 9cbd ed7a 8c39
00000270: 57fa 86bc b0e6 dd3d 5b88 c33d f37d b33d
00000280: 361a a93d 5b53 8f3c ec7f cd3c 7079 bc3d
00000290: 1d19 ef3a 2c24 633d f216 d4bc 94dc bb3c
000002a0: 5373 e83d 69dc 76bd d185 fc3d 073a a93c
000002b0: 0d0f b93d ac44 183e 04d6 5bbc 4f16 09be
000002c0: ae0c 043e 162f 843c 6672 9cbd d622 afbd
000002d0: f00f 9e3d 83ca b13c baa5 e4bc 1236 143d
000002e0: f260 d13c 4567 cb3d 13f7 ed3d 5b4c d6bd
000002f0: eb4b c73c fabe 493d 4e6e aabc 15fd c93d
00000300: df8f 93bd cb79 9fbd a7a3 c53d 167e a0bc
00000310: 89fa c03d 1c12 28bd 3523 cdbd 3c8d 6abc
00000320: a34a d43c 1cce b5bd 8efa 9bbd f452 8abc
00000330: b598 523d 4eb0 f63c 07cb b33d 7c91 c93d
00000340: 29d5 c4bd 6e36 dbbd 80a4 8dbd 5e8a b3bd
00000350: e8ef d53d 2c8c 76bd 3c72 ec3d bdd9 cfbd
00000360: 7706 0d3e 1912 28bd 9f20 0e3e f318 a43d
00000370: 4305 d4bd de03 4ebd 66ea 8fbd eaca 913d
00000380: 9a2c 903c 7512 6f3d 92a7 933d 4aa7 04be
00000390: 4421 ac3d 1019 80bc a4ed 2d3d 5cef c839
000003a0: fb28 a63c a99a f63c 235e b8bc d536 f43c
000003b0: eda3 4c3d 5ad5 d2bd f7da cbbd 866c 36bc
000003c0: 452f 003d 3b46 2fbc d23f 7f3d 48cd 183d
000003d0: f925 133e 8a71 f73c 809d e6bc d24a 573d
000003e0: 9532 473d 7c82 d43d 02c5 a2bd 764e a0bd
000003f0: 3cd2 693b 552c 893d db13 53bd faa6 a3bd

encoder_block1.trans_sample.0.bias f4 [32]
-0.022379542 -0.072494335 -0.060514122 -0.10249776 -0.061785225 -0.05376295 -0.032724645 0.100548506
-0.067279756 -0.013701756 0.036584556 -0.09737846 -0.07733264 0.07092069 0.021205146 0.09795061
0.04595404 -0.105979756 -0.019423949 0.06823024 0.05665821 -0.021424944 -0.08469197 -0.02790081
0.103022926 0.029621674 -0.013214827 -0.07970046 -0.057724547 0.11328151 -0.07549772 -0.013283646
00000000: 4d55 b7bc e977 94bd a8dd 77bd 58ea d1bd
00000010: 8112 7dbd 8a36 5cbd 470a 06bd 60ec cd3d
00000020: f8c9 89bd 547d 60bc b0d9 153d 5c6e c7bd
00000030: 9360 9ebd de3e 913d 6ab6 ad3c 549a c83d
00000040: 4e3a 3c3d ea0b d9bd f91e 9fbc 4cbc 8b3d
00000050: 7012 683d 5d83 afbc fc72 adbd 3d90 e4bc
00000060: affd d23d 27a9 f23c 0083 58bc ff39 a3bd
00000070: 9370 6cbd 2300 e83d 8c9e 9abd a6a3 59bc

encoder_block1.norm2.weight f4 [32]
0.9994814 0.9913762 1.0020696 1.0053654 0.98603904 0.98460996 1.0070908 0.98488027
0.985223 0.9872758 1.0013564 0.9896987 0.99630815 0.977014 1.0057393 0.9867451
0.9920277 0.99777615 1.0048417 1.0084046 0.9898254 0.9813147 0.995545 0.9893151
0.9934491 0.9957733 1.004896 0.98408836 0.99266064 1.0238423 1.0122459 0.99968815
00000000: 03de 7f3f d5ca 7d3f d143 803f d0af 803f
00000010: 0e6d 7c3f 660f 7c3f 5ae8 803f 1d21 7c3f
00000020: 9337 7c3f 1bbe 7c3f 722c 803f e55c 7d3f
00000030: 0d0e 7f3f 971d 7a3f 11bc 803f 549b 7c3f
00000040: 87f5 7d3f 426e 7f3f a79e 803f 6713 813f
00000050: 3365 7d3f 7137 7b3f 0adc 7e3f c143 7d3f
00000060: ae52 7e3f 00eb 7e3f 6fa0 803f 37ed 7b3f
00000070: 021f 7e3f 440d 833f 4691 813f 90eb 7f3f
