models/error_encoder_all_state_dict_best_-2869.7734.pth (torch, 283671 bytes, 125 tensors)

embedder.dim_up.weight f4 [64, 8]
0.21852264 0.06357908 0.12130347 0.101768166 0.31289074 0.020771146 0.2994865 -0.1775575
0.0917539 -0.029788852 0.25533018 0.24244258 0.31329897 0.052622348 0.06394285 -0.10702285
-0.17996018 -0.08990398 -0.1538732 -0.027711093 -0.20499818 -0.1602861 -0.19636309 0.35345104
-0.28995854 -0.029055566 0.003970206 -0.3314571 0.26985183 0.2024791 0.29743955 -0.3012228
0.1452589 0.31044933 -0.11233702 -0.34325847 -0.15431154 -0.28701076 0.14593852 0.07361233
-0.023650318 0.06866261 0.2744275 -0.0615277 0.26003537 0.13780907 0.11533505 0.074132055
-0.07555249 -0.041980207 0.26557812 0.22460845 -0.12278199 0.28792086 -0.0010539293 -0.023467898
0.03126335 0.13617879 -0.18532243 0.094318986 -0.22561634 -0.07765564 -0.03605801 -0.0936985
-0.0750151 0.14556143 0.050302863 -0.03915146 0.07346794 0.15495566 0.22595379 0.05029416
0.20432064 0.0045440197 0.083590895 0.13818324 0.15919766 0.33823374 0.28757033 0.2929153
-0.069889724 -0.010736138 0.14115325 -0.17504744 0.23796049 -0.26077527 -0.08063522 -0.28260776
-0.18121341 -0.10218823 0.17180571 0.20880213 0.30567196 -0.060745656 -0.009185612 -0.21976921
-0.3029656 -0.23590863 0.0016221106 -0.18784828 -0.21946546 0.27614805 0.20395163 0.0143639445
-0.23009595 -0.24509588 -0.010020614 0.211952 -0.038328737 -0.1138785 0.23573413 0.22183374
0.33757952 -0.29058704 0.009256363 -0.15759052 -0.17344676 -0.3241945 0.14014933 0.19247296
0.16133133 0.107411444 0.14123648 0.044925034 -0.16544366 -0.30081102 -0.12468521 0.33483657
0.036556035 0.3090833 0.30472025 0.060479462 -0.0015327036 0.25203434 0.3224263 -0.258815
0.024204016 -0.33688843 0.07001948 -0.008603424 -0.11768706 0.29064533 0.01144582 0.30456457
0.3292041 -0.20678478 0.08893308 -0.2691195 -0.12226699 0.28017786 -0.08544499 -0.3382735
0.19220814 0.29419884 0.096734345 0.054683596 -0.07351625 0.26972684 -0.23569268 0.2707375
0.1919978 0.07325494 -0.2048221 -0.34739253 0.057363957 -0.31470516 -0.049788952 -0.0027038455
-0.034523338 -0.34409094 0.10844159 0.1601862 -0.31978938 -0.07710594 0.016934365 -0.030637205
0.24684319 -0.083817214 -0.24024513 -0.34081122 0.34812793 0.24215427 0.007200122 -0.3530436
0.1008583 0.0716455 0.12300575 -0.1337126 -0.30014655 -0.1834865 -0.15656146 0.05182129
-0.06859568 0.020498216 0.29610494 -0.055820256 0.1575999 -0.04415679 0.23875019 0.3477241
-0.08936414 0.19469646 -0.30379963 0.17932007 0.23579642 0.29417053 0.029353797 -0.18436076
0.2517703 -0.07701877 0.33114597 0.013773829 0.16234776 -0.06006947 0.3448622 0.039651364
0.016718715 -0.124586254 -0.20663546 0.30115584 0.34788004 0.3139185 0.28993455 -0.005665213
0.22632548 0.17627278 -0.13828512 -0.2799881 0.3243923 -0.11574684 0.02334109 -0.11848393
0.24107978 -0.024318188 0.016769052 -0.1432981 0.096083224 -0.2273981 -0.16287893 0.35250124
0.19177625 0.00088718534 -0.31053945 0.08659381 0.32653597 0.097792834 0.11340043 -0.21119209
0.09811324 -0.06179157 -0.31731665 -0.09017593 -0.100434035 0.013206661 -0.124843225 0.20938209
00000000: 66c4 5f3e c035 823d f46d f83d d46b d03d
00000010: 3733 a03e 4028 aa3c 4b56 993e a2d1 35be
00000020: 78e9 bb3d c007 f4bc a3ba 823e de42 783e
00000030: b968 a03e 888a 573d 78f4 823d cc2e dbbd
00000040: 7b47 38be 941f b8bd f090 1dbe 6002 e3bc
00000050: 0beb 51be 0a22 24be 6813 49be 89f7 b43e
00000060: 7275 94be f005 eebc 8018 823b bfb4 a9be
00000070: 052a 8a3e ae56 4f3e ff49 983e e039 9abe
00000080: c0be 143e 37f3 9e3e f410 e6bd 93bf afbe
00000090: d803 1ebe 13f3 92be e870 153e 10c2 963d
000000a0: 50be c1bc fc9e 8c3d c381 8c3e 7804 7cbd
000000b0: 5b23 853e d21d 0d3e c834 ec3d 8cd2 973d
000000c0: 44bb 9abd 70f3 2bbd dbf9 873e c2ff 653e
000000d0: 2075 fbbd 5d6a 933e 0024 8aba c03f c0bc
000000e0: 000e 003d 7472 0b3e 2ac5 3dbe 502a c13d
000000f0: f807 67be ec09 9fbd 90b1 13bd 00e5 bfbd
00000100: 84a1 99bd 0e0e 153e 600a 4e3d 485d 20bd
00000110: 5c76 963d b2ac 1e3e 6e60 673e 4001 4e3d
00000120: 6e39 513e 00e6 943b b431 ab3d e87f 0d3e
00000130: b604 233e f92c ad3e 6b3c 933e fff8 953e
00000140: 5822 8fbd a0e6 2fbc 7a8a 103e a33f 33be
00000150: eaab 733e 5684 85be 1424 a5bd f7b1 90be
00000160: 0290 39be 1048 d1bd d6ed 2f3e 3ad0 553e
00000170: 0981 9c3e 70d0 78bd 407f 16bc 2e0b 61be
00000180: 4f1e 9bbe 0892 71be 009d d43a 4d5b 40be
00000190: 8ebb 60be 4763 8d3e b2d8 503e c056 6b3c
000001a0: 469e 6bbe 6afa 7abe 802d 24bc f209 593e
000001b0: 98fe 1cbd 2239 e9bd 4a64 713e 6228 633e
000001c0: 39d7 ac3e d3c7 94be 00a8 173c 695f 21be
000001d0: 079c 31be d2fc a5be 4e83 0f3e a217 453e
000001e0: 0a34 253e 88fa db3d 4ca0 103e 5003 383d
000001f0: 106a 29be e703 9abe f65a ffbd b36f ab3e
00000200: c8bb 153d 2b40 9e3e 4b04 9c3e 50b9 773d
00000210: 00e5 c8ba a50a 813e 0f15 a53e 6683 84be
00000220: 8047 c63c a47c acbe 6066 8f3d 60f5 0cbc
00000230: ea05 f1bd 77cf 943e 4087 3b3c e3ef 9b3e
00000240: 718d a83e 64bf 53be 8c22 b63d 08ca 89be
00000250: 1e67 fabd 7973 8f3e c8fd aebd 2f32 adbe
00000260: 36d2 443e 3ba1 963e a81c c63d e8fb 5f3d
00000270: b08f 96bd a319 8a3e 6c59 71be 1b9e 8a3e
00000280: 129b 443e b006 963d e2bc 51be 6fdd b1be
00000290: 78f6 6a3d 0921 a1be 80ef 4bbd 0033 31bb
000002a0: 5868 0dbd b02c b0be a016 de3d da07 243e
000002b0: 6fbb a3be b8e9 9dbd f0b9 8a3c e0fa fabc
000002c0: 76c4 7c3e 5ca8 abbd d202 76be cf7e aebe
000002d0: d33d b23e 4af7 773e 00ef eb3b 21c2 b4be
000002e0: cc8e ce3d e0ba 923d 70ea fb3d f5eb 08be
000002f0: cfac 99be e3e3 3bbe a651 20be 9042 543d
00000300: e47b 8cbd e0eb a73c 119b 973e c8a3 64bd
00000310: de61 213e c0dd 34bd ee7a 743e e508 b23e
00000320: 8c04 b7bd 825e 473e a08b 9bbe ae9f 373e
00000330: 9e74 713e 859d 963e 6077 f03c 11c9 3cbe
00000340: 09e8 803e 04bc 9dbd f78b a93e a0ab 613c
00000350: 7e3e 263e 680b 76bd c791 b03e 7869 223d
00000360: b0f5 883c 1427 ffbd 3f98 53be 1931 9a3e
00000370: 551d b23e edb9 a03e 4d72 943e 40a3 b9bb
00000380: dec1 673e da80 343e 9d9a 0dbe 9a5a 8fbe
00000390: bf16 a63e ae0c edbd d035 bf3c b4a7 f2bd
000003a0: 9edd 763e f036 c7bc 405f 893c bdbc 12be
000003b0: 48c7 c43d 0cdb 68be bcc9 26be 0b7b b43e
000003c0: fe60 443e 0092 683a 07ff 9ebe 1858 b13d
000003d0: b92f a73e 9c47 c83d 7c3e e83d bd42 58be
000003e0: 98ef c83d 2819 7dbd 5477 a2be 28ae b8bd
000003f0: 5cb0 cdbd c060 583c cead ffbd 4268 563e

embedder.dim_up.bias f4 [64]
0.15217897 0.120164424 -0.26232433 -0.18439367 0.20733228 0.27036867 0.138033 -0.13401559
0.33948144 -0.32336196 -0.018950433 0.08185023 0.22088233 0.16372219 0.35118297 -0.1276437
-0.0066072643 -0.07244262 0.33169273 -0.0139018 -0.26122445 -0.15997413 0.3061119 0.30573544
-0.020577729 -0.30835325 0.17930815 -0.33591905 -0.060315818 0.25848487 0.18641695 0.16924354
-0.104803115 0.29756257 -0.19548854 0.18482295 0.02321288 -0.24631909 0.2560877 0.19877467
-0.050559193 -0.010059595 -0.20532225 -0.17199808 -0.35315272 -0.057208538 -0.06609133 0.061696947
0.20298025 0.12853423 0.03520173 0.31734553 0.2836043 0.13568938 0.27491924 -0.32147497
0.23016468 0.035308212 0.2917528 0.12570536 -0.28063947 -0.15785563 0.06431389 -0.13497992
00000000: ced4 1b3e c418 f63d 604f 86be b2d1 3cbe
00000010: ea4e 543e c36d 8a3e 8658 0d3e 623b 09be
00000020: 83d0 ad3e b38f a5be f03d 9bbc 18a1 a73d
00000030: fa2e 623e caa6 273e 41ce b33e 08b5 02be
00000040: c081 d8bb cc5c 94bd a1d3 a93e 60c4 63bc
00000050: 36bf 85be 42d0 23be b3ba 9c3e 5b89 9c3e
00000060: a092 a8bc 7ae0 9dbe 8e9c 373e 95fd abbe
00000070: b80d 77bd 2158 843e 16e4 3e3e 2e4e 2d3e
00000080: 04a3 d6bd 1f5a 983e 262e 48be 3a42 3d3e
00000090: f028 be3c 123b 7cbe ed1d 833e 968b 4b3e
000000a0: 2817 4fbd 00d1 24bc ff3f 52be 4420 30be
000000b0: 6fd0 b4be 8053 6abd e45a 87bd f0b5 7c3d
000000c0: 0eda 4f3e 7a9e 033e b02f 103d 1d7b a23e
000000d0: 9534 913e 28f2 0a3e 37c2 8c3e 5e98 a4be
000000e0: 4ab0 6b3e 589f 103d 9f60 953e e8b8 003e
000000f0: faaf 8fbe e8a4 21be 00b7 833d 2d38 0abe

encoder_block1.attention.w_q.weight f4 [64, 64]
0.11911623 0.07428263 0.06738351 -0.116989136 -0.06552416 0.033271134 -0.050102934 -0.10542221
0.09851211 -0.09140834 -0.111528546 0.09429452 0.060809493 -0.11689849 0.017151877 -0.07658136
-0.010125741 0.030398741 -0.064866945 0.09173076 0.025062263 0.032508448 0.08043055 0.021079421
0.093792915 0.06348975 -0.117712766 0.10141614 0.088269174 -0.014713094 0.05318284 -0.022626907
0.04815972 -0.030682608 -0.107087046 -0.066286385 0.06823391 0.11547886 -0.017483607 0.030911282
0.09818947 0.087191716 0.058235288 0.10542281 -0.028046727 -0.037566304 0.11369385 -0.012512073
-0.071475506 -0.10514131 -0.0874065 0.06046301 0.027793705 -0.036672577 0.11124863 -0.11183335
-0.095170826 -0.03344117 0.0036312789 0.057707667 -0.06617841 0.00955233 -0.07255106 0.11751446
-0.06376651 -0.115958646 0.009680107 0.074349225 -0.0619829 0.013460815 0.06576449 0.019235566
0.106622115 -0.10802071 0.045266315 0.029582858 -0.10356426 -0.014747351 -0.10497779 -0.047569036
0.0035475045 -0.033713862 -0.004199311 -0.049899995 0.06819853 0.09085658 -0.08050418 0.080399975
-0.027593553 -0.09347817 -0.018442988 0.023651898 0.106123075 0.01651688 -0.06715995 0.103474215
-0.03815043 0.0136673 0.10775794 -0.023732841 0.0616457 0.06644808 0.10754798 -0.09037931
-0.0062212497 -0.009812281 -0.0811173 0.11328432 0.102538496 -0.11552642 -0.04743059 0.036101878
-0.09677091 -0.11164738 -0.10967314 -0.07358447 -0.0935529 -0.015910923 -0.033314556 -0.015137747
0.09460378 0.12049435 -0.04914525 0.06924148 -0.02723962 0.1236375 -0.08869332 -0.03584844
0.10408147 -0.084873065 -0.09042415 0.06892352 0.079318166 0.017439768 -0.071975544 0.054191574
-0.051010758 -0.10725631 -0.01581283 -0.115564406 -0.10502066 -0.06783122 0.04151006 -0.0427033
-0.11000207 -0.035127267 -0.08899093 -0.025983661 0.08437732 -0.07093082 0.108974606 0.12011415
-0.06763406 -0.09045978 0.11334315 -0.117422014 -0.0058624297 -0.057482675 -0.08182001 -0.062002808
-0.0023289174 0.012117922 0.044925526 0.017182052 -0.098383665 0.005597964 -0.08199169 -0.10927801
-0.11861168 0.11625776 -0.11593361 -0.12333226 0.06812492 0.079347536 -0.056357786 0.10529494
0.095224515 -0.08307636 -0.0433677 -0.059323415 -0.07416992 -0.08567177 0.121150106 0.09003669
-0.088716656 0.057779476 -0.059815675 0.010621712 -0.12401003 0.11253266 -0.048839882 0.041354954
-0.06599943 -0.113249734 0.0427804 -0.0006040931 0.07725349 -0.07351814 0.007338807 -0.022714764
0.02568151 0.10502006 0.115649104 -0.010915652 0.0043273717 0.03739105 0.1034161 -0.030376464
0.11437723 -0.0855706 0.022926584 0.10589336 -0.08516909 -0.116077796 0.073655635 -0.03549534
-0.02929376 -0.0136877 -0.10797918 -0.09473501 0.021695524 0.06517528 0.0058380216 -0.075660974
-0.039151892 0.092018396 0.0714014 0.06871638 0.053243443 0.122934595 -0.07575825 -0.040731356
0.09425652 0.12212403 0.007921532 0.07820748 -0.100755274 0.0710351 -0.081674516 0.04198657
-0.029256225 0.12062079 -0.05125025 0.11153929 -0.00064677 -0.091641545 -0.026695058 0.069486976
-0.07143268 0.051332742 0.039235994 0.100430906 -0.062375367 0.01916258 0.0043838173 -0.0061615556
00000000: 36f3 f33d 7e21 983d 5e00 8a3d 0098 efbd
00000010: 8831 86bd 5047 083d bc38 4dbd 9ae7 d7bd
00000020: b8c0 c93d 4c34 bbbd 1469 e4bd 7c1d c13d
00000030: 6013 793d 7a68 efbd 1882 8c3c b0d6 9cbd
00000040: 70e6 25bc c806 f93c f6d8 84bd 56dd bb3d
00000050: 604f cd3c 9427 053d c6b8 a43d c0ae ac3c
00000060: 8016 c03d ea06 823d 6413 f1bd 44b3 cf3d
00000070: 78c6 b43d 300f 71bc 40d6 593d 105c b9bc
00000080: 2043 453d 185a fbbc 7450 dbbd 28c1 87bd
00000090: 38be 8b3d 2e80 ec3d c839 8fbc a839 fd3c
000000a0: 9017 c93d 9291 b23d 2088 6e3d eae7 d73d
000000b0: 40c2 e5bc 20df 19bd 52d8 e83d 70ff 4cbc
000000c0: c061 92bd 5454 d7bd 2e02 b3bd 10a8 773d
000000d0: a0af e33c fc35 16bd 52d6 e33d e208 e5bd
000000e0: ece8 c2bd 9cf9 08bd c0fa 6d3b e05e 6c3d
000000f0: 8c88 87bd 6081 1c3c a695 94bd 6cab f03d
00000100: 0498 82bd ba7b edbd 5099 1e3c 6844 983d
00000110: c8e1 7dbd c08a 5c3c 88af 863d e893 9d3c
00000120: b25c da3d f639 ddbd 2c69 393d c057 f23c
00000130: 8019 d4bd e09e 71bc 98fe d6bd c0d7 42bd
00000140: 407d 683b 8c17 0abd 609a 89bb f063 4cbd
00000150: acab 8b3d 0413 ba3d 60df a4bd bea8 a43d
00000160: e00b e2bc 7c71 bfbd c015 97bc a0c1 c13c
00000170: 0e57 d93d 684e 873c 288b 89bd 4aea d33d
00000180: a043 1cbd d0ec 5f3c 32b0 dc3d 606b c2bc
00000190: 3480 7c3d ee15 883d 1e42 dc3d ca18 b9bd
000001a0: a0db cbbb b0c3 20bc d420 a6bd 9c01 e83d
000001b0: b4ff d13d 1e99 ecbd 9446 42bd 90df 133d
000001c0: d42f c6bd 62a7 e4bd 509c e0bd 74b3 96bd
000001d0: aa98 bfbd a057 82bc d874 08bd 5004 78bc
000001e0: a0bf c13d bec5 f63d 884c 49bd 7ace 8d3d
000001f0: a025 dfbc a835 fd3d d8a4 b5bd d0d5 12bd
00000200: aa28 d53d eed1 adbd 4c30 b9bd c627 8d3d
00000210: 9071 a23d d8dd 8e3c ea67 93bd fcf7 5d3d
00000220: a8f0 50bd 32a9 dbbd e889 81bc 08ad ecbd
00000230: 1215 d7bd 18eb 8abd 7406 2a3d a8e9 2ebd
00000240: c448 e1bd 9ce1 0fbd e040 b6bd b0db d4bc
00000250: 04ce ac3d 2e44 91bd 142e df3d 68fe f53d
00000260: ba83 8abd fa42 b9bd 7420 e83d f47a f0bd
00000270: a019 c0bb f472 6bbd 4091 a7bd a8f6 7dbd
00000280: c0a0 18bb 408a 463c d403 383d 60c1 8c3c
00000290: 607d c9bd 206f b73b 42eb a7bd 26cd dfbd
000002a0: aeea f2bd 8c18 ee3d 9a6e edbd a095 fcbd
000002b0: 1485 8b3d f680 a23d 6cd7 66bd e0a4 d73d
000002c0: 1205 c33d f023 aabd 54a2 31bd 1cfd 72bd
000002d0: 66e6 97bd ae74 afbd 8c1d f83d 2865 b83d
000002e0: 14b1 b5bd 2caa 6c3d 4801 75bd b006 2e3c
000002f0: f8f8 fdbd 8677 e63d 540c 48bd d063 293d
00000300: b62a 87bd 7aef e7bd 803a 2f3d 005c 1eba
00000310: 1437 9e3d ae90 96bd 607a f03b 5014 babc
00000320: 0862 d23c c214 d73d 70d9 ec3d 90d7 32bc
00000330: a0cc 8d3b 5c27 193d d2cb d33d 10d8 f8bc
00000340: 9c3e ea3d a43f afbd 88d0 bb3c 9ede d83d
00000350: 226d aebd 32ba edbd c4d8 963d 9063 11bd
00000360: 78f9 efbc 6042 60bc 3024 ddbd 6e04 c2bd
00000370: d0ba b13c 9e7a 853d e04c bf3b 24f4 9abd
00000380: bc5d 20bd 2474 bc3d e63a 923d 2cbb 8c3d
00000390: cc15 5a3d 22c5 fb3d 2427 9bbd ecd5 26bd
000003a0: 9009 c13d 2a1c fa3d 50c9 013c 3e2b a03d
000003b0: c858 cebd da7a 913d f844 a7bd 1cfa 2b3d
000003c0: c0aa efbc 0808 f73d c8eb 51bd b66e e43d
000003d0: 008c 29ba 90ae bbbd 98af dabc 304f 8e3d
000003e0: 4c4b 92bd 4842 523d ecb5 203d b8ae cd3d
000003f0: 507d 7fbd d8fa 9c3c 20a6 8f3b e0e6 c9bb

encoder_block1.attention.w_q.bias f4 [64]
-0.00043793023 0.08881083 -0.015936434 0.088848636 -0.03398505 -0.08355741 0.07099326 -0.0036704838
0.11226353 0.10185288 0.05972661 -0.06767775 0.110865355 0.04664214 0.04634796 -0.046005815
0.07743688 -0.021763012 -0.05312504 0.00867492 -0.11655958 0.07849166 0.108024105 0.11579144
0.09568405 -0.09396513 -0.11051975 -0.09939292 -0.030881867 -0.081312984 0.027699962 0.015018746
-0.032448113 -0.063151 0.07312347 0.03588511 -0.07072802 -0.027680606 0.10505675 -0.026480868
-0.11405446 -0.12015866 -6.0126185e-05 -0.013559118 -0.10163458 -0.010858908 0.08929859 0.025387406
0.07701188 -0.00444299 -0.1245728 -0.08309811 -0.04314755 0.12262347 -0.013819918 -0.08614834
0.045991227 -0.12022591 0.04522401 -0.03126581 -0.015489131 0.04492086 -0.1156639 0.10990684
00000000: 009a e5b9 74e2 b53d 208d 82bc 46f6 b53d
00000010: e833 0bbd 2620 abbd ea64 913d 808c 70bb
00000020: 6cea e53d 3e98 d03d e4a3 743d a29a 8abd
00000030: 600d e33d d40b 3f3d 5cd7 3d3d 9870 3cbd
00000040: 3a97 9e3d 5848 b2bc a499 59bd 4021 0e3c
00000050: cab6 eebd 3cc0 a03d be3b dd3d 1024 ed3d
00000060: 00f6 c33d ca70 c0bd 2e58 e2bd 848e cbbd
00000070: f8fb fcbc 6c87 a6bd 08eb e23c 3011 763c
00000080: 50e8 04bd 5055 81bd c2c1 953d 44fc 123d
00000090: dad9 90bd 70c2 e2bc fe27 d73d 68ee d8bc
000000a0: 6295 e9bd be15 f6bd 0030 7cb8 1027 5ebc
000000b0: ca25 d0bd 90e9 31bc 2ee2 b63d 40f9 cf3c
000000c0: 68b8 9d3d 8096 91bb 0620 ffbd 582f aabd
000000d0: 7cbb 30bd 0422 fb3d f06c 62bc 8a6e b0bd
000000e0: 4c61 3c3d 0039 f6bd d03c 393d 9410 00bd
000000f0: 20c6 7dbc f0fe 373d 32e1 ecbd d616 e13d

encoder_block1.attention.w_k.weight f4 [64, 64]
0.053741172 0.11739662 -0.05968128 0.08185993 0.023929 0.046554208 0.0035805106 -0.092211485
0.07668412 -0.0559323 0.07532598 0.08117981 0.10047451 -0.082396865 0.11468549 -0.016541228
0.026651219 0.017952114 -0.044960946 0.108600736 -0.045091376 0.027036622 -0.070969686 0.016956255
0.065804884 -0.09891997 0.014352366 -0.124568984 0.057507098 -0.117514804 -0.0268275 0.05639735
-0.09079091 0.06823233 -0.10786715 0.116433755 0.11783998 0.014226407 0.08257693 -0.09231852
0.04640712 0.068254575 -0.042014495 0.09060381 -0.02936308 0.038190812 0.08535792 0.09773202
0.10423054 -0.07379834 -0.09919067 0.11261299 -0.0039789677 -0.11727384 -0.01861097 -0.11230467
0.11933467 -0.018404052 0.11324328 0.07126497 -0.036327273 0.0341565 0.033922806 -0.07725799
0.111084804 0.04662642 0.023720488 0.007547632 0.0982303 -0.08412416 -0.024126008 0.031511024
-0.07895236 0.08776969 0.09655151 0.01677382 0.00480482 0.00544475 -0.10062477 0.04172802
-0.04520257 0.07013734 0.0033739358 -0.07850017 -0.06438567 0.013050526 -0.0796915 -0.05298166
-0.021918833 0.07239401 0.0008263141 0.022822902 0.07769123 0.041221708 0.056968212 0.049996093
-0.06630023 0.044931427 0.048918933 -0.081797555 0.007545635 -0.10012968 -0.02330564 -0.09342326
-0.008386672 -0.014925048 0.08332951 0.04985276 0.076259136 -0.11655098 -0.07476905 -0.11702168
0.08777028 -0.08672921 -0.080654845 0.04763849 0.014944524 0.007884607 -0.1184586 -0.118403256
0.058870673 -0.055524126 0.10845508 -0.10301295 -0.05652617 -0.03545077 -0.002304718 0.06516205
-0.102783576 -0.111983895 0.05871196 0.09898731 0.045633867 -0.044532895 0.0990686 -0.12419163
-0.022108078 -0.018299356 0.09800233 0.09038128 -0.035976425 -0.03835906 -0.08309993 -0.02351436
-0.058830917 0.059948266 0.10033578 -0.0141776055 0.06331818 -0.0005031675 0.047307312 -0.04921052
0.08656205 -0.030324414 0.106261864 0.12051973 0.059450805 0.040198654 0.017637983 -0.02687259
0.05112852 -0.09672439 -0.05580555 0.11004399 -0.086478785 0.06552181 0.031158447 0.06295279
-0.07827881 -0.00023782253 0.0430689 0.020946085 -0.078887746 -0.032863155 0.023131058 0.04712993
-0.12254852 0.009574443 0.117866576 -0.07731895 -0.008935884 -0.07533008 0.112854674 -0.046198174
0.043617457 0.089604795 -0.09530495 -0.05617428 0.103861436 -0.0077115297 0.041108176 0.005714074
0.028792739 -0.0545993 0.09328714 -0.06369202 0.029675007 -0.116710484 -0.048214316 -0.068617016
-0.044919237 -0.06353608 0.09044193 0.10297598 -0.09632808 0.11219719 0.062389076 -0.10130377
0.05021806 -0.064546436 0.018160507 -0.030174479 0.08720198 0.04523778 0.046428874 0.08789253
0.012941718 -0.032996684 -0.07117581 0.038929865 0.11727607 -0.047442555 0.038256675 0.048694238
0.120834544 -0.08041082 -0.047306597 -0.1111933 0.061949193 0.1160336 -0.10096638 -0.12002255
0.10869263 0.016264483 -0.008918494 0.037240386 0.097922504 0.11309901 -0.122697145 -0.0019179881
-0.024776071 -0.122731924 -0.10115017 -0.03891243 0.075054556 -0.041595325 0.10169014 -0.089959726
-0.099675775 0.11291629 0.0768583 -0.07588743 0.11086626 0.085678086 0.04063417 0.102254555
00000000: b41f 5c3d a46d f03d 5c74 74bd 2ea6 a73d
00000010: c006 c43c a0af 3e3d 00a7 6a3b 60d9 bcbd
00000020: 900c 9d3d 4419 65bd 8244 9a3d 9a41 a63d
00000030: 94c5 cd3d b0bf a8bd 3ae0 ea3d 7881 87bc
00000040: a853 da3c 5010 933c f828 38bd 106a de3d
00000050: bcb1 38bd e87b dd3c 8e58 91bd d8e7 8a3c
00000060: b6c4 863d 8e96 cabd 3026 6b3c 061e ffbd
00000070: 908c 6b3d 9aab f0bd 58c5 dbbc e800 673d
00000080: 96f0 b9bd 64bd 8b3d 74e9 dcbd d274 ee3d
00000090: 1656 f13d e015 693c 181e a93d 7e11 bdbd
000000a0: 6415 3e3d 0ec9 8b3d 6417 2cbd 7e8e b93d
000000b0: d88a f0bc f86d 1c3d 22d0 ae3d ba27 c83d
000000c0: d276 d53d 9623 97bd 7a24 cbbd a4a1 e63d
000000d0: 0062 82bb 442d f0bd 0876 98bc feff e5bd
000000e0: bc65 f43d 18c4 96bc 18ec e73d 5ef3 913d
000000f0: e8cb 14bd b0e7 0b3d a4f2 0a3d 7039 9ebd
00000100: 6e80 e33d 58fb 3e3d 7851 c23c 2052 f73b
00000110: f82c c93d 4a49 acbd e8a3 c5bc b411 013d
00000120: c6b1 a1bd 98c0 b33d ccbc c53d 4069 893c
00000130: c071 9d3b e069 b23b 5c14 cebd 00eb 2a3d
00000140: 5426 39bd 2aa4 8f3d 401d 5d3b b2c4 a0bd
00000150: a2dc 83bd e0d1 553c 4c35 a3bd 4c03 59bd
00000160: 208f b3bc 5043 943d 009d 583a 18f7 ba3c
00000170: 941c 9f3d 18d8 283d 8057 693d b4c8 4c3d
00000180: 6ac8 87bd 040a 383d 385f 483d 7a85 a7bd
00000190: 6041 f73b ca10 cdbd 78eb bebc b254 bfbd
000001a0: 4068 09bc 3088 74bc aaa8 aa3d 6832 4c3d
000001b0: c02d 9c3d 48b2 eebd 8420 99bd 10a9 efbd
000001c0: e8c0 b33d 169f b1bd 5e2e a5bd 9420 433d
000001d0: e0d9 743c 702e 013c 6c9a f2bd 687d f2bd
000001e0: 6022 713d 446d 63bd b21d de3d 74f8 d2bd
000001f0: fc87 67bd d434 11bd c00a 17bb ae73 853d
00000200: 3280 d2bd d057 e5bd f47b 703d dcb9 ca3d
00000210: 94ea 3a3d 2068 36bd 7ae4 ca3d 2e58 febd
00000220: 001c b5bc 88e8 95bc 72b5 c83d d219 b93d
00000230: 045c 13bd 641e 1dbd 4c30 aabd 30a1 c0bc
00000240: b0f8 70bd 508c 753d d87c cd3d 3049 68bc
00000250: f6ac 813d 00e7 03ba 50c5 413d f890 49bd
00000260: 7247 b13d e86a f8bc d29f d93d 0cd3 f63d
00000270: b082 733d 58a7 243d 887d 903c e823 dcbc
00000280: 246c 513d 7017 c6bd 5c94 64bd be5e e13d
00000290: ca1b b1bd 4c30 863d 0040 ff3c 64ed 803d
000002a0: a450 a0bd 0060 79b9 0469 303d 2097 ab3c
000002b0: e68f a1bd 849b 06bd 587d bd3c 500b 413d
000002c0: b8fa fabd 20de 1c3c 0864 f13d 6659 9ebd
000002d0: d067 12bc a846 9abd 5a20 e73d 4c3a 3dbd
000002e0: 38a8 323d b882 b73d 3e2f c3bd 0017 66bd
000002f0: 4eb5 d43d 00b1 fcbb 0c61 283d 203d bb3b
00000300: c0de eb3c 84a3 5fbd 540d bf3d f670 82bd
00000310: 0019 f33c e805 efbd 607c 45bd 1487 8cbd
00000320: 3cfd 37bd 341f 82bd 9e39 b93d 12e5 d23d
00000330: a847 c5bd a4c7 e53d b08b 7f3d 5a78 cfbd
00000340: 74b1 4d3d ec30 84bd 58c5 943c 7830 f7bc
00000350: f496 b23d 404b 393d 342c 3e3d 0001 b43d
00000360: 8009 543c 8827 07bd a0c4 91bd ec74 1f3d
00000370: 702e f03d 2053 42bd 08b3 1c3d 9c73 473d
00000380: 1a78 f73d 6eae a4bd 90c4 41bd 50b9 e3bd
00000390: 70be 7d3d 06a3 ed3d 76c7 cebd 62ce f5bd
000003a0: 3e9a de3d 183d 853c e01e 12bc 6089 183d
000003b0: 988b c83d 74a0 e73d a448 fbbd 0065 fbba
000003c0: 30f7 cabc e05a fbbd d227 cfbd a462 1fbd
000003d0: 34b6 993d dc5f 2abd ec42 d03d ce3c b8bd
000003e0: d022 ccbd a840 e73d e267 9d3d de6a 9bbd
000003f0: da0d e33d fe77 af3d 0470 263d d66a d13d

encoder_block1.attention.w_k.bias f4 [64]
0.08817826 -0.0009339899 0.09823431 -0.065257594 0.030528352 -0.07276675 0.08675842 -0.11733201
-0.07204373 0.053031087 -0.03506416 -0.028093114 3.3825636e-06 -0.11419377 -0.041946262 -0.08488265
0.070134714 0.01622963 0.12393516 0.015924543 0.037600726 0.047751144 -0.085659444 -0.08309583
0.11643846 0.10686369 0.05853851 0.09414333 0.03394705 0.040332586 0.08811954 0.048236683
0.0008971095 -0.011574239 0.098883286 0.06795722 -0.091818556 0.058796674 0.09263457 -0.087481916
-0.018811792 0.052024826 0.08783372 0.0745282 -0.048981875 -0.05218582 0.024190769 -0.03318438
-0.07865794 0.08278237 0.006033823 -0.084365636 -4.2527914e-05 -0.06785287 -0.044927448 0.073611796
-0.02583769 0.08493596 -0.089611426 0.0030300766 0.07761389 0.075408354 0.013163492 -0.07754372
00000000: ce96 b43d 00d7 74ba 122f c93d c6a5 85bd
00000010: 9816 fa3c bc06 95bd 66ae b13d c44b f0bd
00000020: aa8b 93bd 2037 593d 709f 0fbd 8823 e6bc
00000030: 0000 6336 6cde e9bd d8cf 2bbd f4d6 adbd
00000040: caa2 8f3d 00f4 843c b8d1 fd3d 3074 823c
00000050: 3803 1a3d b496 433d 386e afbd 262e aabd
00000060: 4a77 ee3d 5adb da3d 14c6 6f3d 38ce c03d
00000070: 100c 0b3d c833 253d 0478 b43d d493 453d
00000080: 002c 6b3a e0a1 3dbc 5283 ca3d 282d 8b3d
00000090: 5e0b bcbd c8d4 703d 32b7 bd3d b829 b3bd
000000a0: 301b 9abc fc17 553d 2ae2 b33d 3ea2 983d
000000b0: 38a1 48bd ccc0 55bd b82b c63c 58ec 07bd
000000c0: 6a17 a1bd ce89 a93d 60b7 c53b e4c7 acbd
000000d0: 0060 32b8 72f6 8abd d805 38bd c8c1 963d
000000e0: 90a9 d3bc e8f2 ad3d 3286 b7bd 4094 463b
000000f0: 08f4 9e3d b26f 9a3d b0ab 573c 3ecf 9ebd

encoder_block1.attention.w_v.weight f4 [64, 64]
0.040203065 0.0405325 0.009761572 -0.0722087 -0.05209945 0.037329063 -0.0055903047 -0.10095404
0.010719851 0.019518495 -0.11212936 -0.100234345 0.041114762 -0.09040122 -0.08690217 0.013877213
0.03418781 0.0576853 0.042505875 -0.10276985 -0.015903234 -0.046688452 0.11750206 -0.020368204
0.11445412 0.034941494 -0.11898939 0.03639245 -0.023280412 -0.12180817 -0.106711715 -0.09112491
0.0457941 0.08232184 0.0072381347 0.076453015 -0.073210746 0.040168926 -0.015353054 -0.057983592
0.02844593 0.097114876 -0.124894515 0.005728483 0.09488942 -0.1239776 -0.0450812 0.015410826
-0.10595189 0.086614445 -0.03468962 -0.0983952 -0.073649764 0.1064225 0.036374465 -0.039344043
0.01626338 0.123536184 -0.016586214 -0.0182423 0.12083647 0.10499407 -0.09458253 0.034158647
0.020986408 0.02134411 0.0153898 -0.08669372 0.10126558 0.085862264 0.06646007 0.022607967
0.002976358 -0.10959603 0.087044865 0.04581012 0.10663466 -0.08850218 0.08627088 0.08473487
0.026464969 -0.09442076 0.09542745 -0.112149745 0.10438539 0.110427275 0.050665393 -0.047487006
0.11610073 0.050648615 0.058310345 0.08886078 0.044445917 -0.08112262 0.0154298395 0.085502476
-0.055149347 -0.11297272 0.04665786 0.070872724 0.113732904 0.12017836 -0.08759382 -0.078805104
-0.11313033 0.064569056 0.12410484 -0.08718538 0.04013452 -0.08864625 0.09038614 -0.11259967
-0.12269431 -0.06938438 0.03137569 -0.122713834 0.0957835 -0.027454272 0.010551229 -0.06819677
-0.11289406 0.00063462555 -0.04732211 0.07459089 0.098124325 -0.042813048 -0.056498453 -0.01983501
-0.014011294 0.101147965 0.04971169 0.10674149 0.020126343 -0.10187206 0.07882677 0.08650035
-0.00300242 -0.03287232 -0.11095905 -0.034215957 0.118109405 0.024067253 -0.1108236 0.11151424
-0.12306686 -0.021423355 -0.06089796 0.11597732 0.082136706 0.11621989 0.02081117 0.07341094
-0.10807301 0.113537595 0.046099365 -0.051404998 -0.0043978393 -0.10113634 0.041937873 0.0270489
-0.06700629 0.010362431 -0.04270059 0.047757372 -0.11318798 -0.047615856 0.06498216 -0.005177766
0.06442225 0.066941336 0.041837156 -0.035142004 -0.0837311 0.110544994 0.02138713 0.012403965
-0.017376363 -0.08382395 -0.08555254 -0.08569011 0.047751307 -0.03738761 -0.07077873 -0.021437839
0.12353212 -0.08350319 -0.054446667 -0.039140686 0.057639733 -0.091145664 -0.10202342 -0.013982043
-0.035605386 0.015976995 -0.0028358847 0.032791346 0.12194389 -0.074304566 0.03982331 0.016931772
0.1137868 -0.0069816113 -0.09736051 0.0061374605 -0.06443502 0.04688199 0.08345446 -0.11789641
0.075565726 -0.050876558 0.11664772 -0.12094164 -0.10805407 -0.05406481 -0.0359056 -0.06536096
-0.11231488 -0.05536239 -0.067038134 0.08219722 0.05792056 -0.079892844 0.110707715 -0.12122066
-0.016665384 0.016371801 -0.07167989 0.054386526 0.07858285 -0.11161466 0.083079845 -0.057422966
0.08691223 0.018004328 -0.11926924 -0.043196946 -0.10667011 -0.02958174 0.009388447 -0.09439944
-0.07672432 -0.082298666 -0.031783253 0.07747424 0.09681773 0.08082199 0.033502027 -0.116858125
0.043371662 0.046133533 0.063037485 -0.1142859 0.021016553 -0.10651049 -0.040915877 -0.06099187
00000000: f8ab 243d 6805 263d 00ef 1f3c 28e2 93bd
00000010: 3c66 55bd 5ce6 183d e02e b7bb fec0 cebd
00000020: 50a2 2f3c 40e5 9f3c 14a4 e5bd aa47 cdbd
00000030: f467 283d 4624 b9bd c4f9 b1bd 405d 633c
00000040: 8408 0c3d 6c47 6c3d a41a 2e3d 0079 d2bd
00000050: 8047 82bc 643c 3fbd eca4 f03d 38db a6bc
00000060: ec66 ea3d d01e 0f3d b6b0 f3bd 4010 153d
00000070: 90b6 bebc 9076 f9bd ac8b dabd b29f babd
00000080: 9892 3b3d 5a98 a83d e02d ed3b 6693 9c3d
00000090: 84ef 95bd 2c88 243d 608b 7bbc 3480 6dbd
000000a0: 7007 e93c 2ae4 c63d b2c8 ffbd 00b6 bb3b
000000b0: 6255 c23d f8e7 fdbd 10a7 38bd b07d 7c3c
000000c0: 4efd d8bd ea62 b13d b416 0ebd 6c83 c9bd
000000d0: b0d5 96bd 0af4 d93d 64fd 143d 3827 21bd
000000e0: c83a 853c 8a00 fd3d d0df 87bc e070 95bc
000000f0: 1c79 f73d 2207 d73d 7cb4 c1bd f0e9 0b3d
00000100: b0eb ab3c d8d9 ae3c 8025 7c3c 7a8c b1bd
00000110: 5464 cf3d 8ed8 af3d 381c 883d 5834 b93c
00000120: 000f 433b e273 e0bd 9444 b23d 64a3 3b3d
00000130: 4663 da3d a240 b5bd caae b03d 7a89 ad3d
00000140: 10cd d83c ac5f c1bd 786f c33d c4ae e5bd
00000150: 02c8 d53d b227 e23d 8486 4f3d bc81 42bd
00000160: 38c6 ed3d ec74 4f3d d4d6 6e3d a4fc b53d
00000170: ec0c 363d 9e23 a6bd 70cd 7c3c ec1b af3d
00000180: 48e4 61bd 3e5e e7bd 501c 3f3d b825 913d
00000190: ccec e83d 1220 f63d 6464 b3bd 9264 a1bd
000001a0: e0b0 e7bd c83c 843d ae2a fe3d 408e b2bd
000001b0: 1864 243d 2a8c b5bd 5e1c b93d a89a e6bd
000001c0: 2847 fbbd 6619 8ebd cc83 003d 6451 fbbd
000001d0: 242a c43d c8e7 e0bc 10df 2c3c c0aa 8bbd
000001e0: 0035 e7bd 005d 263a d4d4 41bd 1cc3 983d
000001f0: 68f5 c83d bc5c 2fbd ec6a 67bd 087d a2bc
00000200: a08f 65bc aa26 cf3d 7c9e 4b3d 489b da3d
00000210: 00e0 a43c 4ca2 d0bd ee6f a13d 1827 b13d
00000220: 40c4 44bb 20a5 06bd 803e e3bd 0826 0cbd
00000230: 58e3 f13d b028 c53c 7cf7 e2bd 9461 e43d
00000240: 7a0a fcbd 0880 afbc 2470 79bd 8485 ed3d
00000250: 4a37 a83d b204 ee3d 307c aa3c 7a58 963d
00000260: 6255 ddbd 6686 e83d b0d2 3c3d 0c8e 52bd
00000270: c01b 90bb 9220 cfbd 0cc7 2b3d a895 dd3c
00000280: 983a 89bd 30c7 293c d0e6 2ebd 3c9d 433d
00000290: 1acf e7bd d808 43bd 5e15 853d 40aa a9bb
000002a0: d0ef 833d 8a18 893d 705d 2b3d 10f1 0fbd
000002b0: 367b abbd 6a65 e23d 1034 af3c 003a 4b3c
000002c0: e058 8ebc e4ab abbd 2c36 afbd 4c7e afbd
000002d0: e096 433d c023 19bd 70f4 90bd 689e afbc
000002e0: 68fe fc3d b803 abbd 7803 5fbd fc51 20bd
000002f0: a417 6c3d 94aa babd a8f1 d0bd f014 65bc
00000300: f4d6 11bd 30e2 823c 40da 39bb 3850 063d
00000310: b8bd f93d fe2c 98bd c41d 233d 80b4 8a3c
00000320: 0e09 e93d 00c6 e4bb f264 c7bd c01c c93b
00000330: 82f6 83bd 5407 403d 2cea aa3d ac73 f1bd
00000340: 34c2 9a3d f063 50bd 00e5 ee3d 40b0 f7bd
00000350: 744b ddbd 1073 5dbd c011 13bd f8db 85bd
00000360: 5805 e6bd acc3 62bd 4a4b 89bd 0457 a83d
00000370: 1c3e 6d3d dc9e a3bd baba e23d 8a42 f8bd
00000380: d885 88bc 281e 863c e8cc 92bd 68c4 5e3d
00000390: 0cf0 a03d 3a96 e4bd c425 aa3d 5834 6bbd
000003a0: 0aff b13d d07d 933c 6e43 f4bd 48ef 30bd
000003b0: dc75 dabd 6855 f2bc 00d2 193c 7e54 c1bd
000003c0: a421 9dbd 348c a8bd 282f 02bd d0aa 9e3d
000003d0: 6048 c63d 0086 a53d 6c39 093d 5053 efbd
000003e0: 7ca6 313d 84f6 3c3d cc19 813d ba0e eabd
000003f0: e82a ac3c 2c22 dabd 6897 27bd 9cd2 79bd

encoder_block1.attention.w_v.bias f4 [64]
0.10626072 -0.049190596 0.0448208 0.094242096 -0.078003004 -0.0624523 0.11420399 0.10180652
0.08139929 -0.026867792 -0.06349033 -0.0016258955 -0.00858134 0.068529055 -0.03994426 0.025418043
0.013349459 0.041381612 -0.054295897 -0.07106474 -0.11897372 -0.008817881 0.067584485 -0.11327231
0.048123255 0.035463393 0.013277754 0.07105288 -0.027408719 -0.019991264 0.12280874 0.045252323
0.12241599 0.030926555 -0.10380137 0.07019545 0.10318641 0.07965401 -0.004186243 0.022251934
0.04543467 0.09259157 0.049474478 -0.051561683 0.047478035 -0.008254334 0.1241674 0.04607208
0.034737214 0.08498572 -0.10666083 -0.05384566 -0.09517759 0.0060719103 -0.008429199 -0.031062514
-0.029035777 -0.100345984 0.12212382 -0.0014747381 0.06565222 0.074625015 -0.1056775 -0.037185594
00000000: 389f d93d 147c 49bd 0496 373d 0002 c13d
00000010: 0ac0 9fbd fccd 7fbd c8e3 e93d f07f d03d
00000020: acb4 a63d d819 dcbc 3807 82bd 001c d5ba
00000030: c098 0cbc f658 8c3d 989c 23bd 8039 d03c
00000040: b0b7 5a3c c47f 293d 6065 5ebd 648a 91bd
00000050: 7ea8 f3bd e078 10bc bc69 8a3d 50fb e7bd
00000060: e41c 453d 1042 113d f08a 593c 2c84 913d
00000070: 4088 e0bc b8c4 a3bc 2683 fb3d 805a 393d
00000080: 3cb5 fa3d b059 fd3c d095 d4bd a2c2 8f3d
00000090: 6653 d33d a421 a33d c02c 89bb b049 b63c
000000a0: b419 3a3d a6a0 bd3d c0a5 4a3d 5832 53bd
000000b0: 5478 423d 303d 07bc 7a4b fe3d 14b6 3c3d
000000c0: 9c48 0e3d fe0c ae3d fe70 dabd 448d 5cbd
000000d0: 78ec c2bd e0f6 c63b a01a 0abc d076 febc
000000e0: 70dc edbc 3282 cdbd 0e1c fa3d 004c c1ba
000000f0: ac74 863d 00d5 983d 726d d8bd ec4f 18bd

encoder_block1.attention.w_concat.weight f4 [64, 64]
-0.08945404 -0.030802593 0.018596083 -0.10066627 -0.042519078 -0.083453566 -0.12395097 0.090055436
-0.03073588 -0.0018022358 0.050026864 -0.06706965 0.08638507 -0.101791665 -0.10877219 0.079377845
-0.06997916 -0.079516664 0.078504905 -0.08663288 0.076173484 -0.07706851 -0.103696644 -0.0025435835
0.107204735 -0.056176424 -0.077531725 -0.05298145 -0.090367526 0.08559306 -0.09629372 -0.11595079
-0.1011219 0.08353911 0.11257687 -0.086809546 -0.100094095 0.04078026 -0.07128456 -0.06903681
-0.054601297 0.096648574 0.01988098 0.09760998 0.076054156 0.0105903 0.121228814 0.047889084
-0.07074955 0.09448528 0.02734235 0.10134047 -0.021883965 0.08520585 -0.000996694 0.0007277429
0.12054646 -0.065753356 -0.119039625 -0.01253058 -0.06293228 0.0107907355 0.09822449 0.09386861
-0.08576462 0.104664356 0.058977038 0.11197047 0.110134944 -0.09455064 -0.092758566 -0.079143435
0.09153862 0.036606327 0.08981839 -0.006826684 -0.022791311 -0.097332895 0.08836752 -0.028686792
-0.10173999 -0.023323089 0.09417613 0.064571306 -0.1226787 0.013974085 -0.0006992817 0.12349284
0.03191255 -0.11112948 0.08985348 -0.038507655 -0.085884765 -0.09363642 0.030297786 0.019704133
-0.08028409 0.047788814 0.12045424 0.0856311 -0.11990291 -0.063215554 0.07121508 0.022206321
-0.10276477 -0.121433616 -0.003917873 -0.09974435 -0.12193693 -0.01902558 0.07899122 0.04806064
-0.07893315 0.04938905 0.039392233 -0.023942113 -0.09200893 0.013266131 -0.070649475 -0.0057935566
-0.070813656 0.111071855 0.0064083785 0.026879266 0.0904606 0.0414529 0.053675473 -0.007255003
-0.08103214 0.12494472 -0.047864974 0.02440165 0.0021519363 0.04808812 0.11065842 -0.083056614
-0.024186999 -0.0394914 -0.0999981 -0.07439001 -0.020644277 0.032541007 0.07384704 0.075877175
-0.06470108 0.030408427 0.03698948 -0.08678891 0.036734283 -0.043934837 -0.03945902 0.039145485
-0.07459661 -0.07317826 -0.06163466 -0.075616226 -0.05122389 0.036491156 -0.048718736 -0.033402607
-0.12099208 -0.003569916 -0.0955755 -0.10495345 0.04430853 -0.051384896 -0.00612393 -0.017809004
-0.03910561 -0.10492179 0.0824966 0.058434233 -0.1161176 0.08646536 0.11935769 0.07185617
-0.043266207 0.048017815 -0.069564804 0.078721225 -0.00979583 -0.013983488 -0.110141665 -0.054181308
0.090407446 -0.020446777 -0.118922815 0.113280624 -0.041324288 0.12063022 -0.06623985 0.08331558
0.059369594 -0.09663141 -0.005616188 0.10966495 0.039220423 0.073090136 -0.018856436 0.022795677
-0.024496004 -0.023862839 0.06165266 -0.06184143 -0.08365169 0.009692758 -0.037032083 -0.12134549
-0.055183426 0.042159423 -0.011247128 0.050562948 0.12407985 0.06939727 -0.07789527 -0.00072045624
0.025335655 -0.07940379 0.01494801 -0.08924304 0.056492895 0.03364852 -0.04960738 -0.048266366
0.11770664 0.016747266 0.030941814 0.12413508 0.048699796 -0.05125414 -0.07848145 -0.03409618
0.078539014 -0.091456935 0.05714917 0.10426135 0.070369795 0.103675425 -0.06018363 0.04284948
0.08259456 -0.054785922 -0.09004128 0.01334253 -0.060985744 0.0021066517 0.057491556 -0.10177547
-0.10191728 -0.10757743 -0.09991646 -0.12026182 -0.03915766 0.019840196 0.009618491 0.007594958
00000000: ae33 b7bd b855 fcbc d056 983c 1e2a cebd
00000010: 7c28 2ebd b4e9 aabd 02da fdbd fc6e b83d
00000020: d0c9 fbbc 0039 ecba f8e8 4c3d d05b 89bd
00000030: a8ea b03d 2678 d0bd f4c3 debd da90 a23d
00000040: 3c51 8fbd a2d9 a2bd 2ec7 a03d 946c b1bd
00000050: d800 9c3d 18d6 9dbd e85e d4bd 40b2 26bb
00000060: 288e db3d 4019 66bd f4c8 9ebd 1403 59bd
00000070: 9c12 b9bd 6a4b af3d a435 c5bd 9c77 edbd
00000080: 0019 cfbd 8e16 ab3d b48e e63d 34c9 b1bd
00000090: 22fe ccbd 3409 273d a4fd 91bd 2c63 8dbd
000000a0: 9ca5 5fbd b0ef c53d 70dd a23c bee7 c73d
000000b0: 48c2 9b3d f082 2d3c d046 f83d 5827 443d
000000c0: 24e5 90bd 8081 c13d 10fd df3c 988b cf3d
000000d0: 0046 b3bc 6880 ae3d 80a3 82ba 00c6 3e3a
000000e0: 10e1 f63d b2a9 86bd 0ccb f3bd 104d 4dbc
000000f0: a4e2 80bd a0cb 303c ec29 c93d 303e c03d
00000100: 5ca5 afbd 445a d63d e891 713d c650 e53d
00000110: 6e8e e13d c4a3 c1bd 34f8 bdbd f415 a2bd
00000120: 9a78 bb3d 84f0 153d b4f2 b73d 60b2 dfbb
00000130: d8b4 babc 7856 c7bd 08fa b43d 9000 ebbc
00000140: 0e5d d0bd 1010 bfbc 6adf c03d f63d 843d
00000150: f83e fbbd 90f3 643c 0050 37ba d0e9 fc3d
00000160: bcb6 023d da97 e3bd 1a05 b83d 34ba 1dbd
00000170: 5ae4 afbd 74c4 bfbd 1033 f83c 906a a13c
00000180: fc6b a4bd 34be 433d b6b0 f63d 5c5f af3d
00000190: a88f f5bd 2877 81bd 36d9 913d 08ea b53c
000001a0: 5676 d2bd 30b2 f8bd 8061 80bb c446 ccbd
000001b0: 12ba f9bd 88db 9bbc 26c6 a13d 3cdb 443d
000001c0: b4a7 a1bd 2c4c 4a3d c059 213d 4022 c4bc
000001d0: 2e6f bcbd 305a 593c acb0 90bd e0d7 bdbb
000001e0: c006 91bd a479 e33d 60fd d13b e831 dc3c
000001f0: 6843 b93d 84ca 293d d0da 5b3d 60bb edbb
00000200: 2ef4 a5bd 04e3 ff3d 100e 44bd f8e5 c73c
00000210: 8007 0d3b 0cf8 443d e2a0 e23d 9619 aabd
00000220: d023 c6bc bcc1 21bd cecb ccbd ca59 98bd
00000230: 301e a9bc b849 053d 1e3d 973d 7e65 9b3d
00000240: 0082 84bd 181b f93c 4882 173d 62be b1bd
00000250: b076 163d 04f5 33bd c89f 21bd 0457 203d
00000260: 1cc6 98bd 7cde 95bd a074 7cbd aedc 9abd
00000270: 24d0 51bd c077 153d 4c8d 47bd 2cd1 08bd
00000280: b2ca f7bd 40f5 69bb 16bd c3bd d6f1 d6bd
00000290: dc7c 353d f878 52bd 40ab c8bb 30e4 91bc
000002a0: 342d 20bd 3ce1 d6bd faf3 a83d bc58 6f3d
000002b0: 10cf edbd c014 b13d ce71 f43d 5429 933d
000002c0: e837 31bd 54ae 443d fe77 8ebd 9838 a13d
000002d0: b07e 20bc 001b 65bc f491 e1bd 38ed 5dbd
000002e0: 8a27 b93d 0080 a7bc ce8d f3bd acff e73d
000002f0: a843 29bd fa0c f73d c2a8 87bd 5ca1 aa3d
00000300: 882d 733d b0e6 c5bd 0008 b8bb 0498 e03d
00000310: 98a5 203d 48b0 953d d078 9abc 00be ba3c
00000320: d8ab c8bc 007c c3bc 8087 7c3d 704d 7dbd
00000330: 9451 abbd 60ce 1e3c f4ae 17bd fc83 f8bd
00000340: 0408 62bd 5caf 2c3d e045 38bc 181b 4f3d
00000350: 941d fe3d 2820 8e3d 8e87 9fbd 00dd 3cba
00000360: b88c cf3c 749e a2bd 80e8 743c 0ec5 b6bd
00000370: 1865 673d 08d3 093d 1c31 4bbd f4b2 45bd
00000380: 2e10 f13d 9031 893c b079 fd3c 883a fe3d
00000390: 7079 473d dcef 51bd e2ba a0bd 70a8 0bbd
000003a0: 10d9 a03d c64d bbbd 4015 6a3d fa86 d53d
000003b0: 0a1e 903d c853 d43d 1c83 76bd f082 2f3d
000003c0: 5627 a93d 3467 60bd 9067 b8bd a09a 5a3c
000003d0: 30cc 79bd c00f 0a3b 447c 6b3d a86f d0bd
000003e0: 02ba d0bd 8e51 dcbd 00a1 ccbd d44b f6bd
000003f0: c863 20bd e887 a23c e096 1d3c 20df f83b

encoder_block1.attention.w_concat.bias f4 [64]
-0.054286093 -0.085873306 0.08179578 0.047882736 -0.11152437 0.122410655 0.058293685 0.009959817
0.0526233 -0.078486264 -0.12050167 0.06231332 0.03699121 -0.046101913 -0.032337844 -0.109112635
-0.016942501 0.07866907 0.005630955 0.046797067 -0.0010581166 0.031278655 0.085007384 0.11826527
0.07528137 -0.0011816323 -0.03094989 0.06775145 -0.09262009 -0.06845556 -0.0035927743 -0.07678577
0.012691602 -0.043083534 0.10853247 0.009517685 0.05878526 -0.09206657 -0.08554512 0.0054902285
-0.00083598495 0.11056492 0.11586334 -0.102405936 0.023209438 -0.110993 -0.0492426 -0.01486887
-0.01714836 -0.047684863 0.08885141 0.088780165 -0.10365018 0.087914154 -0.10808559 -0.09814364
0.07017617 -0.10292667 -0.025802717 0.02893059 0.032290608 0.013368472 0.11931226 0.004570812
00000000: 185b 5ebd 58de afbd 8c84 a73d b020 443d
00000010: e466 e4bd 70b2 fa3d 5cc5 6e3d 802e 233c
00000020: 888b 573d 68bd a0bd 94c9 f6bd 403c 7f3d
00000030: 1884 173d 5cd5 3cbd b074 04bd 7276 dfbd
00000040: 00cb 8abc 401d a13d e083 b83b 48ae 3f3d
00000050: 80b0 8aba 0c1e 003d 5a18 ae3d 1035 f23d
00000060: 1e2d 9a3d 00e1 9aba a08a fdbc 46c1 8a3d
00000070: 9aaf bdbd 6e32 8cbd c074 6bbb dc41 9dbd
00000080: 70f0 4f3c 5c78 30bd 4646 de3d 10f0 1b3c
00000090: d0c8 703d 668d bcbd 4832 afbd 60e7 b33b
000000a0: 0026 5bba dc6f e23d c249 ed3d 34ba d1bd
000000b0: b821 be3c 4c50 e3bd 9cb2 49bd 909c 73bc
000000c0: b87a 8cbc 3451 43bd baf7 b53d 60d2 b53d
000000d0: 8c46 d4bd 560c b43d fa5b ddbd 88ff c8bd
000000e0: 86b8 8f3d 38cb d2bd 3860 d3bc d8ff ec3c
000000f0: 2843 043d 7007 5b3c fc59 f43d c0c6 953b

encoder_block1.norm1.weight f4 [64]
1.0 1.0 1.0 1.0 1.0 1.0 1.0 1.0
1.0 1.0 1.0 1.0 1.0 1.0 1.0 1.0
1.0 1.0 1.0 1.0 1.0 1.0 1.0 1.0
1.0 1.0 1.0 1.0 1.0 1.0 1.0 1.0
1.0 1.0 1.0 1.0 1.0 1.0 1.0 1.0
1.0 1.0 1.0 1.0 1.0 1.0 1.0 1.0
1.0 1.0 1.0 1.0 1.0 1.0 1.0 1.0
1.0 1.0 1.0 1.0 1.0 1.0 1.0 1.0
00000000: 0000 803f 0000 803f 0000 803f 0000 803f
00000010: 0000 803f 0000 803f 0000 803f 0000 803f
00000020: 0000 803f 0000 803f 0000 803f 0000 803f
00000030: 0000 803f 0000 803f 0000 803f 0000 803f
00000040: 0000 803f 0000 803f 0000 803f 0000 803f
00000050: 0000 803f 0000 803f 0000 803f 0000 803f
00000060: 0000 803f 0000 803f 0000 803f 0000 803f
00000070: 0000 803f 0000 803f 0000 803f 0000 803f
00000080: 0000 803f 0000 803f 0000 803f 0000 803f
00000090: 0000 803f 0000 803f 0000 803f 0000 803f
000000a0: 0000 803f 0000 803f 0000 803f 0000 803f
000000b0: 0000 803f 0000 803f 0000 803f 0000 803f
000000c0: 0000 803f 0000 803f 0000 803f 0000 803f
000000d0: 0000 803f 0000 803f 0000 803f 0000 803f
000000e0: 0000 803f 0000 803f 0000 803f 0000 803f
000000f0: 0000 803f 0000 803f 0000 803f 0000 803f

encoder_block1.norm1.bias f4 [64]
0.0 0.0 0.0 0.0 0.0 0.0 0.0 0.0
0.0 0.0 0.0 0.0 0.0 0.0 0.0 0.0
0.0 0.0 0.0 0.0 0.0 0.0 0.0 0.0
0.0 0.0 0.0 0.0 0.0 0.0 0.0 0.0
0.0 0.0 0.0 0.0 0.0 0.0 0.0 0.0
0.0 0.0 0.0 0.0 0.0 0.0 0.0 0.0
0.0 0.0 0.0 0.0 0.0 0.0 0.0 0.0
0.0 0.0 0.0 0.0 0.0 0.0 0.0 0.0
00000000: 0000 0000 0000 0000 0000 0000 0000 0000
00000010: 0000 0000 0000 0000 0000 0000 0000 0000
00000020: 0000 0000 0000 0000 0000 0000 0000 0000
00000030: 0000 0000 0000 0000 0000 0000 0000 0000
00000040: 0000 0000 0000 0000 0000 0000 0000 0000
00000050: 0000 0000 0000 0000 0000 0000 0000 0000
00000060: 0000 0000 0000 0000 0000 0000 0000 0000
00000070: 0000 0000 0000 0000 0000 0000 0000 0000
00000080: 0000 0000 0000 0000 0000 0000 0000 0000
00000090: 0000 0000 0000 0000 0000 0000 0000 0000
000000a0: 0000 0000 0000 0000 0000 0000 0000 0000
000000b0: 0000 0000 0000 0000 0000 0000 0000 0000
000000c0: 0000 0000 0000 0000 0000 0000 0000 0000
000000d0: 0000 0000 0000 0000 0000 0000 0000 0000
000000e0: 0000 0000 0000 0000 0000 0000 0000 0000
000000f0: 0000 0000 0000 0000 0000 0000 0000 0000

encoder_block1.trans_sample.0.weight f4 [32, 64]
0.11151315 0.09092699 0.049899817 -0.10479516 0.098007694 0.029824987 0.08575748 0.107572034
0.03255798 0.06735541 0.048707858 0.12104362 -0.014393583 0.11512704 -0.009283572 -0.04279025
0.02603428 -0.09272535 0.08910613 -0.11377901 0.035072997 0.05764681 0.08722472 -0.048312247
0.02531989 -0.060574174 -0.009819269 -0.120600566 -0.008580133 0.11439861 0.046116143 0.0022296757
0.11088434 0.102164 0.076896414 -0.08953309 -0.12102243 0.015765518 0.082874134 -0.02339232
-0.074232176 -0.04106617 0.061574638 -0.011136308 -0.07618934 -0.054289848 0.06105031 -0.08528918
-0.019491598 0.10753836 -0.08701892 0.10861243 -0.07794434 -0.10217525 -0.04146783 0.10856052
-0.122732475 -0.103783965 -0.112467736 0.033761665 0.09241086 -0.097230226 -0.07634634 -0.09372343
0.0011573732 0.044673696 -0.047335774 0.122194886 -0.09147501 0.069318935 0.055774912 -0.12111144
0.03562227 -0.0053394884 -0.047997266 -0.12464291 -0.073027164 0.009779245 -0.043873757 -0.12431458
-0.010588154 -0.06117417 -0.0156131685 0.11938071 -0.045022443 -0.09472261 0.031033829 -0.022105917
0.08948535 -0.08225183 -0.044974476 -0.12169394 -0.031501427 -0.04654321 -0.09285438 -0.108297154
-0.044011474 0.008365408 0.026252493 0.0063381195 -0.030544251 0.059608027 0.11145772 0.04417084
-0.09007093 -0.038526714 0.040393457 -0.11226021 0.11339322 0.014959365 0.107372046 0.102322936
-0.08885723 0.020106629 -0.020991072 0.0075266063 0.07534 0.042816922 0.0903195 -0.026433304
-0.036751613 0.074172884 0.103579 -0.05479604 0.0018294901 0.07066549 -0.014558837 -0.06961165
-0.11888051 0.07761592 0.062210828 0.09482871 -0.052576557 0.052702397 0.039571658 0.10511084
-0.051168114 -0.06288302 0.091032535 0.036904648 -0.044960648 0.09345487 -0.07613523 0.120165035
-0.038336277 0.033522382 -0.10618131 0.12042561 -0.0804372 0.08974016 -0.027095065 -0.11245862
-0.0062250197 0.083098024 -0.09747526 -0.013876334 -0.033157334 0.11572638 0.09963904 0.09835677
0.07418847 0.030106932 0.014933422 0.104774475 -0.009972766 0.0062668473 -0.03569208 0.03890769
0.092727154 -0.05508043 0.11210133 0.063004 0.087381154 0.122372806 -0.026311293 -0.11662413
0.11526835 0.016654894 -0.093855694 -0.0754901 0.111872 0.032612875 -0.011300862 0.039017156
0.022560462 0.10816401 0.11914846 -0.09716946 0.03661339 0.042691946 -0.029121712 0.09337382
-0.073342085 -0.08720833 0.09519641 -0.025464326 0.0877984 -0.053333014 -0.11316781 -0.019349843
0.030859545 -0.10256386 -0.04540077 -0.011264712 0.06357844 0.021661684 0.09785904 0.11513431
-0.09433435 -0.09839593 -0.100921646 -0.088053435 0.09684585 -0.04398921 0.12381102 -0.09434739
0.12213571 -0.024638519 0.1031926 0.09007673 -0.1203949 -0.042779207 -0.08836138 0.072766125
0.0064339787 0.06764324 0.061964363 -0.11897367 0.06441322 -0.007254079 0.034510866 0.014249906
0.022939622 0.036848247 -0.031476617 0.03921616 0.040057093 -0.12169804 -0.11090213 0.00055779517
0.021101639 -0.0011840463 0.053950667 0.044473037 0.1139158 0.035966232 -0.028191626 0.056587666
0.037653387 0.11496161 -0.07931419 -0.07153393 -0.010620058 0.086063564 -0.050403446 -0.08094931
00000000: 0261 e43d ee37 ba3d c063 4c3d d89e d6bd
00000010: 42b8 c83d 8853 f43c 9ea1 af3d ba4e dc3d
00000020: 845b 053d a2f1 893d e481 473d b8e5 f73d
00000030: 10d3 6bbc bac7 eb3d 201a 18bc d444 2fbd
00000040: d845 d53c cae6 bdbd 467d b63d f804 e9bd
00000050: b4a8 0f3d 101f 6c3d e0a2 b23d 10e3 45bd
00000060: a86b cf3c a01c 78bd 00e1 20bc 6efd f6bd
00000070: b093 0cbc d249 ea3d 48e4 3c3d c01f 123b
00000080: 5417 e33d 5c3b d13d de7b 9d3d 205d b7bd
00000090: 9cda f7bd b026 813c eab9 a93d 40a1 bfbc
000000a0: 0a07 98bd 0035 28bd b035 7c3d 1075 36bc
000000b0: 2809 9cbd 085f 5ebd e40f 7a3d 18ac aebd
000000c0: d8ac 9fbc 123d dc3d fa36 b2bd 3270 de3d
000000d0: 48a1 9fbd 4241 d1bd 2cda 29bd fa54 de3d
000000e0: 2a5b fbbd b08c d4bd 7c55 e6bd ac49 0a3d
000000f0: e841 bd3d a420 c7bd 785b 9cbd 12f2 bfbd
00000100: 00b3 973a c4fb 363d 28e3 41bd 5041 fa3d
00000110: 4057 bbbd 16f7 8d3d 3c74 643d 4609 f8bd
00000120: a8e8 113d e0f6 aebb c898 44bd c844 ffbd
00000130: 448f 95bd 2039 203c f8b4 33bd a498 febd
00000140: f079 2dbc c491 7abd 60ce 7fbc e07d f43d
00000150: 7469 38bd eefd c1bd a83a fe3c 7817 b5bc
00000160: 1844 b73d a673 a8bd 2837 38bd ac3a f9bd
00000170: a407 01bd 18a4 3ebd 702a bebd e6ca ddbd
00000180: 6045 34bd 100f 093c 780f d73c 00b0 cf3b
00000190: f037 fabc 8c27 743d f243 e43d 7cec 343d
000001a0: 1c77 b8bd 30ce 1dbd 9c73 253d aee8 e5bd
000001b0: b43a e83d 2018 753c e0e5 db3d b08e d13d
000001c0: c8fa b5bd a8b6 a43c 78f5 abbc c0a1 f63b
000001d0: dc4b 9a3d cc60 2f3d 6ef9 b83d a88a d8bc
000001e0: dc88 16bd f4e7 973d 3a21 d43d d071 60bd
000001f0: 80cb ef3a 12b9 903d 3088 6ebc 8e90 8ebd
00000200: a077 f3bd 18f5 9e3d c8d0 7e3d 8e35 c23d
00000210: 845a 57bd 78de 573d e415 223d 5a44 d73d
00000220: a895 51bd d0c8 80bd 446f ba3d 5429 173d
00000230: a828 38bd 4465 bf3d caec 9bbd 1619 f63d
00000240: 8006 1dbd c44e 093d 9675 d9bd b4a1 f63d
00000250: 42bc a4bd b0c9 b73d 78f6 ddbc b450 e6bd
00000260: 40fb cbbb 4c2f aa3d 1ca1 c7bd 9059 63bc
00000270: fccf 07bd f401 ed3d 8e0f cc3d 466f c93d
00000280: 20f0 973d d0a2 f63c 50ab 743c 0094 d63d
00000290: d064 23bc 205a cd3b dc31 12bd ac5d 1f3d
000002a0: bce7 bd3d 049c 61bd 6295 e53d 3e08 813d
000002b0: e4f4 b23d 989e fa3d c88a d7bc a2d8 eebd
000002c0: d011 ec3d d86f 883c 6a37 c0bd 8e9a 9abd
000002d0: 261d e53d 1495 053d 4027 39bc 74d0 1f3d
000002e0: b8d0 b83c 1885 dd3d 1c04 f43d c800 c7bd
000002f0: ecf7 153d c0dd 2e3d a890 eebc c63a bf3d
00000300: 6034 96bd 489a b2bd 56f6 c23d 909a d0bc
00000310: a6cf b33d b873 5abd 86c4 e7bd 9083 9ebc
00000320: 28cd fc3c 000d d2bd 28f6 39bd a08f 38bc
00000330: 6a35 823d d873 b13c 526a c83d 8acb eb3d
00000340: 5e32 c1bd ce83 c9bd 02b0 cebd 5c55 b4bd
00000350: 1e57 c63d 082e 34bd a290 fd3d 3439 c1bd
00000360: 4a22 fa3d b8d6 c9bc a456 d33d 267a b83d
00000370: 9a91 f6bd 4039 2fbd d0f6 b4bd 6806 953d
00000380: 20d4 d23b 8a88 8a3d 58ce 7d3d 78a8 f3bd
00000390: 14eb 833d a0b3 edbb 445b 0d3d 7078 693c
000003a0: e0eb bb3c 30ee 163d a0ed 00bd 20a1 203d
000003b0: e812 243d d23c f9bd a820 e3bd 0039 123a
000003c0: 58dd ac3c 0032 9bba 60fb 5c3d 5c29 363d
000003d0: b04c e93d 5451 133d 20f2 e6bc 78c8 673d
000003e0: 703a 1a3d fe70 eb3d 7a6f a2bd 6280 92bd
000003f0: c0ff 2dbc 1842 b03d d873 4ebd c0c8 a5bd

encoder_block1.trans_sample.0.bias f4 [32]
-0.021335825 -0.06830147 -0.042588547 -0.087614894 -0.06289397 -0.05377567 -0.018178314 0.10636322
-0.067478925 -0.009477094 0.056962565 -0.1157843 -0.090311155 0.079102114 0.06571758 0.10939172
0.039453402 -0.0984378 -0.0069327652 0.055390984 0.06220153 -0.016707495 -0.07982157 -0.028043225
0.11450435 0.033282116 0.01966077 -0.07657768 -0.063217804 0.08565229 -0.07132016 -0.017206445
00000000: 78c8 aebc a4e1 8bbd 5471 2ebd 706f b3bd
00000010: 8ece 80bd e043 5cbd b0ea 94bc f6d4 d93d
00000020: 6432 8abd d045 1bbc 9451 693d 5220 edbd
00000030: 0ef5 b8bd 4a00 a23d f096 863d c408 e03d
00000040: e499 213d c299 c9bd 402c e3bb a8e1 623d
00000050: 08c7 7e3d 28de 88bc 7e79 a3bd e8ba e5bc
00000060: 4281 ea3d d452 083d a00f a13c c2d4 9cbd
00000070: 5678 81bd 786a af3d 4e10 92bd 88f4 8cbc

encoder_block1.norm2.weight f4 [32]
1.0 1.0 1.0 1.0 1.0 1.0 1.0 1.0
1.0 1.0 1.0 1.0 1.0 1.0 1.0 1.0
1.0 1.0 1.0 1.0 1.0 1.0 1.0 1.0
1.0 1.0 1.0 1.0 1.0 1.0 1.0 1.0
00000000: 0000 803f 0000 803f 0000 803f 0000 803f
00000010: 0000 803f 0000 803f 0000 803f 0000 803f
00000020: 0000 803f 0000 803f 0000 803f 0000 803f
00000030: 0000 803f 0000 803f 0000 803f 0000 803f
00000040: 0000 803f 0000 803f 0000 803f 0000 803f
00000050: 0000 803f 0000 803f 0000 803f 0000 803f
00000060: 0000 803f 0000 803f 0000 803f 0000 803f
00000070: 0000 803f 0000 803f 0000 803f 0000 803f

encoder_block1.norm2.bias f4 [32]
0.0 0.0 0.0 0.0 0.0 0.0 0.0 0.0
0.0 0.0 0.0 0.0 0.0 0.0 0.0 0.0
0.0 0.0 0.0 0.0 0.0 0.0 0.0 0.0
0.0 0.0 0.0 0.0 0.0 0.0 0.0 0.0
00000000: 0000 0000 0000 0000 0000 0000 0000 0000
00000010: 0000 0000 0000 0000 0000 0000 0000 0000
00000020: 0000 0000 0000 0000 0000 0000 0000 0000
00000030: 0000 0000 0000 0000 0000 0000 0000 0000
00000040: 0000 0000 0000 0000 0000 0000 0000 0000
00000050: 0000 0000 0000 0000 0000 0000 0000 0000
00000060: 0000 0000 0000 0000 0000 0000 0000 0000
00000070: 0000 0000 0000 0000 0000 0000 0000 0000
