models/error_encoder_all_state_dict.pth (torch, 279520 bytes, 125 tensors)

embedder.dim_up.weight f4 [64, 8]
0	0xbe4574ad	-0.1928279
1	0x3eac3d49	0.33640507
2	0x3dd6fe04	0.104976684
3	0x3e8fceb3	0.28087386
4	0x3e1c20fa	0.15246955
5	0xbc7d6660	-0.015466303
6	0x3e97e12b	0.29663977
7	0xbe12c6df	-0.14333676
8	0xbe7b4a1a	-0.24539986
9	0x3e0fbc44	0.14036661
10	0x3e8befed	0.27331486
11	0xbe489850	-0.19589353
12	0x3ded8d98	0.115992725
13	0xbcdf0ca0	-0.0272277
14	0xbe8002aa	-0.25002033
15	0xbe6100f1	-0.21973015
16	0xbe3c657a	-0.18398085
17	0xbd72ca40	-0.059274912
18	0xbe94d858	-0.29071307
19	0xbe777baa	-0.24168268
20	0xbd9df57c	-0.07712838
21	0xbe97da3c	-0.29658687
22	0x3ea85715	0.32878938
23	0x3ddd42f8	0.10803789
24	0x3e79033e	0.24317643
25	0xbe1dcf60	-0.15411139
26	0xbe9cf404	-0.3065492
27	0xbea2bd9c	-0.31785285
28	0xbe31cd97	-0.17363583
29	0xbe20d01c	-0.15704387
30	0x3e617dc6	0.22020635
31	0x3d292b68	0.04130116
32	0x3d1177b8	0.035514563
33	0x3d037b78	0.03210017
34	0x3e7b24a2	0.24525693
35	0x3e067f72	0.13134554
36	0x3df49b80	0.11943722
37	0x3e089398	0.13337553
38	0x3ea60da5	0.32432285
39	0xbd0553f8	-0.032550782
40	0x3de8a284	0.113591224
41	0xbd97b510	-0.07407582
42	0xbe90716e	-0.2821154
43	0xbe3b2b80	-0.18278313
44	0x3e7eca6e	0.24881908
45	0x3e082d34	0.13298494
46	0x3e802ec9	0.25035694
47	0x3d1748d0	0.036934674
48	0xbcb10f40	-0.021613717
49	0x3ea1bcc3	0.31589326
50	0xbe1bba01	-0.15207674
51	0x3ccbc0e0	0.024872243
52	0xbde01568	-0.10941583
53	0x3deef35c	0.11667511
54	0xbe56e68e	-0.20986387
55	0x3e6e6c8e	0.23283598
56	0xbe881fab	-0.2658666
57	0x3e29488e	0.16531584
58	0xbe1e7326	-0.15473613
59	0x3d829014	0.06375137
60	0x3d9f5c2c	0.07781252
61	0x3db37c7c	0.08763978
62	0x3ea6210d	0.3244709
63	0x3e8c4989	0.27399853
64	0x3eb2e60f	0.34941146
65	0x3eb18229	0.34669617
66	0xbe29e952	-0.16592911
67	0x3e23eb7a	0.16007796
68	0x3d2e1e68	0.042509466
69	0x3b7b3600	0.0038331747
70	0x3dec6edc	0.11544582
71	0x3e0cec00	0.13761902
72	0xbe8f6ffc	-0.28015125
73	0x3d2dd7b8	0.042442054
74	0xbdf24d86	-0.11831193
75	0xbc6b17c0	-0.014348924
76	0xbe6b8c58	-0.23002756
77	0xbe9c7297	-0.30556175
78	0x3e572c16	0.21012911
79	0x3e135e0e	0.14391348
80	0x3db24de4	0.08706263
81	0x3eb13e89	0.34618023
82	0x3bb915c0	0.0056483448
83	0x3ea97501	0.3309708
84	0x3e33799e	0.17526862
85	0x3ea546e7	0.32280657
86	0xbe6ba95e	-0.23013827
87	0xbea1f4de	-0.3163213
88	0xbdfa374c	-0.12217578
89	0x3e16975e	0.1470618
90	0xbe92b068	-0.28650212
91	0x3dd2adc4	0.102870494
92	0xbc21a6e0	-0.009866446
93	0xbe12c64b	-0.14333455
94	0xbd925268	-0.07144624
95	0xbdfbf406	-0.12302403
96	0x3d234f98	0.03987083
97	0xbe50a771	-0.20376374
98	0x3ea26fa3	0.31725797
99	0xbe37fd96	-0.17967829
100	0x3eb1557f	0.3463554
101	0xbe564cfd	-0.20927806
102	0x3e8233b5	0.25430074
103	0xbe950557	-0.29105636
104	0x3d98f088	0.07467753
105	0xbdca671c	-0.09882948
106	0x3e055dfc	0.13024133
107	0x3d95919c	0.073031634
108	0xbcd41ad0	-0.025891691
109	0x3e88b0b7	0.26697323
110	0x3d2a41b8	0.04156658
111	0xbe8346f0	-0.2564006
112	0x3dd3356c	0.10312924
113	0xbdb27c4c	-0.08715114
114	0xbdc8b59c	-0.09800264
115	0x3d8093c8	0.06278187
116	0x3eae33f3	0.3402401
117	0x3e74504a	0.23858753
118	0x3e821df5	0.2541348
119	0x3e9987d5	0.29986444
120	0x3e4ea756	0.20181021
121	0xbcf72fb0	-0.030174106
122	0x3d7ab928	0.061211735
123	0x3e789bbe	0.24278161
124	0x3e65e9a6	0.22452411
125	0x3ea8c521	0.32962897
126	0x3d1cde88	0.03829816
127	0xbeafe41e	-0.34353727
128	0x3eb2ac0b	0.34896883
129	0x3ea0df81	0.3142052
130	0xbda1c080	-0.078980446
131	0xbe5165da	-0.2044901
132	0x3eb22701	0.34795383
133	0xbea06547	-0.31327268
134	0x3d8a2d2c	0.06746897
135	0xbea1c48e	-0.31595272
136	0x3ea3c8c3	0.31989107
137	0xbe228643	-0.1587153
138	0xbe61c2ee	-0.22047016
139	0xbeaa97af	-0.3331885
140	0xbdf54490	-0.11975968
141	0xbe95ae96	-0.2923476
142	0xbd21fba8	-0.03954664
143	0x3d5c5798	0.053794473
144	0xbe67e526	-0.22646007
145	0xbdd3350c	-0.10312852
146	0x3d8d0b68	0.06886941
147	0xbcc94890	-0.024570733
148	0x3cdacf80	0.026710272
149	0xbe1bd894	-0.15219337
150	0xbd5e49c8	-0.054269582
151	0x3e641c8a	0.22276512
152	0xbca0f740	-0.019649148
153	0xbdb37ed4	-0.08764425
154	0xbe717880	-0.23581123
155	0xbe508498	-0.2036308
156	0x3b04e200	0.0020276308
157	0xbd835798	-0.064131916
158	0x3df25a04	0.11833575
159	0x3e0c803c	0.13720793
160	0x3e266c62	0.16252282
161	0xbe31f6f7	-0.17379366
162	0x3e729642	0.23690131
163	0x3e3e0e22	0.18560079
164	0xbd8c82c0	-0.06860876
165	0xbda64d9c	-0.081202716
166	0x3eaa74b1	0.33292153
167	0x3c3a9ec0	0.011390388
168	0xbea6cdc2	-0.32578856
169	0x3d3f1be0	0.046657443
170	0xbea65490	-0.3248639
171	0xbe2f1388	-0.17097294
172	0x3e0fccfe	0.14043042
173	0xbd47ac68	-0.048748404
174	0xbcf90250	-0.03039661
175	0xbe9b1b46	-0.30294245
176	0x3e642e26	0.22283229
177	0x3ea0bc3f	0.3139362
178	0xbe6c17ff	-0.23056029
179	0xbabe2c00	-0.0014508963
180	0x3e54c386	0.20777711
181	0xbeafcd23	-0.34336194
182	0xbe3e55ec	-0.18587464
183	0xbe7b67fa	-0.24551383
184	0xbe94437b	-0.28957734
185	0xbb050a80	-0.0020300448
186	0x3e75ec0e	0.24015829
187	0x3e97c86f	0.29645106
188	0xbe69e72c	-0.22842091
189	0x3e92376f	0.28557917
190	0x3eb10203	0.34571847
191	0x3e9a6923	0.30158338
192	0xbe539e2b	-0.20665805
193	0x3d9d77b8	0.0768885
194	0xbe1f7382	-0.15571406
195	0xbdff9168	-0.12478906
196	0x3e0e973a	0.13924876
197	0xbea88141	-0.32911113
198	0x3da812d0	0.08206713
199	0x3e99fe51	0.3007684
200	0xbe820560	-0.25394726
201	0xbe0f73bf	-0.14008997
202	0xbeafcfc3	-0.34338197
203	0x3e076a52	0.13224152
204	0xbc869e30	-0.016432852
205	0x3e10eb08	0.14152157
206	0xbbcff300	-0.0063461065
207	0x3e976441	0.29568675
208	0x3e9aee43	0.30259904
209	0xbe94de90	-0.29076052
210	0x3e4a350a	0.19746795
211	0x3e7c226e	0.24622509
212	0x3e4a3f4a	0.19750705
213	0xbe36db6b	-0.17857139
214	0x3eaeb81f	0.34124848
215	0x3e917fd7	0.28417847
216	0x3e91ceb7	0.28478023
217	0x3d030338	0.03198549
218	0xbd3ad720	-0.045615315
219	0x3e447526	0.19185314
220	0x3e505b16	0.20347247
221	0xbd45ab40	-0.04825902
222	0x3d660130	0.056153476
223	0xbe3da37f	-0.185194
224	0xbe1eaf6b	-0.15496604
225	0x3e99692d	0.29963055
226	0xbd7a74b8	-0.061146468
227	0x3e96a8c1	0.29425624
228	0xbe9e9692	-0.3097425
229	0x3d9b1ce8	0.07573873
230	0x3e22059a	0.1582245
231	0xbdf46eee	-0.11935221
232	0x3eacb859	0.33734396
233	0xbdc841bc	-0.09778163
234	0xbe730842	-0.23733619
235	0x3e599052	0.2124646
236	0xbeab0a0e	-0.3340611
237	0xbe4cd4df	-0.20003079
238	0xbe293261	-0.16523124
239	0x3eae3bb5	0.34029928
240	0x3e248f22	0.16070226
241	0x3e8e8947	0.2783911
242	0x3e9cba3b	0.30610833
243	0xbe2a451f	-0.1662793
244	0xbc6365c0	-0.01387924
245	0x3e973433	0.29532012
246	0x3e89591f	0.26825806
247	0x3d870f68	0.065947354
248	0xbe955223	-0.29164228
249	0x3e8062f3	0.25075492
250	0x3cacc560	0.02109021
251	0xbc44bb60	-0.012007564
252	0x3d887344	0.0666261
253	0x3d1704f0	0.036869943
254	0xbe936dda	-0.28794748
255	0xbe8d4b87	-0.27596685

embedder.dim_up.bias f4 [64]
0	0xbe9c7bdd	-0.3056325
1	0xbe94b7fd	-0.29046622
2	0x3e4c6902	0.19961932
3	0xbe19067a	-0.14943877
4	0x3e4130ca	0.18866268
5	0xbe6d0bfb	-0.23149101
6	0xbe5e1df2	-0.2169111
7	0x3e0ae352	0.13563278
8	0xbe54f8e2	-0.20798066
9	0xbdb98e50	-0.09060347
10	0x3df1aad8	0.11800164
11	0x3e23fcb6	0.1601437
12	0xbd68f658	-0.056875557
13	0xbe1ad569	-0.15120472
14	0xbe3926f0	-0.1808126
15	0x3d3d2680	0.046179295
16	0xbeb432a2	-0.3519488
17	0xbe17bc31	-0.14817883
18	0xbb0fad00	-0.0021923184
19	0x3e84f56b	0.2596849
20	0xbd4ce398	-0.050021738
21	0xbe491946	-0.19638547
22	0x3e380cae	0.17973587
23	0x3e8a6247	0.27028105
24	0xbe6d7860	-0.2319045
25	0x3e12a5ec	0.14321107
26	0x3dd5a858	0.104325
27	0xbc76f6a0	-0.015073448
28	0xbe4980cf	-0.19678043
29	0xbdd336bc	-0.10313174
30	0xbe09fc89	-0.13475241
31	0x3d85eccc	0.06539306
32	0x3e96b45d	0.2943448
33	0x3cdd1f70	0.02699253
34	0xbcdaf3f0	-0.026727647
35	0xbe8b117a	-0.2716177
36	0x3e7b8666	0.24562988
37	0xbe65dceb	-0.22447555
38	0x3e421d8e	0.18956587
39	0x3d798c00	0.06092453
40	0xbe8e2f69	-0.27770546
41	0xbdb8ca4c	-0.0902296
42	0xbd1cabb8	-0.0382497
43	0x3e93bcdd	0.2885503
44	0x3eb0adf5	0.3450772
45	0xbe9c1d98	-0.30491328
46	0xbe8ef20e	-0.27919048
47	0x3ea96365	0.33083645
48	0x3e800fa5	0.25011936
49	0xbe86cdf1	-0.26328996
50	0x3d8554c0	0.065103054
51	0x3e234982	0.1594601
52	0xbe819943	-0.25312242
53	0x3eaa7ecd	0.33299866
54	0xbe3ed6a6	-0.1863657
55	0x3ea0463d	0.31303588
56	0x3e02cd46	0.12773618
57	0xbc4d2800	-0.012521744
58	0x3d845350	0.06461203
59	0x3dc953a4	0.09830406
60	0xbc276660	-0.010217279
61	0x3e404246	0.18775281
62	0xbe2b77da	-0.16744938
63	0xbe214783	-0.15749936

encoder_block1.attention.w_q.weight f4 [64, 64]
0	0xbba4ac40	-0.0050254166
1	0xbdfe1fe6	-0.12408428
2	0x3da9b47c	0.08286378
3	0x3dcc5cfa	0.09978671
4	0xbdb428fe	-0.08796881
5	0x3d83a53e	0.06428002
6	0x3caa43b8	0.020784244
7	0x3d831ec2	0.06402351
8	0xbd205e6c	-0.039152548
9	0x3d11d200	0.035600662
10	0x3d750c98	0.059826463
11	0x3dc8ecac	0.098107666
12	0xbdb55af8	-0.088552415
13	0x3ce1d570	0.027567595
14	0xbcd4ac68	-0.025961116
15	0x37bda000	2.2605062e-05
16	0x3dd89da0	0.105769396
17	0x3d87414c	0.06604251
18	0xbdc0ff22	-0.09423663
19	0xbd9f1856	-0.077683136
20	0xbd209c54	-0.039211586
21	0x3ce95ad8	0.0284857
22	0x3dc50ab6	0.096211836
23	0x3c2628f0	0.010141596
24	0xbc5b1bb0	-0.0133733
25	0xbd1c6280	-0.038179874
26	0xbda4e5b8	-0.08051628
27	0x3d08990c	0.033349082
28	0x3de32e66	0.11092834
29	0xbde86008	-0.113464415
30	0xbdc2e6e4	-0.09516695
31	0x3d93e63e	0.072216496
32	0x3bddf700	0.0067738295
33	0xbdbe406c	-0.09289631
34	0xbde2188e	-0.1103984
35	0x3dcd6ca0	0.10030484
36	0xbdcd006a	-0.100098446
37	0x3ba0c680	0.0049064755
38	0x3da48f26	0.08035116
39	0xbdca4e00	-0.098781586
40	0xbdee9bd2	-0.11650814
41	0xbdc0abc0	-0.09407759
42	0xbd6fe148	-0.058564454
43	0x3dea496a	0.11439784
44	0xbd179164	-0.03700389
45	0x3d10b750	0.03533107
46	0x3d9ec96a	0.077532604
47	0x3c246300	0.010033369
48	0x3debb826	0.11509733
49	0xbdd04068	-0.101685345
50	0xbc5ccf90	-0.013477221
51	0x3d564428	0.052311093
52	0xbda57e12	-0.08080687
53	0xbd622214	-0.05520828
54	0xbcd39238	-0.025826558
55	0x3d556528	0.052098423
56	0x3d3db3b4	0.046313956
57	0x3dbfeb82	0.093710914
58	0x3dcb790a	0.09935196
59	0xbd9752ac	-0.07388815
60	0x3dd771a0	0.10519719
61	0x3d07211c	0.03299056
62	0x3dc8fe0a	0.09814079
63	0x3d193978	0.037408322
64	0xbc465430	-0.012105033
65	0xbdb49a26	-0.08818464
66	0x3dcfef14	0.101530224
67	0xbc246a90	-0.010035172
68	0xbdaea40c	-0.08527383
69	0x3df06712	0.11738409
70	0xbcaaaf40	-0.020835519
71	0xbdb80afc	-0.0898647
72	0xbd26bae0	-0.04070556
73	0xbd3d043c	-0.046146616
74	0x3d7a8940	0.061166048
75	0xbda2a272	-0.0794114
76	0xbd07f3dc	-0.033191547
77	0x3dd9adf8	0.10628885
78	0xbde89e0c	-0.1135827
79	0x3d3654f8	0.044514626
80	0x3d5b5044	0.053543344
81	0xbd939468	-0.072060406
82	0x3d4cc8d4	0.049996212
83	0xbcb61d98	-0.022230908
84	0x3d545d38	0.051846713
85	0xbdbcd2e2	-0.0921991
86	0x3dab050c	0.08350572
87	0xbd500fd4	-0.050796345
88	0x3d58ae20	0.052900434
89	0x3d741544	0.059590593
90	0x3d2088f8	0.039193124
91	0x3c8a5c90	0.01688984
92	0xbb339e40	-0.0027407557
93	0x3cbc94b8	0.023020133
94	0xbc7d1650	-0.015447214
95	0xbda7e9c2	-0.08198883
96	0x3d4d7634	0.050161555
97	0xbdb337fa	-0.08750911
98	0xbddae894	-0.10688892
99	0xbdc9b406	-0.0984879
100	0xbdbb5714	-0.09147468
101	0xbd62ae34	-0.055341914
102	0xbdd85278	-0.10562605
103	0x3d977af4	0.07396498
104	0x3d01b3d8	0.031665653
105	0xbda1839a	-0.07886429
106	0xbd157200	-0.036485672
107	0xbcce5090	-0.0251849
108	0xbd85eea4	-0.06539658
109	0x3d844248	0.06457955
110	0x3dde8b8c	0.1086646
111	0xbcbc7728	-0.023006037
112	0x3d9d824c	0.07690868
113	0xbde78660	-0.11304927
114	0xbca2f8b8	-0.019893989
115	0x3cab0330	0.020875543
116	0xbdf0c3ca	-0.11756094
117	0xbdf6688a	-0.12031658
118	0x3c12a2a0	0.008949906
119	0xbdc85396	-0.09781568
120	0x3daf6844	0.08564809
121	0xbdafbc3e	-0.08580826
122	0x3dd92b7c	0.10603997
123	0x3d32d9d8	0.043664783
124	0x3df414ca	0.11918028
125	0x3d6c0ecc	0.0576313
126	0x3d2ebaac	0.042658493
127	0xbdef5fb4	-0.11688176
128	0xbb6051c0	-0.0034228414
129	0xbd345228	-0.044023663
130	0xbd246c50	-0.040142357
131	0xbde96d66	-0.11397819
132	0x3d8df766	0.06931953
133	0xbd803a3e	-0.06261109
134	0x3d9c580a	0.076339796
135	0xbd8a0dce	-0.06740914
136	0xbd35c50c	-0.04437737
137	0xbdb52904	-0.08845714
138	0x3db3e736	0.08784334
139	0xbd174608	-0.03693202
140	0xbdd1ea5c	-0.10249779
141	0xbd446180	-0.047944546
142	0x3c796060	0.0152207315
143	0x3d6305cc	0.05542545
144	0xbd8e21fc	-0.06940076
145	0xbca6d428	-0.020364836
146	0x3c7a1dc0	0.015265882
147	0xbdab1330	-0.08353269
148	0x3ca7fb48	0.020505562
149	0x3c165520	0.009175569
150	0xbb7b9e00	-0.0038393736
151	0xbc91e7a0	-0.017810643
152	0xbd70f314	-0.058825567
153	0xbce61530	-0.028086275
154	0x3c339910	0.010961786
155	0xbd44934c	-0.047992036
156	0xbd88cb08	-0.0667935
157	0xbd5aaf98	-0.053390115
158	0xbd0b6568	-0.034032255
159	0xbdd7926a	-0.10525973
160	0x3ccca7e8	0.024982408
161	0xbdbf16c4	-0.09330514
162	0xbd72702c	-0.059189007
163	0xbd84cec4	-0.0648475
164	0x3cacd378	0.02109693
165	0xbd917b78	-0.07103628
166	0x3b6d1d40	0.0036180764
167	0xbc894f30	-0.016761392
168	0xbdb747b0	-0.0894922
169	0xbd55ad8c	-0.05216746
170	0xbd8abd92	-0.06774439
171	0xbd9ae824	-0.075638086
172	0xbdcacc64	-0.09902266
173	0xbdf1bd7c	-0.118037194
174	0x3c19e410	0.009392753
175	0x3da5907c	0.08084199
176	0x3d8d0c06	0.06887059
177	0x3d02d320	0.031939626
178	0xbda5a0ee	-0.080873355
179	0x3d1f8a28	0.038950115
180	0xbd552e50	-0.05204612
181	0x3cb6d918	0.022320315
182	0x3d977fc0	0.07397413
183	0x3c607cc0	0.013701618
184	0xbd75d3b8	-0.060016364
185	0x3dd43676	0.1036195
186	0xbd4a1b14	-0.04934223
187	0x3dfeaa02	0.1243477
188	0x3dbc762c	0.09202227
189	0xbceb1ee8	-0.02870126
190	0xbd1b8a48	-0.037973672
191	0xbd178c40	-0.036998987
192	0xbd0db4dc	-0.03459631
193	0xbd8c198c	-0.0684081
194	0xbdfc3b46	-0.12315993
195	0x3d6b6a6c	0.05747454
196	0x3bea4580	0.0071493983
197	0x3c7f5370	0.015583858
198	0x3da780b6	0.081788465
199	0xbda3440c	-0.07971963
200	0x3de0294e	0.10945378
201	0xbdb05334	-0.0860962
202	0xbdc2534e	-0.09488545
203	0x3d8f88c6	0.07008509
204	0x3df5544a	0.119789675
205	0xbd090644	-0.03345324
206	0xbd942c8c	-0.07235059
207	0xbc9d91d8	-0.019234583
208	0xbd868fce	-0.06570397
209	0x3d16677c	0.036719784
210	0x3dce5cb4	0.100762755
211	0xbdfbfeaa	-0.12304433
212	0xbd0ed748	-0.034873277
213	0xbd9f448e	-0.07776748
214	0x3d3cd9e8	0.04610625
215	0x3da42b70	0.080160975
216	0x3be76620	0.007061735
217	0xbdf6c8d4	-0.12050024
218	0x3d5d1e20	0.053983808
219	0xbc6a5e60	-0.014304727
220	0x3d1e6944	0.038674608
221	0xbdcb1292	-0.099156514
222	0x3bbf2ea0	0.0058344156
223	0xbddb0470	-0.10694206
224	0x3cf79798	0.030223653
225	0x3c828fb0	0.015937656
226	0x3de5c042	0.11218311
227	0xbd00a7bc	-0.031409964
228	0xbdeac9e4	-0.11464289
229	0x3c8c3260	0.017113864
230	0x3dd79be4	0.10527781
231	0x3d26f2fc	0.04075907
232	0x3dd552fc	0.10416219
233	0xbdf57b40	-0.11986399
234	0x3b96bee0	0.004600391
235	0x3d37bf54	0.0448602
236	0x3df5dd52	0.12005104
237	0x3d749ef0	0.059721887
238	0x3d15656c	0.036473677
239	0x3df25a72	0.11833657
240	0xbde31eb4	-0.110898405
241	0x3dde25c0	0.10847044
242	0x3d772924	0.06034197
243	0x3ddd14c8	0.10794979
244	0xbcb09200	-0.021553993
245	0x3de0b06c	0.1097115
246	0xbc052eb0	-0.008128807
247	0xbddd7780	-0.108138084
248	0x3aed8600	0.00181216
249	0x3da89f58	0.082335174
250	0x3d325c04	0.043544784
251	0x3d114c0c	0.035472915
252	0x3cbb63d8	0.022874758
253	0x3d963bb0	0.07335603
254	0xbdb08852	-0.08619751
255	0xbce20438	-0.027589902

encoder_block1.attention.w_q.bias f4 [64]
0	0xbb6e24c0	-0.0036337823
1	0xbd702694	-0.05863054
2	0x3dc4550c	0.09586534
3	0x3c6988d0	0.01425381
4	0x3dceef76	0.10104267
5	0xbdad00f4	-0.084474474
6	0xbd822cbe	-0.0635619
7	0xbd1a35b4	-0.03764887
8	0xbda6ee78	-0.08150953
9	0xbdf31768	-0.11869699
10	0xbd21af00	-0.039473534
11	0xbd3d4010	-0.046203673
12	0x3c552e20	0.013011485
13	0x3ce03770	0.027370185
14	0x3dcb5582	0.09928419
15	0xbde2a9fc	-0.11067578
16	0xbdbaed92	-0.09127344
17	0xbd836ea8	-0.064175904
18	0x3c76dfc0	0.015067995
19	0xbdc2f2c2	-0.09518959
20	0x3ca717d8	0.020397112
21	0x3ce66dc8	0.02812852
22	0x3dd1d3c4	0.10245469
23	0xbde0be1a	-0.10973759
24	0x3db3d02c	0.0877994
25	0x3c7a3f70	0.015273914
26	0x3c86aaf0	0.016438931
27	0xbdc99a3e	-0.098438725
28	0xbded151e	-0.115762934
29	0x3d1c0ffc	0.03810118
30	0x3dd2e476	0.10297482
31	0x3d1f8b74	0.038951352
32	0x3de8c8c2	0.113664165
33	0x3d134988	0.035958797
34	0xbdde14bc	-0.108437985
35	0xbdca1ef8	-0.09869188
36	0x3d01e694	0.031714037
37	0x3df8cbc0	0.12148237
38	0x3d333e90	0.043760836
39	0x3d2a9628	0.041647106
40	0x3de0fcea	0.109857395
41	0x3d1f7084	0.038925663
42	0x3dc2f102	0.09518625
43	0x3d80dbea	0.06291945
44	0x3d66b85c	0.056328163
45	0xbcfceb98	-0.030874059
46	0x3dbaff3a	0.09130712
47	0xbd6847b4	-0.056709006
48	0x3bbaea00	0.0057041645
49	0x3d5bc118	0.053650945
50	0x3d721420	0.059101224
51	0x3dfd9286	0.12381463
52	0x3d6fbdac	0.058530495
53	0x3d63ca20	0.055612683
54	0xbc9c1b00	-0.019055843
55	0xbd04e308	-0.032443076
56	0x3da7304e	0.0816351
57	0xbd3af780	-0.04564619
58	0x3da45842	0.08024646
59	0xbd088b00	-0.033335686
60	0xbdb9bc60	-0.09069133
61	0x3d85da2c	0.065357536
62	0xbda8a6d0	-0.08234942
63	0xbd47e958	-0.04880652

encoder_block1.attention.w_k.weight f4 [64, 64]
0	0x3d7bc950	0.061471283
1	0x3cab48c8	0.020908728
2	0xbddf1404	-0.108924896
3	0x3ddf1470	0.1089257
4	0x3b4e7bc0	0.0031506866
5	0xbdb1dad8	-0.08684319
6	0x3db389a0	0.08766484
7	0x3dd7f5ae	0.105449066
8	0xbce70118	-0.028198764
9	0x3d12aee8	0.035811335
10	0xbd534a14	-0.05158432
11	0x3db4598a	0.08806141
12	0x3da9ac9e	0.08284877
13	0xbcda4f40	-0.026649117
14	0x3dd1d3c6	0.10245471
15	0x3dc9cb3a	0.098532155
16	0xbdc8709a	-0.09787102
17	0xbd835d36	-0.06414263
18	0x3d95ee6a	0.073208645
19	0x3cedb650	0.029017597
20	0x3db7dfbc	0.08978221
21	0x3c178d50	0.00925
22	0x3c0dc860	0.00865373
23	0xbdd786d2	-0.10523762
24	0xbd8990e6	-0.0671709
25	0x3df398bc	0.11894366
26	0x3c773210	0.015087619
27	0x3bf0ff40	0.007354647
28	0xbda1bb06	-0.07897
29	0xbd9171e2	-0.071017995
30	0x3c1521f0	0.00910233
31	0xbdcc550e	-0.099771604
32	0x3d816898	0.06318778
33	0xbd23f2f0	-0.040026605
34	0xbc9c7488	-0.019098535
35	0xbc4202f0	-0.011841521
36	0x3d89abee	0.06722246
37	0xbce57230	-0.02800855
38	0xbda7d332	-0.08194579
39	0xbdbb73ca	-0.091529444
40	0x3df580c4	0.11987451
41	0xbdc59f70	-0.09649551
42	0x3dea5780	0.114424706
43	0xbdb585e6	-0.0886343
44	0x3dc1059c	0.09424898
45	0xbda3e628	-0.08002883
46	0xbdc212be	-0.09476231
47	0x3d561c00	0.052272797
48	0x3d5fc2f0	0.054629266
49	0xbd1dc0a4	-0.038513795
50	0xbdc5b5fe	-0.09653853
51	0xbdba3198	-0.090914905
52	0x3dbf2634	0.093334585
53	0x3c0c0060	0.008545011
54	0x3ddfbf46	0.109251544
55	0x3d29a9b8	0.041421622
56	0xbd58803c	-0.05285667
57	0x3cec1230	0.028817266
58	0x3d510934	0.051034167
59	0x3bdca240	0.006733209
60	0xbd8cacb6	-0.068688795
61	0xbbf45800	-0.0074567795
62	0xbda644ea	-0.08118613
63	0x3bf68580	0.0075232387
64	0xbd43a9b0	-0.04776925
65	0x3d9604d2	0.07325138
66	0xbc2ee360	-0.010674328
67	0xbc96c2e0	-0.01840347
68	0xbda56cde	-0.080774054
69	0xbcf4b3c0	-0.029870868
70	0x3d483f34	0.0488884
71	0x3de05926	0.10954504
72	0xbd1e4b80	-0.03864622
73	0x3d27e060	0.040985465
74	0x3d64fcb4	0.05590506
75	0x3db93136	0.09042589
76	0x3de4c5c4	0.11170533
77	0xbde8b54e	-0.11362706
78	0xbd1a1444	-0.037616983
79	0x3d3aaf50	0.045577347
80	0x3bfb0320	0.0076602846
81	0xbd3a04fc	-0.04541491
82	0x3dfab020	0.122406244
83	0xbdc37844	-0.09544423
84	0xbdeb8974	-0.115008265
85	0x3dc1a818	0.094558895
86	0x3de11da8	0.109919846
87	0x3dae37ec	0.0850676
88	0xbd568ce4	-0.052380458
89	0xbda97b56	-0.082754776
90	0x3da89654	0.08231798
91	0x3d46dfac	0.048553154
92	0x3d67fb3c	0.05663608
93	0xbdbe1b8e	-0.092825994
94	0xbde7fe28	-0.11327773
95	0x3cae7228	0.021294668
96	0x3dd20fd6	0.10256927
97	0xbd9c4d28	-0.07631904
98	0x3dfe46d2	0.12415852
99	0xbcde72b0	-0.027154297
100	0xbd80efba	-0.06295724
101	0x3d88c9d8	0.06679124
102	0x3d8be254	0.06830278
103	0xbd610cf8	-0.05494401
104	0x3df77260	0.12082362
105	0xbcd00bc0	-0.025396228
106	0xbdfd2d44	-0.12362149
107	0xbdba1334	-0.09085694
108	0xbd54d8d8	-0.05196461
109	0xbb72d340	-0.0037052184
110	0x3cfaa428	0.030595854
111	0x3da8b81e	0.082382426
112	0xbdc2daec	-0.09514412
113	0xbdee37b8	-0.11631721
114	0x3dd31aee	0.10307871
115	0xbdaba4e0	-0.08381057
116	0xbd955c82	-0.07293035
117	0x3c61ed00	0.013789415
118	0x3dc6edf0	0.09713352
119	0x3dfda0f6	0.123842165
120	0x3cad9408	0.02118875
121	0xbb924320	-0.0044635683
122	0xbbcf3ac0	-0.006324142
123	0xbd4c582c	-0.049888775
124	0xbde514ea	-0.1118563
125	0xbdce9fb4	-0.10089055
126	0x3d84d1fe	0.06485365
127	0x3dd1903a	0.10232587
128	0xbd82ad96	-0.06380765
129	0xbd9c292e	-0.07625042
130	0xbc9d6238	-0.019211873
131	0x3d6dfc98	0.05810222
132	0xbdda838a	-0.1066962
133	0x3b7a2f80	0.0038175285
134	0xbdc36b98	-0.09542006
135	0xbd0fbd34	-0.035092548
136	0xbded3baa	-0.11583646
137	0x3db260d4	0.08709875
138	0x3dc6a856	0.09700076
139	0x3c7e6e50	0.01552923
140	0xbda81fec	-0.082092136
141	0x3cb56890	0.022144586
142	0x3c283bb0	0.010268137
143	0xbdb0a2de	-0.086248145
144	0xbda70bd8	-0.08156556
145	0x3d797f3c	0.060912356
146	0x3bc9c2c0	0.006157249
147	0xbc04d540	-0.008107483
148	0x3da929e6	0.082599446
149	0xbca05b90	-0.01957491
150	0xbd3f7ec0	-0.046751738
151	0xbd8f41f2	-0.06995
152	0x3dcdb94c	0.10045108
153	0xbd81504e	-0.06314145
154	0x3dbc0fc6	0.09182696
155	0x3d3fd860	0.04683721
156	0xbd418e48	-0.04725483
157	0xbdac8018	-0.084228694
158	0x3dda926a	0.106724575
159	0x3de1cba4	0.110251695
160	0xbc4452e0	-0.01198265
161	0x3b6da880	0.0036263764
162	0x3d2ec79c	0.04267083
163	0x3dcf4c26	0.10121946
164	0x3dfcf658	0.12351674
165	0xbd15498c	-0.036447093
166	0xbd59e354	-0.053195313
167	0xbd583ab0	-0.052790344
168	0x3d3bcbd4	0.045848683
169	0x3dc3266a	0.09528811
170	0x3d7507b0	0.059821784
171	0xbd90a3ca	-0.0706249
172	0xbd1b9de8	-0.037992388
173	0x3d7a7bc4	0.06115319
174	0xbda8f0ea	-0.08249076
175	0xbdc997b4	-0.09843388
176	0xbd138608	-0.036016494
177	0x3d2eeb38	0.04270479
178	0x3dafa63c	0.085766286
179	0xbdf2992e	-0.11845623
180	0x3c6fa050	0.014625624
181	0xbd31d314	-0.04341419
182	0xbb6c7f40	-0.003608659
183	0x3dde85c4	0.108653575
184	0xbd4b8e1c	-0.049696073
185	0xbda47a12	-0.080310956
186	0x3de664a0	0.112496614
187	0x3cf32540	0.029680848
188	0xbcfe1fc0	-0.031020999
189	0x3ceaf0d8	0.028679296
190	0x3d776a98	0.06040439
191	0xbda471b2	-0.08029498
192	0x3b6235c0	0.00345169
193	0xbd775608	-0.06038478
194	0x3dbe74b2	0.092996016
195	0xbdd6cb76	-0.10488026
196	0xbda79b26	-0.08183889
197	0x3d899006	0.067169234
198	0x3d9920de	0.07476972
199	0x3dd43d3c	0.10363242
200	0xbdd5d568	-0.10441095
201	0xbdc0316a	-0.09384425
202	0x3df6e4c2	0.12055351
203	0x3d6f38e4	0.058403865
204	0x3daa17fe	0.083053574
205	0xbdd40e26	-0.10354261
206	0x3cd510e8	0.026009038
207	0x3dc9f0ce	0.09860383
208	0xbddbe3d8	-0.10736817
209	0x3c534560	0.012894958
210	0x3dd73c24	0.10509518
211	0x3dc2e32e	0.09515987
212	0x3dbccee4	0.09219149
213	0xbd3570c4	-0.044296995
214	0x3db95a68	0.09050447
215	0x3deb553e	0.11490868
216	0xbd415848	-0.047203332
217	0x3d921f38	0.07134861
218	0xbd07e728	-0.033179432
219	0x3d71a7a4	0.058997765
220	0x3d9c862a	0.07642777
221	0x3dab2b0c	0.0835782
222	0x3d80d546	0.06290679
223	0xbd228168	-0.039674193
224	0x3c478b30	0.012179181
225	0x3df10618	0.117687404
226	0xbcae29e0	-0.021260202
227	0xbdcdbb46	-0.10045485
228	0xbdf5c90a	-0.12001236
229	0xbd1d6c08	-0.038433105
230	0x3d7f1964	0.062280074
231	0xbc889440	-0.016672254
232	0xbde99ca6	-0.114068314
233	0x3ad45400	0.001619935
234	0xbd92c80c	-0.07167062
235	0x3c680af0	0.014162764
236	0x3d8ed24c	0.06973705
237	0x3da4e012	0.080505505
238	0x3df1cdf6	0.11806862
239	0xbccf0ec8	-0.025275603
240	0xbdc67742	-0.096907154
241	0xbdab52e2	-0.08365418
242	0x3d64416c	0.055726454
243	0x3d73034c	0.059329316
244	0x3c970258	0.018433735
245	0x3dec0ebe	0.11526249
246	0x3da70148	0.08154541
247	0xbdbe1924	-0.09282139
248	0xbdf4e114	-0.11956993
249	0xbdf8dece	-0.121518716
250	0x3d993fde	0.07482885
251	0x3df3928a	0.118931845
252	0x3bdcef80	0.006742418
253	0xbae36f80	-0.0017351955
254	0xbd14f350	-0.036364853
255	0xbdc9097a	-0.09816261

encoder_block1.attention.w_k.bias f4 [64]
0	0xbdac9e92	-0.084286824
1	0x3d4377b8	0.047721595
2	0xbda180b4	-0.07885876
3	0x3d3480b0	0.04406804
4	0x3c8e4d30	0.01737079
5	0xbddd63c6	-0.10810046
6	0x3d400180	0.04687643
7	0xbdbb5aec	-0.09148201
8	0xbdd8205a	-0.105530456
9	0xbd5e27f0	-0.054237306
10	0x3ca83a38	0.020535573
11	0x3db35d14	0.087579876
12	0x3dc834ec	0.09775719
13	0x3dd954b2	0.106118575
14	0x3d3fa5c8	0.04678896
15	0xbcddd390	-0.02707842
16	0xbd853494	-0.06504169
17	0xbc890758	-0.016727135
18	0xbc9760a0	-0.018478692
19	0xbd3b62a8	-0.045748383
20	0x3d291458	0.041279167
21	0x3d4005a8	0.046880394
22	0x3cb4aa08	0.022053733
23	0xbde3a1ec	-0.111148685
24	0xbdc2268e	-0.0948001
25	0xbddfc9de	-0.10927175
26	0xbddc8cae	-0.1076902
27	0x3d90478a	0.07044895
28	0x3dd2b4b8	0.102883756
29	0x3bd411a0	0.0064718276
30	0xbba51800	-0.0050382614
31	0xbd9b19bc	-0.07573268
32	0xbdf6d158	-0.12051648
33	0xbd88daa2	-0.06682326
34	0xbc87f658	-0.016596958
35	0xbd8930ea	-0.06698783
36	0x3d6d5008	0.057937652
37	0xbc954860	-0.018222988
38	0x3d3ce094	0.046112612
39	0x3c9deb40	0.019277215
40	0x3ba07f80	0.0048980117
41	0x3dd95876	0.10612576
42	0xbde2d208	-0.110752165
43	0xbd93c340	-0.07214975
44	0x3dfae60c	0.12250909
45	0xbdd4327e	-0.10361193
46	0xbd4da9d0	-0.050210774
47	0x3dbac868	0.09120256
48	0x3d28e170	0.04123062
49	0xbde79d82	-0.11309339
50	0x3d876030	0.06610143
51	0x3d2df238	0.042467326
52	0x3da9599e	0.08269046
53	0xbda98922	-0.08278109
54	0x3d0bae7c	0.03410195
55	0xbcae8a38	-0.021306142
56	0xbd420b24	-0.047373906
57	0x3da35ae2	0.07976319
58	0xbdcb5f40	-0.09930277
59	0x3d6161e0	0.05502498
60	0xbdc2e0a4	-0.09515503
61	0x3deee48a	0.11664684
62	0xbd01e240	-0.03170991
63	0xbdb3e122	-0.08783175

encoder_block1.attention.w_v.weight f4 [64, 64]
0	0xbd935290	-0.07193482
1	0xbd9be360	-0.07611728
2	0xbdb58454	-0.0886313
3	0xbdc67382	-0.0969
4	0x3deb47fa	0.11488338
5	0x3d6d20b4	0.057892516
6	0x3cd9e6b8	0.026599273
7	0x3b450e80	0.0030068457
8	0x3d2cfcc8	0.04223326
9	0x3dac5b52	0.084158555
10	0x3d696c0c	0.056987807
11	0x3d957672	0.07297982
12	0x3d0576cc	0.032583997
13	0xbdc0860c	-0.094005674
14	0x3c915888	0.01774241
15	0x3d81a192	0.06329645
16	0xbbf9e380	-0.007625997
17	0xbcd15ce8	-0.025556996
18	0xbd08e668	-0.033422858
19	0xbdb9fd1c	-0.0908148
20	0x3d44d4fc	0.04805468
21	0xbd673dc8	-0.056455404
22	0x3d8a1e18	0.06744021
23	0xbc1615f0	-0.009160504
24	0xbd3b4afc	-0.045725808
25	0x3cf735e8	0.030177072
26	0x3d1f1130	0.03883475
27	0x3daa5b62	0.08318211
28	0x3d32534c	0.04353647
29	0xbc4dca30	-0.012560412
30	0x3b53d2c0	0.0032321662
31	0x3de80e46	0.113308474
32	0xbd94104e	-0.07229672
33	0xbda17568	-0.078837216
34	0x3deb051c	0.11475584
35	0xbdaf6612	-0.0856439
36	0xbd8fc872	-0.07020654
37	0xbdb1d5a4	-0.08683327
38	0xbc3d1440	-0.0115404725
39	0x3d398e38	0.045301646
40	0xbdd8c314	-0.10584083
41	0x3d1bbc70	0.038021505
42	0x3d319930	0.04335898
43	0x3d4ad138	0.049515933
44	0xbdaa2d28	-0.08309394
45	0x3da2a0c0	0.07940817
46	0xbd3c3f44	-0.045958772
47	0x3c908118	0.017639682
48	0xbdc33d42	-0.095331684
49	0xbda6561c	-0.08121893
50	0xbd9cae0e	-0.07650386
51	0xbdccccf6	-0.10000031
52	0xbdef30f6	-0.116792604
53	0x3d1a4acc	0.037668988
54	0x3d351600	0.044210434
55	0x3df1a696	0.11799352
56	0x3dcf678c	0.10127172
57	0x3a430f00	0.0007440895
58	0xbde4c382	-0.11170103
59	0x3dd55148	0.10415894
60	0x3cc90160	0.024536788
61	0x3d7ca16c	0.06167738
62	0x3d8ddc8e	0.06926833
63	0x3d90a842	0.07063343
64	0x3d0f01f0	0.034913957
65	0x3da895fc	0.08231732
66	0xbd21cc6c	-0.039501593
67	0x3dcd0f5e	0.10012697
68	0x3ddce1fc	0.107852906
69	0xbd0b57e0	-0.03401935
70	0x3d99a904	0.0750294
71	0xbd5a1098	-0.05323848
72	0x3d1105dc	0.03540598
73	0x3d79f7b4	0.061027244
74	0xbd539c8c	-0.051662967
75	0x3d4fb80c	0.05071263
76	0xbc6585c0	-0.014008939
77	0xbda11072	-0.07864465
78	0xbd4954b4	-0.049153045
79	0xbd505eac	-0.050871536
80	0xbd6a5ccc	-0.057217404
81	0x3d2cb790	0.042167246
82	0xbc3822c0	-0.011238754
83	0x3d3a0a58	0.04542002
84	0x3da999be	0.08281277
85	0xbcf326b8	-0.029681548
86	0xbd89452a	-0.06702645
87	0x3dc2060e	0.09473811
88	0xbdb0a80e	-0.08625804
89	0xbccf3280	-0.025292635
90	0xbd025b08	-0.031825095
91	0xbdf9b704	-0.121931106
92	0xbd2875f4	-0.041128114
93	0x3dfc5b26	0.12322073
94	0xbd62261c	-0.055212125
95	0x3d638168	0.055543333
96	0x3b1e0580	0.0024112165
97	0xbc5f63a0	-0.013634592
98	0xbdf6861e	-0.120372996
99	0x3ddfe276	0.10931866
100	0x3db925a2	0.09040381
101	0x3dac426c	0.084111065
102	0xbd3da3c0	-0.046298742
103	0xbdccb568	-0.09995538
104	0xbd8c0ff6	-0.06838982
105	0xbc70f950	-0.014707878
106	0x3ccd8ea0	0.025092423
107	0xbc7c15e0	-0.015386075
108	0x3d836de6	0.06417446
109	0xbdf6ba2a	-0.12047227
110	0xbd579ed0	-0.05264169
111	0x3d2013dc	0.03908144
112	0xbd81d790	-0.063399434
113	0x3cf01660	0.029307544
114	0xbcb85618	-0.02250199
115	0x3d38ba60	0.045099616
116	0xbced72e8	-0.028985456
117	0xbd9de118	-0.07708949
118	0x3dc2c53c	0.09510276
119	0x3d9c994e	0.07646428
120	0xbdc22f18	-0.09481639
121	0xbd0bd200	-0.03413582
122	0xbd978400	-0.07398224
123	0x3935d800	0.00017341971
124	0xbc21ce70	-0.009875879
125	0xbcba48d8	-0.022739813
126	0xbdd42f18	-0.10360545
127	0x3dce39cc	0.10069618
128	0xbd00c4f4	-0.03143783
129	0x3df60eec	0.12014565
130	0x3d0a6940	0.03379178
131	0x3daf567e	0.08561419
132	0xbd83c554	-0.06434122
133	0xbdb8a466	-0.090157315
134	0x3dfaa5de	0.12238668
135	0x3d4996f8	0.04921624
136	0xbdfe746e	-0.12424551
137	0xbd314938	-0.043282717
138	0x3dcb884e	0.099381074
139	0xbd0167a8	-0.031592995
140	0xbdcdfcf0	-0.100580096
141	0x3d6a0bb0	0.057140052
142	0x3d0b9680	0.034079075
143	0x3d157990	0.036492884
144	0x3c4f32c0	0.012646377
145	0x3d9a15dc	0.075237006
146	0xbda700c2	-0.081544414
147	0x3d613278	0.05497977
148	0x3d545780	0.05184126
149	0xbc40a410	-0.011757866
150	0xbdf63770	-0.120222926
151	0xbc164630	-0.009172007
152	0xbdd063c2	-0.10175277
153	0xbdb0b66e	-0.08628546
154	0x3d71c6c4	0.05902745
155	0x3db2a8bc	0.0872359
156	0xbdf5cbe6	-0.12001781
157	0x3de7c280	0.11316395
158	0x3ded09d6	0.11574142
159	0x3d958c58	0.07302159
160	0x3dd770dc	0.10519573
161	0x3cc43f80	0.02395606
162	0xbcbcb288	-0.02303435
163	0x3dce153e	0.100626454
164	0x3daa7bf4	0.083244234
165	0xbdea4dae	-0.114405975
166	0x3d903510	0.07041371
167	0x3d0aa39c	0.033847436
168	0x3c6aa3a0	0.014321238
169	0xbd910fda	-0.070831016
170	0xbdc166c2	-0.094434276
171	0x3d3b5cb4	0.045742705
172	0xbd0b9564	-0.034078017
173	0x3c938338	0.018006906
174	0x3dcd4a66	0.10023956
175	0xbd05c7b4	-0.032661155
176	0xbb7c3100	-0.0038481355
177	0x3b9695c0	0.0045954883
178	0xbcf97e78	-0.030455813
179	0x3aad2500	0.0013209879
180	0xbcac10b8	-0.021004066
181	0x3d9ce478	0.076607645
182	0x3cd1da08	0.02561666
183	0x3dc53634	0.09629479
184	0xbc887510	-0.016657382
185	0xbcbf6848	-0.023365155
186	0x3c4a6c90	0.012354985
187	0xbced6188	-0.02897717
188	0xbd3f5afc	-0.04671763
189	0x3c76ac80	0.015055776
190	0xbbe42e60	-0.006963536
191	0xbc2a4010	-0.01039125
192	0xbdb12000	-0.08648682
193	0xbc88bc30	-0.016691297
194	0xbcd06a48	-0.025441304
195	0xbdf8be1a	-0.12145634
196	0xbd8bbef2	-0.06823529
197	0x3cdaf540	0.026728272
198	0xbce82158	-0.028336212
199	0xbdc6230e	-0.09674655
200	0xbda9201e	-0.08258079
201	0xbc9b9b00	-0.018994808
202	0x3dc48930	0.09596479
203	0xbb63bc80	-0.0034749806
204	0x3daadd6a	0.08343013
205	0x3d1c76c8	0.038199216
206	0x3daa261a	0.083080485
207	0x3ae0ee80	0.0017160922
208	0xbd62a87c	-0.05533646
209	0xbdecb6fa	-0.115583375
210	0x3db0d99e	0.08635257
211	0xbd426058	-0.04745516
212	0x3dcd91a4	0.10037544
213	0x3cbd6998	0.02312164
214	0x3d5b0e64	0.05348052
215	0xbc5b5060	-0.013385862
216	0x3defc152	0.11706795
217	0xbda5b1f4	-0.080905825
218	0x3dfdee58	0.12398976
219	0xbdab21d0	-0.083560586
220	0xbd5f29dc	-0.05448328
221	0xbd057aa4	-0.032587662
222	0xbbb108a0	-0.0054026395
223	0xbcef5b90	-0.029218465
224	0x3dcfdd36	0.101496145
225	0xbc7689a0	-0.015047461
226	0xbd92ebcc	-0.07173881
227	0x3a799000	0.0009520054
228	0xbc9cd9a8	-0.019146755
229	0x3d8d3e08	0.06896597
230	0x3ce25038	0.027626142
231	0xbdd0059c	-0.1015732
232	0x3d924362	0.071417585
233	0x3d6de6b0	0.05808133
234	0x3cb366f0	0.02189967
235	0x3d8ef7dc	0.06980869
236	0xbde34d36	-0.11098711
237	0xbdb343e4	-0.087531835
238	0x3d6f9a5c	0.058496818
239	0x3d95ca24	0.07313946
240	0x3ce84008	0.028350845
241	0xbd389414	-0.045063093
242	0xbdf8a4b0	-0.12140787
243	0xbd2355b4	-0.039876655
244	0xbdd57e10	-0.10424435
245	0xbddf81b2	-0.10913409
246	0x3dc60a56	0.0966994
247	0x3db2e208	0.08734518
248	0xbd66b500	-0.05632496
249	0xbdf1703e	-0.117889866
250	0xbd8e3846	-0.06944327
251	0x3ddf72d4	0.109105736
252	0x3d97e976	0.07417576
253	0x3d504980	0.050851345
254	0x3db9298e	0.09041129
255	0x3daed80e	0.08537303

encoder_block1.attention.w_v.bias f4 [64]
0	0xbd517250	-0.051134408
1	0xbc346ce0	-0.011012286
2	0x3dfeec06	0.12447362
3	0xbd20a810	-0.039222777
4	0x3cf54c00	0.029943466
5	0x3df8b178	0.121432245
6	0xbdd1599e	-0.10222171
7	0x3dfc7fd2	0.12329067
8	0xbd98fe1c	-0.074703425
9	0x3bc49e40	0.00600031
10	0x3c63a370	0.013893947
11	0x39a41000	0.00031292439
12	0x3cc5aa70	0.024129122
13	0xbd1966e4	-0.03745164
14	0xbdbf1cee	-0.0933169
15	0xbd0f62d4	-0.03500636
16	0x3d6edcc0	0.058315992
17	0x3cbbdf78	0.022933707
18	0x3d716c1c	0.05894099
19	0xbde35564	-0.11100271
20	0xbae20f80	-0.0017247051
21	0x3dafbad4	0.085805565
22	0xbde031c8	-0.10946995
23	0xbde0e092	-0.109803334
24	0x3d1e728c	0.03868346
25	0xbddc92b4	-0.10770169
26	0x3d68edc0	0.05686736
27	0x3ca4a2f0	0.020097226
28	0x3da04dc6	0.07827334
29	0x3cc91108	0.024544254
30	0xbd9b4ef2	-0.07583417
31	0xbded9ccc	-0.11602172
32	0x3df9cd3c	0.121973485
33	0xbd1ac018	-0.03778085
34	0x3dd836ce	0.10557328
35	0x3da49052	0.080353394
36	0x3baf40a0	0.00534828
37	0xbde818d2	-0.11332859
38	0xbd973cc8	-0.0738464
39	0xbd89f7a0	-0.06736684
40	0xbc0f2700	-0.008737326
41	0xbdbf3b4c	-0.09337482
42	0x3d155e10	0.036466658
43	0xbd7f4510	-0.062321723
44	0xbadca480	-0.0016833693
45	0xbdc62144	-0.09674314
46	0x3db26da4	0.087123185
47	0xbda71fe4	-0.081603795
48	0xbdc19424	-0.09452084
49	0xbdc74b0c	-0.09731111
50	0x3de1872e	0.110121116
51	0x3d15f08c	0.036606357
52	0xbb62a600	-0.0034583807
53	0xbc56efd0	-0.013118699
54	0x3daf2766	0.085524365
55	0xbbd9d5a0	-0.0066477805
56	0x3dbb3d26	0.091425225
57	0xbdbd8ac2	-0.092549816
58	0x3d81fd9c	0.063472
59	0xbdd3e5aa	-0.10346539
60	0xbdbcfac2	-0.09227516
61	0x3dbc3bb2	0.091910735
62	0xbdcdfbec	-0.10057816
63	0xbcb5d418	-0.02219586

encoder_block1.attention.w_concat.weight f4 [64, 64]
0	0xbc5dc950	-0.013536766
1	0x3da9157a	0.082560495
2	0x3ddff9d6	0.10936324
3	0x3d957e48	0.07299477
4	0x3d8cf112	0.06881918
5	0x3da32468	0.07965928
6	0x3d3311f4	0.043718293
7	0x3d64cb00	0.05585766
8	0xbdedad4e	-0.11605321
9	0x3d9bd8b8	0.07609695
10	0x3b0dc880	0.00216344
11	0xbd91d3aa	-0.0712045
12	0x3dfba28c	0.12286863
13	0xbd43a964	-0.047768965
14	0xbdbb6ea4	-0.091519624
15	0x3d5396d0	0.051657498
16	0xbd114a14	-0.035471037
17	0x3cb32f50	0.021873146
18	0xbd7462cc	-0.059664533
19	0x3d6f9e54	0.058500603
20	0xbddab4f4	-0.10679045
21	0x3c306580	0.010766387
22	0xbd7d1ec8	-0.061796933
23	0xbdce3b50	-0.10069907
24	0x3da5f51c	0.081033915
25	0x3d3fe2fc	0.04684733
26	0x3d6c2b78	0.057658643
27	0xbdf32814	-0.11872879
28	0xbd8f18f8	-0.06987184
29	0xbdf7c3e4	-0.1209791
30	0xbd443d8c	-0.04791026
31	0xbd6359b8	-0.055505484
32	0x3c873688	0.016505495
33	0x3d92486a	0.07142718
34	0xbc2af0e0	-0.010433406
35	0xbd913b06	-0.07091336
36	0x3d551c60	0.052029014
37	0x3df358d0	0.11882174
38	0xbd76ce98	-0.060255617
39	0x3d5d7050	0.054062188
40	0xbdbd19da	-0.092334464
41	0xbdedefd0	-0.11618006
42	0x3dacf2da	0.08444758
43	0x3d3ed79c	0.04659234
44	0x3db92ce4	0.09041765
45	0xbd10f1e0	-0.03538692
46	0x3dc2428c	0.09485349
47	0xbde6c9ba	-0.11268945
48	0xbde1ef4a	-0.11031969
49	0xbdb57954	-0.08861032
50	0xbc2b77a0	-0.010465533
51	0x3d51d6f8	0.0512304
52	0x3d59dd68	0.053189665
53	0xbdcdf0f0	-0.10055721
54	0xbdfbadc8	-0.122890055
55	0xbdae07f4	-0.08497611
56	0xbd806266	-0.06268768
57	0xbdf5447a	-0.119759515
58	0x3cbf8360	0.023378074
59	0xbd8840b0	-0.06652963
60	0xbd9a639e	-0.07538532
61	0xbd074bc4	-0.03303124
62	0xbd36222c	-0.044466183
63	0xbde142d2	-0.10999073
64	0x3c2282e0	0.009918898
65	0x3d8f2bd0	0.069907784
66	0xbd4d8dd0	-0.05018407
67	0x3d467c4c	0.048458382
68	0xbc0278c0	-0.007963359
69	0x3d375240	0.044756174
70	0xbd1223ac	-0.03567855
71	0x3d842d80	0.06453991
72	0xba762b00	-0.0009390563
73	0x3d159818	0.036522
74	0x3db9428e	0.090458974
75	0x3d1f37b8	0.038871497
76	0x3c060bc0	0.008181512
77	0xbd1af6e4	-0.03783311
78	0xbc9d1e58	-0.019179508
79	0x3d67be98	0.05657825
80	0xbd928514	-0.07154289
81	0xbda997a8	-0.08280879
82	0xbccbe088	-0.024887338
83	0xbdef9020	-0.116974115
84	0x3d2ba4c4	0.04190518
85	0x3d9ce984	0.07661727
86	0x3cc677c0	0.024227023
87	0xbd41e4d0	-0.047337353
88	0x3dd121b8	0.102115095
89	0xbd9c356a	-0.076273754
90	0x3dce4e9a	0.10073586
91	0xbde42ea6	-0.1114171
92	0x3af74300	0.0018864572
93	0x3d3b862c	0.045782253
94	0xbdad3130	-0.084566474
95	0x3d80afc8	0.062835276
96	0x3dd3b1e0	0.10336661
97	0x3cf24ef8	0.02957867
98	0x3cbc73a0	0.023004353
99	0x3ca5f800	0.020259857
100	0x3cdf2f40	0.02724421
101	0x3dc42580	0.09577465
102	0xbdad4a3a	-0.08461423
103	0x3dd60d40	0.10451746
104	0x3bb0e320	0.005398169
105	0x3d5ce748	0.053931504
106	0xbd621290	-0.055193484
107	0xbcf94500	-0.03042841
108	0xbd817524	-0.06321171
109	0xbd251b08	-0.040308982
110	0xbd620400	-0.055179596
111	0xbd27810c	-0.040894553
112	0x3c6f0030	0.014587447
113	0xbd97cbae	-0.07411896
114	0xbd85fdda	-0.06542559
115	0x3dc91886	0.098191306
116	0x3d5f9238	0.054582804
117	0xbdb02f4e	-0.08602773
118	0xbb64c080	-0.0034904778
119	0x3d919506	0.07108502
120	0xbc530380	-0.012879252
121	0xbdd4a36c	-0.10382733
122	0xbc594a90	-0.013262406
123	0x3bb9bfe0	0.0056686252
124	0xbd642660	-0.05570066
125	0x3da5039e	0.080573305
126	0x3df9ebae	0.122031555
127	0x3df29ad8	0.1184594
128	0xbce75768	-0.02823992
129	0xbdde6a52	-0.10860123
130	0xbdc0e61c	-0.0941889
131	0xbc2cf600	-0.010556698
132	0xbdfc7062	-0.12326123
133	0x3d706684	0.058691517
134	0x3d9681c2	0.07348968
135	0xbdc78dcc	-0.097438425
136	0x3dbd1720	0.09232926
137	0x3da246a0	0.07923627
138	0x3d614fd4	0.05500777
139	0x3ba9b180	0.0051786304
140	0x3dd169f4	0.10225287
141	0x3da68a38	0.08131832
142	0xbc887588	-0.016657606
143	0xbde9b21a	-0.11410923
144	0x3d9cb88e	0.076523885
145	0xbdb09cc4	-0.08623651
146	0x3cde6e08	0.027152076
147	0xbd9c2780	-0.076247215
148	0x3d6cc024	0.057800427
149	0xbdb72568	-0.089426816
150	0xbcab4918	-0.020908877
151	0xbc07cef0	-0.008289084
152	0xbddcf160	-0.10788226
153	0xbdd4406c	-0.1036385
154	0x3d8aecd6	0.06783454
155	0xbcd822f0	-0.026383847
156	0xbd8672fa	-0.06564899
157	0x3d8ec454	0.0697104
158	0xbd90bb70	-0.07067001
159	0xbc27e6d0	-0.010247901
160	0x3d9a5120	0.075350046
161	0x3d359d90	0.044339716
162	0x3d7be410	0.061496794
163	0xbb9576e0	-0.00456129
164	0xbd357828	-0.044304043
165	0xbdbd18f8	-0.09233278
166	0x3dd12506	0.1021214
167	0xbdb29bbe	-0.08721112
168	0x3c6dcd90	0.014514342
169	0x3cfa0c30	0.03052339
170	0xbd44630c	-0.04794602
171	0xbdd5f596	-0.104472324
172	0x3d74c534	0.05975838
173	0xbd4a8d88	-0.04945138
174	0xbdb4da2c	-0.088306755
175	0x3d85e32a	0.06537469
176	0xbdfc1aa6	-0.1230977
177	0x3ddb01e6	0.106937215
178	0x3cfff2e0	0.031243742
179	0x3d7948bc	0.06086038
180	0xbb8d6920	-0.0043155104
181	0x3cbe66c0	0.023242354
182	0xbd5c4c18	-0.053783506
183	0x3d83daba	0.06438203
184	0x3d886bb4	0.06661168
185	0x3d781d1c	0.060574636
186	0x3d17ec08	0.03709033
187	0xbd9cb60e	-0.07651912
188	0xbdc8a84e	-0.097977266
189	0x3c86dd70	0.016463012
190	0xbd9e35e0	-0.077251196
191	0xbd8e9040	-0.06961107
192	0x3d465968	0.04842511
193	0x3de36ede	0.111051306
194	0xbb173240	-0.0023070723
195	0x3de1eb88	0.11031252
196	0x3c49a000	0.012306213
197	0xbccfb670	-0.025355548
198	0x3d98ca54	0.07460466
199	0xbc1d32e0	-0.009594649
200	0xbdac76fa	-0.084211305
201	0xbb125a80	-0.0022331774
202	0x3cb99e38	0.022658452
203	0x3d14f2d4	0.03636439
204	0xbdeccdc2	-0.11562683
205	0xbda25974	-0.07927218
206	0x3d9e1046	0.07717948
207	0xbd4de1ac	-0.050264046
208	0x3d9b162a	0.07572587
209	0xbdd94312	-0.10608496
210	0x3cff3a50	0.031155735
211	0x3d01663c	0.03159164
212	0xbde9f2c6	-0.114232585
213	0x3c59f1d0	0.0133022815
214	0x3d63ce0c	0.055616423
215	0x3dce7d64	0.1008251
216	0xbd9f53e8	-0.07779676
217	0xbdc4b8ca	-0.09605558
218	0xbd842a6c	-0.06453404
219	0x3b68f800	0.003554821
220	0x3d862340	0.06549692
221	0x3df9bf84	0.12194732
222	0x3dcc5f50	0.09979117
223	0xbbdc6fc0	-0.006727189
224	0xbdd3c5f8	-0.10340494
225	0x3d57fec8	0.052733213
226	0xbde79382	-0.11307432
227	0x3df553e2	0.1197889
228	0x3c85e0f8	0.016342625
229	0x3d02b66c	0.031912252
230	0xbd3539f0	-0.044244707
231	0x3d2304c4	0.039799467
232	0xbdcdeb28	-0.10054618
233	0xbca50558	-0.02014415
234	0x3d87bf2a	0.066282585
235	0x3d67e594	0.056615427
236	0xbdb910fa	-0.09036441
237	0x3df09c26	0.11748533
238	0xbdee9542	-0.116495624
239	0x3d5c5dfc	0.053800568
240	0xbdc09502	-0.09403421
241	0xbc596780	-0.013269305
242	0xbc2609f0	-0.010134205
243	0x3d3b1504	0.04567434
244	0xbccfa160	-0.025345504
245	0xbdc14532	-0.09437026
246	0xbc8ab818	-0.016933486
247	0x3cfa84c8	0.030580893
248	0xbdc75da4	-0.097346574
249	0x3d505a04	0.050867096
250	0xbde620d6	-0.11236732
251	0xbc8b93a8	-0.017038181
252	0xbd8b5638	-0.06803554
253	0xbcdb1a20	-0.026745856
254	0xbd99794e	-0.0749384
255	0xbdcda6a2	-0.10041548

encoder_block1.attention.w_concat.bias f4 [64]
0	0x3d9eb6e6	0.07749729
1	0xbdb308c4	-0.08741906
2	0xbd364864	-0.04450263
3	0xbdbbdb60	-0.09172702
4	0x3dfc0e9e	0.123074755
5	0xbd9473bc	-0.07248637
6	0xbd548600	-0.051885605
7	0xbd81ffe0	-0.063476324
8	0x3bd27b60	0.006423399
9	0xbbfe53c0	-0.0077614486
10	0xbd287af8	-0.041132897
11	0x3d805574	0.06266299
12	0xbdcd9514	-0.100382
13	0x3d8fb16c	0.070162624
14	0xbd96a0c2	-0.07354881
15	0x3db8323a	0.08993955
16	0x3dccc318	0.09998149
17	0xbcaabf68	-0.020843223
18	0x3d80fd38	0.06298298
19	0xbdf5ab3a	-0.119955495
20	0xbd86a70e	-0.06574832
21	0x3df71c06	0.12065892
22	0xbd8f52bc	-0.06998202
23	0x3daea932	0.08528365
24	0xbcbe93d8	-0.023263857
25	0x3bdc2340	0.0067180693
26	0xbde99b3e	-0.11406563
27	0xbd9f873a	-0.07789464
28	0xbd946f6c	-0.072478145
29	0x3d7bc7bc	0.06146978
30	0xbdd4ec44	-0.103966266
31	0x3b921a20	0.0044586807
32	0x3dbdf270	0.09274757
33	0xbcc52978	-0.024067625
34	0xbde88c30	-0.11354864
35	0x3d93eec6	0.07223277
36	0xbd1b49d0	-0.03791219
37	0xbd9fe412	-0.07807173
38	0x3dd7e552	0.10541786
39	0x3cdfbaf8	0.027310833
40	0x3d997564	0.074930936
41	0xbdee8e1c	-0.11648199
42	0xbd9bed56	-0.076136276
43	0xbdb690aa	-0.08914311
44	0x3cd53240	0.026024938
45	0xbded6b1a	-0.115926936
46	0xbdd72d0c	-0.10506639
47	0xbcf86478	-0.030321345
48	0xbddbff34	-0.107420355
49	0x3d242314	0.040072516
50	0xbb916300	-0.0044368505
51	0x3d7a8dec	0.061170503
52	0x3da4dce6	0.080499455
53	0xbbe08c60	-0.0068526715
54	0x3d814c52	0.06313385
55	0x3d69e718	0.057105154
56	0x3d414a9c	0.047190294
57	0x3c8ce8d8	0.017200872
58	0xbd65811c	-0.05603133
59	0xbda5182e	-0.080612525
60	0xbd1d9814	-0.03847511
61	0x3daa0268	0.0830124
62	0xbd7030a0	-0.058640122
63	0xbcab2f88	-0.020896688

encoder_block1.norm1.weight f4 [64]
0	0x3f800000	1.0
1	0x3f800000	1.0
2	0x3f800000	1.0
3	0x3f800000	1.0
4	0x3f800000	1.0
5	0x3f800000	1.0
6	0x3f800000	1.0
7	0x3f800000	1.0
8	0x3f800000	1.0
9	0x3f800000	1.0
10	0x3f800000	1.0
11	0x3f800000	1.0
12	0x3f800000	1.0
13	0x3f800000	1.0
14	0x3f800000	1.0
15	0x3f800000	1.0
16	0x3f800000	1.0
17	0x3f800000	1.0
18	0x3f800000	1.0
19	0x3f800000	1.0
20	0x3f800000	1.0
21	0x3f800000	1.0
22	0x3f800000	1.0
23	0x3f800000	1.0
24	0x3f800000	1.0
25	0x3f800000	1.0
26	0x3f800000	1.0
27	0x3f800000	1.0
28	0x3f800000	1.0
29	0x3f800000	1.0
30	0x3f800000	1.0
31	0x3f800000	1.0
32	0x3f800000	1.0
33	0x3f800000	1.0
34	0x3f800000	1.0
35	0x3f800000	1.0
36	0x3f800000	1.0
37	0x3f800000	1.0
38	0x3f800000	1.0
39	0x3f800000	1.0
40	0x3f800000	1.0
41	0x3f800000	1.0
42	0x3f800000	1.0
43	0x3f800000	1.0
44	0x3f800000	1.0
45	0x3f800000	1.0
46	0x3f800000	1.0
47	0x3f800000	1.0
48	0x3f800000	1.0
49	0x3f800000	1.0
50	0x3f800000	1.0
51	0x3f800000	1.0
52	0x3f800000	1.0
53	0x3f800000	1.0
54	0x3f800000	1.0
55	0x3f800000	1.0
56	0x3f800000	1.0
57	0x3f800000	1.0
58	0x3f800000	1.0
59	0x3f800000	1.0
60	0x3f800000	1.0
61	0x3f800000	1.0
62	0x3f800000	1.0
63	0x3f800000	1.0

encoder_block1.norm1.bias f4 [64]
0	0x00000000	0.0
1	0x00000000	0.0
2	0x00000000	0.0
3	0x00000000	0.0
4	0x00000000	0.0
5	0x00000000	0.0
6	0x00000000	0.0
7	0x00000000	0.0
8	0x00000000	0.0
9	0x00000000	0.0
10	0x00000000	0.0
11	0x00000000	0.0
12	0x00000000	0.0
13	0x00000000	0.0
14	0x00000000	0.0
15	0x00000000	0.0
16	0x00000000	0.0
17	0x00000000	0.0
18	0x00000000	0.0
19	0x00000000	0.0
20	0x00000000	0.0
21	0x00000000	0.0
22	0x00000000	0.0
23	0x00000000	0.0
24	0x00000000	0.0
25	0x00000000	0.0
26	0x00000000	0.0
27	0x00000000	0.0
28	0x00000000	0.0
29	0x00000000	0.0
30	0x00000000	0.0
31	0x00000000	0.0
32	0x00000000	0.0
33	0x00000000	0.0
34	0x00000000	0.0
35	0x00000000	0.0
36	0x00000000	0.0
37	0x00000000	0.0
38	0x00000000	0.0
39	0x00000000	0.0
40	0x00000000	0.0
41	0x00000000	0.0
42	0x00000000	0.0
43	0x00000000	0.0
44	0x00000000	0.0
45	0x00000000	0.0
46	0x00000000	0.0
47	0x00000000	0.0
48	0x00000000	0.0
49	0x00000000	0.0
50	0x00000000	0.0
51	0x00000000	0.0
52	0x00000000	0.0
53	0x00000000	0.0
54	0x00000000	0.0
55	0x00000000	0.0
56	0x00000000	0.0
57	0x00000000	0.0
58	0x00000000	0.0
59	0x00000000	0.0
60	0x00000000	0.0
61	0x00000000	0.0
62	0x00000000	0.0
63	0x00000000	0.0
