models/error_encoder_all_state_dict_best_-1844.9339.pth (torch, 283671 bytes, 125 tensors)

embedder.dim_up.weight f4 [64, 8]
0.2187804 0.03096077 0.1398179 0.03634204 0.33117393 0.041591644 0.2993814 -0.15419745
0.10618473 -0.04796684 0.32996696 0.20843795 0.35476124 0.09672494 0.046410315 -0.0811376
-0.18398339 -0.101798005 -0.15480496 -0.118646294 -0.21171398 -0.16604143 -0.19589615 0.38388038
-0.29205903 0.014014277 -0.026234329 -0.3508214 0.2363458 0.16874433 0.28809863 -0.2948127
0.08974654 0.26954326 -0.19423772 -0.26079658 -0.18358065 -0.3230572 0.13308623 0.06431446
0.004055091 0.06350175 0.30640686 -0.110152684 0.2560903 0.13681129 0.10965609 0.07443885
-0.08111457 -0.02585143 0.31472132 0.1480336 -0.0979047 0.31542337 -0.018324299 0.018746
0.019474639 0.16257548 -0.27503005 0.20350063 -0.2810749 -0.13693795 -0.05471353 -0.106288426
-0.051370747 0.08700016 0.13619728 -0.10601959 0.14029805 0.22423828 0.22654015 0.046584282
0.20806766 -0.0056082113 0.1319802 0.021568675 0.17908046 0.36128438 0.29415023 0.3202372
-0.06031892 -0.010635963 0.18636556 -0.2671346 0.25185573 -0.24204408 -0.069197156 -0.26957703
-0.18106939 -0.12604444 0.23352718 0.14813861 0.34724143 -0.015159217 -0.024906991 -0.1872986
-0.31126252 -0.2197058 0.08255728 -0.14722107 -0.1817895 0.31755915 0.16842881 0.010598763
-0.24159591 -0.27153125 0.0600026 0.18269792 -0.0009347904 -0.07258694 0.2347721 0.19885845
0.28571248 -0.26588878 -0.023591736 -0.11942683 -0.18808538 -0.33954751 0.13633855 0.17597078
0.17500915 0.11263919 0.095357135 0.13842349 -0.19237143 -0.33067182 -0.14617626 0.30699283
0.030301014 0.2537348 0.3639072 0.11018838 0.012187677 0.2697142 0.3308715 -0.27625152
0.014675443 -0.2996724 0.116103515 0.009100145 -0.08321151 0.32646763 0.006484358 0.29731244
0.34115112 -0.19871661 0.11522587 -0.32991835 -0.12163478 0.28259838 -0.063118584 -0.34625292
0.2065859 0.2819266 0.15296885 -0.028826399 -0.054577645 0.29289368 -0.23602639 0.27885696
0.20081118 0.026249642 -0.23764025 -0.41616696 0.039071612 -0.33306572 -0.04900658 0.0042313975
-0.010549201 -0.31435832 0.035230238 0.21935306 -0.35109267 -0.11438979 0.022828056 -0.03912836
0.25369877 -0.1026 -0.1662085 -0.43613282 0.39067537 0.28853244 -0.00049673015 -0.32258072
0.10531409 0.042182762 0.135644 -0.12298214 -0.26621836 -0.15015164 -0.14831614 0.032088406
-0.056076664 -0.001234375 0.35127312 -0.16242313 0.16742705 -0.029576426 0.24488477 0.37016255
-0.06953395 0.17410325 -0.27868128 0.20960337 0.25756842 0.3167489 0.02680058 -0.19192891
0.2908958 -0.102381535 0.39949998 -0.048324812 0.21048278 -0.009808936 0.3696593 0.046468668
0.046531297 -0.11776059 -0.14519441 0.23347837 0.39759308 0.3653414 0.28025886 0.00040038206
0.21470022 0.17988041 -0.08347061 -0.33132398 0.35600486 -0.079918504 0.0113885375 -0.10213015
0.2646332 -0.031381603 0.0660544 -0.23608735 0.13892017 -0.18105881 -0.15223734 0.3734738
0.18897238 0.008534371 -0.23818591 -0.0048551443 0.37361017 0.1490358 0.1118669 -0.18494529
0.08469548 -0.048113815 -0.2535442 -0.06314777 -0.050943762 0.063235246 -0.13166006 0.19890684
00000000: f807 603e 71a1 fd3c 6c2c 0f3e 64db 143d
00000010: a18f a93e 005c 2a3d 8548 993e f0e5 1dbe
00000020: 6177 d93d e178 44bd 6ef1 a83e c270 553e
00000030: 44a3 b53e ba17 c63d be18 3e3d 782b a6bd
00000040: 2466 3cbe 797b d0bd 3185 1ebe d4fc f2bd
00000050: 8dcb 58be c406 2abe 0099 48be f88b c43e
00000060: c388 95be 239c 653c 60e9 d6bc dd9e b3be
00000070: a204 723e 50cb 2c3e aa81 933e b1f1 96be
00000080: 09cd b73d 9301 8a3e 41e6 46be 2187 85be
00000090: 91fc 3bbe c167 a5be c247 083e 4db7 833d
000000a0: 92e0 843b 350d 823d 5ce1 9c3e bb97 e1bd
000000b0: 451e 833e 4218 0c3e 5f93 e03d 6573 983d
000000c0: 651f a6bd 61c6 d3bc 2723 a13e 1f96 173e
000000d0: 4282 c8bd 2c7f a13e d71c 96bc 3691 993c
000000e0: 4789 9f3c 307a 263e bdd0 8cbe 7862 503e
000000f0: 0de9 8fbe 7639 0cbe 4b1b 60bd bfad d9bd
00000100: 226a 52bd 242d b23d 4d77 0b3e cc20 d9bd
00000110: 4baa 0f3e b89e 653e 24fa 673e 29cf 3e3d
00000120: b00f 553e 16c5 b7bb d125 073e cab0 b03c
00000130: de60 373e 44fa b83e dc9a 963e 21f6 a33e
00000140: f910 77bd 7642 2ebc 9dd6 3e3e dec5 88be
00000150: 3cf3 803e 67da 77be 3db7 8dbd 0006 8abe
00000160: 416a 39be cb11 01be c021 6f3e a6b1 173e
00000170: a1c9 b13e 5d5e 78bc bf09 ccbc 34cb 3fbe
00000180: cd5d 9fbe 8ffa 60be cb13 a93d 1fc1 16be
00000190: 0727 3abe 1d97 a23e 9a78 2c3e 6fa6 2d3c
000001a0: eb64 77be 2506 8bbe 49c5 753d 2a15 3b3e
000001b0: b90c 75ba 76a8 94bd 1968 703e 8da1 4b3e
000001c0: e848 923e 9322 88be 7543 c1bc 0e96 f4bd
000001d0: 7499 40be 2cd9 adbe 559c 0b3e af31 343e
000001e0: 9935 333e 60af e63d 9a4a c33d e3be 0d3e
000001f0: 04fd 44be d14d a9be 3baf 15be 2a2e 9d3e
00000200: d539 f83c 87e9 813e 0b52 ba3e 72aa e13d
00000210: d3ae 473c fb17 8a3e fd67 a93e d770 8dbe
00000220: 4571 703c a96e 99be aec7 ed3d c618 153c
00000230: cc6a aabd c426 a73e bd7a d43b 5639 983e
00000240: 5cab ae3e 5e7c 4bbe 8afb eb3d 0feb a8be
00000250: a81b f9bd bcb0 903e 5144 81bd 1048 b1be
00000260: 418b 533e af58 903e dea3 1c3e 5725 ecbc
00000270: cf8c 5fbd 29f6 953e e7b0 71be 57c6 8e3e
00000280: 72a1 4d3e 7d09 d73c f757 73be d613 d5be
00000290: 8e09 203d 9787 aabe 20bb 48bd 89a7 8a3b
000002a0: 8ed6 2cbc 93f3 a0be 954d 103d 179e 603e
000002b0: 6bc2 b3be 3245 eabd e701 bb3c 0f45 20bd
000002c0: cee4 813e f31f d2bd 9032 2abe cd4c dfbe
000002d0: 9a06 c83e 86ba 933e ff36 02ba 4d29 a5be
000002e0: eaae d73d d5c7 2c3d 43e6 0a3e 0fde fbbd
000002f0: c64d 88be 5ac1 19be 30e0 17be 226f 033d
00000300: a5b0 65bd c1ca a1ba 12da b33e 4052 26be
00000310: ff71 2b3e 434a f2bc 13c3 7a3e f285 bd3e
00000320: d167 8ebd 1f48 323e 50af 8ebe 44a2 563e
00000330: 02e0 833e e92c a23e e48c db3c 0389 44be
00000340: 4bf0 943e 69ad d1bd 438b cc3e 3df0 45bd
00000350: cc88 573e a9b5 20bc fc43 bd3e ee55 3e3d
00000360: 9a97 3e3d 772c f1bd d8ad 14be f414 6f3e
00000370: 5291 cb3e 070e bb3e 177e 8f3e 5fea d139
00000380: 60da 5b3e 9232 383e a4f2 aabd 4ca3 a9be
00000390: 4546 b63e 50ac a3bd fd96 3a3c 9d29 d1bd
000003a0: 017e 873e ff89 00bd 8747 873d e2c0 71be
000003b0: 1741 0e3e 7b67 39be 1be4 1bbe f537 bf3e
000003c0: fa81 413e bfd3 0b3c 02e7 73be e717 9fbb
000003d0: d549 bf3e d79c 183e 791a e53d 4c62 3dbe
000003e0: d374 ad3d fe12 45bd 8cd0 81be 9e53 81bd
000003f0: 68aa 50bd 7b81 813d e5d1 06be 3cae 4b3e

embedder.dim_up.bias f4 [64]
0.16273871 0.116262525 -0.26524147 -0.19046226 0.213437 0.27391285 0.15377334 -0.13717483
0.34625852 -0.31733936 -0.015594746 0.084415756 0.22261018 0.1800182 0.3517707 -0.12441505
-0.016966516 -0.0653355 0.32926795 -0.014471012 -0.2560327 -0.17017846 0.30867997 0.30516946
-0.025249723 -0.31337857 0.17013758 -0.34316164 -0.06259951 0.26099834 0.1811775 0.16027856
-0.11070979 0.30172172 -0.18705799 0.18308008 0.025333326 -0.25188205 0.24377796 0.19678777
-0.04969013 -0.004946417 -0.1943577 -0.17736383 -0.36474234 -0.077494174 -0.07393849 0.070232496
0.18980709 0.13054404 0.041547477 0.3205097 0.2785358 0.14392267 0.2767533 -0.33511776
0.22177856 0.041620154 0.29069525 0.12525752 -0.28970942 -0.15440537 0.06331373 -0.14165674
00000000: faa4 263e 0c1b ee3d bbcd 87be 8a08 43be
00000010: 3b8f 5a3e 4e3e 8c3e c276 1d3e 8f77 0cbe
00000020: cc48 b13e 4e7a a2be 1b81 7fbc 2be2 ac3d
00000030: ecf3 633e b156 383e 4a1b b43e 51cd febd
00000040: 5dfd 8abc 9ece 85bd cf95 a83e d317 6dbc
00000050: b816 83be 4343 2ebe 4d0b 9e3e 2c3f 9c3e
00000060: 82d8 cebc 2873 a0be 8c38 2e3e e2b2 afbe
00000070: 2c34 80bd 93a1 853e 9886 393e 1020 243e
00000080: d0bb e2bd 457b 9a3e 218c 3fbe 5879 3b3e
00000090: d687 cf3c aff6 80be eea0 793e bc82 493e
000000a0: e187 4bbd 8e15 a2bb b405 47be dd9e 35be
000000b0: 82bf babe 44b5 9ebd 106d 97bd 0ed6 8f3d
000000c0: ca5c 423e 56ad 053e b02d 2a3d d919 a43e
000000d0: 3f9c 8e3e 7760 133e 9cb2 8d3e 8e94 abbe
000000e0: eb19 633e e579 2a3d 02d6 943e 8243 003e
000000f0: cb54 94be 711c 1ebe a1aa 813d 770e 11be

encoder_block1.attention.w_q.weight f4 [64, 64]
0.12103131 0.08207383 0.06558823 -0.11038701 -0.06314872 0.059894446 -0.051756766 -0.1281777
0.11651159 -0.06987705 -0.09886045 0.096192315 0.059367437 -0.1228878 0.011364373 -0.0800162
-0.013772198 0.0427598 -0.056008838 0.10072295 0.02292237 0.022443388 0.10098951 0.021083122
0.12323704 0.07262727 -0.11344637 0.1121912 0.09826871 -0.0073858085 0.060365885 -0.013336981
0.080864914 -0.031249104 -0.09342582 -0.06175134 0.0744466 0.12312491 -0.021399539 0.034209937
0.10098439 0.109873295 0.06938565 0.12033735 -0.025768628 -0.03995653 0.1087216 -0.012902577
-0.077641465 -0.12299786 -0.11748551 0.07039453 0.027931625 -0.01033768 0.099320255 -0.1359534
-0.073276214 -0.02415905 0.010105671 0.056971885 -0.097519994 0.0077346684 -0.11274097 0.118086785
-0.07297039 -0.12600215 0.030052587 0.06256795 -0.07835281 -0.010640716 0.055426754 0.018460456
0.07504852 -0.113709256 0.021256508 0.026306527 -0.10256044 -0.009413962 -0.100912385 -0.051097795
-0.010465592 -0.022400698 -0.0072092847 -0.07032113 0.065342285 0.1061524 -0.09460334 0.06763737
-0.052314136 -0.115078226 -0.017346451 0.015430916 0.095394544 0.0037452434 -0.0747909 0.085668355
-0.050704196 -0.0033842095 0.10548821 -0.03963269 0.054829042 0.07243515 0.12455014 -0.103926264
0.0039363955 -0.023486832 -0.07933664 0.09996259 0.1084162 -0.10694526 -0.05490219 0.024515774
-0.099348515 -0.11416456 -0.099863835 -0.07662333 -0.08366164 -0.035925213 -0.03456266 -0.01599944
0.06276219 0.105295405 -0.07898259 0.078615166 -0.020246862 0.13501407 -0.06383526 -0.045990452
0.111749895 -0.06389164 -0.095119566 0.06997466 0.07588326 0.026373534 -0.05394906 0.065583475
-0.0346684 -0.10798464 -0.00562622 -0.10019541 -0.10114142 -0.060200866 0.044127695 -0.038294453
-0.09636416 -0.032569513 -0.08724463 -0.019678118 0.07819438 -0.0665017 0.111508176 0.12966818
-0.07806483 -0.06479521 0.11488545 -0.094117366 -0.0074563827 -0.051741146 -0.07151589 -0.049191725
-0.005133595 0.031514507 0.038416687 0.03588511 -0.093573615 0.011508658 -0.074618846 -0.100052916
-0.122493066 0.12119353 -0.1302383 -0.10695825 0.06928826 0.093004 -0.05555704 0.12044035
0.09616499 -0.06420383 -0.02738545 -0.046027772 -0.07151719 -0.07228418 0.12624021 0.109329924
-0.08323351 0.06717599 -0.05332098 0.0203761 -0.1266017 0.12195198 -0.021947632 0.048084907
-0.06707727 -0.11811004 0.029560816 0.012419023 0.09047359 -0.051368654 0.005272944 -0.02716693
0.04545262 0.10362741 0.13661638 -0.013066684 0.0060977954 0.02875904 0.095431924 -0.035240717
0.12007671 -0.09748819 0.016746778 0.113224134 -0.08009358 -0.13284647 0.07411313 -0.035002686
0.002732007 -0.0035266292 -0.11989366 -0.100026555 0.02612032 0.07067407 -0.0013446963 -0.06689318
-0.020003812 0.09624857 0.074575715 0.07475807 0.05347599 0.11060932 -0.09333184 -0.029590957
0.07886169 0.1294403 0.013213184 0.08506756 -0.108588144 0.05483679 -0.07908717 0.05332512
-0.033662282 0.107409306 -0.0761725 0.10772286 -0.0075873523 -0.08421297 -0.023997089 0.06591606
-0.040156156 0.050080582 0.06414155 0.08770741 -0.05953225 0.0019571513 -0.029321335 -0.0071250717
00000000: 43df f73d 5316 a83d 1f53 863d 9612 e2bd
00000010: 1e54 81bd e153 753d e7fe 53bd 0441 03be
00000020: a19d ee3d b31b 8fbd 5977 cabd 7a00 c53d
00000030: 452b 733d 99ac fbbd a331 3a3c 89df a3bd
00000040: c9a4 61bc e624 2f3d 8669 65bd d647 ce3d
00000050: b2c7 bb3c 32db b73c 97d3 ce3d 83b6 ac3c
00000060: b463 fc3d 9bbd 943d 9256 e8bd 80c4 e53d
00000070: 1b41 c93d a704 f2bb 3842 773d 5a83 5abc
00000080: 819c a53d 1ffe ffbc 0956 bfbd f9ee 7cbd
00000090: 7677 983d ea28 fc3d 164e afbc b81f 0c3d
000000a0: e7d0 ce3d 4005 e13d 101a 8e3d 6e73 f63d
000000b0: bb18 d3bc 75a9 23bd 6ea9 de3d 5565 53bc
000000c0: 7d02 9fbd 4de6 fbbd 3e9c f0bd 022b 903d
000000d0: ddd0 e43c 5f5f 29bc 6b68 cb3d 5e37 0bbe
000000e0: d711 96bd 33e9 c5bc 4292 253c 5a5b 693d
000000f0: 90b8 c7bd 1a73 fd3b bde4 e6bd 7cd7 f13d
00000100: 8071 95bd b506 01be d830 f63c a023 803d
00000110: 7077 a0bd 6656 2ebc 2a07 633d 623a 973c
00000120: 0ab3 993d 66e0 e8bd 2122 ae3c c980 d73c
00000130: 350b d2bd 053d 1abc 27ab cebd ec4b 51bd
00000140: e077 2bbc ab81 b7bc dd3b ecbb 8604 90bd
00000150: 2dd2 853d 6e66 d93d 65bf c1bd 7685 8a3d
00000160: 5947 56bd 22ae ebbd 251a 8ebc f4d1 7c3c
00000170: 375e c33d c272 753b f92b 99bd e472 af3d
00000180: 34af 4fbd 9dc9 5dbb 340a d83d e355 22bd
00000190: 6b94 603d e158 943d 2514 ff3d 4bd7 d4bd
000001a0: e1fc 803b 7567 c0bc 407b a2bd 30b9 cc3d
000001b0: 5009 de3d 1e06 dbbd 1ee1 60bd 4ed5 c83c
000001c0: 3c77 cbbd 1ccf e9bd 6985 ccbd b1ec 9cbd
000001d0: cb56 abbd 5126 13bd 9391 0dbd 4211 83bc
000001e0: 7789 803d 1ea5 d73d a0c1 a1bd fd00 a13d
000001f0: bfdc a5bc 2141 0a3e 10bc 82bd 7c60 3cbd
00000200: 21dd e43d 9fd9 82bd 0cce c2bd e04e 8f3d
00000210: af68 9b3d 4f0d d83c b1f9 5cbd a150 863d
00000220: 7400 0ebd 0d27 ddbd 275c b8bb 4033 cdbd
00000230: 3c23 cfbd 2f95 76bd 3ebf 343d a5da 1cbd
00000240: 935a c5bd 9c67 05bd 50ad b2bd 0134 a1bc
00000250: 6024 a03d 0b32 88bd 665e e43d bcc7 043e
00000260: 74e0 9fbd 5ab3 84bd 1049 eb3d 9bc0 c0bd
00000270: ac54 f4bb 86ee 53bd ec76 92bd 437d 49bd
00000280: b737 a8bb 5b15 013d d15a 1d3d 44fc 123d
00000290: 86a3 bfbd cf8e 3c3c c4d1 98bd 8be8 ccbd
000002a0: a5dd fabd 5034 f83d 305d 05be ed0c dbbd
000002b0: 01e7 8d3d e278 be3d c78f 63bd 6ea9 f63d
000002c0: 26f2 c43d 4c7d 83bd 7457 e0bc 9e87 3cbd
000002d0: 9b77 92bd ba09 94bd 1d45 013e 5ee8 df3d
000002e0: 5576 aabd 9193 893d 1a67 5abd c7eb a63c
000002f0: e0a3 01be f6c1 f93d 85cb b3bc aef4 443d
00000300: cf5f 89bd ade3 f1bd 8629 f23c 2879 4b3c
00000310: 384a b93d f067 52bd a9c8 ac3b 2e8d debc
00000320: 872c 3a3d 9c3a d43d 2ae5 0b3e a515 56bc
00000330: 04d0 c73b 1498 eb3c d071 c33d 9258 10bd
00000340: c7ea f53d e3a7 c7bd 8a30 893c 0ee2 e73d
00000350: 1a08 a4bd e808 08be a0c8 973d fa5e 0fbd
00000360: 790b 333b 051f 67bb cf8a f5bd b9da ccbd
00000370: 48fa d53c 91bd 903d 8540 b0ba 4bff 88bd
00000380: 09df a3bc f81d c53d 27bb 983d c21a 993d
00000390: a409 5b3d 2487 e23d c424 bfbd bc68 f2bc
000003a0: 3d82 a13d ff8b 043e 1c7c 583c e737 ae3d
000003b0: 7663 debd 8b9c 603d 74f8 a1bd 716b 5a3d
000003c0: 76e1 09bd 69f9 db3d 5400 9cbd ce9d dc3d
000003d0: 539f f8bb da77 acbd 8b95 c4bc 00ff 863d
000003e0: c87a 24bd 4c21 4d3d a55c 833d f19f b33d
000003f0: 17d8 73bd 8d43 003b 4c33 f0bc 6f79 e9bb

encoder_block1.attention.w_q.bias f4 [64]
0.009667436 0.06928246 0.0051638247 0.09598931 -0.022566363 -0.11455943 0.04020526 -0.016599467
0.15791242 0.1270743 0.09718777 -0.06350814 0.0962279 0.085005395 0.06378846 -0.036399256
0.034862522 -0.018988961 -0.026453758 -0.032086197 -0.07964085 0.101193406 0.10730451 0.111016266
0.09642615 -0.108684964 -0.10216815 -0.117547244 -0.016538456 -0.061290532 0.048605 -0.0034537993
-0.05370731 -0.09027073 0.05844984 0.02656104 -0.08188066 -0.010565156 0.09617028 -0.019509997
-0.10341902 -0.1069652 -0.012203788 -0.041849136 -0.0930793 -0.017788306 0.10146861 0.032887466
0.08679862 -0.044194438 -0.12776484 -0.083268575 -0.05285221 0.13401161 -0.03901217 -0.11211532
0.05016565 -0.101229556 0.032688573 -0.06519082 -0.0016586144 0.05044807 -0.14598387 0.06531035
00000000: 2a64 1e3c f6e3 8d3d 4d35 a93b 0b96 c43d
00000010: 18dd b8bc 229e eabd 45ae 243d 9bfb 87bc
00000020: cbb3 213e c41f 023e 620a c73d 8e10 82bd
00000030: 2213 c53d 4f17 ae3d 86a3 823d 6317 15bd
00000040: 01cc 0e3d bd8e 9bbc 8db5 d8bc d16c 03bd
00000050: be1a a3bd 7d3e cf3d 78c2 db3d 7f5c e33d
00000060: 137b c53d 3996 debd 893d d1bd 9cbc f0bd
00000070: a87b 87bc c80b 7bbd 0916 473d 2359 62bb
00000080: 32fc 5bbd dcdf b8bd 1969 6f3d 8a96 d93c
00000090: 0cb1 a7bd 7a19 2dbc ecf4 c43d 6ed3 9fbc
000000a0: 5acd d3bd 9210 dbbd 66f2 47bc 006a 2bbd
000000b0: 5ca0 bebd c8b8 91bc c6ce cf3d 02b5 063d
000000c0: 7ac3 b13d 3a05 35bd c9d4 02be b788 aabd
000000d0: 8f7b 58bd 573a 093e 3acb 1fbd b89c e5bd
000000e0: 7f7a 4d3d 7151 cfbd 74e4 053d c482 85bd
000000f0: dd65 d9ba a3a2 4e3d cc7c 15be 6fc1 853d

encoder_block1.attention.w_k.weight f4 [64, 64]
0.029656269 0.09331105 -0.02908926 0.10434292 0.004604448 0.04874887 0.03557825 -0.09732661
0.08562174 -0.078752525 0.09743712 0.10855712 0.12592529 -0.055293415 0.093640216 -0.041204896
0.0183237 0.025010914 -0.06611946 0.08378232 -0.07176252 0.044887025 -0.099501416 -0.0061851945
0.08344503 -0.0862509 -0.008880695 -0.13442834 0.033464838 -0.1428133 -0.055619 0.034499306
-0.06640069 0.08884321 -0.13572817 0.14048052 0.088003404 -0.0031138984 0.06678161 -0.06863276
0.01734385 0.0946511 -0.06599702 0.11351027 -0.003161196 0.027146336 0.05588959 0.12186704
0.07835674 -0.09759358 -0.12206327 0.12879705 0.021340175 -0.14181331 0.010258008 -0.088849135
0.13025859 -0.042660687 0.11544081 0.070169285 -0.020724121 0.015132706 0.011331546 -0.10512401
0.10226067 0.035454437 0.035415214 0.013933527 0.09019046 -0.09291284 -0.010490272 0.020862821
-0.0740605 0.072212696 0.11337505 0.029835682 0.012825246 0.01833267 -0.10875623 0.037385564
-0.04673326 0.0784629 -0.010858057 -0.08152976 -0.078875236 0.013904072 -0.08691669 -0.065713786
-0.0054981797 0.07250724 -0.011540634 0.020085942 0.0679228 0.027938735 0.045747623 0.039287847
-0.05000527 0.05910775 0.04461075 -0.074479 -0.0032622218 -0.10630512 -0.0251394 -0.0807282
-0.018653806 -0.009080066 0.072188094 0.06189254 0.095053844 -0.12507366 -0.08983782 -0.10366617
0.07264445 -0.098534726 -0.09669605 0.062399328 0.019961465 -0.0054227896 -0.106597535 -0.10501712
0.055166293 -0.06919463 0.10946118 -0.096837044 -0.055367593 -0.041918337 -0.01748751 0.055807512
-0.083476156 -0.094621405 0.041779276 0.08337733 0.055644263 -0.045460466 0.08042671 -0.118631884
-0.030137194 -0.0036566674 0.08425535 0.07203108 -0.05251369 -0.05405268 -0.06628918 -0.0090465285
-0.049053654 0.059142888 0.1187471 -0.001750262 0.081618294 -0.013012906 0.06768862 -0.035538428
0.0751823 -0.04547709 0.12217514 0.12357928 0.072910585 0.05619627 0.03793974 -0.013711432
0.03649941 -0.1119514 -0.042248882 0.09385499 -0.06862224 0.08088612 0.0471658 0.049652785
-0.057180773 -0.01062648 0.0624723 0.003286535 -0.097478084 -0.022645712 0.04033773 0.029949479
-0.10734859 0.022746628 0.13399863 -0.08767847 -0.01809259 -0.052704927 0.098730125 -0.061629623
0.0414461 0.10474797 -0.09194135 -0.05784568 0.09506135 0.010746052 0.053387355 0.02185707
0.013740023 -0.063813545 0.11194888 -0.046883978 0.011832552 -0.12167337 -0.02334319 -0.07347957
-0.049911536 -0.076324455 0.10578662 0.12286906 -0.07747813 0.13103716 0.05382219 -0.12145732
0.034467928 -0.048615314 0.010493574 -0.04989681 0.072536565 0.06345293 0.028653702 0.07470636
0.022841167 -0.037687317 -0.08451615 0.046630237 0.093571536 -0.062199645 0.020221487 0.03816712
0.13641027 -0.06624464 -0.06957333 -0.09907128 0.043710742 0.11491094 -0.10096843 -0.105908036
0.09203034 0.042805843 -0.0138180405 0.048066627 0.111827046 0.11924258 -0.1394934 0.011279791
-0.04136725 -0.13714567 -0.11608874 -0.022629023 0.09965684 -0.049726784 0.1189325 -0.07510446
-0.101994656 0.09260022 0.064605676 -0.06864435 0.113780856 0.080353685 0.026468165 0.08507135
00000000: b4f1 f23c dd19 bf3d 9a4c eebc beb1 d53d
00000010: e9e0 963b e5ac 473d 80ba 113d 2c53 c7bd
00000020: 735a af3d 0149 a1bd 1d8d c73d 3253 de3d
00000030: 8ff2 003e 597b 62bd 71c6 bf3d 77c6 28bd
00000040: 961b 963c b0e3 cc3c a469 87bd 1196 ab3d
00000050: 3af8 92bd 75db 373d 66c7 cbbd 2cad cabb
00000060: 3ae5 aa3d 50a4 b0bd 5680 11bc 95a7 09be
00000070: 6d12 093d a63d 12be c0d0 63bd 254f 0d3d
00000080: 16fd 87bd 6ef3 b53d 53fc 0abe 20da 0f3e
00000090: 213b b43d 8c12 4cbb ccc4 883d 558f 8cbd
000000a0: b114 8e3c 70d8 c13d 7229 87bd 1378 e83d
000000b0: 112c 4fbb fe61 de3c 7cec 643d 6d95 f93d
000000c0: 8079 a03d 25df c7bd 4ffc f9bd 60e3 033e
000000d0: 97d1 ae3c 8237 11be 3411 283c 89f6 b5bd
000000e0: 8262 053e f9bc 2ebd 3b6c ec3d eab4 8f3d
000000f0: a2c5 a9bc 2bef 773c f3a7 393c 424b d7bd
00000100: 0b6e d13d ac38 113d 8b0f 113d 7349 643c
00000110: c7b5 b83d 1649 bebd 64df 2bbc 82e8 aa3c
00000120: 08ad 97bd 40e4 933d 2e31 e83d f669 f43c
00000130: fb20 523c 652e 963c 96bb debd 9b21 193d
00000140: 606b 3fbd 28b1 a03d fee5 31bc 13f9 a6bd
00000150: 5789 a1bd e8cd 633c 6101 b2bd f394 86bd
00000160: 132a b4bb ad7e 943d ed14 3dbc 468b a43c
00000170: 1c1b 8b3d c6df e43c dc61 3b3d 4bec 203d
00000180: 53d2 4cbd f81a 723d c3b9 363d 7288 98bd
00000190: 00cb 55bb 80b6 d9bd 25f1 cdbc d454 a5bd
000001a0: decf 98bc 8fc4 14bc 5ad7 933d 0883 7d3d
000001b0: 97ab c23d 4f13 00be e4fc b7bd ee4e d4bd
000001c0: 9dc6 943d 93cc c9bd 9408 c6bd 7096 7f3d
000001d0: 3a86 a33c a8b1 b1bb cf4f dabd 3713 d7bd
000001e0: 0df6 613d eab5 8dbd 2f2d e03d 8052 c6bd
000001f0: 21c9 62bd 90b2 2bbd f741 8fbc 6b96 643d
00000200: 8cf5 aabd dec8 c1bd bf20 2b3d bcc1 aa3d
00000210: 3deb 633d c134 3abd c2b6 a43d 46f5 f2bd
00000220: 47e2 f6bc b3a4 6fbb 128e ac3d 0885 933d
00000230: 9818 57bd 5866 5dbd 9fc2 87bd e437 14bc
00000240: 7cec 48bd d03f 723d ae31 f33d 0c69 e5ba
00000250: 7e27 a73d 1534 55bc 55a0 8a3d be90 11bd
00000260: 2df9 993d 2f46 3abd f636 fa3d 2217 fd3d
00000270: 2552 953d 0f2e 663d b366 1b3d eaa5 60bc
00000280: 6880 153d c746 e5bd 2a0d 2dbd 0c37 c03d
00000290: d189 8cbd 9fa7 a53d ed30 413d b860 4b3d
000002a0: 6336 6abd b01a 2ebc f4e2 7f3d e862 573b
000002b0: 97a2 c7bd 8083 b9bc 2d39 253d 9c58 f53c
000002c0: 94d9 dbbd 2357 ba3c f036 093e c590 b3bd
000002d0: e936 94bc 1fe1 57bd 0533 ca3d 586f 7cbd
000002e0: 63c3 293d 1b86 d63d bf4b bcbd 97ef 6cbd
000002f0: 86af c23d 3510 303c b3ac 5a3d 990d b33c
00000300: d51d 613c adb0 82bd 7445 e53d 6a09 40bd
00000310: 52dd 413c e32f f9bd 383a bfbc 757c 96bd
00000320: 0a70 4cbd ff4f 9cbd a8a6 d83d c6a2 fb3d
00000330: dbac 9ebd 9b2e 063e a874 5c3d 9ebe f8bd
00000340: 3e2e 0d3d da20 47bd 3ded 2b3c 9960 4cbd
00000350: 0d8e 943d 9cf3 813d 2bbb ea3c a6ff 983d
00000360: 661d bb3c 045e 1abd ce16 adbd 59ff 3e3d
00000370: 6fa2 bf3d 0ec5 7ebd 88a7 a53c 2055 1c3d
00000380: 22af 0b3e 45ab 87bd 767c 8ebd e2e5 cabd
00000390: 090a 333d 6d56 eb3d 89c8 cebd 50e6 d8bd
000003a0: 677a bc3d 2e55 2f3d 1065 62bc 83e1 443d
000003b0: 9405 e53d 7435 f43d 5cd7 0ebe dfce 383c
000003c0: b570 29bd ea6f 0cbe efbf edbd 8060 b9bc
000003d0: e318 cc3d 50ae 4bbd e292 f33d 5ed0 99bd
000003e0: 93e2 d0bd 2fa5 bd3d fb4f 843d 6995 8cbd
000003f0: f005 e93d 7990 a43d c4d3 d83c e339 ae3d

encoder_block1.attention.w_k.bias f4 [64]
0.08817863 -0.00093544234 0.09823518 -0.065256804 0.030526582 -0.072766036 0.08675949 -0.11732905
-0.0720449 0.053029694 -0.03506249 -0.02809421 3.035348e-06 -0.11419237 -0.041945446 -0.0848814
0.070133254 0.016230576 0.12393654 0.015923264 0.037603017 0.047750253 -0.08566243 -0.08309389
0.11644154 0.106862076 0.058539115 0.094146304 0.03394243 0.040334046 0.0881198 0.048239414
0.00089687615 -0.011575001 0.098885216 0.06795696 -0.09181792 0.058795817 0.09263371 -0.08747814
-0.018809764 0.05202411 0.087834455 0.074531525 -0.048984222 -0.052185584 0.024190543 -0.03318537
-0.07865719 0.082782425 0.006031276 -0.08437152 -4.3983837e-05 -0.067851275 -0.04492855 0.07361159
-0.025836494 0.08493446 -0.08961551 0.0030298117 0.077614225 0.075407624 0.013162542 -0.077545166
00000000: ff96 b43d 7938 75ba 872f c93d 5ca5 85bd
00000010: e212 fa3c 5c06 95bd f6ae b13d 374a f0bd
00000020: 478c 93bd aa35 593d af9d 0fbd d425 e6bc
00000030: e2b2 4b36 b0dd e9bd fdce 2bbd 4dd6 adbd
00000040: 06a2 8f3d fcf5 843c 71d2 fd3d 8171 823c
00000050: 9f05 1a3d c595 433d c96f afbd 212d aabd
00000060: e778 ee3d 81da da3d b6c6 6f3d c7cf c03d
00000070: 3807 0b3d 5035 253d 2778 b43d b196 453d
00000080: 571c 6b3a 13a5 3dbc 5584 ca3d 052d 8b3d
00000090: 090b bcbd e2d3 703d beb6 bd3d bd27 b3bd
000000a0: ef16 9abc 3c17 553d 8de2 b33d fca3 983d
000000b0: aea3 48bd 8dc0 55bd 3f2b c63c 62ed 07bd
000000c0: 0517 a1bd d589 a93d 03a2 c53b faca acbd
000000d0: 497b 38b8 9cf5 8abd 0007 38bd acc1 963d
000000e0: 0ea7 d3bc 1ef2 ad3d 5688 b7bd ce8f 463b
000000f0: 35f4 9e3d 506f 9a3d b4a7 573c 00d0 9ebd

encoder_block1.attention.w_v.weight f4 [64, 64]
0.046652358 0.057170402 0.0073586465 -0.07013681 -0.06948185 0.0387866 -0.0010991602 -0.11180709
0.01229461 0.019389322 -0.108077124 -0.09387145 0.049251575 -0.08225834 -0.07611751 0.016127374
0.028892118 0.06827181 0.051622648 -0.105562374 -0.008807223 -0.035623673 0.127115 -0.017481726
0.124768786 0.035732813 -0.10233255 0.046092648 -0.03864247 -0.11947801 -0.09772842 -0.085227385
0.051314145 0.08572617 -0.00609794 0.07831284 -0.085511774 0.05390674 0.00058504555 -0.05630077
0.06638236 0.10338757 -0.11007348 0.0077746836 0.09405814 -0.11438601 -0.07148783 0.016239692
-0.11149616 0.09095965 -0.015892634 -0.09514995 -0.06554214 0.11114229 0.03650641 -0.037747167
0.004438248 0.12736152 -0.021224283 -0.011055018 0.10319981 0.11652706 -0.10084342 0.03506113
0.0032271713 0.009674195 0.027457304 -0.06853895 0.074832894 0.060824063 0.05581921 0.03429072
-0.010553117 -0.101192206 0.075197734 0.038711216 0.09551424 -0.101067774 0.07033454 0.06426195
0.007887864 -0.10822415 0.08165335 -0.1282567 0.067664966 0.096575655 0.03577625 -0.06104332
0.09363591 0.03745047 0.038911015 0.075663105 0.017338926 -0.09387344 -0.0013334065 0.06919846
-0.044074286 -0.123795405 0.058109842 0.057600364 0.091322176 0.106286734 -0.097439736 -0.09023369
-0.107103385 0.05091694 0.1406009 -0.10079662 0.06014181 -0.101160936 0.08273173 -0.12454847
-0.14862438 -0.084474415 0.036835045 -0.13587478 0.08411343 -0.040502064 -0.002308751 -0.07967622
-0.13414825 -0.013459391 -0.0700159 0.06157281 0.11903636 -0.055609994 -0.07025286 -0.03672778
-0.0022992867 0.11686912 0.040233746 0.09387551 0.0141141955 -0.09689138 0.08394462 0.07493588
0.0017370495 -0.032599807 -0.10522533 -0.029528221 0.12413762 0.030821254 -0.096275076 0.117780775
-0.123979785 -0.010984979 -0.04848287 0.119511925 0.105671175 0.12602292 0.032928873 0.079231985
-0.099658445 0.11684567 0.06762083 -0.04124341 -0.005867176 -0.0938755 0.05585064 0.034556095
-0.0699986 0.015609819 -0.04366347 0.051249616 -0.10571941 -0.033668756 0.080552116 -0.0009398707
0.097607635 0.07441319 0.056884214 -0.030765567 -0.091703705 0.12104958 0.00953356 0.015426756
-0.0098941475 -0.076272935 -0.07657648 -0.07954925 0.057392664 -0.029979633 -0.072368614 -0.018164178
0.11329379 -0.075782254 -0.055357136 -0.030191863 0.04056516 -0.07887883 -0.096905045 -0.0075386423
-0.04127054 0.02189746 0.008385279 0.03574721 0.0966008 -0.08581075 0.038760047 0.012024791
0.1083696 -0.0035668903 -0.099348255 0.0096660005 -0.061812308 0.050985295 0.087509945 -0.12317756
0.059576772 -0.044886976 0.119178794 -0.1306131 -0.11463 -0.048143025 -0.03371633 -0.06873916
-0.11328075 -0.06263922 -0.06396167 0.08329922 0.018177059 -0.08304673 0.10702704 -0.12212945
-0.0063174637 0.013216835 -0.081791416 0.05034209 0.043792527 -0.10375381 0.09851825 -0.06087624
0.11892063 0.017651236 -0.10083288 -0.047176644 -0.09840409 -0.026204664 -0.025007522 -0.09840628
-0.09734475 -0.0845068 -0.032077055 0.075525366 0.10430834 0.07910428 0.027950685 -0.12129229
0.023132712 0.042834193 0.048710782 -0.1125151 0.014836453 -0.10068897 -0.05312225 -0.06705182
00000000: 8b16 3f3d 832b 6a3d cd20 f13b e3a3 8fbd
00000010: 804c 8ebd b3de 1e3d b211 90ba 1efb e4bd
00000020: 556f 493c 5bd6 9e3c 8a57 ddbd ad3f c0bd
00000030: 05bc 493d 1077 a8bd 7fe3 9bbd 8e1d 843c
00000040: 2aaf ec3c 17d2 8b3d 4572 533d 1631 d8bd
00000050: 2c4c 10bc 21ea 11bd 6f2a 023e d635 8fbc
00000060: c786 ff3d 925c 123d ba93 d1bd a5cb 3c3d
00000070: 9147 1ebd e3b0 f4bd d625 c8bd b28b aebd
00000080: c82e 523d 3491 af3d 3ad1 c7bb 7b62 a03d
00000090: cc20 afbd 50cd 5c3d be5d 193a a39b 66bd
000000a0: 7af3 873d ddbc d33d 346e e1bd c6c2 fe3b
000000b0: 8ea1 c03d 3643 eabd 3668 92bd 1a09 853c
000000c0: 1958 e4bd 0e49 ba3d 4531 82bc fadd c2bd
000000d0: f53a 86bd 929e e33d bf87 153d c69c 1abd
000000e0: b96e 913b 0f6b 023e 8cde adbc 1b20 35bc
000000f0: 6c5a d33d bda5 ee3d ff86 cebd 429c 0f3d
00000100: f37e 533b 8480 1e3c 24ee e03c 265e 8cbd
00000110: fd41 993d a722 793d afa2 643d 6d74 0c3d
00000120: fbe6 2cbc dc3d cfbd 4501 9a3d a78f 1e3d
00000130: f89c c33d 9ffc cebd 8e0b 903d c59b 833d
00000140: 193c 013c a0a4 ddbd df39 a73d b955 03be
00000150: ee93 8a3d 75c9 c53d 1e8a 123d 8f08 7abd
00000160: 2fc4 bf3d aa65 193d 2861 1f3d 42f5 9a3d
00000170: 5d0a 8e3c b840 c0bd b3c5 aeba ecb7 8d3d
00000180: 3d87 34bd 7288 fdbd 9604 6e3d 5cee 6b3d
00000190: 1f07 bb3d dcac d93d 7c8e c7bd 71cc b8bd
000001a0: 0559 dbbd 488e 503d aff9 0f3e 756e cebd
000001b0: 4257 763d 772d cfbd 416f a93d 4513 ffbd
000001c0: fd30 18be ec00 adbd 58e0 163d c222 0bbe
000001d0: a943 ac3d 7ee5 25bd 6a4e 17bb 492d a3bd
000001e0: 295e 09be c784 5cbc 7f64 8fbd c533 7c3d
000001f0: 56c9 f33d 4ec7 63bd bbe0 8fbd de6f 16bd
00000200: a1af 16bb 1459 ef3d 24cc 243d ce41 c03d
00000210: 3a3f 673c fd6e c6bd 28eb ab3d fc77 993d
00000220: b6ad e33a 6087 05bd 6180 d7bd 2be5 f1bc
00000230: dd3b fe3d db7c fc3c de2b c5bd 0c37 f13d
00000240: 1de9 fdbd 57fa 33bc f995 46bd abc2 f43d
00000250: 216a d83d 270c 013e 6de0 063d 6144 a23d
00000260: ba19 ccbd c84c ef3d ca7c 8a3d daee 28bd
00000270: 7141 c0bb cc41 c0bd a4c3 643d b18a 0d3d
00000280: 6d5b 8fbd 54c0 7f3c 77d8 32bd 1eeb 513d
00000290: 6b83 d8bd 40e8 09bd 82f8 a43d a861 76ba
000002a0: 83e6 c73d f165 983d 6cff 683d 1208 fcbc
000002b0: 27cf bbbd d8e8 f73d a632 1c3c 81c0 7c3c
000002c0: 101b 22bc fc34 9cbd 21d4 9cbd b8ea a2bd
000002d0: 9214 6b3d d997 f5bc ff35 94bd 0bcd 94bc
000002e0: 9306 e83d ba33 9bbd 2abe 62bd ed54 f7bc
000002f0: a727 263d 398b a1bd 2776 c6bd b706 f7bb
00000300: 4c0b 29bd 4d62 b33c 6962 093c ab6b 123d
00000310: a4d6 c53d 8cbd afbd dbc2 1e3d a103 453c
00000320: e1f0 dd3d 7dc2 69bb 1977 cbbd 255e 1e3c
00000330: e72e 7dbd f5d5 503d 6a38 b33d 8444 fcbd
00000340: c606 743d 68db 37bd 0314 f43d 71bf 05be
00000350: 22c3 eabd 9f31 45bd 221a 0abd 1ec7 8cbd
00000360: bdff e7bd fe48 80bd 56fe 82bd c898 aa3d
00000370: 0ee8 943c 6714 aabd fe30 db3d 011f fabd
00000380: ba02 cfbb 6d8b 583c 4282 a7bd 8233 4e3d
00000390: cb5f 333d e17c d4bd f0c3 c93d 5d59 79bd
000003a0: a98c f33d 5399 903c 7881 cebd 4c3c 41bd
000003b0: 1588 c9bd 2aab d6bc 93dc ccbc 3b89 c9bd
000003c0: af5c c7bd e711 adbd 3b63 03bd 0bad 9a3d
000003d0: 9c9f d53d 6d01 a23d d6f8 e43c 1868 f8bd
000003e0: d080 bd3c e872 2f3d f584 473d 516e e6bd
000003f0: 9814 733c 0536 cebd b796 59bd 7752 89bd

encoder_block1.attention.w_v.bias f4 [64]
0.11014823 -0.06296213 0.050958145 0.09154393 -0.07998588 -0.0743855 0.1052822 0.100555636
0.07863684 -0.028363975 -0.065481685 -0.0012885977 -0.008422967 0.06675594 -0.04073545 0.026040222
0.012511246 0.03610327 -0.04622188 -0.07745696 -0.12495308 -0.013556072 0.0712808 -0.115252405
0.0709617 0.04005981 0.011168995 0.07366728 -0.036617547 -0.026844343 0.1166721 0.033452895
0.12271356 0.03588545 -0.10377969 0.067184865 0.10241018 0.07887654 -0.0021804878 0.00032835666
0.050467446 0.094045885 0.054249637 -0.05301787 0.06316147 -0.021165604 0.122651584 0.045471527
0.041960474 0.08045038 -0.09416199 -0.059463866 -0.10854904 -0.0061361147 -0.0027941023 -0.032844648
-0.023760095 -0.099332154 0.11876458 -0.0004946436 0.062275432 0.07534366 -0.10813154 -0.023724612
00000000: 6595 e13d 4af2 80bd 7db9 503d 627b bb3d
00000010: a3cf a3bd 6d57 98bd 329e d73d 1df0 cd3d
00000020: 5a0c a13d 915b e8bc 431b 86bd 2ae6 a8ba
00000030: 7c00 0abc 57b7 883d 37da 26bd 4e52 d53c
00000040: f8fb 4c3c 06e1 133d 2753 3dbd c1a1 9ebd
00000050: 67e7 ffbd 491a 5ebc abfb 913d 7409 ecbd
00000060: 5e54 913d c115 243d 29fe 363c dfde 963d
00000070: 48fc 15bd abe8 dbbc c8f1 ee3d e705 093d
00000080: 3f51 fb3d 9ffc 123d 728a d4bd 3898 893d
00000090: 6ebc d13d 068a a13d 84e6 0ebb 4927 ac39
000000a0: f4b6 4e3d 219b c03d de34 5e3d 4429 59bd
000000b0: cd5a 813d 7d63 adbc c130 fb3d 5a40 3a3d
000000c0: bfde 2b3d 2bc3 a43d 00d8 c0bd 6290 73bd
000000d0: f64e debd 7611 c9bb 421d 37bb 1c88 06bd
000000e0: 88a4 c2bc a86e cbbd d83a f33d f8aa 01ba
000000f0: 8614 7f3d c74d 9a3d 1274 ddbd 1e5a c2bc

encoder_block1.attention.w_concat.weight f4 [64, 64]
-0.09840083 -0.043916874 0.01985432 -0.10560913 -0.04821555 -0.0952984 -0.12981239 0.096174024
-0.03637364 -0.010110966 0.051850386 -0.07596586 0.075377114 -0.10972023 -0.11431713 0.089126036
-0.06324328 -0.076805435 0.0888434 -0.07845534 0.0690606 -0.06993535 -0.09536854 0.0018886764
0.118388355 -0.06314715 -0.070231184 -0.04435812 -0.1001198 0.08103223 -0.09067239 -0.12568988
-0.10455461 0.090986036 0.10580104 -0.08735272 -0.107597165 0.027565556 -0.06818025 -0.06625069
-0.062103923 0.10144076 0.026980625 0.09080025 0.08399449 -0.0010424447 0.1190821 0.06932496
-0.06643562 0.088880785 0.028210882 0.0952574 -0.020789908 0.0935064 0.010083105 -0.0060732183
0.12722676 -0.05859286 -0.11556586 -0.018882837 -0.060527608 0.0060699526 0.09151706 0.11654638
-0.09761327 0.09890645 0.064111754 0.11486121 0.11133032 -0.08976058 -0.09101567 -0.08933388
0.094904035 0.036468837 0.08624733 -0.024135785 -0.025937693 -0.095985964 0.095621094 -0.03213931
-0.10668819 -0.0165046 0.094906665 0.057532288 -0.11900882 0.008598646 -0.002097371 0.13617414
0.03551839 -0.10906845 0.087701395 -0.04237897 -0.08511722 -0.101739764 0.030706046 0.023897039
-0.08473161 0.044934545 0.12226884 0.07446403 -0.11897639 -0.07459783 0.06193179 0.018770829
-0.10191789 -0.11344735 -0.00821294 -0.09903889 -0.1247819 -0.0053046225 0.09115154 0.058655962
-0.059484083 0.048182283 0.036775585 -0.019261813 -0.08689613 0.022188041 -0.06834535 -0.0033120892
-0.07229696 0.113521636 0.0012177088 0.028459659 0.07335382 0.04330004 0.053098023 -0.0039223367
-0.092878915 0.12209474 -0.046028066 0.026932525 0.004203488 0.0475017 0.11278527 -0.08490972
-0.035131585 -0.039827622 -0.104244865 -0.083813846 -0.02338265 0.035877224 0.077809244 0.076290034
-0.06649373 0.028916791 0.036232233 -0.08688341 0.03982189 -0.04486861 -0.040275075 0.057967857
-0.074420005 -0.08245935 -0.06342146 -0.07829037 -0.047561243 0.044940863 -0.047925413 -0.031350147
-0.12492975 -0.0071795154 -0.09608831 -0.08134124 0.04496885 -0.039393723 -0.019339371 -0.017706856
-0.039148375 -0.11539115 0.08032136 0.059788633 -0.118938856 0.087149754 0.12314511 0.0668243
-0.053311102 0.04534379 -0.07690143 0.082420275 0.005496447 -0.008023656 -0.10728943 -0.05256883
0.086685084 -0.022671869 -0.12375469 0.11673764 -0.053761955 0.12351576 -0.06252094 0.087570004
0.054110277 -0.08920019 -0.006098388 0.111582026 0.04879732 0.079901844 -0.01744155 0.014604993
-0.039787017 -0.022781841 0.051606532 -0.07935614 -0.08248902 0.010415579 -0.029830674 -0.122414604
-0.061762273 0.037613142 -0.013501289 0.044004146 0.12941 0.062428378 -0.08238463 0.016230965
0.025581228 -0.07388729 0.009976672 -0.09299699 0.05810942 0.018926557 -0.049792673 -0.044282477
0.1223789 0.01477028 0.035367507 0.110812746 0.05142328 -0.06868426 -0.07416792 -0.038297303
0.08276914 -0.069715425 0.0516337 0.104349524 0.059984412 0.121071234 -0.044385355 0.056392517
0.11269319 -0.055711072 -0.0772373 0.019810287 -0.04852904 0.015479687 0.052538633 -0.09513997
-0.10675331 -0.10975268 -0.10711794 -0.1139916 -0.06189417 0.020692287 0.012868103 -0.00915676
00000000: 6086 c9bd 2ee2 33bd 87a5 a23c 9949 d8bd
00000010: ab7d 45bd cf2b c3bd 8aed 04be e3f6 c43d
00000020: 87fc 14bd 77a8 25bc 1261 543d fd93 9bbd
00000030: 515f 9a3d 00b5 e0bd 191f eabd b687 b63d
00000040: b185 81bd 2b4c 9dbd 87f3 b53d 31ad a0bd
00000050: a56f 8d3d 443a 8fbd 9550 c3bd 778d f73a
00000060: 9875 f23d 4b53 81bd 5ed5 8fbd dcb0 35bd
00000070: 9c0b cdbd 3af4 a53d 72b2 b9bd d9b4 00be
00000080: ba20 d6bd e356 ba3d 37ae d83d fce5 b2bd
00000090: e75b dcbd 29d1 e13c 16a2 8bbd 71ae 87bd
000000a0: af60 7ebd 2cc0 cf3d 7906 dd3c 7bf5 b93d
000000b0: 4e05 ac3d a4a2 88ba 51e1 f33d 3ffa 8d3d
000000c0: 660f 88bd 2107 b63d 821a e73c 5016 c33d
000000d0: 994f aabc 4980 bf3d 9c33 253c d901 c7bb
000000e0: bb47 023e 11ff 6fbd cbad ecbd 2eb0 9abc
000000f0: cceb 77bd 74e6 c63b 4c6d bb3d deaf ee3d
00000100: 77e9 c7bd 778f ca3d 064d 833d 5b3c eb3d
00000110: 2701 e43d 65d4 b7bd 6c66 babd aef4 b6bd
00000120: 0c5d c23d 5960 153d 71a2 b03d 69b8 c5bc
00000130: 497b d4bc 4a94 c4bd fed4 c33d 82a4 03bd
00000140: 567f dabd a834 87bc 6d5e c23d faa6 6b3d
00000150: e5ba f3bd 56e1 0c3c 0c74 09bb 3c71 0b3e
00000160: bb7b 113d 485f dfbd ca9c b33d 9295 2dbd
00000170: f051 aebd f05c d0bd 3f8b fb3c b9c3 c33c
00000180: c487 adbd 490d 383d 1668 fa3d 9980 983d
00000190: e5a9 f3bd bfc6 98bd 30ac 7d3d 48c5 993c
000001a0: 54ba d0bd 1657 e8bd 918f 06bc e7d4 cabd
000001b0: a78d ffbd 66d2 adbb a9ad ba3d 3c41 703d
000001c0: 95a5 73bd c95a 453d ffa1 163d f3ca 9dbc
000001d0: 99f6 b1bd b2c3 b53c a6f8 8bbd a30f 59bb
000001e0: 6e10 94bd 087e e83d 879b 9f3a 3b24 e93c
000001f0: 873a 963d 625b 313d 507d 593d f286 80bb
00000200: 4d37 bebd cf0c fa3d ed87 3cbd 99a1 dc3c
00000210: 6abd 893b 2591 423d f7fb e63d 26e5 adbd
00000220: 23e6 0fbd 4a22 23bd 557e d5bd 98a6 abbd
00000230: f98c bfbc fff3 123d 745a 9f3d f33d 9c3d
00000240: dd2d 88bd e8e2 ec3c 4068 143d eeef b1bd
00000250: 471c 233d 26c8 37bd 7af7 24bd b46f 6d3d
00000260: 8469 98bd 73e0 a8bd 1ce3 81bd b456 a0bd
00000270: 94cf 42bd e913 383d 704d 44bd 0369 00bd
00000280: 2bdb ffbd 2442 ebbb f3c9 c4bd 3c96 a6bd
00000290: 4231 383d 505b 21bd 9a6d 9ebc f80d 91bc
000002a0: 0c5a 20bd 3252 ecbd 867f a43d ede4 743d
000002b0: 3796 f3bd 927b b23d 8133 fc3d 2edb 883d
000002c0: be5c 5abd 69ba 393d 7f7e 9dbd f6cb a83d
000002d0: 8a1b b43b a775 03bc 90ba dbbd 6a52 57bd
000002e0: f387 b13d 5bba b9bc 1973 fdbd 2514 ef3d
000002f0: 7f35 5cbd d5f5 fc3d fb0a 80bd e757 b33d
00000300: bda2 5d3d 97ae b6bd fdd4 c7bb 1e85 e43d
00000310: b3df 473d 94a3 a33d 95e1 8ebc c849 6f3c
00000320: b6f7 22bd fca0 babc 5f61 533d 7985 a2bd
00000330: 01f0 a8bd 1ba6 2a3c 755f f4bc 82b4 fabd
00000340: 70fa 7cbd 3d10 1a3d 8334 5dbc b13d 343d
00000350: 0e84 043e e6b4 7f3d 46b9 a8bd cdf6 843c
00000360: b98f d13c 3852 97bd 3275 233c 3575 bebd
00000370: 2504 6e3d de0b 9b3c 67f3 4bbd 8b61 35bd
00000380: caa1 fa3d 0bff 713c 85dd 103d cbf1 e23d
00000390: 38a1 523d 55aa 8cbd 5ae5 97bd a2dd 1cbd
000003a0: de82 a93d f6c6 8ebd dc7d 533d 34b5 d53d
000003b0: 37b2 753d 32f4 f73d 6bcd 35bd d7fb 663d
000003c0: b0cb e63d 4b31 64bd 972e 9ebd 2f49 a23c
000003d0: 63c6 46bd 839e 7d3c c032 573d bfd8 c2bd
000003e0: 7ba1 dabd 03c6 e0bd a760 dbbd 6e74 e9bd
000003f0: be84 7dbd df82 a93c bcd4 523c 3c06 16bc

encoder_block1.attention.w_concat.bias f4 [64]
-0.046678625 -0.08722264 0.08147672 0.044548426 -0.10448655 0.12692179 0.073381715 0.011547572
0.06341911 -0.073789306 -0.120742165 0.06447628 0.038487762 -0.036625445 -0.03370308 -0.10723652
-0.02707347 0.08138455 0.0048635034 0.04698945 0.005209879 0.02289411 0.08725164 0.1183224
0.06997676 -0.0033126543 -0.04023802 0.061606213 -0.09298956 -0.058169562 -0.0084551 -0.086249284
0.009071203 -0.037286647 0.118051685 0.0075519867 0.060415845 -0.09781777 -0.09738901 0.007161892
-0.0003943637 0.1141941 0.12101638 -0.105588935 0.015818844 -0.124899745 -0.055816058 -0.0029022852
-0.020545354 -0.044904143 0.09535452 0.09160935 -0.10757016 0.09828306 -0.10686411 -0.118647344
0.061191626 -0.09397729 -0.02983136 0.029747277 0.019165998 0.015556597 0.11957262 -0.015605112
00000000: 1632 3fbd c9a1 b2bd 44dd a63d 6978 363d
00000010: 0bfd d5bd c9f7 013e 2749 963d 0732 3d3c
00000020: e1e1 813d d91e 97bd ab47 f7bd 240c 843d
00000030: 58a5 1d3d 9004 16bd 3e0c 0abd d29e dbbd
00000040: 2fc9 ddbc f1ac a63d 065e 9f3b 0278 403d
00000050: a2b7 aa3b 6e8c bb3c fdb0 b23d 0453 f23d
00000060: fa4f 8f3d 1e19 59bb 9fd0 24bd cc56 7c3d
00000070: 4f71 bebd 3543 6ebd 4287 0abc 77a3 b0bd
00000080: 629f 143c e2b9 18bd 15c5 f13d a876 f73b
00000090: 9b76 773d af54 c8bd e473 c7bd 4eae ea3b
000000a0: 9ac2 ceb9 99de e93d 70d7 f73d 033f d8bd
000000b0: 8596 813c 70cb ffbd 619f 64bd 4434 3ebb
000000c0: bb4e a8bc 68ed 37bd 3b49 c33d af9d bb3d
000000d0: be4d dcbd a148 c93d 92db dabd 61fd f2bd
000000e0: 12a4 7a3d 2a77 c0bd e560 f4bc 90b0 f33c
000000f0: 0302 9d3c 19e1 7e3c 7de2 f43d 95ac 7fbc

encoder_block1.norm1.weight f4 [64]
0.98486346 0.999636 1.000728 0.9942262 0.9937167 0.99298745 0.9967366 0.99935734
1.0101029 0.9952505 0.99580765 0.9999034 0.98778963 1.0136669 0.9918194 0.99855727
1.0055201 1.0001973 0.9972459 0.99670935 0.9968854 0.9929255 1.021453 0.9976561
1.0083482 1.0064443 1.0121051 0.9943863 1.00514 0.99993587 1.0000572 0.97874355
1.0009943 1.0014014 0.9921651 0.99299204 0.9917532 0.9874177 1.0138168 0.97870636
0.9981456 1.0048522 0.99474823 0.9968137 1.0057627 0.98834413 1.0074184 0.99730414
1.0072029 1.0009537 0.99268806 0.9991339 1.0126259 1.0066422 0.9953123 1.0384086
1.0127898 1.00482 1.0086664 0.9997478 1.0063348 0.9952849 0.9989456 0.9745404
00000000: 0320 7c3f 25e8 7f3f db17 803f 9c85 7e3f
00000010: 3864 7e3f 6d34 7e3f 212a 7f3f e2d5 7f3f
00000020: 0d4b 813f bdc8 7e3f 40ed 7e3f abf9 7f3f
00000030: c8df 7c3f d6bf 813f e0e7 7d3f 73a1 7f3f
00000040: e2b4 803f 7706 803f 824b 7f3f 5828 7f3f
00000050: e233 7f3f 5e30 7e3f f9be 823f 6466 7f3f
00000060: 8e11 813f 2bd3 803f a98c 813f 1a90 7e3f
00000070: 6da8 803f ccfb 7f3f e001 803f f08e 7a3f
00000080: 9520 803f ec2d 803f 88fe 7d3f ba34 7e3f
00000090: 8ae3 7d3f 68c7 7c3f c0c4 813f 808c 7a3f
000000a0: 7886 7f3f ff9e 803f d2a7 7e3f 2f2f 7f3f
000000b0: d5bc 803f 1f04 7d3f 16f3 803f 534f 7f3f
000000c0: 06ec 803f 401f 803f ce20 7e3f 3dc7 7f3f
000000d0: ba9d 813f a7d9 803f c9cc 7e3f 93ea 843f
000000e0: 19a3 813f f19d 803f fb1b 813f 79ef 7f3f
000000f0: 94cf 803f feca 7e3f e6ba 7f3f 7b7b 793f

encoder_block1.norm1.bias f4 [64]
0.009824072 -0.004981609 -0.0010404248 -0.008942757 0.0031173872 0.0053334655 0.017759766 -0.00314421
0.0136392135 0.008012964 -0.00052494986 0.00019558579 -0.0020042227 0.013083917 -0.0068745348 -0.00307698
-0.015989318 0.0061710547 0.0006096077 0.0018115407 0.006362692 -0.014189544 0.0009149212 0.0010763144
-0.002366223 -0.0068284315 -0.008218803 -0.011305458 0.005578115 0.016776597 -0.0035999732 -0.010483983
-0.007378803 0.0058042123 0.011386156 -0.0018315549 0.002832609 -0.007511962 -0.0068916217 0.0023400371
-0.0032023021 0.006908665 0.0073859193 -0.0043208674 -0.012238532 -0.018964186 -0.004858444 0.009728001
-0.0073385374 -0.00068858534 0.0018138816 0.0056632916 -0.0005521852 0.012461415 0.0014092223 -0.029678332
-0.0022144995 0.012460174 -0.008869761 0.0027905437 -0.011497569 0.00055258855 -0.0031471848 -0.02375932
00000000: 25f5 203c c43c a3bb dd5e 88ba a484 12bc
00000010: 144d 4c3b 5ac4 ae3b ee7c 913c 170f 4ebb
00000020: 0277 5f3c cf48 033c ca9c 09ba 2916 4d39
00000030: 4759 03bb ed5d 563c c743 e1bb 28a7 49bb
00000040: 08fc 82bc 8f36 ca3b 15ce 1f3a 3871 ed3a
00000050: 217e d03b 437b 68bc 53d7 6f3a 1e13 8d3a
00000060: a212 1bbb 09c1 dfbb 29a8 06bc 873a 39bc
00000070: 9fc8 b63b 136f 893c 87ed 6bbb 03c5 2bbc
00000080: e3c9 f1bb 4331 be3b 008d 3a3c c910 f0ba
00000090: 4ba3 393b e826 f6bb 1dd3 e1bb 4f5b 193b
000000a0: b7dd 51bb 1562 e23b 9505 f23b 1096 8dbb
000000b0: 2084 48bc c85a 9bbc 9533 9fbb 3262 1f3c
000000c0: 1d78 f0bb 2e82 34ba c4bf ed3a 2293 b93b
000000d0: 86c0 10ba f62a 4c3c a7b5 b83a f91f f3bc
000000e0: 2321 11bb c225 4c3c 7952 11bc 8ee1 363b
000000f0: 4d60 3cbc 97db 103a 0041 4ebb e8a2 c2bc

encoder_block1.trans_sample.0.weight f4 [32, 64]
0.100081004 0.097732015 0.049528148 -0.09411529 0.09354445 0.048183464 0.076262094 0.084222265
0.021969363 0.07545453 0.06613158 0.115936674 0.009087164 0.11999227 -0.013310463 -0.053743586
0.02557259 -0.090953514 0.1053431 -0.13935088 0.04852534 0.05802699 0.0918293 -0.059647664
0.044415 -0.085716926 0.0019537234 -0.104073614 0.0027157431 0.0905338 0.06496511 -0.008000078
0.12040652 0.094025694 0.08333559 -0.10476111 -0.13156687 0.041358635 0.10018255 -0.047503617
-0.04754977 -0.043143082 0.068217695 -0.02116807 -0.058546714 -0.047836088 0.060720317 -0.10304678
-0.015811857 0.091464035 -0.07874874 0.10040145 -0.061347138 -0.109863095 -0.030950844 0.110059485
-0.11294277 -0.11150557 -0.109520786 0.038131453 0.106399514 -0.09466823 -0.071150966 -0.118481345
-0.010863156 0.0580323 -0.04227218 0.12155009 -0.08540656 0.06958952 0.057029337 -0.11580926
0.0282859 -0.0013446086 -0.0465428 -0.116751984 -0.07632782 0.011845254 -0.047484566 -0.11860997
-0.013787252 -0.069257304 -0.0206594 0.1028145 -0.040587187 -0.096798 0.026657235 -0.027276697
0.09587923 -0.07931791 -0.038322356 -0.12525785 -0.027721768 -0.057718713 -0.108271085 -0.1050088
-0.034904156 0.0036488227 0.031916764 0.0017651981 -0.031281672 0.058909975 0.118927374 0.036404233
-0.085787505 -0.045321077 0.047448874 -0.11376353 0.12077372 0.025631195 0.113097705 0.096381895
-0.084237814 0.012642131 -0.014302068 0.0014232066 0.09830578 0.0361344 0.09451945 -0.021048266
-0.030654319 0.06649505 0.104663864 -0.06067114 0.0076635843 0.063138634 -0.008895801 -0.06797196
-0.09360491 0.067007445 0.0646636 0.091574244 -0.042443722 0.05656257 0.02667986 0.124464855
-0.069516405 -0.0401761 0.0908326 0.023196174 -0.054664124 0.06912766 -0.051295053 0.12388368
-0.028192574 0.023829615 -0.08988752 0.11436085 -0.07285781 0.08029971 -0.033252515 -0.11967378
-0.004226609 0.101877 -0.08315954 -0.00504035 -0.023058102 0.11309233 0.10186059 0.08956999
0.07409559 0.020412393 0.023305386 0.09470158 0.0046178224 0.026325207 -0.036786463 0.026026271
0.10462444 -0.060212128 0.11537169 0.029122084 0.0897073 0.12551169 -0.011513262 -0.12913832
0.13006625 0.011800392 -0.07866555 -0.083769344 0.081004106 0.024836633 -0.012670331 0.043813422
0.030224936 0.101016596 0.1260585 -0.107841775 0.033755954 0.044417243 -0.018865623 0.09749117
-0.0691363 -0.081102386 0.09800395 -0.020426234 0.09534562 -0.04409855 -0.10019624 -0.014179356
0.028556012 -0.09063923 -0.073510446 -0.018211482 0.0551592 0.03181276 0.09073817 0.10257241
-0.10147347 -0.10647957 -0.083078966 -0.09121084 0.10352432 -0.056661557 0.11349995 -0.10010883
0.13682677 -0.03465399 0.12554084 0.08149338 -0.10945013 -0.049673744 -0.08280281 0.07041679
0.01638929 0.060417563 0.06961475 -0.12713878 0.07347363 -0.012645518 0.040531483 0.005233418
0.024420794 0.032162424 -0.025964797 0.028547421 0.048388716 -0.10998836 -0.10150528 -0.008944545
0.028446525 -0.0072562513 0.06140615 0.038370483 0.13117068 0.03130771 -0.020949936 0.051644355
0.04425615 0.10666718 -0.076423734 -0.07653447 -0.0020902557 0.07219297 -0.051035136 -0.08739566
00000000: 45f7 cc3d b927 c83d 07de 4a3d 84bf c0bd
00000010: 3c94 bf3d 065c 453d 4d2f 9c3d b97c ac3d
00000020: 18f9 b33c e887 9a3d fe6f 873d 3570 ed3d
00000030: 54e2 143c 82be f53d 2114 5abc 3c22 5cbd
00000040: 9c7d d13c d645 babd 20be d73d ffb1 0ebe
00000050: 82c2 463d b6ad 6d3d 0011 bc3d 1c51 74bd
00000060: 81ec 353d 5b8c afbd 0a0a 003b 8c24 d5bd
00000070: 9cfa 313b c969 b93d 6d0c 853d c212 03bc
00000080: b297 f63d 8b90 c03d daab aa3d fe8c d6bd
00000090: 77b9 06be ac67 293d 822c cd3d 2793 42bd
000000a0: 8cc3 42bd cdb6 30bd b8b5 8b3d a968 adbc
000000b0: aece 6fbd c6ef 43bd deb5 783d 310a d3bd
000000c0: de87 81bc 7f51 bb3d 0547 a1bd 479f cd3d
000000d0: 2347 7bbd e7ff e0bd a08c fdbc de66 e13d
000000e0: 8a4e e7bd 085d e4bd 6f4c e0bd ba2f 1c3d
000000f0: fde7 d93d 6be1 c1bd 99b7 91bd 59a6 f2bd
00000100: 61fb 31bc 47b3 6d3d 9825 2dbd 41ef f83d
00000110: a2e9 aebd f384 8e3d 9897 693d 682d edbd
00000120: d5b7 e73c 943d b0ba aaa3 3ebd aa1b efbd
00000130: c351 9cbd 9912 423c 2d7f 42bd c9e9 f2bd
00000140: ede3 61bc c6d6 8dbd e73d a9bc 6990 d23d
00000150: c03e 26bd 083e c6bd 4660 da3c 6173 dfbc
00000160: 545c c43d 6e71 a2bd e7f7 1cbd 9843 00be
00000170: c318 e3bc 756a 6cbd 3bbd ddbd db0e d7bd
00000180: a9f7 0ebd 1621 6f3b 27bb 023d 385e e73a
00000190: 3621 00bd 964b 713d 3290 f33d 9b1c 153d
000001a0: 5cb1 afbd 98a2 39bd c059 423d dbfc e8bd
000001b0: 3658 f73d 83f8 d13c c59f e73d df63 c53d
000001c0: e084 acbd f120 4f3c 3953 6abc e48a ba3a
000001d0: 8a54 c93d aa01 143d 6a93 c13d 6a6d acbc
000001e0: c41e fbbc 8f2e 883d 025a d63d 4d82 78bd
000001f0: ce1e fb3b d44e 813d b2bf 11bc e234 8bbd
00000200: eeb3 bfbd 333b 893d 596e 843d 478b bb3d
00000210: 78d9 2dbd 27ae 673d b98f da3c 6ee7 fe3d
00000220: 9e5e 8ebd b28f 24bd 7106 ba3d e705 be3c
00000230: 7de7 5fbd cd92 8d3d c31a 52bd bab6 fd3d
00000240: 1df4 e6bc 5336 c33c f316 b8bd 0536 ea3d
00000250: 7a36 95bd 2d74 a43d ca33 08bd 8717 f5bd
00000260: 5e7f 8abb e3a4 d03d 8d4f aabd 8529 a5bb
00000270: 58e4 bcbc f49c e73d 499c d03d 7970 b73d
00000280: 6ebf 973d e437 a73c f0ea be3c e7f2 c13d
00000290: 1a51 973b f6a7 d73c 67ad 16bd 0c35 d53c
000002a0: 5745 d63d fea0 76bd fe47 ec3d 7091 ee3c
000002b0: 76b8 b73d 2386 003e 1fa2 3cbc d63c 04be
000002c0: 1630 053e 6e56 413c 671b a1bd 438f abbd
000002d0: 7be5 a53d 3276 cb3c 3897 4fbc b475 333d
000002e0: 499a f73c cae1 ce3d 7b15 013e 26dc dcbd
000002f0: af43 0a3d dbee 353d 148c 9abc 73a9 c73d
00000300: 5597 8dbd 0219 a6bd 4cb6 c83d eb54 a7bc
00000310: 9044 c33d aea0 34bd b033 cdbd 8850 68bc
00000320: 4cee e93c 10a1 b9bd a58c 96bd 3f30 95bc
00000330: 9dee 613d 194e 023d efd4 b93d 7c11 d23d
00000340: 53d1 cfbd f611 dabd 4e25 aabd c0cc babd
00000350: 8f04 d43d f315 68bd a972 e83d dc05 cdbd
00000360: 511c 0c3e 58f1 0dbd c78d 003e 00e6 a63d
00000370: 6427 e0bd b276 4bbd 8594 a9bd ae36 903d
00000380: d542 863c 6878 773d 2e92 8e3d ab30 02be
00000390: 5879 963d 262f 4fbc 5704 263d 187d ab3b
000003a0: 1e0e c83c bfbc 033d 20b4 d4bc 48dc e93c
000003b0: 3f33 463d 9441 e1bd 00e2 cfbd 248c 12bc
000003c0: b008 e93c d9c5 edbb 0485 7b3d 5e2a 1d3d
000003d0: 9b51 063e 833c 003d 339f abbc 0889 533d
000003e0: f045 353d 5374 da3d 0c84 9cbd 1bbe 9cbd
000003f0: acfc 08bb e8d9 933d 380a 51bd 7ffc b2bd

encoder_block1.trans_sample.0.bias f4 [32]
-0.0240462 -0.073471114 -0.058494974 -0.09858447 -0.062360264 -0.0536213 -0.032256063 0.10098079
-0.064959675 -0.012796553 0.04337402 -0.095950514 -0.07843841 0.072918095 0.03590731 0.10283977
0.042334866 -0.099331886 -0.02564482 0.06836347 0.056128383 -0.020582065 -0.087789185 -0.025516335
0.105059795 0.029851321 0.0059152013 -0.0804204 -0.058950245 0.1136269 -0.074421994 -0.020957863
00000000: 89fc c4bc 0678 96bd 6d98 6fbd a8e6 c9bd
00000010: 7a6d 7fbd 02a2 5bbd ef1e 04bd 04cf ce3d
00000020: 9409 85bd a2a8 51bc f5a8 313d b481 c4bd
00000030: 51a4 a0bd 1556 953d 8b13 133d a89d d23d
00000040: 5367 2d3d 846e cbbd 1615 d2bc 2602 8c3d
00000050: e0e6 653d b89b a8bc d1ca b3bd a207 d1bc
00000060: 9729 d73d c28a f43c 4ed4 c13b 73b3 a4bd
00000070: d075 71bd 38b5 e83d 8f6a 98bd d3af abbc

encoder_block1.norm2.weight f4 [32]
0.9987652 0.99668765 1.0022261 1.0123439 0.98582536 0.98659414 1.0045633 0.9843925
0.9890677 0.98402935 1.0016879 0.99077725 0.99871916 0.9772231 1.0069107 0.98831874
0.98729235 0.9937075 1.0026681 0.99916875 0.9882443 0.9847804 0.9998756 0.9906141
0.99341047 0.9938424 1.0054756 0.9814888 0.99242383 1.0231595 1.0131687 0.9825041
00000000: 13af 7f3f ec26 7f3f f248 803f 7c94 813f
00000010: 0d5f 7c3f 6f91 7c3f 8895 803f 2601 7c3f
00000020: 8a33 7d3f 59e9 7b3f 4f37 803f 94a3 7d3f
00000030: 0fac 7f3f 4b2b 7a3f 73e2 803f 7502 7d3f
00000040: 31bf 7c3f 9d63 7e3f 6e57 803f 86c9 7f3f
00000050: 94fd 7c3f 911a 7c3f d9f7 7f3f e398 7d3f
00000060: 2650 7e3f 756c 7e3f 6db3 803f da42 7b3f
00000070: 7d0f 7e3f e4f6 823f 83af 813f 6485 7b3f
