models/error_encoder_all_state_dict.pth (torch, 279959 bytes, 125 tensors)

embedder.dim_up.weight f4 [64, 8]
-0.2147454 -0.18068068 0.045544684 0.14346251 -0.30716652 0.15743425 -0.3357683 0.23794684
-0.26640218 0.32120398 0.12282282 0.15961841 0.16598615 -0.13591562 0.18165365 0.11906612
0.087415904 -0.3069028 0.17690673 0.28531858 0.12864006 -0.14456946 -0.040481657 0.32036057
-0.3209107 0.13840908 -0.13256672 -0.08938128 -0.18419357 -0.2689412 -0.26945046 0.3209333
-0.09230429 -0.0029301345 0.23687163 -0.34567362 0.2062299 0.3393199 -0.3388048 0.06008911
0.15709814 0.33725968 -0.043094575 0.24092695 0.09044394 -0.09434998 -0.19197176 -0.0029526055
-0.06529102 -0.1518481 0.04669845 0.33306602 0.053033203 -0.1648587 0.30979702 0.34090635
-0.34689224 -0.1315713 0.02412793 -0.30147746 0.011761218 0.14082071 -0.116050676 -0.13404936
0.006370634 -0.047789454 0.25778046 0.061640948 0.087049425 -0.28654614 -0.3012711 -0.24300596
0.11893797 0.28844526 -0.16289753 -0.3085665 -0.27674767 -0.13587609 0.008127511 -0.23722333
0.31457403 0.20968333 -0.19617942 -0.19634606 -0.029959112 0.072362125 -0.19700238 -0.002459824
-0.25228176 0.15417913 0.31540695 0.03347698 0.31312022 0.18735847 -0.3096014 -0.10381709
-0.11829507 0.24502823 0.04720962 0.31429574 0.33556482 0.27343604 -0.081659615 0.17348942
-0.040999234 -0.19417036 0.004170209 -0.045100123 0.09251228 -0.25445 -0.14017941 0.287087
-0.024062186 -0.042412996 -0.29337898 0.3144547 0.3514829 -0.26400575 -0.33698457 0.12597793
-0.01581788 0.0028446317 0.17499897 0.23825756 0.046563298 -0.24569708 0.26766583 -0.32185146
-0.13729319 -0.26140976 0.18665114 0.0965192 -0.09822601 0.18060294 0.019600928 -0.17678812
0.21201202 -0.21566036 0.25375786 -0.09040448 0.03592813 -0.20376378 -0.19777632 -0.092597604
0.1000714 0.31224832 -0.1347144 -0.040401876 0.050947964 -0.31402996 -0.061415344 -0.13294254
0.020099789 -0.21830988 -0.3420698 0.13086161 0.23482898 -0.29274732 -0.03158298 -0.14557412
0.13931641 -0.13167422 0.050956607 -0.11074594 -0.03788799 -0.12856323 0.3409417 -0.29488644
0.35280678 -0.12614606 0.10461387 -0.22387604 -0.0339984 0.12822676 -0.14812063 0.17958054
-0.32143474 0.34853908 -0.048501194 -0.051889926 0.07790536 0.056171387 -0.29961646 0.30725452
-0.123545945 -0.016625881 0.31617656 -0.21626264 -0.35296 -0.11119333 -0.2300008 0.14807972
-0.25388438 0.23624524 -0.21564683 0.12566048 0.18127647 0.30467722 -0.28400236 0.06125164
0.09024003 -0.10795316 -0.21151955 0.10174739 -0.30882275 0.075694054 0.33182684 0.15172657
-0.015561134 0.18214402 0.27586624 0.19403985 -0.065499365 0.16830596 -0.15104242 0.054252088
0.002487421 0.06673512 0.31501338 -0.09978047 0.3377324 -0.15012921 0.05088553 -0.02031359
-0.0113122165 0.19564095 -0.1303798 -0.3303066 -0.1434545 0.053400636 0.27988794 0.32591715
-0.1371002 0.27647677 -0.027269334 -0.35136378 -0.18016134 0.082903385 -0.2841956 -0.2852246
-0.178706 0.31964335 -0.04216543 0.20402238 0.102413595 -0.011059642 -0.08684054 -0.1716334
0.048939347 -0.32519135 0.22020683 -0.29335362 0.17876425 0.290705 -0.10441464 0.034141004
00000000: 38e6 5bbe 5b04 39be 108d 3a3d d6e7 123e
00000010: ee44 9dbe 7236 213e d3e9 abbe 56a8 733e
00000020: de65 88be d974 a43e 888a fb3d 0273 233e
00000030: 46f8 293e 772d 0bbe 6a03 3a3e f0d8 f33d
00000040: 1c07 b33d 5d22 9dbe 0a27 353e 4715 923e
00000050: 38ba 033e 040a 14be 18d0 25bd 4d06 a43e
00000060: 684e a4be 1cbb 0d3e 92bf 07be 880d b7bd
00000070: 3d9d 3cbe a9b2 89be 69f5 89be 5f51 a43e
00000080: 080a bdbd 8007 40bb 7a8e 723e 22fc b0be
00000090: ee2d 533e 57bb ad3e d377 adbe 0020 763d
000000a0: 56de 203e 4dad ac3e f083 30bd 8eb5 763e
000000b0: ac3a b93d 903a c1bd 3f94 44be 8080 41bb
000000c0: 4cb7 85bd 117e 1bbe e046 3f3d a187 aa3e
000000d0: 5839 593d b8d0 28be b79d 9e3e 478b ae3e
000000e0: dc9b b1be a0ba 06be f0a7 c53c 415b 9abe
000000f0: 20b2 403c 4e33 103e faab edbd 3c44 09be
00000100: c0c0 d03b e0be 43bd cdfb 833e 387b 7c3d
00000110: f846 b23d 2db6 92be 3540 9abe 8ed6 78be
00000120: c095 f33d 19af 933e 9cce 26be 6efc 9dbe
00000130: dfb1 8dbe 1a23 0bbe 4029 053c acea 72be
00000140: d90f a13e 3ab7 563e 42e3 48be f10e 49be
00000150: d06c f5bc 9832 943d feba 49be 0035 21bb
00000160: 132b 81be 22e1 1d3e 057d a13e 281f 093d
00000170: 4b51 a03e e6da 3f3e 1384 9ebe 0e9e d4bd
00000180: b044 f2bd aee8 7a3e e05e 413d 5feb a03e
00000190: 27cf ab3e cfff 8b3e 283d a7bd 36a7 313e
000001a0: d0ee 27bd 98d4 46be 40a6 883b e8ba 38bd
000001b0: 1477 bd3d 4547 82be 318b 0fbe 11fd 923e
000001c0: 101e c5bc 40b9 2dbd c535 96be 3500 a13e
000001d0: 91f5 b33e c32b 87be 3e89 acbe 5c00 013e
000001e0: 8094 81bc 006d 3a3b ee32 333e caf9 733e
000001f0: 28b9 3e3d 0498 7bbe 7f0b 893e b7c9 a4be
00000200: 9696 0cbe 80d7 85be 7a21 3f3e dcab c53d
00000210: b82a c9bd faef 383e 2092 a03c f207 35be
00000220: ae19 593e 12d6 5cbe 8dec 813e fc25 b9bd
00000230: 6029 133d 74a7 50be e085 4abe d0a3 bdbd
00000240: 3cf2 cc3d 03df 9f3e 92f2 09be 707c 25bd
00000250: d0ae 503d 89c8 a0be a88e 7bbd 1722 08be
00000260: 50a8 a43c a08c 5fbe c623 afbe 9600 063e
00000270: 0277 703e fae2 95be 285d 01bd 6211 15be
00000280: f6a8 0e3e 9bd5 06be e0b7 503d c4ce e2bd
00000290: 7030 1bbd 14a6 03be e98f ae3e 5bfb 96be
000002a0: 17a3 b43e 6f2c 01be cc3f d63d c33f 65be
000002b0: e841 0bbd e04d 033e efac 17be f6e3 373e
000002c0: 1893 a4be b773 b23e 30a9 46bd 888a 54bd
000002d0: d88c 9f3d f813 663d 5467 99be 7750 9d3e
000002e0: a805 fdbd 0033 88bc e5e1 a13e f473 5dbe
000002f0: 2cb7 b4be 54b9 e3bd 5485 6bbe 36a2 173e
00000300: 22fd 81be 46ea 713e 86d2 5cbe 24ad 003e
00000310: 8aa0 393e a7fe 9b3e c268 91be 00e3 7a3d
00000320: c4cf b83d 8c16 ddbd 9598 58be f060 d03d
00000330: 041e 9ebe 7c05 9b3d 35e5 a93e 365e 1b3e
00000340: 20f4 7ebc f683 3a3e 573e 8d3e 62b2 463e
00000350: 8824 86bd 6658 2c3e ddaa 1abe 7037 5e3d
00000360: 0004 233b 6cac 883d 6f49 a13e b459 ccbd
00000370: 43eb ac3e 79bb 19be 586d 503d b068 a6bc
00000380: e056 39bc 1a56 483e 4882 05be f21d a9be
00000390: bde5 12be a0ba 5a3d 794d 8f3e 9dde a63e
000003a0: ff63 0cbe 5d8e 8d3e f063 dfbc f4e5 b3be
000003b0: 377c 38be 40c9 a93d 1682 91be f508 92be
000003c0: b5fe 36be 4ba8 a33e a8b5 2cbd 3eeb 503e
000003d0: 38be d13d 8033 35bc 74d9 b1bd aac0 2fbe
000003e0: a074 483d 7b7f a6be e67d 613e 7232 96be
000003f0: fa0d 373e 49d7 943e 58d7 d5bd 70d7 0b3d

embedder.dim_up.bias f4 [64]
-0.20846492 0.053325444 0.26405188 -0.34079373 -0.021531433 0.22641167 0.19522253 0.06477335
-0.23691279 -0.2419243 0.10153437 0.14650235 -0.08240536 0.16109028 -0.010864347 -0.27735105
-0.29661384 -0.0379107 -0.19482394 0.22156212 0.25244817 -0.091492295 -0.2706818 -0.35111836
-0.022512496 -0.10702863 -0.07818812 -0.351707 -0.29463303 0.032756537 -0.036976606 -0.3311362
-0.26156646 0.054223508 -0.16541837 -0.3507254 -0.090295434 0.24401084 -0.31717134 -0.33067396
0.19865486 -0.32357106 -0.31371322 -0.18652876 0.14209089 -0.34120983 -0.20932396 -0.18374391
0.3071858 -0.2307464 0.21626422 -0.019228518 -0.048582673 -0.30586874 0.13330868 -0.07033074
-0.2147009 0.07347113 0.3044847 0.041314453 0.3144299 -0.16287506 -0.17923532 -0.32552952
00000000: d477 55be c86b 5a3d cf31 873e 847c aebe
00000010: b062 b0bc 76d8 673e 6ae8 473e e4a7 843d
00000020: 4499 72be 01bb 77be 40f1 cf3d b604 163e
00000030: 24c4 a8bd daf4 243e 6000 32bc f500 8ebe
00000040: c5dd 97be 4048 1bbd ed7f 47be 2ee1 623e
00000050: e340 813e 5060 bbbd ce96 8abe c9c5 b3be
00000060: 206c b8bc d431 dbbd 1821 a0bd f112 b4be
00000070: 24da 96be b82b 063d c874 17bd af8a a9be
00000080: 0aec 85be 7819 5e3d 6f63 29be 4892 b3be
00000090: d0ec b8bd fadd 793e 4864 a2be 194e a9be
000000a0: 2e6c 4b3e 1bab a5be 059f a0be 6501 3fbe
000000b0: 4680 113e 0eb3 aebe 0559 56be 5d27 3cbe
000000c0: 7547 9d3e c948 6cbe 5e74 5d3e 2085 9dbc
000000d0: a0fe 46bd d49a 9cbe 1282 083e 9009 90bd
000000e0: 8dda 5bbe 0878 963d 6be5 9b3e 5839 293d
000000f0: f5fc a03e b8c8 26be 7789 37be ceab a6be

encoder_block1.attention.w_q.weight f4 [64, 64]
0.10996272 -0.017967284 0.08640404 0.10520956 0.030342847 0.054160297 -0.029945672 -0.09315805
0.022676036 -0.10452086 -0.07372327 0.10119404 0.11186764 0.11538918 -0.038117602 -0.05246915
-0.027936906 0.09465137 -0.061317384 0.012390837 0.116153866 -0.11439532 0.023952395 0.100293025
-0.008819088 -0.014969006 -0.10156153 0.07592484 0.07408239 -0.10442455 0.10955283 -0.08489083
0.02245839 -0.076366544 -0.029822811 0.01344721 0.06067224 0.06498863 -0.122956574 -0.102622256
0.08924861 -0.059207708 0.089950725 0.076866925 -0.062196955 0.11689134 -0.024577945 -0.09794076
-0.10505876 -0.016070738 0.03283371 -0.07372159 -0.060358584 0.041508093 -0.06054972 -0.036882713
0.015560254 -0.043340266 -0.08702482 -0.046656936 -0.0037449598 0.0502124 -0.03232068 -0.0003774315
-0.06465477 0.12094538 -0.0688542 -0.04106936 0.069759086 -0.04087025 -0.07441977 -0.06729704
0.04237166 0.022590011 -0.0014419407 0.06382407 0.003792107 0.082085446 -0.058125824 0.10103947
0.0007710606 0.11577159 -0.0055199414 0.09733701 -0.0077290386 -0.037517592 0.019160658 -0.120477095
-0.07448365 0.041129857 -0.09856628 -0.04175271 -0.08965562 -0.08572668 -0.07210827 0.0037682801
0.11856468 -0.075687826 -0.110456094 0.10894282 0.026933193 -0.0015374571 0.015894279 -0.06665446
-0.11094344 0.069342524 0.10179931 0.036413506 0.06044638 -0.0072479993 0.07091652 0.06777854
0.0011179149 0.061977103 0.038329244 0.012095183 0.022756755 -0.10076709 -0.114834845 0.023133516
0.11991565 0.034449518 -0.053943813 -0.118856385 -0.005767286 -0.110011935 -0.12051304 -0.08314073
0.116801664 -0.063691214 0.030894473 -0.11023183 -0.024438217 -0.11818126 0.07456531 -0.0861291
0.018004179 -0.065669134 0.018057823 -0.004434243 -0.087955266 -0.090217605 -0.072914675 -0.037581354
-0.06669763 -0.024494544 0.11194043 -0.062173918 -0.098113194 0.101211295 -0.0010490716 0.043435752
-0.08791439 0.029216394 -0.1111047 -0.013971239 0.045726925 -0.11959793 -0.02653183 -0.025391817
-0.078542694 -0.031149253 0.09889318 0.09943718 -0.039605588 -0.03955832 0.052626953 -0.10345881
0.023232356 0.06758095 -0.07697596 -0.11970268 0.043643713 0.011485368 0.011174202 0.0012521893
-0.12305683 0.10233581 0.09936221 -0.087659016 0.06115541 -0.12323493 0.008631766 0.005378008
0.108358994 -0.014387697 -0.038012505 0.056122586 0.0656372 0.066033185 -0.051972732 0.050837055
-0.047749087 0.10801986 -0.03733045 0.076612785 -0.075674325 -0.07932918 0.022582263 -0.04982099
0.09849483 -0.020054743 0.03149444 -0.026841193 -0.049239427 -0.082167834 0.015239611 -0.027516305
-0.04445532 -0.027360514 0.06456645 -0.03813781 -0.0851547 0.1059625 -0.049117148 -0.00025711954
-0.010316983 0.10456392 0.09834443 -0.017393261 -0.097157955 -0.011778653 0.0555221 -0.115226254
0.121092156 0.08791061 -0.07778843 -0.070462614 0.08877149 0.0594341 0.0064199865 0.09109643
0.097209394 -0.08911124 -0.0043602735 0.07055585 -0.0689614 -0.09345053 0.031053066 -0.1064703
-0.08400136 -0.053935528 0.103057384 -0.12190466 -0.0074794292 0.10308841 0.018633932 -0.019257575
0.04685472 0.06965232 0.055037722 -0.06075117 -0.01000762 0.046128258 0.08268036 -0.11003703
00000000: 2234 e13d 2030 93bc 9af4 b03d 1c78 d73d
00000010: 9091 f83c 30d7 5d3d a050 f5bc a6c9 bebd
00000020: 18c3 b93c 080f d6bd 3afc 96bd d23e cf3d
00000030: dc1a e53d 2a51 ec3d 3421 1cbd e4e9 56bd
00000040: f0db e4bc 94d8 c13d f027 7bbd f002 4b3c
00000050: 14e2 ed3d 1848 eabd d037 c43c 6e66 cd3d
00000060: f07d 10bc 9040 75bc 7eff cfbd 7c7e 9b3d
00000070: 82b8 973d 8adc d5bd 3c5d e03d 3edb adbd
00000080: a8fa b73c 1066 9cbd f84e f4bc b051 5c3c
00000090: 7483 783d c218 853d a8d0 fbbd 9e2b d2bd
000000a0: fac7 b63d c883 72bd 1638 b83d 686c 9d3d
000000b0: 3cc2 7ebd ba64 ef3d b057 c9bc 2a95 c8bd
000000c0: 0c29 d7bd c8a6 83bc a47c 063d 58fb 96bd
000000d0: 903a 77bd 6404 2a3d fc02 78bd 5412 17bd
000000e0: 70f0 7e3c 9085 31bd 123a b2bd 581b 3fbd
000000f0: 006e 75bb 84ab 4d3d b062 04bd 00e2 c5b9
00000100: b869 84bd 36b2 f73d 6e03 8dbd 5838 28bd
00000110: dadd 8e3d 9067 27bd 6469 98bd 08d3 89bd
00000120: e88d 2d3d b00e b93c 80ff bcba 32b6 823d
00000130: 0085 783b 6a1c a83d 5815 6ebd c8ed ce3d
00000140: 0021 4a3a a819 ed3d a0e0 b4bb a058 c73d
00000150: e043 fdbb 0cac 19bd d0f6 9c3c b2bc f6bd
00000160: e28a 98bd c877 283d 1edd c9bd e404 2bbd
00000170: 5e9d b7bd 7891 afbd 80ad 93bd 40f5 763b
00000180: 0ad2 f23d 3802 9bbd ce36 e2bd 6a1d df3d
00000190: 00a3 dc3c 8084 c9ba b834 823c 2282 88bd
000001a0: 5036 e3bd 7403 8e3d 287c d03d 5426 153d
000001b0: a096 773d a080 edbb ae3c 913d 7acf 8a3d
000001c0: 0087 923a b4db 7d3d 20ff 1c3d e02a 463c
000001d0: 606c ba3c fa5e cebd 882e ebbd 8082 bd3c
000001e0: 5696 f53d f01a 0d3d 30f4 5cbd fa6a f3bd
000001f0: 80fb bcbb f04d e1bd 8acf f6bd b045 aabd
00000200: b635 ef3d 8a70 82bd 6816 fd3c 3ac1 e1bd
00000210: a832 c8bc 0409 f2bd b2b5 983d 7464 b0bd
00000220: 807d 933c 8a7d 86bd 00ee 933c 204d 91bb
00000230: e421 b4bd 02c4 b8bd 4a54 95bd e8ee 19bd
00000240: c498 88bd c8a8 c8bc 0641 e53d 14aa 7ebd
00000250: 92ef c8bd de47 cf3d 0081 89ba b0e9 313d
00000260: 760c b4bd 3857 ef3c dc8a e3bd a0e7 64bc
00000270: 284c 3b3d c2ef f4bd 4859 d9bc 8002 d0bc
00000280: feda a0bd b82c ffbc 8288 ca3d b8a5 cb3d
00000290: 7839 22bd e807 22bd 5c8f 573d 36e2 d3bd
000002a0: c851 be3c e267 8a3d 92a5 9dbd ae26 f5bd
000002b0: c0c3 323d 202d 3c3c 0014 373c 8020 a43a
000002c0: 3805 fcbd 7095 d13d 6a7e cb3d 9286 b3bd
000002d0: 187e 7a3d 9862 fcbd 406c 0d3c 003a b03b
000002e0: 52eb dd3d 60ba 6bbc 00b3 1bbd cce0 653d
000002f0: cc6c 863d 683c 873d 5ce1 54bd 843a 503d
00000300: 8c94 43bd 8439 dd3d d0e7 18bd 2ae7 9c3d
00000310: 24fb 9abd 5677 a2bd 70fe b83c 1811 4cbd
00000320: a8b7 c93d d849 a4bc 5000 013d 10e2 dbbc
00000330: 48af 49bd 9c47 a8bd 90af 793c e069 e1bc
00000340: c816 36bd 2823 e0bc 6a3b 843d 6436 1cbd
00000350: 9665 aebd de02 d93d 102f 49bd 00ce 86b9
00000360: 9008 29bc 9c25 d63d ce68 c93d 507c 8ebc
00000370: c0fa c6bd 40fb 40bc 246b 633d befb ebbd
00000380: 2aff f73d 7a0a b43d 8a4f 9fbd b44e 90bd
00000390: d4cd b53d 2c71 733d c05e d23b c490 ba3d
000003a0: b815 c73d f47f b6bd a0e0 8ebb 967f 903d
000003b0: a23b 8dbd fe62 bfbd 0063 fe3c 1a0d dabd
000003c0: e808 acbd 80eb 5cbd c00f d33d 26a9 f9bd
000003d0: 0016 f5bb 0420 d33d 30a6 983c 10c2 9dbc
000003e0: bcea 3f3d e0a5 8e3d 3c6f 613d 38d6 78bd
000003f0: 00f7 23bc fcf0 3c3d 5254 a93d 185b e1bd

encoder_block1.attention.w_q.bias f4 [64]
0.0006017536 -0.011914089 -0.009562194 0.11313382 -0.029296607 -0.054313943 -0.092481345 -0.08986941
0.008884475 0.112034366 0.00021825731 -0.06633952 -0.09517285 -0.07422295 0.1232743 -0.032850906
0.089873075 0.0018738806 -0.014098793 0.09093642 -0.04490766 -0.021591723 0.07494724 0.095694765
-0.113257185 -0.051006183 0.08996858 0.019336313 -0.03956817 0.04158351 -0.030771852 -0.043944493
0.0058769137 0.022034898 -0.078027576 0.033688158 0.039475203 0.0128875375 -0.018756032 -0.019549504
-0.05933632 -0.108628124 -0.061372712 0.048711255 0.0862831 0.040245056 -0.09804271 -0.031018987
0.08296393 0.06904781 -0.028475538 -0.037492514 0.0045306236 -0.00933294 -0.11624038 0.062656134
0.03053984 -0.06671263 0.060034275 0.1187395 -0.09857871 0.040832683 -0.0414782 0.041028902
00000000: 00bf 1d3a 5033 43bc c0aa 1cbc b4b2 e73d
00000010: 70ff efbc 4c78 5ebd dc66 bdbd 740d b8bd
00000020: 3090 113c 4672 e53d 00dc 6439 04dd 87bd
00000030: fce9 c2bd 3402 98bd 3c77 fc3d ac8e 06bd
00000040: 600f b83d 009d f53a a0fe 66bc e03c ba3d
00000050: 18f1 37bd 20e1 b0bc f07d 993d 9efb c33d
00000060: 62f3 e7bd dceb 50bd 7241 b83d 3067 9e3c
00000070: 3c12 22bd 7853 2a3d 4015 fcbc 24ff 33bd
00000080: 2093 c03b 8882 b43c eccc 9fbd 98fc 093d
00000090: c0b0 213d 4026 533c 40a6 99bc 4826 a0bc
000000a0: a40a 73bd 6c78 debd f461 7bbd 7485 473d
000000b0: 32b5 b03d 00d8 243d 9eca c8bd 881b febc
000000c0: fee8 a93d f068 8d3d 8845 e9bc c091 19bd
000000d0: a075 943b 30e9 18bc 700f eebd dc51 803d
000000e0: b02e fa3c a2a0 88bd 80e6 753d b22d f33d
000000f0: a2e3 c9bd 2c40 273d 0ce5 29bd ec0d 283d

encoder_block1.attention.w_k.weight f4 [64, 64]
-0.05659409 -0.04365614 0.0787971 -0.035902932 -0.006795883 0.116989225 0.074040085 -0.07891229
-0.096527204 0.020808205 -0.0022755414 -0.07721257 -0.01826708 -0.11898492 -0.06146224 -0.096337214
0.095084354 0.058250904 -0.048272446 0.08206454 -0.001915291 -0.07480301 0.049212664 0.12382156
-0.021165594 -0.07230137 -0.044376284 0.046009958 0.10142106 -0.08986229 0.044714898 0.008850858
0.03453505 -0.120985836 -0.040146098 0.085843846 -0.108974054 0.015286729 0.061943755 -0.01952283
0.0013832003 -0.0003233552 0.08298211 0.071887344 0.044409394 -0.037059724 -0.040902883 -0.0674793
0.11972296 0.014216915 -0.067177474 -0.0067543685 -0.043696895 0.037887618 0.078655005 0.063727796
-0.1228838 0.11277188 0.005340308 0.0028008819 0.017473191 0.050233215 0.095667094 0.09560092
0.0077573806 -0.009648457 0.021878347 0.016384095 -0.050099954 0.1011198 0.0061956197 -0.02024582
-0.10660572 -0.094915256 -0.11255637 -0.03996019 -0.11750537 -0.077276364 0.023680076 0.0128029585
-0.07274112 0.06286229 -0.04619816 0.10080758 -0.049801826 0.035252526 -0.00815098 -0.10415433
-0.06626484 -0.03747712 -0.04996948 0.012173519 0.033272877 -0.11132015 -0.06679408 -0.021704197
-0.069590926 0.016649961 0.09572253 -0.09379928 0.11671907 -0.014999151 0.10116039 -0.045325577
-0.058463424 0.0039477795 0.013584316 0.009926081 -0.02440156 0.08982544 0.12227677 -0.062331527
0.054283336 0.085047975 0.04816422 -0.028258398 0.048552006 -0.029989213 0.010448694 0.0343612
0.11569187 0.042310983 0.047663674 0.05807914 0.023208335 0.008085936 0.06960167 0.08551571
0.116870984 0.037238106 -0.0287942 -0.08152616 0.0841877 -0.024602711 0.005350873 -0.089253455
0.088708 -0.120226756 0.084088415 0.097863644 0.0041757524 -0.022871643 -0.10305849 -0.052806288
-0.007144645 0.09805514 -0.06823915 -0.0912911 -0.061875656 0.0016548932 -0.052245364 -0.104479685
-0.0717327 -0.09991062 0.03524138 0.021251291 -0.008214697 0.008334905 -0.06672144 0.08729869
-0.041926935 -0.06801695 0.06842442 0.09291512 0.032885507 -0.012205601 0.017327562 0.11869201
0.004510939 -0.077291414 0.07747215 0.09910034 0.07717994 -0.097536236 0.10975061 0.10246788
0.07775077 -0.017710432 -0.00703384 -0.059837222 0.101202965 0.119071335 0.03488165 0.01960297
0.094248325 -0.070706904 -0.0347943 0.057444006 -0.124298394 -0.044705242 -0.08948086 -0.039404213
-0.032191128 0.08672023 0.029851854 -0.04508187 0.10889359 -0.11929184 -0.040745184 -0.06994808
-0.09511982 -0.016703337 0.026104182 0.07604046 -0.01486665 -0.0465416 0.055485755 -0.117625535
0.11066122 -0.034955934 -0.021626964 0.027651072 0.046861887 -0.010991931 0.0791914 -0.027941123
0.037169635 0.05246602 0.046079993 0.036641106 0.054342553 0.05615358 -0.056650594 -0.09825824
-0.027621403 0.102998495 -0.013092682 0.08187817 -0.05292803 -0.047401384 0.043567628 -0.0681877
-0.019322738 -0.07551761 -0.10619989 0.05683805 -0.0018521845 -0.10453321 -0.10292749 -0.027039826
0.08345908 -0.108646005 -0.09423241 0.07684679 -0.110435575 -0.06321129 -0.01415281 -0.08006464
-0.10344271 0.018041968 0.044134542 0.035888955 0.02794014 -0.037551165 -0.09654513 0.12164986
00000000: 34cf 67bd c8d0 32bd 6060 a13d f40e 13bd
00000010: 00b0 debb 0c98 ef3d 54a2 973d c49c a1bd
00000020: 0eb0 c5bd f875 aa3c 4021 15bb a021 9ebd
00000030: d8a4 95bc 5eae f3bd d4bf 7bbd 724c c5bd
00000040: 96bb c23d 8098 6e3d 54b9 45bd 7411 a83d
00000050: 800a fbba 5232 99bd 3893 493d 2896 fd3d
00000060: 7863 adbc be12 94bd e8c3 35bd f074 3c3d
00000070: d8b5 cf3d b809 b8bd f826 373d 3003 113c
00000080: a074 0d3d 6cc7 f7bd 3c70 24bd e6ce af3d
00000090: ca2d dfbd 3075 7a3c bcb8 7d3d 58ee 9fbc
000000a0: 804c b53a 0088 a9b9 86f2 a93d ac39 933d
000000b0: a0e6 353d f0cb 17bd c889 27bd 9632 8abd
000000c0: 5031 f53d 10ee 683c 5894 89bd c053 ddbb
000000d0: 84fb 32bd 0c30 1b3d e015 a13d b883 823d
000000e0: 80aa fbbd f2f4 e63d c0fd ae3b 008f 373b
000000f0: f023 8f3c 58c1 4d3d 1ced c33d 6aca c33d
00000100: a031 fe3b 9014 1ebc 383a b33c f037 863c
00000110: 9c35 4dbd e617 cf3d a004 cb3b 90da a5bc
00000120: 1a54 dabd ee62 c2bd f483 e6bd 4cad 23bd
00000130: a8a6 f0bd 1243 9ebd b8fc c13c 80c3 513c
00000140: 4cf9 94bd f2bd 803d 483a 3dbd 3474 ce3d
00000150: 00fd 4bbd f464 103d b08b 05bc de4e d5bd
00000160: dcb5 87bd 9c81 19bd ccac 4cbd 7073 473c
00000170: 2449 083d d2fb e3bd 56cb 88bd 00cd b1bc
00000180: b085 8ebd 8065 883c 2c0a c43d d619 c0bd
00000190: 680a ef3d 00bf 75bc 2e2d cf3d 50a7 39bd
000001a0: 5877 6fbd 605c 813b c090 5e3c 00a1 223c
000001b0: c8e5 c7bc 66f6 b73d 3e6c fa3d 584f 7fbd
000001c0: 3458 5e3d a22d ae3d d847 453d 287e e7bc
000001d0: 78de 463d f0ab f5bc 0031 2b3c 54be 0c3d
000001e0: dcef ec3d 484e 2d3d fc3a 433d 64e4 6d3d
000001f0: 681f be3c e07a 043c 528b 8e3d dc22 af3d
00000200: 0e5a ef3d fc86 183d d0e1 ebbc 30f7 a6bd
00000210: 9a6a ac3d a08b c9bc 6056 af3b 84ca b6bd
00000220: 8aac b53d 7239 f6bd 8c36 ac3d bc6c c83d
00000230: c0d4 883b 505d bbbc 5410 d3bd 684b 58bd
00000240: a01d eabb 22d1 c83d f8c0 8bbd d4f6 babd
00000250: 5471 7dbd 00e9 d83a 3cff 55bd 72f9 d5bd
00000260: 98e8 92bd f09d ccbd 4459 103d 3017 ae3c
00000270: f096 06bc 208f 083c 40a5 88bd a8c9 b23d
00000280: 94bb 2bbd 784c 8bbd 1a22 8c3d 484a be3d
00000290: f4b2 063d 00fa 47bc 88f2 8d3c cc14 f33d
000002a0: 80d0 933b f64a 9ebd b8a9 9e3d 1ef5 ca3d
000002b0: 8410 9e3d 14c1 c7bd eec4 e03d aeda d13d
000002c0: cc3b 9f3d 7815 91bc 207c e6bb e017 75bd
000002d0: 8043 cf3d acdb f33d 10e0 0e3d 6896 a03c
000002e0: 4405 c13d c8ce 90bd 7884 0ebd 684a 6b3d
000002f0: 2890 febd d81c 37bd be41 b7bd 5066 21bd
00000300: d8da 03bd 609a b13d e08b f43c c4a7 38bd
00000310: 9a03 df3d 484f f4bd 6ce4 26bd f040 8fbd
00000320: 2ece c2bd 70d5 88bc 70d8 d53c 1abb 9b3d
00000330: 4093 73bc 68a2 3ebd 0845 633d a8e5 f0bd
00000340: 5aa2 e23d f42d 0fbd 082b b1bc 8084 e23c
00000350: 40f2 3f3d 8017 34bc 1a2f a23d c8e4 e4bc
00000360: 303f 183d 9ce6 563d 60be 3c3d fc14 163d
00000370: 4c96 5e3d 4c01 663d 740a 68bd 9e3b c9bd
00000380: 4846 e2bc e0f0 d23d b082 56bc beaf a73d
00000390: 10cb 58bd f427 42bd f873 323d fea5 8bbd
000003a0: b84a 9ebc faa8 9abd 547f d9bd 04cf 683d
000003b0: 00c5 f2ba 8215 d6bd a6cb d2bd a082 ddbc
000003c0: 98ec aa3d cc81 debd ecfc c0bd da61 9d3d
000003d0: 0c2c e2bd ec74 81bd 30e1 67bc eef8 a3bd
000003e0: c6d9 d3bd c0cc 933c 6cc6 343d 4c00 133d
000003f0: b8e2 e43c 40cf 19bd 74b9 c5bd 9023 f93d

encoder_block1.attention.w_k.bias f4 [64]
-0.039555132 0.1243446 -0.11086187 0.02130282 -0.08571361 -0.035296977 -0.12034406 -0.11308634
-0.05123423 0.013580576 -0.052093238 -0.090379804 -0.0851454 0.033407003 0.10780802 -0.0131371915
0.031249583 -0.09069292 0.11876339 -0.11750096 -0.08316152 -0.118155494 -0.09656145 0.07008305
-0.02588448 0.04402259 -0.08761476 -0.056724414 -0.08220616 0.0782675 0.048338145 -0.07529615
0.074793056 -0.11212447 0.087479055 0.089205965 -0.002198115 -0.052266315 -0.04477842 0.003805831
-0.05376485 0.09282619 -0.07811855 -0.0018537492 -0.019301757 0.056812838 -0.11872201 0.0057419688
0.11424367 0.049510404 -0.11789884 -0.06691453 0.017754063 -0.030734256 0.06586407 0.06895988
-0.050828323 -0.0348918 -0.0014881641 -0.10387501 0.064076394 0.09253667 0.040376067 0.11519173
00000000: 9004 22bd 62a8 fe3d 8c0b e3bd 4083 ae3c
00000010: 9e8a afbd 9093 10bd f276 f6bd d099 e7bd
00000020: fcda 51bd 1081 5e3c b85f 55bd 0c19 b9bd
00000030: b660 aebd c8d5 083d 74ca dc3d 603d 57bc
00000040: 20ff ff3c 36bd b9bd 383a f33d 58a4 f0bd
00000050: 9650 aabd 82fb f1bd 02c2 c5bd b487 8f3d
00000060: b00b d4bc 0851 343d 5e6f b3bd dc57 68bd
00000070: b45b a8bd b64a a03d 38fe 453d de34 9abd
00000080: 1a2d 993d 84a1 e5bd 3828 b33d 9eb1 b63d
00000090: 400e 10bb 3415 56bd 9469 37bd 406b 793b
000000a0: 8838 5cbd a81b be3d 9efc 9fbd 80f9 f2ba
000000b0: b81e 9ebc 94b4 683d 8624 f3bd 2027 bc3b
000000c0: 96f8 e93d 6ccb 4a3d f274 f1bd 7c0a 89bd
000000d0: f870 913c 68c6 fbbc bee3 863d d63a 8d3d
000000e0: 5c31 50bd b4ea 0ebd 800e c3ba 6cbc d4bd
000000f0: 7c3a 833d de83 bd3d 6061 253d a4e9 eb3d

encoder_block1.attention.w_v.weight f4 [64, 64]
-0.005641982 -0.038695827 -0.027679846 -0.030551001 0.08282703 0.07094535 -0.051979557 0.065284446
-0.08302358 -0.08153704 0.08641833 -0.014870614 -0.010318235 0.09682518 0.0585348 0.01591207
0.04287961 -0.0752819 -0.03526099 -0.07796951 -0.018222332 -0.11848706 -0.11411166 0.035941333
-0.09438814 0.083435476 0.006273374 -0.080748394 -0.067147836 -0.028819159 -0.068876445 0.02632165
-0.043736205 -0.12274864 -0.0025944263 -0.063565224 -0.007295698 0.041600525 -0.02657558 -0.05849874
-0.11702941 0.11108236 0.028562054 -0.025830239 0.123833776 -0.090712845 0.050599664 0.0106577575
-0.03922072 0.07311952 0.005564451 0.0136656165 0.030967444 -0.112403214 -0.06082414 -0.06790155
0.08303586 -0.050441444 -0.03839144 0.08093755 0.04579705 0.09359686 0.029424012 -0.014310196
-0.04368204 0.06202264 -0.00075271726 0.017625868 -0.050632834 0.0003605336 -0.1162975 -0.06633687
0.11735265 -0.08436878 0.0580426 -0.042360216 -0.02691774 -0.03014332 0.061343595 -0.026443914
0.12014662 0.10547201 -0.09488891 -0.093473226 -0.09805924 -0.0019782037 0.102696285 0.024857402
-0.049712315 -0.093414575 -0.053251818 0.05843021 0.02726911 0.09680629 0.06042044 -0.06706402
0.052210376 -0.098095894 -0.059193403 -0.10141772 0.10840353 0.1197273 -0.06379582 -0.093618006
0.067466825 0.032308728 -0.05549349 -0.0074884444 0.03085807 -0.1012474 0.039961338 0.040366456
0.05583848 -0.082747504 -0.06453635 -0.10072215 0.11104326 0.11323708 -0.0036783963 -0.08196077
0.021410614 0.0062019527 0.09554817 0.025882706 -0.018851936 -0.02216132 0.030717611 0.0902822
-0.12005472 -0.041789085 -0.052375883 0.036155716 -0.022430852 -0.07460822 -0.052014694 0.035726234
-0.10360487 -0.12235995 0.00017935038 0.12133908 -0.06491488 -0.1179131 0.058673844 0.036535397
0.043166146 -0.012601659 -0.04564552 -0.075604886 -0.06134662 -0.04894145 -0.0860441 0.0069058836
0.11596158 0.09260547 -0.091659784 -0.010397017 0.07677166 0.0024316162 -0.09776805 0.10283047
-0.08951855 0.010652989 0.06529668 -0.06510419 -0.025480434 -0.10456568 0.10416947 0.06290415
-0.08839765 0.039357975 -0.015129253 -0.053258985 0.03989461 0.034419417 0.0362536 -0.0739135
-0.023729071 0.03944853 0.08938667 -0.010852575 -0.09310995 -0.077484325 -0.005082473 -0.0015682578
0.020951077 -0.104504645 0.058708534 -0.07683393 0.11072837 0.037177652 -0.08739449 0.047561213
0.023740292 0.08382025 0.037370816 0.07510571 0.018211082 0.09069392 -0.041825384 -0.007916898
-0.06761691 -0.0651917 0.010031417 0.030299202 -0.08195177 0.0011473149 0.053211138 0.049799815
0.11085734 0.08385153 -0.0033302456 0.03524077 -0.06952204 -0.024749607 -0.062483475 -0.032094166
-0.028031513 -0.11776093 -0.11825815 0.122440696 -0.033076793 -7.593632e-05 0.02323398 -0.094387785
-0.069839925 -0.090929866 0.0988148 -0.063514546 -0.011841744 -0.014459118 0.097751066 -0.0956779
-0.023504913 0.10091868 0.020753875 0.017282873 0.020008385 0.062669516 -0.054821625 0.08492629
0.0838891 -0.10986915 0.0316443 0.039598316 0.039833784 0.09630741 -0.10785772 0.06770024
-0.04870774 -0.076905474 -0.03635031 -0.07107063 -0.054335803 -0.011598676 -0.097880706 -0.106319144
00000000: 60e0 b8bb 847f 1ebd d8c0 e2bc 1846 fabc
00000010: 38a1 a93d cc4b 913d 84e8 54bd dab3 853d
00000020: 4408 aabd e4fc a6bd 18fc b03d e0a3 73bc
00000030: d00d 29bc 484c c63d 30c2 6f3d 085a 823c
00000040: 88a2 2f3d 662d 9abd d46d 10bd 7aae 9fbd
00000050: 0047 95bc 58a9 f2bd 60b3 e9bd 3837 133d
00000060: 924e c1bd 38e0 aa3d e090 cd3b 6a5f a5bd
00000070: ce84 89bd 2816 ecbc 180f 8dbd 80a0 d73c
00000080: bc24 33bd a463 fbbd 4007 2abb 7c2e 82bd
00000090: c010 efbb 5065 2a3d 08b5 d9bc 609c 6fbd
000000a0: 1ead efbd 267f e33d f8fa e93c f099 d3bc
000000b0: 909c fd3d a8c7 b9bd 9841 4f3d e09d 2e3c
000000c0: e8a5 20bd b0bf 953d 0056 b63b c0e5 5f3c
000000d0: 70af fd3c a833 e6bd bc22 79bd f80f 8bbd
000000e0: b40e aa3d b09b 4ebd 5840 1dbd 96c2 a53d
000000f0: b095 3b3d b6af bf3d a00a f13c 5075 6abc
00000100: f0eb 32bd 740b 7e3d 0052 45ba 2064 903c
00000110: 6064 4fbd 0006 bd39 622d eebd a0db 87bd
00000120: 9656 f03d 8ac9 acbd 14be 6d3d e881 2dbd
00000130: 9882 dcbc 20ef f6bc 6c43 7b3d e8a0 d8bc
00000140: 6e0f f63d b601 d83d 1e55 c2bd e46e bfbd
00000150: 48d3 c8bd c0a4 01bb 6e52 d23d c0a1 cb3c
00000160: 249f 4bbd 2450 bfbd 941e 5abd 8454 6f3d
00000170: 7863 df3c 6042 c63d 6c7b 773d dc58 89bd
00000180: 8cda 553d 80e6 c8bd c874 72bd 18b4 cfbd
00000190: ac02 de3d 9633 f53d 62a7 82bd ccba bfbd
000001a0: 0c2c 8a3d 2856 043d 244d 63bd a061 f5bb
000001b0: 10ca fc3c cc5a cfbd 80ae 233d 4c57 253d
000001c0: e4b6 643d 8677 a9bd a22b 84bd 6a47 cebd
000001d0: a66a e33d d8e8 e73d 4011 71bb 0cdb a7bd
000001e0: 5065 af3c c039 cb3b c2ae c33d f807 d43c
000001f0: 606f 9abc a88b b5bc 80a3 fb3c e0e5 b83d
00000200: 40df f5bd 082b 2bbd 1888 56bd 0418 143d
00000210: e8c0 b7bc 32cc 98bd 5c0d 55bd ac55 123d
00000220: ca2e d4bd da97 fabd 0010 3c39 a080 f83d
00000230: 18f2 84bd 6c7c f1bd fc53 703d 24a6 153d
00000240: fcce 303d 3077 4ebc ccf6 3abd bcd6 9abd
00000250: 9846 7bbd d476 48bd e437 b0bd c04a e23b
00000260: 447d ed3d f0a7 bd3d 20b8 bbbd 4058 2abc
00000270: 763a 9d3d c05b 1f3b 9e3a c8bd c898 d23d
00000280: 8055 b7bd e089 2e3c 44ba 853d 5855 85bd
00000290: 58bc d0bc 8826 d6bd ce56 d53d e4d3 803d
000002a0: d409 b5bd d435 213d b0e0 77bc 1826 5abd
000002b0: 8868 233d 60fb 0c3d a87e 143d f65f 97bd
000002c0: 7863 c2bc c894 213d 5c10 b73d 00cf 31bc
000002d0: 6eb0 bebd 1ab0 9ebd e08a a6bb 008e cdba
000002e0: 98a1 ab3c 8806 d6bd 5c78 703d 1c5b 9dbd
000002f0: 8ec5 e23d 9847 183d e2fb b2bd 8ccf 423d
00000300: 007b c23c f4a9 ab3d 2412 193d 06d1 993d
00000310: 682f 953c bcbd b93d 1851 2bbd e0b5 01bc
00000320: bc7a 8abd 3a83 85bd d05a 243c 0836 f83c
00000330: 54d6 a7bd 8061 963a ecf3 593d e4fa 4b3d
00000340: 2c09 e33d 5aba ab3d 4040 5abb a058 103d
00000350: 9261 8ebd b0bf cabc acee 7fbd 2c75 03bd
00000360: 58a2 e5bc a42c f1bd 5431 f2bd 30c2 fa3d
00000370: 887b 07bd 0040 9fb8 3055 be3c 624e c1bd
00000380: 3c08 8fbd 7039 babd 6a5f ca3d ea13 82bd
00000390: e003 42bc f0e5 6cbc b631 c83d c6f2 c3bd
000003a0: 608d c0bc 74ae ce3d 0804 aa3c d094 8d3c
000003b0: a0e8 a33c e058 803d a48c 60bd d6ed ad3d
000003c0: 0cce ab3d 1403 e1bd 749d 013d d831 223d
000003d0: c028 233d d23c c53d 82e4 dcbd 6ca6 8a3d
000003e0: c481 47bd 9e80 9dbd 10e4 14bd 7a8d 91bd
000003f0: 388f 5ebd 6008 3ebc ae75 c8bd dabd d9bd

encoder_block1.attention.w_v.bias f4 [64]
0.00539425 0.046388343 -0.04986319 -0.010680959 -0.0897862 -0.03526981 -0.0033873618 -0.09560165
-0.036052555 -0.12320353 0.012234107 -0.08583528 0.10343675 0.08490762 0.02543503 0.071670756
-0.1074246 -0.06679852 0.026217818 -0.11459763 0.059788138 -0.0017567873 0.014458805 0.010669559
-0.017489344 0.11741251 0.024031311 -0.0016405433 0.021966979 -0.09332344 -0.030744761 0.119574144
-0.115311995 -0.049059138 0.024373814 -0.10932638 -0.06396638 0.12157437 -0.07738055 0.11140482
-0.050419062 0.03964086 0.067481056 -0.064554274 0.1215388 0.0846363 0.055628404 -0.029352933
0.07532796 -0.01178889 -0.005072668 0.1233588 0.122438595 0.124440745 0.04300709 0.0480047
0.08894564 -0.027101249 0.051257282 -0.041287318 0.10178125 -0.0052362233 -0.015063301 -0.026415437
00000000: 40c2 b03b b401 3e3d 583d 4cbd 30ff 2ebc
00000010: d4e1 b7bd 1477 10bd 80fe 5dbb ccca c3bd
00000020: d8ab 13bd 2252 fcbd 9071 483c 68ca afbd
00000030: a6d6 d33d 0ce4 ad3d 205d d03c 1ec8 923d
00000040: 6e01 dcbd aacd 88bd c0c6 d63c 2ab2 eabd
00000050: 68e4 743d 0044 e6ba a0e4 6c3c 60cf 2e3c
00000060: d045 8fbc f875 f03d 50dd c43c 8007 d7ba
00000070: 18f4 b33c 5c20 bfbd 70dc fbbc 4ae3 f43d
00000080: b228 ecbd 3cf2 48bd 98ab c73c 82e6 dfbd
00000090: ce00 83bd fcfb f83d b279 9ebd 3628 e43d
000000a0: 3884 4ebd 745e 223d 8233 8a3d 0835 84bd
000000b0: 56e9 f83d cc55 ad3d 9cda 633d 9075 f0bc
000000c0: 8c45 9a3d 3026 41bc a038 a6bb 8aa3 fc3d
000000d0: 16c1 fa3d cada fe3d 3428 303d 94a0 443d
000000e0: 2229 b63d 7003 debc 28f3 513d e41c 29bd
000000f0: b072 d03d a094 abbb 10cc 76bc 3065 d8bc

encoder_block1.attention.w_concat.weight f4 [64, 64]
0.02142556 0.11764991 0.019913062 0.026236638 -0.10236363 -0.0078923255 -0.08756554 0.084577695
-0.12366079 0.03929645 -0.078677 -0.1024818 -0.011337578 -0.054038092 0.09908894 0.06732647
-0.07672368 0.022502929 -0.07718128 -0.118342936 -0.005909279 -0.07225287 0.05188684 -0.124711126
0.0405408 0.054452598 0.033881202 -0.0070527047 0.06838304 0.08191669 0.009621307 0.0396861
0.11662173 0.049965695 -0.09123778 -0.0797666 -0.043712944 0.06807408 -0.06654647 -0.115440935
-0.11787863 -0.03139004 -0.052424967 0.05904825 -0.10577588 0.09893608 0.007892296 -0.0872149
-0.05588177 -0.097622424 0.09565669 -0.055674985 -0.06443435 -0.07439311 -0.039823934 -0.07060036
-0.033112288 -0.015338212 0.06625645 -0.08421628 0.024974793 -0.06182231 0.017907113 0.09080209
-0.0015021265 -0.10044305 -0.047953993 -0.078729674 0.055238128 0.03881234 0.09373039 -0.05702427
-0.034963533 -0.06877749 -0.031896874 0.059089348 -0.09484494 -0.049849078 0.025627494 -0.111434296
0.0022606254 -0.014797941 0.030219436 0.108381614 -0.060547203 -0.05561234 -0.010308638 0.012807354
0.02305162 0.065179214 0.012930706 -0.047877803 0.026684716 -0.07139893 -0.111391485 -0.06513047
-0.024331287 0.054194003 -0.08545557 -0.039927512 -0.1023006 -0.024345025 -0.07804829 -0.038760796
0.02073653 -0.038695216 0.11924915 -0.11493847 -0.039574727 0.10414684 -0.116236255 0.033646107
-0.082537174 -0.11345057 -0.0017789453 -0.0036024451 0.04913929 0.12215227 -0.009973958 0.097488075
0.028000414 -0.007986471 0.032654732 -0.09614131 -0.08426158 -0.07664372 0.04263699 -9.827316e-05
-0.05528842 -0.06706828 -0.10484119 0.052189633 -0.033151 0.11096354 -0.062801674 -0.12420726
0.0239643 0.009700581 -0.07676986 0.10827525 -0.06488879 0.023070812 0.06030117 -0.038120314
-0.012704015 0.024268791 -0.098295 0.03310807 0.020593032 0.056798503 -0.00444068 -0.022138521
0.10029462 0.05487469 0.0046931505 0.10784984 -0.070682734 -0.09205854 0.012471169 -0.026440442
0.07637802 -0.09280531 -0.0072755665 -0.1197781 0.052397445 0.11021596 -0.043125108 0.11394243
0.02936478 0.09783363 -0.12075518 0.06525089 -0.061183557 0.07645449 -0.08994147 0.003316
0.12182751 -0.07138333 -0.059571594 0.0055710524 -0.10088748 -0.062437654 -0.09727797 0.1217325
0.114382 -0.055369526 0.06914474 0.0108086765 -0.0144914985 -0.080738455 0.082504585 -0.09187527
-0.0867099 0.09462236 -0.02332522 -0.119246215 -0.09055257 -0.10285269 0.012271881 -0.039090738
0.06777637 0.10380328 0.081186235 0.10563716 0.11192101 -0.048966303 -0.10534045 0.054710627
0.103725314 0.10566929 0.066893026 -0.005064875 0.00050128996 -0.03578651 -0.06607357 0.123378396
-0.106830925 0.02689913 0.0683337 -0.08058788 0.10514484 0.054688677 -0.05043699 -0.03826134
-0.08403051 -0.11995296 0.1065184 -0.11940564 -0.07289325 0.031837106 -0.009127095 0.01691334
0.051499397 0.009338453 0.11078811 0.093634844 0.06362441 0.112616435 -0.10516977 0.09042749
0.08604905 0.049524426 -0.105379775 0.02677688 -0.06887226 0.095322564 0.11512843 -0.08146566
-0.039035082 0.014298573 0.08101909 0.06749731 0.10411313 0.12435357 0.07732676 0.022727013
00000000: a884 af3c 70f2 f03d b820 a33c 38ee d63c
00000010: 06a4 d1bd d04e 01bc 9055 b3bd 1237 ad3d
00000020: de41 fdbd 50f5 203d 6821 a1bd fae1 d1bd
00000030: 40c1 39bc 0c57 5dbd 24ef ca3d 76e2 893d
00000040: 4e21 9dbd 1058 b83c 3811 9ebd c85d f2bd
00000050: a0a2 c1bb 50f9 93bd 4c87 543d 8c68 ffbd
00000060: 1c0e 263d b009 5f3d 04c7 0a3d 601a e7bb
00000070: 680c 8c3d f0c3 a73d b0a2 1d3c e48d 223d
00000080: 60d7 ee3d d4a8 4c3d e0da babd ac5c a3bd
00000090: 580c 33bd 6c6a 8b3d 8449 88bd 4c6c ecbd
000000a0: 5a6a f1bd d892 00bd 90bb 56bd 94dc 713d
000000b0: 06a1 d8bd 009f ca3d b04e 013c ba9d b2bd
000000c0: 48e4 64bd 44ee c7bd a8e7 c33d 740b 64bd
000000d0: 28f6 83bd 6a5b 98bd 6c1e 23bd ec96 90bd
000000e0: c0a0 07bd 204d 7bbc 76b1 873d 9679 acbd
000000f0: f097 cc3c 6439 7dbd f0b1 923c 72f6 b93d
00000100: 00e3 c4ba 16b5 cdbd 686b 44bd 063d a1bd
00000110: 6041 623d b0f9 1e3d b8f5 bf3d 4892 69bd
00000120: ec35 0fbd 36db 8cbd 4ca6 02bd ac07 723d
00000130: 103e c2bd 8c2e 4cbd c0f0 d13c aa37 e4bd
00000140: 0027 143b 1073 72bc c08e f73c 2ef7 dd3d
00000150: 5800 78bd c4c9 63bd 90e5 28bc f0d5 513c
00000160: c0d6 bc3c ae7c 853d 50db 533c 841b 44bd
00000170: e899 da3c 9a39 92bd 3821 e4bd 2063 85bd
00000180: 6852 c7bc 88fa 5d3d 5403 afbd 088b 23bd
00000190: fa82 d1bd 386f c7bc c8d7 9fbd a4c3 1ebd
000001a0: a8df a93c e07e 1ebd e638 f43d dc64 ebbd
000001b0: 1c19 22bd f04a d53d 460d eebd 80d0 093d
000001c0: 4009 a9bd c658 e8bd 802b e9ba 0017 6cbb
000001d0: 4846 493d f82a fa3d d069 23bc d4a7 c73d
000001e0: 2061 e53c b0d9 02bc f8c0 053d bce5 c4bd
000001f0: 5691 acbd 62f7 9cbd 20a4 2e3d 0018 ceb8
00000200: 1c76 62bd 185b 89bd fab6 d6bd ccc4 553d
00000210: 58c9 07bd da40 e33d 2a9e 80bd 6060 febd
00000220: c850 c43c 30ef 1e3c 8439 9dbd 6abf dd3d
00000230: 6ae4 84bd 00ff bc3c 5cfe 763d 0c24 1cbd
00000240: 8024 50bc 58cf c63c e44e c9bd 549c 073d
00000250: b8b2 a83c 8ca5 683d 2083 91bb d85b b5bc
00000260: 4467 cd3d 48c4 603d 00c9 993b 60e0 dc3d
00000270: 1cc2 90bd 3089 bcbd e053 4c3c a099 d8bc
00000280: 146c 9c3d b610 bebd e067 eebb 384e f5bd
00000290: b49e 563d e8b8 e13d f4a3 30bd a65a e93d
000002a0: 688e f03c 005d c83d 7e4e f7bd 42a2 853d
000002b0: 9c9b 7abd 2c94 9c3d 3c33 b8bd 4051 593b
000002c0: b480 f93d 6c31 92bd 5801 74bd 608d b63b
000002d0: 189e cebd a0be 7fbd ac39 c7bd e44e f93d
000002e0: 1c41 ea3d 28cb 62bd c29b 8d3d e016 313c
000002f0: c06d 6dbc 345a a5bd 2af8 a83d 1a29 bcbd
00000300: f694 b1bd 5ec9 c13d 8814 bfbc 5c37 f4bd
00000310: a073 b9bd 6ea4 d2bd 0010 493c 9c1d 20bd
00000320: 56ce 8a3d d096 d43d f844 a63d 4c58 d83d
00000330: d836 e53d e490 48bd bcbc d7bd 4018 603d
00000340: f06d d43d 2469 d83d 36ff 883d 40f7 a5bb
00000350: 0069 033a e094 12bd 9451 87bd d0ad fc3d
00000360: 2cca dabd 905b dc3c 8af2 8b3d 420b a5bd
00000370: 2e56 d73d 3c01 603d 0497 4ebd ecb7 1cbd
00000380: 3018 acbd e6a9 f5bd 5226 da3d f28a f4bd
00000390: 0e49 95bd a067 023d d089 15bc d88d 8a3c
000003a0: 08f1 523d 5000 193c e0e4 e23d a0c3 bf3d
000003b0: 844d 823d 72a3 e63d 4063 d7bd 0c32 b93d
000003c0: 7c3a b03d 20da 4a3d 5ad1 d7bd 305b db3c
000003d0: e60c 8dbd 7a38 c33d 74c8 eb3d 78d7 a6bd
000003e0: 40e3 1fbd 9044 6a3c 56ed a53d 083c 8a3d
000003f0: 4439 d53d 16ad fe3d 7e5d 9e3d 002e ba3c

encoder_block1.attention.w_concat.bias f4 [64]
0.060544685 0.091143414 0.014450386 -0.0053683072 -0.044926867 0.00867185 0.016404912 0.08373472
-0.021697327 -0.051666632 -0.04305467 0.0064252615 0.11622578 0.014456034 0.0182845 0.10092637
0.11599536 -0.03152336 -0.108643875 -0.071746096 0.0012189299 0.112390086 -0.06698111 -0.031539977
0.103526995 0.073990256 0.07440126 0.0569731 -0.04204364 -0.12102407 -0.033655316 0.022210896
0.11679837 0.11118922 0.081389025 0.0033594668 0.07976991 0.048109785 0.12361857 0.12292859
0.024975047 -0.03146471 0.11322035 0.026337564 -0.0030480921 -0.10507439 0.09546718 0.06934112
-0.06997226 -0.12011972 0.05247858 -0.03692819 -0.055934757 0.0060524344 -0.087051615 0.06175053
0.029821351 0.029870063 -0.06961869 -0.025687203 -0.024901062 -0.052327886 0.082289085 -0.113260955
00000000: b4fd 773d 66a9 ba3d 50c1 6c3c a0e8 afbb
00000010: 3c05 38bd 6014 0e3c 9863 863c 1c7d ab3d
00000020: 98be b1bc 64a0 53bd 185a 30bd 008b d23b
00000030: c807 ee3d 00d9 6c3c 60c9 953c 7cb2 ce3d
00000040: fa8e ed3d a41e 01bd ae80 debd 9eef 92bd
00000050: 80c4 9f3a c62c e63d 642d 89bd 1030 01bd
00000060: f605 d43d 3488 973d b05f 983d a05c 693d
00000070: f435 2cbd 78db f7bd 28da 09bd a0f3 b53c
00000080: fc33 ef3d 2cb7 e33d 4aaf a63d 802a 5c3b
00000090: 685e a33d c40e 453d bc2b fd3d fcc1 fb3d
000000a0: 7898 cc3c 24e1 00bd 12e0 e73d e0c1 d73c
000000b0: 80c2 47bb 3e31 d7bd 4c84 c33d b802 8e3d
000000c0: 9e4d 8fbd 5401 f6bd c8f3 563d 0442 17bd
000000d0: d81b 65bd 8053 c63b 1e48 b2bd 20ee 7c3d
000000e0: e84b f43c 10b2 f43c 3e94 8ebd f86d d2bc
000000f0: 50fd cbbc c455 56bd 2e87 a83d 5cf5 e7bd

encoder_block1.norm1.weight f4 [64]
1.0 1.0 1.0 1.0 1.0 1.0 1.0 1.0
1.0 1.0 1.0 1.0 1.0 1.0 1.0 1.0
1.0 1.0 1.0 1.0 1.0 1.0 1.0 1.0
1.0 1.0 1.0 1.0 1.0 1.0 1.0 1.0
1.0 1.0 1.0 1.0 1.0 1.0 1.0 1.0
1.0 1.0 1.0 1.0 1.0 1.0 1.0 1.0
1.0 1.0 1.0 1.0 1.0 1.0 1.0 1.0
1.0 1.0 1.0 1.0 1.0 1.0 1.0 1.0
00000000: 0000 803f 0000 803f 0000 803f 0000 803f
00000010: 0000 803f 0000 803f 0000 803f 0000 803f
00000020: 0000 803f 0000 803f 0000 803f 0000 803f
00000030: 0000 803f 0000 803f 0000 803f 0000 803f
00000040: 0000 803f 0000 803f 0000 803f 0000 803f
00000050: 0000 803f 0000 803f 0000 803f 0000 803f
00000060: 0000 803f 0000 803f 0000 803f 0000 803f
00000070: 0000 803f 0000 803f 0000 803f 0000 803f
00000080: 0000 803f 0000 803f 0000 803f 0000 803f
00000090: 0000 803f 0000 803f 0000 803f 0000 803f
000000a0: 0000 803f 0000 803f 0000 803f 0000 803f
000000b0: 0000 803f 0000 803f 0000 803f 0000 803f
000000c0: 0000 803f 0000 803f 0000 803f 0000 803f
000000d0: 0000 803f 0000 803f 0000 803f 0000 803f
000000e0: 0000 803f 0000 803f 0000 803f 0000 803f
000000f0: 0000 803f 0000 803f 0000 803f 0000 803f

encoder_block1.norm1.bias f4 [64]
0.0 0.0 0.0 0.0 0.0 0.0 0.0 0.0
0.0 0.0 0.0 0.0 0.0 0.0 0.0 0.0
0.0 0.0 0.0 0.0 0.0 0.0 0.0 0.0
0.0 0.0 0.0 0.0 0.0 0.0 0.0 0.0
0.0 0.0 0.0 0.0 0.0 0.0 0.0 0.0
0.0 0.0 0.0 0.0 0.0 0.0 0.0 0.0
0.0 0.0 0.0 0.0 0.0 0.0 0.0 0.0
0.0 0.0 0.0 0.0 0.0 0.0 0.0 0.0
00000000: 0000 0000 0000 0000 0000 0000 0000 0000
00000010: 0000 0000 0000 0000 0000 0000 0000 0000
00000020: 0000 0000 0000 0000 0000 0000 0000 0000
00000030: 0000 0000 0000 0000 0000 0000 0000 0000
00000040: 0000 0000 0000 0000 0000 0000 0000 0000
00000050: 0000 0000 0000 0000 0000 0000 0000 0000
00000060: 0000 0000 0000 0000 0000 0000 0000 0000
00000070: 0000 0000 0000 0000 0000 0000 0000 0000
00000080: 0000 0000 0000 0000 0000 0000 0000 0000
00000090: 0000 0000 0000 0000 0000 0000 0000 0000
000000a0: 0000 0000 0000 0000 0000 0000 0000 0000
000000b0: 0000 0000 0000 0000 0000 0000 0000 0000
000000c0: 0000 0000 0000 0000 0000 0000 0000 0000
000000d0: 0000 0000 0000 0000 0000 0000 0000 0000
000000e0: 0000 0000 0000 0000 0000 0000 0000 0000
000000f0: 0000 0000 0000 0000 0000 0000 0000 0000

encoder_block1.trans_sample.0.weight f4 [32, 64]
0.0477107 -0.10024917 -0.09727594 -0.033446535 -0.0070492625 0.041624993 0.0059581846 0.12203781
-0.113699675 0.025502205 0.11561903 -0.0063720047 0.0026211143 0.090171814 -0.03616929 0.071721
0.07404117 -0.009877533 -0.058911726 -0.061264098 0.024196982 -0.10949235 -0.051715925 0.08675678
0.06831576 -0.11941379 -0.086278826 0.11254537 0.09042461 -0.10993573 0.11225335 -0.09209728
0.059315637 0.047551423 -0.034507632 0.10895477 -0.09056148 -0.05171822 -0.11644134 -0.032464862
0.07124524 0.09687415 0.078581154 0.0511557 -0.011907205 -0.03818749 0.10638362 0.009500101
0.043690026 0.007862523 -0.007465139 -0.103336334 -0.043512717 -0.028409168 -0.04478419 -0.10712622
-0.118345186 0.109659225 -0.08324021 0.039305776 -0.04278469 0.05428219 -0.1060933 -0.0047421455
0.043864384 0.09656595 -0.04952638 0.011155099 0.002614066 0.11606231 0.07266894 0.10189158
-0.09416129 0.08638333 0.065757975 0.08895488 -0.07902214 -0.069069326 0.01150462 -0.06747116
-0.006706834 0.035000816 0.013746828 -0.12116961 0.039002076 0.0879806 0.095188975 -0.051969737
0.051518112 -0.03379245 0.0033177733 0.08883706 0.09538488 0.03224212 0.118809596 0.034792393
-0.056720927 -0.09025951 -0.09435807 -0.12337431 0.023386016 0.044852167 -0.035015255 -0.04191041
-0.031776845 -0.10485844 -0.0029717088 -0.0003066212 0.08104491 -0.110749006 0.09513444 0.10394685
-0.005375594 -0.02631031 0.11411962 0.10295875 0.07083474 0.11381161 -0.117823586 0.02203758
-0.031938866 -0.111475796 -0.08117397 0.11478555 -0.017088756 0.09709984 0.1157787 -0.005005315
-0.053298414 0.024767682 0.04589568 0.076700345 0.06739105 -0.033361927 0.010842547 -0.10362992
-0.014091462 0.029447705 -0.028916001 0.017101735 -0.042586073 0.11093843 0.08708249 0.090840906
-0.033124983 -0.067552686 -0.0054611266 -0.06604186 0.043899357 -0.11607839 -0.029698566 0.055296734
0.11959043 0.056436017 0.09092377 -0.103823796 0.024289966 -0.06517455 0.047671184 -0.07220176
-0.03439161 -0.070143566 0.07128483 0.049224854 -0.08385457 -0.08684805 -0.012165353 -0.030117735
-0.082135126 0.04154551 -0.01784052 -0.06632225 0.07237923 -0.07986727 0.018385723 -0.10808548
-0.045673475 0.021655202 0.077252045 -0.11830635 -0.047339097 -0.11874446 0.11780773 -0.09617825
-0.020695135 -0.045909464 0.063267514 -0.07429823 -0.048159584 0.0624229 0.11174655 -0.08161412
0.118444726 0.032470405 -0.08598201 -0.07695767 0.09453334 0.058925793 0.118253306 -0.09052676
0.0069094896 -0.096871346 0.11755946 0.025003448 0.051874757 -0.03636986 -0.059553176 0.024358734
-0.078176096 0.020421237 0.11741282 -0.08759114 -0.059070036 0.101531595 0.07951872 0.038645178
-0.121960595 0.054124743 0.100062355 -0.11486095 -0.09996915 -0.11083743 0.0061552525 0.03738071
-0.07243547 0.015222594 -0.1018946 -0.05690375 -0.1055616 -0.11812128 -0.10539417 0.103002116
0.044780567 0.108127296 -0.038531557 -0.049419805 -0.08814925 0.10388012 0.04068373 0.033722103
0.08921556 -0.04980457 -0.12183602 -0.010747924 -0.107260376 0.018867284 0.087702304 -0.061041713
-0.101445615 -0.034708112 0.100716665 0.051550865 0.010107487 -0.1026483 0.049447104 0.075801745
00000000: 4c6c 433d 704f cdbd 9c38 c7bd 3cff 08bd
00000010: 80fd e6bb f87e 2a3d e03c c33b f6ee f93d
00000020: 60db e8bd 00ea d03c acc9 ec3d 40cc d0bb
00000030: 00c7 2b3b 00ac b83d 4026 14bd 76e2 923d
00000040: e6a2 973d 60d5 21bc 6c4d 71bd 10f0 7abd
00000050: c038 c63c 863d e0bd 14d4 53bd 8aad b13d
00000060: 22e9 8b3d 388f f4bd f4b2 b0bd 307e e63d
00000070: 8a30 b93d fc25 e1bd 16e5 e53d 809d bcbd
00000080: f4f4 723d 48c5 423d e057 0dbd ae23 df3d
00000090: 4c78 b9bd 7cd6 53bd cc78 eebd e0f9 04bd
000000a0: 06e9 913d f465 c63d 28ef a03d a488 513d
000000b0: 7016 43bc 7c6a 1cbd a8df d93d 50a6 1b3c
000000c0: 50f4 323d d0d1 003c 209e f4bb 00a2 d3bd
000000d0: 643a 32bd 58ba e8bc a06f 37bd fe64 dbbd
000000e0: f65e f2bd 0495 e03d d879 aabd 18ff 203d
000000f0: 003f 2fbd 0057 5e3d 7247 d9bd 0064 9bbb
00000100: 24ab 333d 5ec4 c53d 2cdc 4abd e0c3 363c
00000110: c050 2b3b 14b2 ed3d 74d3 943d 88ac d03d
00000120: a2d7 c0bd bee9 b03d 1eac 863d fa2d b63d
00000130: 5cd6 a1bd 3874 8dbd e07d 3c3c 522e 8abd
00000140: 00c5 dbbb 045d 0f3d 603a 613c c627 f8bd
00000150: a4c0 1f3d 2c2f b43d 70f2 c23d 38de 54bd
00000160: a804 533d f469 0abd 006f 593b 34f0 b53d
00000170: 2659 c33d 5010 043d 7252 f33d 7882 0e3d
00000180: 3454 68bd fad9 b8bd ce3e c1bd acab fcbd
00000190: 0894 bf3c e8b6 373d 286c 0fbd 40aa 2bbd
000001a0: 7028 02bd 06c0 d6bd 00c1 42bb 00c2 a0b9
000001b0: e0fa a53d 60d0 e2bd d8d5 c23d 16e2 d43d
000001c0: c025 b0bb b888 d7bc 8cb7 e93d 0adc d23d
000001d0: ce11 913d 1016 e93d 7e4d f1bd 2888 b43c
000001e0: 54d2 02bd 6c4d e4bd 8a3e a6bd b014 eb3d
000001f0: b8fd 8bbc 48dc c63d 621d ed3d a003 a4bb
00000200: 704f 5abd 98e5 ca3c 1cfd 3b3d 1215 9d3d
00000210: 5204 8a3d 84a6 08bd f0a4 313c ec3b d4bd
00000220: e0df 66bc 503c f13c 40e1 ecbc f018 8c3c
00000230: bc6e 2ebd b033 e33d 4e58 b23d cc0a ba3d
00000240: 10ae 07bd 1059 8abd 40f3 b2bb f440 87bd
00000250: d0cf 333d 82ba edbd 684a f3bc d47e 623d
00000260: d4eb f43d 7429 673d 3e36 ba3d 92a1 d4bd
00000270: c0fb c63c 3c7a 85bd dc42 433d 84de 93bd
00000280: 38de 0cbd 6ea7 8fbd c8fd 913d 00a0 493d
00000290: f2bb abbd 64dd b1bd 3051 47bc 78b9 f6bc
000002a0: 7636 a8bd a02b 2a3d 4826 92bc f6d3 87bd
000002b0: 903b 943d 7491 a3bd a89d 963c ec5b ddbd
000002c0: 1c14 3bbd 4066 b13c 5236 9e3d 9a4a f2bd
000002d0: a4e6 41bd 4c30 f3bd 2e45 f13d 1af9 c4bd
000002e0: d888 a9bc 900b 3cbd 6692 813d ac29 98bd
000002f0: fc42 45bd 28af 7f3d 60db e43d 4e25 a7bd
00000300: 2693 f23d b0ff 043d 5617 b0bd fc9b 9dbd
00000310: b29a c13d 2c5c 713d ca2e f23d 1866 b9bd
00000320: 0069 e23b 7c64 c6bd 04c3 f03d 08d4 cc3c
00000330: a07a 543d 90f8 14bd 08ee 73bd f88b c73c
00000340: ca1a a0bd 704a a73c 2276 f03d fc62 b3bd
00000350: 6cf3 71bd ccef cf3d b6da a23d 684a 1e3d
00000360: 7ac6 f9bd e8b1 5d3d 7eed cc3d 383c ebbd
00000370: a0bc ccbd bcfe e2bd 00b2 c93b 841c 193d
00000380: 0c59 94bd 3068 793c 1eae d0bd e813 69bd
00000390: ae30 d8bd 92e9 f1bd e6d8 d7bd c6f2 d23d
000003a0: d46b 373d d871 dd3d 44d3 1dbd 6c6c 4abd
000003b0: 9887 b4bd 1abf d43d fca3 263d 3020 0a3d
000003c0: a6b6 b63d e0ff 4bbd 2a85 f9bd 1018 30bc
000003d0: 54ab dbbd 908f 9a3c 449d b33d e006 7abd
000003e0: b8c2 cfbd 182a 0ebd 8a44 ce3d 0027 533d
000003f0: e099 253c 4639 d2bd 0c89 4a3d f23d 9b3d

encoder_block1.trans_sample.0.bias f4 [32]
-0.10632938 -0.09241332 0.025837198 0.10320379 0.0029210895 -0.046214208 0.049852803 -0.08789028
0.11312933 0.0793556 -0.11985323 -0.07583727 0.0003029406 0.020444512 0.075583115 0.04669796
0.07894768 0.06170796 -0.040423796 0.09128113 -0.09949161 -0.032094434 -0.10132454 -0.029379994
-0.03406377 -0.08583899 -0.085514456 -0.051248267 -0.0493571 0.069382325 -0.06877752 0.07184769
00000000: 38c3 d9bd 3243 bdbd 88a8 d33c 825c d33d
00000010: c06f 3f3b 1c4b 3dbd 7432 4c3d d2ff b3bd
00000020: 5ab0 e73d 3085 a23d 9c75 f5bd 9250 9bbd
00000030: 00d4 9e39 407b a73c 52cb 9a3d 5c46 3f3d
00000040: 52af a13d 7cc1 7c3d 6c93 25bd 9af1 ba3d
00000050: 42c2 cbbd 7475 03bd 3e83 cfbd 50ae f0bc
00000060: 7486 0bbd 5acc afbd 3422 afbd b4e9 51bd
00000070: ac2a 4abd 5218 8e3d 3adb 8cbd e224 933d

encoder_block1.norm2.weight f4 [32]
1.0 1.0 1.0 1.0 1.0 1.0 1.0 1.0
1.0 1.0 1.0 1.0 1.0 1.0 1.0 1.0
1.0 1.0 1.0 1.0 1.0 1.0 1.0 1.0
1.0 1.0 1.0 1.0 1.0 1.0 1.0 1.0
00000000: 0000 803f 0000 803f 0000 803f 0000 803f
00000010: 0000 803f 0000 803f 0000 803f 0000 803f
00000020: 0000 803f 0000 803f 0000 803f 0000 803f
00000030: 0000 803f 0000 803f 0000 803f 0000 803f
00000040: 0000 803f 0000 803f 0000 803f 0000 803f
00000050: 0000 803f 0000 803f 0000 803f 0000 803f
00000060: 0000 803f 0000 803f 0000 803f 0000 803f
00000070: 0000 803f 0000 803f 0000 803f 0000 803f

encoder_block1.norm2.bias f4 [32]
0.0 0.0 0.0 0.0 0.0 0.0 0.0 0.0
0.0 0.0 0.0 0.0 0.0 0.0 0.0 0.0
0.0 0.0 0.0 0.0 0.0 0.0 0.0 0.0
0.0 0.0 0.0 0.0 0.0 0.0 0.0 0.0
00000000: 0000 0000 0000 0000 0000 0000 0000 0000
00000010: 0000 0000 0000 0000 0000 0000 0000 0000
00000020: 0000 0000 0000 0000 0000 0000 0000 0000
00000030: 0000 0000 0000 0000 0000 0000 0000 0000
00000040: 0000 0000 0000 0000 0000 0000 0000 0000
00000050: 0000 0000 0000 0000 0000 0000 0000 0000
00000060: 0000 0000 0000 0000 0000 0000 0000 0000
00000070: 0000 0000 0000 0000 0000 0000 0000 0000
