models/error_encoder_all_state_dict.pth (torch, 279959 bytes, 125 tensors)

embedder.dim_up.weight f4 [64, 8]
000000 56 89 dc bd 50 d1 39 3e a4 a8 a6 3e 9e 53 83 3e
       -0.10768382 0.18146253 0.32550538 0.25649732
000010 86 c1 3b 3e b3 cd 8f bc a4 f4 05 3d 55 56 9e 3e
       0.18335542 -0.01755414 0.03270401 0.3092524
000020 1b ee b7 be f4 29 1b be 6c 1b a8 3e 4f e9 99 be
       -0.35923848 -0.15152723 0.3283342 -0.30060813
000030 b4 9f a2 be 3d 99 2b be e5 b6 81 be ea 7e 55 be
       -0.3176247 -0.16757675 -0.2533485 -0.20849195
000040 f0 ba bf 3d 72 ad 48 3e 47 0f a9 be 9e 25 44 3d
       0.093618274 0.19597414 -0.33019468 0.047887437
000050 f8 a1 9a 3e 1f d8 8c 3e 3f b8 90 3e 49 c2 90 3e
       0.30201697 0.27508637 0.2826557 0.28273228
000060 69 52 17 3e 59 26 e8 bd e7 1b e0 bc 6d b3 81 3e
       0.1477753 -0.11335439 -0.027357055 0.25332204
000070 3c 5f fd 3d 5c e5 67 3d ab 9b fe 3d 37 b1 6c 3d
       0.1237168 0.05661522 0.12432035 0.057786193
000080 24 f1 d8 3b 0c c6 d4 be b2 9c 9c 3e 03 72 5b be
       0.006620543 -0.41557348 0.305883 -0.21430211
000090 b6 d9 b6 be 7a bb ac be 9c 0c 89 bd ee 60 17 bd
       -0.35712975 -0.33736783 -0.06691858 -0.036957674
0000a0 81 05 73 3e 3d e0 a1 bd f5 44 3a bf c3 92 71 3e
       0.23732568 -0.07904098 -0.7276147 0.23591141
0000b0 ca ac a3 3e ae 97 67 be bc 53 f7 be 40 3d 7e be
       0.31967765 -0.22616455 -0.48306072 -0.24828053
0000c0 80 87 5d be 74 d1 9f be a3 56 52 3e 41 5e 80 be
       -0.2163372 -0.31214488 0.20540862 -0.2507191
0000d0 4f a0 86 be ee 80 d2 be fa 75 41 be a6 33 8e 3e
       -0.2629418 -0.4111399 -0.1889266 0.2777378
0000e0 b6 e8 35 be 19 00 56 3e 70 7d 21 be 2b 54 3d bf
       -0.17764553 0.20898475 -0.15770507 -0.73956555
0000f0 bf 53 7b bc 12 bb be 3d b5 9c 3d be 61 89 0c bf
       -0.015339791 0.093130246 -0.1851681 -0.54897124
000100 e1 56 23 3d 0d af a6 3d 0d 62 0b 3d bd db b2 3e
       0.039877776 0.08138857 0.034029055 0.34933272
000110 2d e8 bf be d5 d9 0b bd 75 28 57 be f9 b9 01 3f
       -0.37481824 -0.034143288 -0.21011527 0.50674397
000120 f2 fc b8 3d a4 a5 b7 bd 2a 7b f7 3d e7 a3 c1 be
       0.090326205 -0.0896714 0.120840386 -0.3782036
000130 0f 33 ca bd c9 64 3b 3e b7 ac f9 3d fd 81 15 3e
       -0.0987302 0.18300165 0.12191146 0.14600368
000140 39 d8 bb be 31 fe 3b bd f3 8c d0 be 39 13 d4 3e
       -0.36688402 -0.045896713 -0.40732536 0.41420916
000150 c1 ac a9 be ce 7f 80 bd f5 17 0e be 4e 64 70 3e
       -0.33139613 -0.06274377 -0.13876326 0.23475763
000160 35 8c c0 3e fb 91 96 bd bb 4e 4e be e4 68 bf bc
       0.3760697 -0.07352062 -0.20147221 -0.023365445
000170 82 97 f6 bd 87 59 a9 3d b0 4f dd 3e 5d 7b 05 bf
       -0.120406166 0.08269029 0.4322486 -0.5214136
000180 64 da 86 bd 86 38 bd be 51 80 0a bf 53 f5 18 be
       -0.065846235 -0.36957186 -0.54102045 -0.14937334
000190 81 51 46 bd 4b 78 c2 3d 21 9a df be 91 08 ca bd
       -0.048417572 0.094956 -0.4367228 -0.09864915
0001a0 20 6b 73 3e 81 44 93 3d 52 5c 36 be cc 7d 3f be
       0.23771334 0.071908005 -0.17808655 -0.18700331
0001b0 a6 6c 97 be 3c ab bd be d2 0a 57 be ce 71 62 be
       -0.2957508 -0.37044704 -0.21000221 -0.22113726
0001c0 8b 26 28 be 4f 30 50 3e c8 eb 12 bf 8d d0 8a be
       -0.16420953 0.20330928 -0.57391024 -0.27112237
0001d0 0f 18 0d be c3 28 a3 be e1 ea f8 3d a7 8f a0 3c
       -0.13778709 -0.31867036 0.121541746 0.019599749
0001e0 0f 45 97 3d 73 c5 f1 be ea a7 f5 3d 54 c5 86 3e
       0.07386219 -0.47220954 0.11994918 0.26322424
0001f0 9b b5 e0 bd bd 2a e1 3d 1e 80 38 3e 84 1a 3d 3f
       -0.109721385 0.1099448 0.18017623 0.73868585
000200 91 48 db be fb f8 0d 3e 13 d7 f7 3d 98 ce ab 3e
       -0.428288 0.1386451 0.12101569 0.33556056
000210 b4 32 1c bd ec ff 86 3d ff 2b fc bd eb a3 79 3e
       -0.03813429 0.06591782 -0.12313079 0.24378936
000220 ce b5 de be 54 34 09 bf 42 70 9a 3e ae 3c c8 be
       -0.4349808 -0.5359547 0.3016377 -0.39108795
000230 ea 7f 5f 3d bb ce 82 3e c4 24 c7 3e a5 17 e8 be
       0.054565348 0.25548348 0.38895237 -0.4533054
000240 3a 07 f3 bd a9 c4 ba be d6 cc 8a be e6 1f 95 be
       -0.11866613 -0.36478165 -0.27109402 -0.291259
000250 e9 da 69 3e 25 ff 97 be 71 b4 ae 3e e5 b3 e9 be
       0.22837414 -0.29686847 0.3412204 -0.4564506
000260 13 c3 33 3e 77 59 01 be 13 9b 8b 3e e0 4c 9e be
       0.17554884 -0.12631784 0.2726675 -0.30918026
000270 75 28 79 3e 9f 9a 88 be 26 f4 54 3e a8 7c bf be
       0.2433184 -0.26680467 0.2079626 -0.37399793
000280 df 99 6b 3e 7d 00 28 bd 1e 49 b1 be e8 f5 d3 3d
       0.23007916 -0.04101609 -0.34626096 0.10349637
000290 18 17 82 bd 64 2d a0 be f2 f2 e9 be 8e 91 a5 3e
       -0.06352061 -0.3128463 -0.45693165 0.32337612
0002a0 ef 68 1d be 8b 2e 29 be af 03 b8 bc 95 a9 f0 3e
       -0.1537206 -0.16521661 -0.022462694 0.4700438
0002b0 a2 a2 16 be db 72 c7 bd a4 41 22 3e 96 91 13 3e
       -0.14710477 -0.09738704 0.15845352 0.14411005
0002c0 56 98 2f 3e 13 6a 9b be dd 61 89 be f1 78 98 be
       0.17147955 -0.30354366 -0.26832476 -0.2977977
0002d0 f9 84 2e be 75 18 8e be 51 db cd be c2 14 59 be
       -0.17042913 -0.27753034 -0.40206388 -0.21199325
0002e0 bd a6 03 3e 03 f0 14 3d 33 92 ee 3d 3a c7 50 3f
       0.12856574 0.036361706 0.11648979 0.81553996
0002f0 6b bd 5f 3d 89 73 81 bd 90 71 2a 3e f7 7c b1 bd
       0.054624002 -0.06320865 0.16644883 -0.08666413
000300 23 a4 0a 3c 9f 51 db 3d 3a 64 de 3b e7 72 b4 3e
       0.008461985 0.10708927 0.0067868503 0.35243914
000310 97 7d 73 be f4 9b 46 3e 83 48 d3 3e d8 43 7c bc
       -0.23778377 0.19395429 0.4126626 -0.015397035
000320 40 c7 80 be 8d bb b7 be 2d 9f b0 3e 21 61 8e be
       -0.25152016 -0.35885277 0.3449644 -0.27808478
000330 2c 67 9b be 13 4d 8e 3e ee d8 9e be 86 e7 79 3e
       -0.3035215 0.27793178 -0.3102488 0.24404725
000340 2c 8b 12 3e dc 76 fb 3b 54 a6 51 be 50 1e 4c bb
       0.14310902 0.0076740813 -0.20473605 -0.0031145997
000350 61 b1 5c 3d 80 1b 96 3d 7e 77 8c be 36 57 b0 3e
       0.0538801 0.07329464 -0.27434915 0.34441537
000360 81 fd be be bb 7c e2 be 92 3b 2e bc c8 ea 47 3e
       -0.37302783 -0.44235787 -0.01063432 0.19523156
000370 5b 1e 74 bc 7b 2f 20 3e f7 42 68 3d 8b 86 0f 3e
       -0.014899815 0.15643112 0.056704488 0.14016168
000380 6f 75 48 be 04 60 1c 3d 83 e7 d8 bd dd d9 4b be
       -0.19576047 0.038177505 -0.10591032 -0.19907327
000390 1f 00 57 3e 68 41 2a bd 2f fd 46 bc 10 9e 6b bd
       0.2099614 -0.041566283 -0.012145325 -0.057523787
0003a0 f7 57 a3 3e 9f a7 d9 be e7 94 ab be a6 af 86 3e
       0.3190305 -0.42510697 -0.3351204 0.26305884
0003b0 ba 0f e4 be 4b dc bb be 3d ac c6 3e 42 22 da be
       -0.44543248 -0.36691508 0.38803282 -0.42604262
0003c0 50 8f a4 bc 6e 86 d1 be e6 c8 d7 be 4e 78 c2 be
       -0.020087868 -0.40922874 -0.4214546 -0.3798241
0003d0 86 66 d7 be 43 ec ef be be 3d 69 3d c3 64 bf be
       -0.42070407 -0.4685994 0.056943648 -0.37381563
0003e0 cb 33 db be f9 af de bd 72 45 96 be 55 50 39 be
       -0.42812952 -0.10873408 -0.29349858 -0.1809705
0003f0 45 12 f2 3c ec 17 64 3e 7c 64 a3 be f7 fd ab 3e
       0.029549727 0.2227475 -0.319126 0.33592197

embedder.dim_up.bias f4 [64]
000000 ef e8 b9 3e d6 c6 48 3d 63 6f 57 3e 56 69 c0 3d
       0.36310527 0.04901775 0.21038584 0.09395091
000010 15 cf 84 3e 4d 30 00 be 09 2e 9b be 5f 6c 5c 3e
       0.2593924 -0.12518425 -0.3030856 0.21525715
000020 3b b1 86 3e f2 ef 7a 3e 41 c3 a2 be aa 6e 19 be
       0.2630709 0.24505594 -0.31789592 -0.14983621
000030 a7 d9 31 bd 41 9f 92 be 5e f6 82 be af 01 e2 bd
       -0.04342046 -0.28637126 -0.25578588 -0.11035477
000040 07 9a a0 3d 9c 42 85 bd 8c 2c fa 3d d2 91 a4 bd
       0.078418784 -0.06506845 0.12215528 -0.080356255
000050 67 c8 1d 3e e4 36 c8 bc e1 ac 85 3e f1 ba 94 be
       0.15408479 -0.024440236 0.2610846 -0.29048875
000060 ea 8e 9a 3e 1f e2 9e 3e 92 31 43 be 67 25 80 be
       0.3018716 0.31031892 -0.19061878 -0.25028536
000070 12 e1 52 3e d2 37 38 3d 85 ca 84 3d ef fd 12 be
       0.2059367 0.04497511 0.0648394 -0.1435468
000080 7d 00 c7 bd 2c a5 58 bd 74 bd f7 bd 74 d8 36 be
       -0.0971689 -0.052891895 -0.12096682 -0.17856008
000090 75 76 50 bd 4d 12 53 be 70 1d a4 3e 47 17 e9 3b
       -0.05089422 -0.2061245 0.3205371 0.0071133706
0000a0 01 89 73 3e 2f 07 80 be 11 ac c9 3d 25 bc 4c bd
       0.23782732 -0.2500548 0.09847272 -0.049984116
0000b0 2b e2 bc 3d 17 6d 0b 3e cb ca 8d be 65 25 63 be
       0.092228256 0.13615833 -0.2769378 -0.22182234
0000c0 b9 5d 23 3a 09 54 a7 bd eb 64 7c be 7a 2e 10 3e
       0.00062319223 -0.08170325 -0.24647872 0.1408023
0000d0 95 c2 36 3e 97 61 12 be af ec 7d be 3d dd fd 3d
       0.17847665 -0.1429504 -0.24797319 0.123957135
0000e0 0f 53 eb bc 01 78 54 be 74 b1 8a bd 80 ad dc bd
       -0.028726129 -0.20748903 -0.06772128 -0.1077528
0000f0 db 4c 83 be 7c ac 9e be 98 56 63 be e5 2b 70 3d
       -0.25644574 -0.3099097 -0.22201002 0.05863561

encoder_block1.attention.w_q.weight f4 [64, 64]
000000 18 a6 bf be 8e 9b 28 bd 8f fb 73 3d a3 98 41 be
       -0.37431407 -0.041163974 0.059566077 -0.18905883
000010 a8 9b aa bd 0a 20 84 3e 4a d3 13 be ac 75 29 bd
       -0.0833047 0.25805694 -0.14436069 -0.041371986
000020 b7 36 9f bd b7 38 55 be 9c 14 bc be 80 70 0a bd
       -0.07774108 -0.20822416 -0.36734474 -0.033798695
000030 cc 30 91 be 5c 17 10 be 7b c8 6f be fb 4f 4f be
       -0.28357542 -0.14071411 -0.23416321 -0.20245354
000040 41 d9 aa be 1e 4a b1 be 84 7e c8 be 91 8e 35 be
       -0.33368877 -0.3462686 -0.39159024 -0.17730166
000050 c3 20 88 be c6 45 b0 be 2d b0 87 be d8 26 23 be
       -0.26587495 -0.34428233 -0.265016 -0.15932786
000060 f1 31 36 be 0e 49 d7 be 94 45 6b 3e c7 bb ce be
       -0.17792489 -0.42047924 0.2297576 -0.40377638
000070 02 f3 a6 be 2c cd 66 be 73 ac 8d be a8 83 66 be
       -0.32607275 -0.22539204 -0.2767063 -0.2251116
000080 01 f7 07 be db d0 8e be aa e7 98 3e 72 ae 82 be
       -0.13277818 -0.2789372 0.29864246 -0.25523716
000090 8a 39 98 3d 0d 21 c6 be f4 c6 2b be 3e 6a a1 be
       0.0743285 -0.3869709 -0.16775113 -0.3152637
0000a0 e3 44 36 be c7 2b a8 be 8b 07 7d bc b0 1d 81 be
       -0.17799716 -0.328459 -0.015443693 -0.25217962
0000b0 52 10 b1 bd 54 8c 36 be a0 b1 60 3e 10 72 21 be
       -0.08645691 -0.17826968 0.21942759 -0.15766168
0000c0 9c 0d 01 be a7 d6 b6 be 06 68 a8 3d 79 9b 29 be
       -0.12602848 -0.35710642 0.08222966 -0.16563214
0000d0 38 aa cb bd 9f f5 16 be 38 9c 02 3c 5b c7 c1 be
       -0.09944576 -0.14742135 0.007971816 -0.3784741
0000e0 f1 f6 2f 3e 1f 4f a2 be 74 f4 df 3c 9d d3 94 be
       0.17184044 -0.3170099 0.027338244 -0.29067698
0000f0 11 6b 21 3d c7 06 d8 be de 87 5f 3e fa ed 8f be
       0.039408747 -0.4219267 0.21829173 -0.2811125
000100 dd 1f 71 be 57 00 cf bd 53 6b fc bc 4c 39 57 bd
       -0.23547311 -0.10107487 -0.030812895 -0.052544877
000110 1d b5 96 3d 60 d1 15 bc 48 be 54 bc 3c e5 a6 3d
       0.07358763 -0.009144157 -0.01298482 0.08149192
000120 cb 94 58 be a0 12 98 bd 46 d8 3b 3d fc 48 c8 3c
       -0.2115051 -0.074254274 0.04586055 0.024448864
000130 88 01 e6 bd 85 bd 3a be e0 65 5b 3d a4 16 d2 bc
       -0.11230761 -0.18236358 0.053563952 -0.025645562
000140 cc 05 cb 3d 26 4c ca bc 04 f2 0f 3e 80 33 00 be
       0.09913215 -0.024694514 0.14057165 -0.12519646
000150 0f 30 42 be 8b cb 66 3c 8b 5d 75 be 16 e7 6c be
       -0.18963645 0.014086614 -0.23961465 -0.23135027
000160 7e 97 3f 3d 4b 41 f1 bd e5 64 17 3c 1d d8 27 be
       0.046775334 -0.11780032 0.009240364 -0.16391034
000170 1a af 25 bd 3a 2c b7 3b 68 f4 f5 bd 29 46 83 3d
       -0.040450193 0.005589989 -0.120095074 0.06409866
000180 1f 4d 09 3e 28 c0 a2 bd 5a a9 ba bc 2d cb 91 bd
       0.13408326 -0.07946807 -0.022785831 -0.07118831
000190 8d 2c 75 be 4d a0 9b bd a2 0d 7e bd 7e 08 16 bd
       -0.23942776 -0.07598934 -0.06202472 -0.036629193
0001a0 2c 3b 85 3d 27 8a 81 bd 7f 1e 19 be 9d d1 65 bd
       0.06505427 -0.063251786 -0.1495304 -0.056108106
0001b0 2d b0 fc 3d 08 6f ad bd 1c d1 09 3e d9 72 4b be
       0.1233829 -0.08468443 0.13458675 -0.1986803
0001c0 af c3 bd 3d 16 e9 88 bd d2 da 19 3e 70 ab 84 3d
       0.09265839 -0.066850826 0.1502488 0.064780116
0001d0 92 86 fc 3b 95 0e 1a be 55 1f 6d b9 f2 97 f1 bd
       0.0077064717 -0.15044625 -0.00022613753 -0.117965594
0001e0 b9 6c 97 bd bb 5d e3 bd 3b 39 01 bd c5 81 9f bd
       -0.07393784 -0.11101862 -0.03154872 -0.077884234
0001f0 ff 5c 94 3d af a3 1b be 35 63 e6 3c d1 ee 3a be
       0.072443 -0.15199159 0.028123477 -0.18255164
000200 01 5f 76 3e 27 a9 3f 3d a3 44 1b bc 52 5f 63 bc
       0.24059679 0.046792176 -0.0094768135 -0.013877707
000210 c2 0a a1 39 11 64 02 be e4 f6 28 3e cd 80 8b be
       0.00030716328 -0.12733485 0.16500431 -0.27246705
000220 ff e2 20 3e 92 cc d4 3d fb fc 52 3e 63 f4 0b be
       0.15711592 0.10390581 0.20604317 -0.13667445
000230 ce 54 92 3d f6 1a 62 bd d5 e9 15 3e 5a 29 79 3e
       0.071450815 -0.055201493 0.14639981 0.2433218
000240 cb 99 4b 3e cf a5 95 bd 5e c3 98 3d 93 79 32 bd
       0.19882886 -0.07307016 0.07459138 -0.043572973
000250 34 f7 0c 3e ec 94 ee 3d 67 71 3a 3e ab d7 4c 3c
       0.13766176 0.11649498 0.18207322 0.012502591
000260 76 a2 2e 3d 3e 26 28 3e 84 29 cc 3d 2e bf 02 3e
       0.042635404 0.16420838 0.09968856 0.12768242
000270 52 7e b7 bc e7 72 00 bd 92 b0 26 bd aa e0 b0 3c
       -0.022399101 -0.03135958 -0.040695734 0.021591503
000280 05 f8 4f be c1 07 76 bd 67 92 8b bd 50 8c 27 3e
       -0.20309456 -0.06006599 -0.068150334 0.16362119
000290 51 10 f6 bd ee f3 9c 3b d7 0f fb 3d 4a 14 ab bd
       -0.12014831 0.004789821 0.122588806 -0.08353479
0002a0 5e b4 ce bd 50 3b 9c 3d f1 a4 65 3d b1 e6 ef 3d
       -0.10092996 0.076285005 0.056065504 0.11713923
0002b0 42 72 54 3e dc 95 eb bd 6b 4d 27 be 14 2d a7 bd
       0.20746711 -0.11503193 -0.16338126 -0.08162895
0002c0 03 48 86 3d 24 02 c5 3c 0c 97 02 3e d8 c0 0a be
       0.06556704 0.024048872 0.12752932 -0.13550127
0002d0 ec 72 91 3d 3e 52 1c bd a1 99 86 3d 91 0a c3 3b
       0.07101998 -0.03816437 0.06572271 0.0059521873
0002e0 68 48 ac bd 2a ea e7 3a 87 38 a8 3d a6 0a 14 3d
       -0.08412248 0.0017693688 0.08213907 0.036142968
0002f0 64 b0 4a 3a a4 e3 b3 3c 1f 5a a1 bd 11 14 81 3b
       0.0007731973 0.021959133 -0.07878517 0.0039391597
000300 02 dc 81 3d 08 98 3f bd d7 f9 81 3e e3 d0 58 3e
       0.06340791 -0.046775848 0.25385925 0.21173434
000310 ba d8 8a 3d 94 07 51 3e 11 d5 fd be fe 4b b3 3d
       0.067796186 0.20413047 -0.4957662 0.08754729
000320 c5 22 ed 3d 0a ef 10 3e 95 95 bd bd 0d 78 32 3e
       0.115788974 0.14153686 -0.09257046 0.17428608
000330 f7 af 0a 3c fd df 06 3e 5b eb 36 3e 81 46 6e 3c
       0.008464805 0.13171382 0.17863218 0.014543177
000340 95 dc c7 3d cd 25 96 3d 7f 06 57 3d 26 62 ca 3d
       0.097588696 0.07331429 0.05249643 0.098820016
000350 d3 88 0a 3e e8 79 79 3d 28 db f0 3d 5c 48 aa 3d
       0.13528757 0.060907274 0.11760551 0.08314583
000360 50 21 bd 3d 41 1b 6a 3c 9a 5b d5 bc d9 bf 38 3d
       0.092348695 0.014288724 -0.026044656 0.045104835
000370 44 fd ac 3d 8e 3d 7b 3e 82 46 51 bd d6 83 d6 3b
       0.08446744 0.245352 -0.051092632 0.006546478
000380 17 04 28 3e 4e 24 7b 3e 9f ad cc 3d 98 d8 23 3e
       0.1640781 0.24525568 0.09994053 0.16000593
000390 55 3d c9 bc 89 0a 6e 3d c3 29 42 3e 7a 53 8b 3e
       -0.024565378 0.058115516 0.18961243 0.27212125
0003a0 75 99 14 3e 6c c5 8f 3e 6f 8f ee bd 9e 63 42 3e
       0.14511664 0.28080308 -0.116484515 0.18983313
0003b0 37 ad ad bc f7 26 41 3e 86 d8 c2 bd db 6c bb 3d
       -0.02120076 0.1886252 -0.09513955 0.09151622
0003c0 ff 3c 3e be 78 e5 ce 3d ce c8 b7 bd 4b a3 4f 3e
       -0.18577956 0.101023614 -0.08973847 0.20277135
0003d0 11 f3 c7 3d 5e 5e 30 3e 96 98 8d be f2 c3 57 3e
       0.09763158 0.17223498 -0.27655476 0.21070841
0003e0 6e 47 5e 3c 3e d0 8c 3d 15 c8 08 be 68 e5 d3 3d
       0.013566835 0.068756565 -0.13357575 0.1034649
0003f0 53 3b 9d bd 3e fa 15 3e 07 17 b6 bd f9 0e e2 3d
       -0.07677331 0.14646241 -0.08891111 0.11038012

encoder_block1.attention.w_q.bias f4 [64]
000000 5f 0d 8b be ca 99 50 be 2a de 40 3d 2b e5 81 3e
       -0.2715864 -0.20371166 0.047086872 0.25370154
000010 6c 3a 33 be c4 34 64 3e c4 77 f0 3b ef f6 79 3d
       -0.17502755 0.22285753 0.007338496 0.06102651
000020 bf 6b 53 3d b9 ad 0a be ef 62 0a 3e fb 06 b1 bd
       0.051616427 -0.13542832 0.13514303 -0.086439095
000030 7b 7a 6c bd 9d e8 5f bb 6b 00 78 be 7e 54 5a 3e
       -0.057733994 -0.0034165748 -0.2421891 0.21321294
000040 de f5 14 3e 63 08 a7 3e b6 11 0a be 74 73 5f bd
       0.14546916 0.32623586 -0.13483319 -0.054553464
000050 8e 1f 24 bd c6 15 be 3e 82 89 56 be d6 ae 06 3d
       -0.040069155 0.37125987 -0.20950893 0.03288158
000060 75 b9 c6 3d a8 be 1f 3e 53 cd 04 3e b2 d6 04 3e
       0.09703342 0.15600073 0.1296895 0.12972525
000070 e5 24 00 bd bc 74 72 3d 92 10 1d 3e 47 39 39 be
       -0.031285185 0.059193358 0.15338352 -0.18088256
000080 4f 78 46 3e db ac ca 3d 3d 60 ae 3d bd eb 19 be
       0.19381832 0.09896251 0.0851445 -0.15031333
000090 c4 29 e9 bd 63 4e 3b be 50 4f a7 bd e9 79 01 3e
       -0.11384919 -0.18291621 -0.081694245 0.12644161
0000a0 fa f9 7d be cf f9 69 bd 52 ae 8f 3e a7 b2 ca bd
       -0.2480239 -0.057123 0.28062683 -0.098973565
0000b0 c1 ca 98 3d 5e 5e 2e bd ad ce 22 be 56 f3 37 3e
       0.07460547 -0.042570464 -0.15899153 0.17963919
0000c0 a7 41 07 3e 58 6d ed bc 25 52 13 bd de 4a 7b 3e
       0.13208638 -0.028982803 -0.03596701 0.24540278
0000d0 57 ae 37 3c dd 6d 25 be 48 1d e9 3c 27 8b f6 bd
       0.011210999 -0.16155191 0.028456345 -0.1203826
0000e0 63 9a 30 3e 21 84 08 3e 87 f0 18 3d 53 ac b5 3d
       0.17246394 0.13331653 0.03733876 0.08870759
0000f0 62 2e 4c be 07 c3 03 be 4b 3b 1b be fe c6 5f be
       -0.19939569 -0.12867366 -0.15159337 -0.21853253

encoder_block1.attention.w_k.weight f4 [64, 64]
000000 d1 b9 75 3d 5d c4 92 bd 20 29 26 3d 75 66 01 bd
       0.05999166 -0.071663596 0.040566564 -0.03159185
000010 17 6c fb 3c 5e e8 32 be ff 97 4c 3e a5 98 59 be
       0.03069119 -0.17471454 0.19979857 -0.21249636
000020 14 76 6b 3e 78 56 02 3c 3d 48 28 3e 48 cd 03 be
       0.22994262 0.007955186 0.16433807 -0.12871277
000030 6d af 8b bd 64 c1 e3 bd 1b 0f c9 3d e6 2e 78 3e
       -0.06820569 -0.11120871 0.09817334 0.2423664
000040 e0 07 3a 3d a2 4e 44 3c 6a 62 0a bd 46 de 07 be
       0.045417666 0.011981638 -0.03378526 -0.13268384
000050 b2 2c ef 3d 21 85 94 3e b1 f2 fd bd ce 93 c3 bd
       0.11678447 0.2900782 -0.12399805 -0.09549676
000060 91 ae 1d 3e 27 26 81 3e 25 69 62 3e 5e a7 8e 3e
       0.15398623 0.2522442 0.22110422 0.27862066
000070 aa ce 20 bd ab 32 97 bd 51 ac 28 be 99 e1 0a 3e
       -0.03925959 -0.07382711 -0.16471983 0.13562621
000080 5c f8 4c be 9a e2 e9 3d 9a 7d 54 be fe 89 94 3e
       -0.20016617 0.11420174 -0.20751038 0.2901153
000090 09 4a 1c be 55 06 73 3e a5 cb 32 3c fe 3e 21 3e
       -0.15262617 0.23732884 0.01091281 0.15746686
0000a0 bc 52 05 bd ee 68 47 be 6b 17 06 3e 85 4c 0e 3d
       -0.032549605 -0.19473621 0.13094871 0.034740943
0000b0 27 e2 63 3e 0c 50 62 be 5b 7e c6 be 9a 9a 1e be
       0.22254239 -0.22100848 -0.38768277 -0.15488663
0000c0 74 cc ca 3e 30 45 53 be a2 13 01 3e 87 96 23 be
       0.3960911 -0.20631862 0.12605146 -0.1597539
0000d0 02 b7 88 3e a3 d3 b4 3d dc b7 b2 3e bc 19 7f bc
       0.26702124 0.08829429 0.349059 -0.0155701
0000e0 6d 83 e7 3c 5f 4f 5c 3e 78 e3 5b 3d eb c8 95 3d
       0.02826091 0.21514653 0.053683728 0.07313713
0000f0 e2 e2 8d be 30 77 fe 3d f7 59 ad be 47 8c af bd
       -0.2771216 0.12425077 -0.338577 -0.08571678
000100 7a 36 9d bb 8f 48 a1 bd e3 39 e2 bd db 4a 03 3e
       -0.004797754 -0.078751676 -0.11046197 0.12821524
000110 a4 7c 06 bd c7 71 aa bd 08 1a 30 3e 4e 4c bf bd
       -0.03283371 -0.083224826 0.1719743 -0.09340726
000120 c6 96 d5 3d 2b b4 e7 bd ae 13 2a 3e a9 f6 8e 3d
       0.104291484 -0.11313661 0.1660907 0.069806404
000130 ab e7 3a 3d 99 d1 7a 3c 13 67 50 bd 5c e8 a5 3d
       0.045631092 0.015308761 -0.05087955 0.0810096
000140 41 44 eb 3d 22 c9 b8 bd ec 1c e8 3d 26 a9 1b be
       0.11487628 -0.09022738 0.113336414 -0.15201244
000150 a4 bc 8c 3d e2 4c 90 3d e9 b4 cf bb 8b 07 8c bd
       0.06871918 0.07045914 -0.006338705 -0.06837376
000160 67 2a 0c 3e fa b2 26 3e 65 0a 79 3d fc a9 d3 3d
       0.1368805 0.16279212 0.06080093 0.10335156
000170 e7 77 85 3d 3c 6f ca bd 1c f6 ea bd 24 93 23 3d
       0.0651701 -0.098844975 -0.11472723 0.039935246
000180 86 6c 77 be 02 81 88 3e ae 0b ad 3b db 71 ac 3d
       -0.24162492 0.26660925 0.0052809333 0.08420154
000190 1d 5c 4d be 41 3d 3d 3e 86 02 49 3c 6e 84 e4 3d
       -0.2005467 0.18480398 0.012268668 0.111580715
0001a0 3e 7e f5 bd c6 36 e0 3b a8 c7 0b 3e 94 6a 30 3d
       -0.119869694 0.006842467 0.13650382 0.04307039
0001b0 34 3a 32 3e 28 c7 c3 bc 31 15 25 be a0 8f 7e be
       0.17405015 -0.023898676 -0.16121365 -0.24859476
0001c0 78 32 2d 3e 9b 9c 8e be 55 78 af bc 79 22 a9 bc
       0.16913784 -0.27853855 -0.021419683 -0.02064632
0001d0 02 08 a7 3d 2f 57 0b be a2 07 d1 3e 8e ff 35 3d
       0.08155824 -0.13607477 0.40826136 0.04443317
0001e0 b7 28 8e 3d 9c 94 a0 3d 3f 09 72 3e ff 58 09 3e
       0.069413595 0.07840845 0.2363634 0.13412856
0001f0 45 69 9a be a7 af 46 3d f1 f8 3e bd ad 66 69 bd
       -0.3015844 0.04850736 -0.046624128 -0.056982685
000200 ed 29 dd bc 3f 89 94 bd 74 62 35 bd ed 4b 18 be
       -0.02699753 -0.0725274 -0.044283345 -0.14872713
000210 fb a4 80 bd 21 e1 d1 3b 52 a6 c3 bc b3 91 c8 3a
       -0.062814675 0.0064050113 -0.023883019 0.0015302211
000220 3d 23 ea 3c 6e ff 18 bb 89 74 fe bc a1 30 bf 3d
       0.028581256 -0.0023345607 -0.031061428 0.09335447
000230 fb 2c 89 3d 4f 9a 90 bd 1f c5 c0 3d 57 d2 cb bd
       0.066980325 -0.07060682 0.09412598 -0.099522285
000240 09 ae 7f 3d 8b 0e dd bd 08 ad 68 3c 46 c2 d3 3d
       0.062421832 -0.107937895 0.01420141 0.10339789
000250 d8 cd 23 bd 66 fe a0 be ca a5 22 3e 66 33 f9 bd
       -0.03999123 -0.3144409 0.15883556 -0.121680066
000260 74 b3 89 3d cd 0e 1e 3b 50 eb 96 3d 7a 55 c3 3b
       0.06723681 0.0024117709 0.07369101 0.0059611173
000270 db 63 f1 bc 22 6f 2b bc c6 fc ff 3d 92 b1 d0 3c
       -0.02946656 -0.010463508 0.124993846 0.025475297
000280 4c c2 68 3e 42 2d da bd 29 0b 6a 3d 05 b1 82 bc
       0.22730368 -0.106531635 0.05713955 -0.01595355
000290 bd af 87 3e 5c ca a9 bd 2c 17 2c 3d 54 95 cf bd
       0.26501265 -0.0829055 0.042014286 -0.10135904
0002a0 e4 a8 66 3d 16 68 28 3c b9 3d ed 3d 81 71 80 bc
       0.05631341 0.010278722 0.11584038 -0.015679123
0002b0 f5 8f 84 be b7 8e 87 3e 1a 70 1f 3e 6b cb 54 3e
       -0.2589108 0.2647607 0.15570107 0.20780723
0002c0 6b 7f 54 be 91 d1 21 3c 9b b4 9c bd 76 2f 44 bd
       -0.20751731 0.009876625 -0.07651635 -0.047896825
0002d0 b1 19 82 be b9 a7 82 be c0 23 69 be 4b 0c 15 3d
       -0.25410226 -0.25518587 -0.22767544 0.036388677
0002e0 13 ca eb bd ac 2a 4d bd af 3c 41 be fa 3d 3e 3c
       -0.11513152 -0.050089523 -0.18870805 0.011611456
0002f0 af 4a 17 3e dc 83 7c be 8c 71 d1 3d 83 31 8e 3c
       0.14774583 -0.24659675 0.102267355 0.017357593
000300 0e fa 8a bc a9 3f 05 3e ea eb 90 bd c8 c6 2e 3c
       -0.016964938 0.13012566 -0.07076247 0.01066751
000310 6b 0e 17 bd 18 a6 45 3d 82 02 b3 bd f3 82 fb 3d
       -0.036878984 0.048254102 -0.08740713 0.12280836
000320 78 1c 64 be d5 fb d1 3d 2c 90 1c be 83 63 d8 3d
       -0.22276485 0.10253111 -0.15289372 0.10565855
000330 91 59 51 3d dc 16 1e 3e 02 92 a3 bc 37 e2 d6 bd
       0.051110808 0.15438408 -0.019967083 -0.10492366
000340 0f 15 f1 bd 14 d7 8b 3d ef 95 2a 3e 7a a0 09 3e
       -0.11771595 0.06828132 0.16658758 0.13440123
000350 22 97 cf bd 7c 92 34 be f5 a4 8d bc cc 63 f1 bd
       -0.10136248 -0.17634004 -0.017290572 -0.11786613
000360 0c 03 05 be 15 24 45 be 98 64 89 be 93 4b 10 be
       -0.12989444 -0.19252045 -0.2683456 -0.1409133
000370 d0 06 30 3e 6b 0f 5d 3e 3c ae f2 3d fa b4 d5 bd
       0.17190099 0.21587913 0.11849639 -0.10434909
000380 e2 28 ee 3e 35 40 d7 be 77 71 1a 3e 77 64 fa bd
       0.46515566 -0.42041174 0.15082346 -0.122261934
000390 ca df 5f bd a8 fd c7 be 7f f7 6a be 2f e5 3c bd
       -0.05465678 -0.39060712 -0.22945975 -0.046117004
0003a0 33 25 87 3d b2 f9 80 3e c4 83 32 be 15 a7 ca bc
       0.06598892 0.25190502 -0.17433077 -0.024737874
0003b0 9f ff 2e be 7c cc ff bd db 7f 5f 3e 2b 1d 79 3d
       -0.17089699 -0.12490174 0.21826117 0.060818832
0003c0 c5 94 14 be 56 2b 85 3e 0a 62 12 3e dd 8d 88 bd
       -0.14509876 0.26009625 0.14295211 -0.06667683
0003d0 63 4d 8f bd a7 17 e0 bc 5b 7a d2 be fc bc 10 3e
       -0.06997182 -0.027355028 -0.41108975 0.14134592
0003e0 95 15 43 be 88 e1 db bd d3 de f0 bd a0 ba e1 3c
       -0.19051202 -0.10736376 -0.1176125 0.02755481
0003f0 1f 3a 2b 3e 96 3d 54 bb b5 63 31 3e 43 74 84 3c
       0.1672139 -0.003238534 0.17323191 0.01616872

encoder_block1.attention.w_k.bias f4 [64]
000000 7a cf e0 3c 4f b1 10 bd 45 6c e5 3d cf ca 8a bb
       0.027442683 -0.035325345 0.112022914 -0.0042356024
000010 1a 67 46 bc 63 2e c7 bd 5d ce dd bd 85 fc 58 bd
       -0.012109542 -0.097256444 -0.10830376 -0.052975196
000020 87 3a d2 3d bf 97 8e bc 76 e7 cc bd e7 cb 49 3d
       0.102650695 -0.017406343 -0.10005085 0.049266722
000030 36 db 93 bc f1 e5 d4 3d 34 f9 56 bd a8 32 bf bd
       -0.018048864 0.1039542 -0.052483752 -0.09335834
000040 03 f8 b9 bd 3a 02 d2 bd ae 60 64 3c 14 bc 74 3d
       -0.090805076 -0.10254331 0.013939066 0.059749678
000050 04 4f 9e bb 1a 31 9c bd 6a 3c a8 3d ea 4d 2d bd
       -0.0048311967 -0.07626553 0.08214648 -0.042310633
000060 71 3f d6 3d c0 4f f3 bc ee 81 a0 3d 46 5a 45 bd
       0.10461319 -0.029701114 0.07837282 -0.048181795
000070 37 bd ce bd e8 8e 6f 3d 3f 4e b7 bd 16 ea 4e 3c
       -0.100946836 0.058485895 -0.08950471 0.012629053
000080 42 25 6f 3d 28 96 77 3d ad c9 f0 bb 94 4b b4 3c
       0.05838514 0.060445935 -0.0073482604 0.022008695
000090 b2 51 1c bb 2b 9b 0f 3d 0d 9d dc bd 3f 77 9a bd
       -0.0023852405 0.03506009 -0.107721426 -0.07542276
0000a0 54 f7 aa bc f6 a2 39 3d fd ef ce bd 8b 00 cc 3d
       -0.020869888 0.045321427 -0.10104368 0.09961041
0000b0 31 2d 9d bd 73 4f 4e 3d 20 90 dc 3d e2 5c d9 bd
       -0.07674635 0.050368737 0.10769677 -0.10613419
0000c0 2a 5f 11 3d bd 51 ab ba c1 fd 93 bc b4 c6 45 3d
       0.035491146 -0.0013070625 -0.018065335 0.0482852
0000d0 c0 4f a7 bd 22 12 00 be ea f6 a7 3d 11 c3 76 bd
       -0.08169508 -0.12506917 0.08201392 -0.060244624
0000e0 7a 98 fd 3c e3 4f a1 3d d5 0a 48 3d 4f 1b c4 3d
       0.030956496 0.07876565 0.048838455 0.09575521
0000f0 62 d4 15 3b 76 72 d8 3c 68 59 c4 3d 72 db 5f bd
       0.0022862186 0.026421767 0.095873654 -0.05465264

encoder_block1.attention.w_v.weight f4 [64, 64]
000000 7e c9 52 bd 8b 51 ef bd 7c ed 34 3c d2 93 2c ba
       -0.05146169 -0.11685475 0.011042949 -0.0006583306
000010 2d 7a a2 3d 2d cc a6 3d bc 1f d4 3d ba 2c 0c 3d
       0.079334594 0.08144412 0.10357615 0.034222342
000020 29 57 14 bc e3 34 be bd b2 e2 8d 3d a2 00 01 be
       -0.009053984 -0.09287431 0.06928004 -0.12597898
000030 82 ad 62 3c b9 e9 66 bd 94 56 03 be b9 34 35 3c
       0.013835313 -0.05637524 -0.12825996 0.011059933
000040 86 84 ca 3b 68 c6 16 3d a4 ec e6 bc e3 0d 2a 3d
       0.006180349 0.03681031 -0.02818901 0.04151715
000050 e9 b7 a0 3b 76 57 de bd c2 14 8c 3d c8 9b 08 3d
       0.0049047363 -0.108565256 0.06839897 0.03335169
000060 15 88 c2 bd a0 82 1d bd f1 cb d9 bd 08 2d 75 bd
       -0.09498612 -0.03845465 -0.10634602 -0.0598574
000070 c2 22 58 3d 84 63 e3 bd fc 7b 8f bd c2 60 08 3e
       0.052767523 -0.111029655 -0.0700607 0.1331816
000080 a2 10 ea 3c e9 96 eb 3d 43 fc af bd c3 13 c0 bd
       0.028572384 0.11503393 -0.08593037 -0.09378769
000090 39 98 c5 b9 4b d2 74 3d 59 66 da bd 90 84 5e 3d
       -0.00037688183 0.059770864 -0.106640525 0.05432564
0000a0 d2 5c ec bd 1b 94 ee 3c 4f 93 c9 bd ef 85 bd bd
       -0.115411416 0.029123357 -0.0984255 -0.092540614
0000b0 50 43 f9 bd ed 9a a8 3d cc 50 ac 3d b3 1c e4 3d
       -0.12171042 0.08232675 0.08413848 0.111382864
0000c0 8d 5d 95 bc 3a ac dd 3d 4b 7d 37 3c cf bd 45 3d
       -0.018233085 0.10823865 0.011199306 0.04827672
0000d0 42 6b 84 3d a2 2d 90 3d 41 17 9a bd f5 28 e6 3d
       0.0646577 0.07039954 -0.075239666 0.11238281
0000e0 24 98 fa 3d 78 6f d8 3d 01 be 4a bc 35 01 53 bd
       0.1223605 0.10568136 -0.012374402 -0.051514823
0000f0 89 6b 2a 3e 68 c8 d4 3d 6a 69 5b bd 20 d4 95 bc
       0.16642584 0.10389787 -0.053567328 -0.018289626
000100 51 e1 af 3c 1b 8d 3b 3d 7d f8 f1 3d 9b 20 2a be
       0.021469744 0.045788866 0.118149735 -0.16614
000110 78 53 d5 bd 78 12 94 bd 00 29 0b 3e 86 01 41 bc
       -0.10416311 -0.07230085 0.13589859 -0.011780148
000120 70 e4 0b 3e 6a 77 28 bd 72 e4 99 bc f4 86 09 be
       0.1366136 -0.041129507 -0.018785689 -0.13430387
000130 f7 d7 69 bd 89 1f 62 bd 83 2c 1d bd 45 7c 2c 3e
       -0.057090726 -0.055205856 -0.038372528 0.1684428
000140 93 be cb 3c ce a4 91 bd b0 ff 14 be f5 c2 88 3d
       0.024871146 -0.07111512 -0.14550662 0.0667781
000150 fb 1f 55 3d 02 d9 d6 bd 0e 9e d4 3d 35 09 0e bc
       0.052032452 -0.1049061 0.10381709 -0.008669187
000160 dc dd 88 bd c1 4c 86 3d bf 33 8a bd 95 8f a0 bd
       -0.06682941 0.065576084 -0.06748151 -0.07839886
000170 06 fe 23 3b e8 e8 46 3d 7f d8 f4 bd 9f 2f b8 3d
       0.0025023236 0.04856196 -0.11955356 0.08993458
000180 35 78 ef 3d 70 56 a4 bd 45 96 55 bd 2f 38 fb 3d
       0.116928495 -0.08024299 -0.05214526 0.122665755
000190 93 17 cf bc 1e 9f 97 3c 63 7a c8 3d 3c fa 90 3d
       -0.025279796 0.01850849 0.097889684 0.070789784
0001a0 0d f1 ff bd a2 67 ff bd a4 92 f7 3d bc 94 eb bc
       -0.12497149 -0.12470938 0.12088516 -0.028757446
0001b0 38 c4 a9 3d d0 59 07 be 0e 21 15 bc 8d 7b 19 bd
       0.08289379 -0.13217854 -0.009102119 -0.037471343
0001c0 38 d1 0d be b8 55 ea 3c 43 38 61 3d 6d fa 8d bc
       -0.13849342 0.028605327 0.054985296 -0.017331326
0001d0 a1 43 3c 3e f9 eb 64 bd 0e 27 69 bd 6c 97 a7 3c
       0.18385173 -0.055889104 -0.05692201 0.020457946
0001e0 ec 48 85 bc 2c 58 80 bd da 51 c3 bd d9 09 d3 bd
       -0.016270123 -0.062668175 -0.09537096 -0.10304613
0001f0 8d 83 e1 bd 47 69 f5 3a 80 37 0f bd 8a 05 d8 3d
       -0.110114194 0.0018723392 -0.03496504 0.105479315
000200 e5 8a 6c be 46 b3 61 3e b5 08 91 be 32 fc 71 be
       -0.23099859 0.22041044 -0.28326955 -0.23631361
000210 16 b9 11 3e d9 a6 19 be fb d4 34 3e a0 50 a8 bc
       0.14230761 -0.15005054 0.1765937 -0.020546257
000220 99 fe da 3c e1 34 85 3c ee 1b 09 3d be 7e f4 3c
       0.02673273 0.016260566 0.0334739 0.029845592
000230 11 a5 08 be a0 69 b7 bc f5 76 1f bd ca 4e 95 bc
       -0.13344218 -0.022389233 -0.038931806 -0.018226046
000240 b1 12 05 3d cf 51 0f 3d 02 4e 2a be 78 90 97 bd
       0.03248853 0.034990128 -0.1663132 -0.07400602
000250 d4 46 b1 bd a6 91 06 be 8d 9d 96 3d 60 f8 92 3d
       -0.086560875 -0.13141498 0.07354269 0.0717628
000260 0b 93 98 bd 91 a2 d9 bd f0 7e d4 bc e3 b3 5a bd
       -0.07449921 -0.1062671 -0.025939435 -0.05339421
000270 b8 b4 3c 3c b2 e5 16 be 79 31 2a 3d 8a 24 e7 3d
       0.011517696 -0.1473606 0.041551087 0.11286266
000280 c5 52 7a 3d 0e 70 73 bd b3 d5 d8 bb 85 8e 8f 3d
       0.06111409 -0.059433036 -0.006617272 0.07009605
000290 1b 9c 6e bd ba 47 21 3d ed 50 90 3c eb 3e a3 3d
       -0.058254343 0.039375044 0.017616713 0.07970985
0002a0 52 8a 3a 3d 05 b5 0d be 70 6b 49 bc 76 b0 ed bd
       0.04554207 -0.13838585 -0.0122936815 -0.11605923
0002b0 80 a3 36 bd dc 94 07 3d d3 1a d3 3c 9d d6 ad 3c
       -0.04458952 0.033100948 0.025769627 0.0212205
0002c0 ca e8 94 3d 92 28 86 bb 7a a1 18 bd 4f d2 b5 3d
       0.072709635 -0.004094192 -0.03726337 0.08878004
0002d0 f6 8b 9a ba 9f ea 8c 3d 4a 62 db bc d5 5e 07 3d
       -0.0011790979 0.06880688 -0.026780266 0.033049423
0002e0 ec 10 2f 3d 2b a7 a9 3d 78 25 2d bd 2f a4 0f be
       0.042740747 0.08283838 -0.04227206 -0.14027475
0002f0 4b 65 f3 bc bd 9f 8d 3d a1 43 92 3c ff 28 2a bd
       -0.029711386 0.06915233 0.017854514 -0.041543003
000300 b2 72 2a 3e 60 34 ab be 71 a8 d3 3e d4 cc 13 be
       0.16645315 -0.33438396 0.41339448 -0.14433604
000310 3c 7c ce 3c 7b 8e 07 be fc 32 81 bc 9c 72 82 bd
       0.025205724 -0.13237946 -0.015771382 -0.06369516
000320 85 d3 01 3d 6d eb fe bd 8c 5a 1c 3e c1 b4 ef 3d
       0.03169586 -0.12447248 0.15268916 0.11704398
000330 00 5c 9e bc ae 84 2f bd 93 47 41 3e 80 8f 4a be
       -0.019330978 -0.042851143 0.1887496 -0.19781303
000340 76 71 1b 3e 95 db 2d 3b f7 12 61 3c 44 c2 d0 3b
       0.1518 0.0026528586 0.013737432 0.0063708145
000350 51 28 36 3d 3b 36 c0 bc ac 28 8e 3d 64 ab 46 3c
       0.044472042 -0.02346336 0.06941351 0.012125824
000360 ef e7 3a 3e c8 23 3f bd fa 2a 41 3d 0c f3 e1 3c
       0.18252538 -0.046664983 0.047160126 0.027581714
000370 48 50 d5 bc 58 00 91 bd 50 16 0d 3c fc 6c 77 3d
       -0.026039258 -0.07080144 0.008611277 0.06040667
000380 5e 74 40 3c c2 8c d3 3c 9c 89 da 3d c7 c3 85 3d
       0.011746494 0.025823954 0.10670778 0.06531482
000390 f1 56 71 3d 11 27 ab bc e6 53 99 3d 8e ab 67 3d
       0.058920804 -0.020892652 0.074867055 0.05656009
0003a0 cc bb 25 bd 8b b7 e9 3a 37 27 21 bd 7d bb 6d 3d
       -0.0404623 0.0017831189 -0.03934404 0.05804013
0003b0 85 c7 a0 3c bd dc 15 3e 0b b9 05 3d 05 a7 c8 3a
       0.019626388 0.14634986 0.032647174 0.0015308565
0003c0 d4 1d 0d 3d bc 26 8d bd b8 66 10 bd 38 32 22 bd
       0.034452274 -0.068921536 -0.03525421 -0.039598674
0003d0 40 b5 61 bd a1 0f aa bd 0c 11 f5 bc ba 27 8d 3d
       -0.055104494 -0.08303762 -0.029915355 0.06892343
0003e0 98 aa a7 bd f6 85 cc bd 37 41 bb 3d 33 4a c5 3d
       -0.08186835 -0.099864885 0.09143298 0.09633293
0003f0 6c 37 b8 ba 16 36 01 3e a5 3b ce 3d cb ff 17 3e
       -0.0014054603 0.12618288 0.1006997 0.14843671

encoder_block1.attention.w_v.bias f4 [64]
000000 b1 e5 5d bd 5b f2 bd 3d 1e d8 12 3d 2c b0 60 bd
       -0.05417413 0.09274741 0.035850637 -0.05485551
000010 e2 26 d6 bd 2f e0 a3 bd e6 91 c0 3c 25 6b a4 3d
       -0.10456635 -0.08001744 0.02350707 0.08028249
000020 dd a1 02 bc b4 d5 50 3d ea ca b9 bd 5d 48 8b 3d
       -0.0079731615 0.050985053 -0.09071906 0.068009116
000030 86 2d 7f bd 03 a3 8a 3d 9f 78 de bd 95 28 6d bd
       -0.062299274 0.06769373 -0.108628504 -0.05790003
000040 bd d0 2e 3c 62 30 83 3a 6d a2 06 bd 8c c9 b8 bd
       0.010669884 0.0010008926 -0.032869745 -0.09022817
000050 93 95 5b 3d 0b de 28 3d 3d 2c 05 be b1 58 07 3d
       0.053609442 0.04122738 -0.13005157 0.033043567
000060 7b 62 69 bd eb 49 bb 3d ce 46 80 bd 30 e3 69 3d
       -0.056978684 0.09144958 -0.06263505 0.05710143
000070 b3 48 13 be 1b 30 35 bd f1 c4 b4 3d 46 0f c3 3d
       -0.14383201 -0.04423533 0.08826626 0.095243976
000080 41 27 04 3e 96 e9 2c bd e1 ae 5a bc 1c c7 42 3d
       0.12905599 -0.042214952 -0.013347358 0.047553167
000090 26 86 42 bd 5f f3 bf 3d f8 6b f5 bd be 1a 03 3d
       -0.047491215 0.09372591 -0.11983484 0.032007925
0000a0 c8 8c 23 bc 66 f7 cf 3c 84 df 0a be 0b 83 f4 3d
       -0.009982295 0.025386523 -0.13561827 0.11939057
0000b0 b1 08 9c 3d 3d 8f de bd 9b 82 06 3d a4 f0 ee bb
       0.07618845 -0.10867164 0.0328394 -0.00729187
0000c0 db 24 3d bc b6 17 c3 bc 88 9c fa bd b1 65 6c 3d
       -0.011544432 -0.023815017 -0.12236887 0.057714168
0000d0 62 a2 f9 3d 03 c7 69 3d 98 0e dd 3c 40 2a 93 bd
       0.12189175 0.057074558 0.026984498 -0.07185793
0000e0 3e 5a 2d bd b0 fe 6d 3d 5e ba 09 be 6d 49 13 3c
       -0.04232239 0.058104217 -0.1345 0.008989674
0000f0 39 36 6d 3c 3e cd 76 3d 60 b7 41 3d 85 82 22 3e
       0.01447826 0.060254328 0.04729402 0.15870102

encoder_block1.attention.w_concat.weight f4 [64, 64]
000000 69 0f bc bd 5b 1a 9b 3b cc 98 f6 3d 0d 0b 24 be
       -0.09182627 0.0047333664 0.120408624 -0.1601984
000010 c2 0c d3 3d 8f f2 17 3e c4 e8 25 3d 72 04 24 3d
       0.10305168 0.14838623 0.040505186 0.040043302
000020 81 c5 a5 3d 05 ea a8 3c 64 86 0d bc 63 65 2d be
       0.080943115 0.020619402 -0.008637998 -0.16933207
000030 9b a5 a7 bd 31 33 fa bc 7e 64 00 be e8 86 04 bc
       -0.081858836 -0.030541988 -0.12538335 -0.008088805
000040 26 85 2e bc d4 3a 4f 3d a2 01 1a 3c 6e 36 54 bd
       -0.010651862 0.050593212 0.009399803 -0.05180972
000050 a3 f6 18 bd 9f 65 c1 3d 5f 98 17 3e fa 61 55 bd
       -0.037344586 0.09443211 0.14804219 -0.05209539
000060 a4 6b 9d 3d 6e 3f 26 bd dc 2b a5 bd cb 85 03 3e
       0.076865464 -0.040587835 -0.08065006 0.12844007
000070 34 0c 0e be 23 e5 55 bd f5 10 5e 3e 31 b5 05 3e
       -0.13871843 -0.052220475 0.21686156 0.130574
000080 66 c6 af bd dd 1b 74 bd 7f 3c 42 3e 75 72 bd bc
       -0.085827634 -0.059596885 0.1896839 -0.023125866
000090 ae 7c 12 3e 1d 97 80 bc 25 70 d4 3d f9 04 ba bd
       0.14305374 -0.015697056 0.10372952 -0.0908298
0000a0 61 82 2a 3d c7 17 23 3e e0 5a 59 3d 42 f0 de bc
       0.041628245 0.15927039 0.05306518 -0.027214173
0000b0 aa f9 17 be 56 6e 50 3d f6 d2 d8 bd 67 0b 89 bb
       -0.14841333 0.050886475 -0.105871126 -0.0041822675
0000c0 25 3e 11 3d c8 60 0e 3d 84 00 52 3e c0 60 0b bd
       0.035459656 0.034760267 0.20508009 -0.034027815
0000d0 82 c9 ba 3c 52 a8 98 bb 2b df a7 bc df 6b ab 3c
       0.022801165 -0.004658737 -0.020492157 0.02092546
0000e0 86 b5 36 3c 92 30 cc bc a1 2f 8d 3d 0d 12 a4 3d
       0.011151677 -0.024925504 0.0689385 0.080112554
0000f0 8f e2 1e 3d 16 16 ed 3d 11 17 2c 3e 06 df e7 3d
       0.03879028 0.11576478 0.16805674 0.11321835
000100 79 6e 90 bd 7d bd 72 bd 43 8c 1a 3e 18 79 15 be
       -0.07052321 -0.05926274 0.15092568 -0.14596975
000110 9e 95 1b 3d be c0 80 3d 57 a5 63 bd a6 58 62 3c
       0.037984483 0.06286763 -0.055577602 0.013815081
000120 1c 96 9c bd 38 10 6c 3d 43 c3 ac bd 98 20 e2 3d
       -0.076458186 0.057632655 -0.08435681 0.11041373
000130 f9 9d d8 bd 0d a3 a6 3d 28 a8 3b 3d b4 de 8c bd
       -0.10577006 0.08136568 0.045814663 -0.06878415
000140 f3 78 af bc 5c 2d 11 3e 9e de 57 be 0e 2d 28 be
       -0.021419978 0.1417746 -0.21081015 -0.16423437
000150 6b f0 a0 bc 75 0d 77 3d 1d 59 de 3c 2c a6 16 be
       -0.01964589 0.060315568 0.027142102 -0.14711827
000160 e0 dc 10 3d 36 6b d7 bd ae 06 7b 3d 62 da 6e bd
       0.035366893 -0.10518496 0.061285667 -0.058313735
000170 1b 1f 9e bd 09 6d e9 bd 49 a3 4a 3e d4 d8 b3 bb
       -0.07720777 -0.1139775 0.19788851 -0.0054884944
000180 9a d5 3b bd 15 62 ca 3d 18 f7 f0 3c 1d a3 1c be
       -0.045858003 0.09881989 0.029414698 -0.15296598
000190 3f b4 89 3c 2e 69 b0 bd dd 33 3c bd e3 7d 3a 3c
       0.01680958 -0.086138114 -0.0459479 0.011382553
0001a0 2f 2d ca 3d 78 c2 b8 bc 77 9e db 3d b7 fc bf 3d
       0.09871899 -0.022553667 0.10723584 0.093743734
0001b0 75 3e 52 bd 5b b3 35 3d 43 a9 fd bd 09 f4 52 bc
       -0.051329095 0.0443605 -0.123858 -0.012875565
0001c0 b5 16 28 be 8c b5 88 be 72 6b 63 bd 6b 1f e5 bd
       -0.16414912 -0.2670101 -0.05552239 -0.11187633
0001d0 0b 84 02 3e f1 37 aa 3d db e2 80 be e2 5f be bd
       0.12745683 0.08311451 -0.25173077 -0.09295632
0001e0 58 d6 9c 3b 58 77 58 3c bb 1a 57 bd 50 04 81 bd
       0.004786294 0.0132120475 -0.052515727 -0.06299651
0001f0 9a 63 b8 3d 4e 55 32 bd 63 f3 48 bd 26 5d a8 3c
       0.090033725 -0.043538384 -0.049060237 0.02055223
000200 d5 5b 67 bc 62 57 82 bd 52 12 f2 3d 05 b7 79 3d
       -0.014121016 -0.06364323 0.118199006 0.060965557
000210 da f2 ef 3d 46 6f c4 3d e6 c9 e3 3d 29 93 e1 3d
       0.11716242 0.09591536 0.111224934 0.11014397
000220 ab ec 3e 3b 19 1f b2 3d 84 2d c1 3d d4 8e c0 bc
       0.0029132764 0.08697338 0.094325095 -0.023505606
000230 ce ea fa bd 76 34 b0 bc e2 d2 3b 3d 8f a8 75 3d
       -0.12251817 -0.02150939 0.04585541 0.059975203
000240 02 79 90 3d 1c d3 2f 3d 89 bc 84 bd a7 d2 10 be
       0.070543304 0.04292594 -0.06481273 -0.14142857
000250 a5 71 03 3e ad 1c 78 3d 45 99 d8 bc 74 63 7b bc
       0.1283632 0.060574222 -0.026440272 -0.015343536
000260 dd 22 87 bd 3c cf 21 be 94 61 a8 ba a6 73 95 bd
       -0.065984465 -0.1580171 -0.0012846463 -0.07297449
000270 72 e2 e3 bc f5 dd 37 bb 57 bf 90 bc 0c 68 c5 3d
       -0.027817938 -0.002805588 -0.017669363 0.09638986
000280 05 a6 e4 bb f7 69 1a 3c 65 98 85 3d 9c 41 34 bd
       -0.006977799 0.009424678 0.065232076 -0.044007882
000290 38 5e a0 3c a1 7c 84 bd 08 a6 b3 bd 6c 57 d5 3d
       0.019576177 -0.064690836 -0.08771902 0.10417065
0002a0 d6 de 4b bd 16 d2 83 3d e8 9c b9 3d 7e fc 52 3e
       -0.04977306 0.06436555 0.090631306 0.2060413
0002b0 cb 54 39 bd 0e c6 dd bd 40 af 57 3e 7b 6d 1d be
       -0.04524688 -0.108287916 0.21062946 -0.15373795
0002c0 03 16 71 3c db 16 0b be ad 50 e6 bd f1 f4 da bd
       0.014714721 -0.13582937 -0.112458564 -0.1069125
0002d0 44 0b 95 3d e5 d1 89 3d 74 ba 1f be 11 8c 16 39
       0.07277539 0.06729487 -0.1559847 0.00014357294
0002e0 fc c0 bf ba f3 a0 eb 3d e4 dc ce 3d cb 49 95 3c
       -0.0014629657 0.11505308 0.10100725 0.018223664
0002f0 14 8a bd bd d8 f5 25 3e 99 18 a8 3d b0 f1 8a bd
       -0.09254852 0.16207063 0.08207817 -0.067843795
000300 ed 70 44 bd df fe f8 bc 22 21 81 3d 13 2d fc 3d
       -0.047959257 -0.03039497 0.06305148 0.12313285
000310 ba 52 a3 bd 2d 7c b7 bd 33 10 64 3d 66 93 90 3d
       -0.07974763 -0.089592315 0.05567951 0.07059364
000320 4f 59 a2 bd c2 6d 9f bd 28 b7 1a 3d a7 a7 c4 3d
       -0.079271905 -0.077846065 0.037772328 0.0960229
000330 41 85 a6 bc d3 e8 4f 3e 74 15 8e bd a2 32 06 be
       -0.020327212 0.20303659 -0.069376856 -0.13105252
000340 6b d2 a6 bd 7c d7 ff bc 66 2b 6f 3c 73 27 9c bd
       -0.08145603 -0.03123068 0.014597749 -0.07624712
000350 ed f6 a2 3d 43 ec f4 3d ea 6e 9c 3b 34 e5 1d 3d
       0.079572536 0.11959126 0.004773964 0.038548663
000360 e2 0d d3 3b 95 91 f9 bc 9b 5d 95 3d ee 3c 99 bd
       0.006440864 -0.030464927 0.072932445 -0.074823245
000370 59 ed b6 3c c3 97 6d 3a ca a9 38 3e 49 e7 21 be
       0.022329973 0.0009063447 0.1803352 -0.15810885
000380 06 a5 9d bd a0 d4 c6 3c 3e 15 83 3e 36 2d 1c be
       -0.07697491 0.02427131 0.25602144 -0.15251622
000390 e1 85 4c 3d 97 3c 26 3e 6e 54 ee bc 9f 35 10 3e
       0.049932364 0.1623405 -0.029092994 0.14082955
0003a0 1e 83 1a 3e 03 ac e6 3c 3d 72 ae bd 13 53 91 3c
       0.1508908 0.028158193 -0.08517883 0.017739808
0003b0 c8 e4 c6 3d 25 54 af bd a4 d0 d9 3d 5f b3 0e be
       0.09711605 -0.08560971 0.10635498 -0.13935612
0003c0 83 83 cc bd 57 d8 c1 bd 06 12 6e 3d 1d ad 4d 3d
       -0.09986021 -0.09465092 0.058122657 0.05021392
0003d0 b3 f8 5d 3d 22 20 c1 bc 4b 51 dd bd ae f3 49 3d
       0.054192256 -0.023574892 -0.10806521 0.049304657
0003e0 c4 35 11 3e 8c 8a 73 bd 9f ba b5 3d 17 37 11 bd
       0.14180666 -0.0594583 0.08873486 -0.03545293
0003f0 26 a6 62 bd c4 6d 0b 3d 07 5a a9 bd ce 9d d2 3d
       -0.055334233 0.034040228 -0.082691245 0.10284005

encoder_block1.attention.w_concat.bias f4 [64]
000000 e2 28 4f bc 5e da 8c bd fb 27 f6 3b 36 23 27 3d
       -0.012644025 -0.06877588 0.0075120903 0.040805064
000010 da 7b 97 3d 8f e0 53 3d dc 24 37 bc 04 42 81 bc
       0.0739667 0.051727828 -0.011178222 -0.015778549
000020 7b c0 c4 bc 2a 90 34 3d 4f ee 00 be 13 18 d2 3c
       -0.024017563 0.044082798 -0.12590908 0.025646245
000030 b2 db b6 bd 6e a4 33 be 81 af 61 bd b1 8b d4 bc
       -0.08928622 -0.17543194 -0.055099014 -0.025945516
000040 c0 16 e0 3d 71 b0 7f bd 27 c7 6f bd 33 d4 bb 3d
       0.10941839 -0.062424127 -0.058539536 0.09171333
000050 62 01 8c bd 18 a5 a2 3d 6f 28 fc bd f9 a6 b3 bc
       -0.06836201 0.079416454 -0.123123996 -0.021930205
000060 00 35 95 3d 48 13 6a 3c c1 dd e2 3d 22 38 42 3d
       0.072854996 0.014286824 0.110774525 0.047416814
000070 a6 be e0 bd 3b 1c cf bc 6e 73 0c be 4b a0 c8 3d
       -0.10973863 -0.025282016 -0.13715908 0.097961985
000080 b8 1e 11 bc ea af 75 3d 30 87 d8 3c 52 4d c9 3d
       -0.008857422 0.059982218 0.02643165 0.09829201
000090 c5 71 f4 bd a5 c3 2e 3d 11 47 30 3e db ec a9 bd
       -0.11935762 0.04266705 0.1721461 -0.0829713
0000a0 9e 82 fd bd 62 01 89 bd 19 a7 a6 3d 51 c2 e4 b9
       -0.12378429 -0.06689717 0.0813734 -0.00043632326
0000b0 58 65 05 3e 9b ab 1c bd 3f 85 e8 bd 57 d1 2e bd
       0.13026941 -0.038249593 -0.1135354 -0.04268011
0000c0 02 eb 02 bc ba 56 eb bd 39 e6 5f bc 0e 58 07 be
       -0.007990601 -0.11491151 -0.013665729 -0.13217184
0000d0 7b 6f 0d bc fd 97 30 3c 0c c1 ed 3d a5 29 25 3d
       -0.008632536 0.010778424 0.116090864 0.04032292
0000e0 4c a0 b2 bd fd fb 6e 3d bf 11 20 bd 73 14 e8 3c
       -0.087219805 0.058345784 -0.039079424 0.028330063
0000f0 d7 a3 07 bd 27 69 76 3d c7 ca f0 3d 04 fe 2d bd
       -0.033115234 0.060158875 0.11757427 -0.042478576

encoder_block1.norm1.weight f4 [64]
000000 e7 df aa 3f 19 bb 85 3f a4 e8 7a 3f f7 a1 8e 3f
       1.334958 1.0447723 0.9801123 1.1143178
000010 8f 14 6e 3f df 46 84 3f 3a af 77 3f 25 d9 7b 3f
       0.9300012 1.0334128 0.9675175 0.9837821
000020 c0 02 78 3f 98 a8 6f 3f a7 1b 75 3f f6 56 8d 3f
       0.96879196 0.9361663 0.9574532 1.1042163
000030 98 cb 71 3f d5 bc 75 3f 38 c0 87 3f ed 4e 89 3f
       0.94451284 0.9599126 1.0605536 1.0727211
000040 9b d7 6f 3f 92 cb 89 3f 70 08 79 3f f6 72 6f 3f
       0.9368836 1.076525 0.972785 0.9353479
000050 e0 3d 82 3f 90 bc 75 3f 9f cd 71 3f 9f 14 82 3f
       1.0175133 0.9599085 0.9445438 1.0162543
000060 e9 fa 5c 3f b7 49 82 3f 7d 74 5a 3f c9 11 6c 3f
       0.8632036 1.0178746 0.85333997 0.9221464
000070 0d ab 82 3f dd 5d 74 3f 9a bc 6e 3f 2d 80 72 3f
       1.020845 0.95455724 0.93256533 0.9472683
000080 cf 03 84 3f 99 fc 7d 3f 15 5c 7c 3f 11 8c 6d 3f
       1.0313662 0.9921356 0.98578006 0.9279185
000090 fc 4a 80 3f 47 9d 62 3f 75 36 81 3f 25 14 80 3f
       1.0022883 0.88521236 1.0094744 1.0006148
0000a0 b5 09 78 3f 1c 30 68 3f 4e 05 82 3f b6 ec 71 3f
       0.9688981 0.9069841 1.0157869 0.9450182
0000b0 16 9e 88 3f 45 0e 73 3f 03 59 83 3f 3b 8d 7f 3f
       1.0673244 0.9494365 1.0261539 0.99824876
0000c0 03 40 85 3f ae 54 82 3f 85 54 6d 3f 6f 9e 7c 3f
       1.041016 1.0182092 0.9270709 0.9867925
0000d0 10 fc 6e 3f 01 6b 8c 3f 6d ae 72 3f bb 77 74 3f
       0.93353367 1.0970155 0.947974 0.95495194
0000e0 cd 35 81 3f e1 8a 79 3f c6 74 5c 3f 10 63 81 3f
       1.0094544 0.9747754 0.8611568 1.0108356
0000f0 01 05 87 3f 4e e0 83 3f b2 bb 65 3f 48 aa 6a 3f
       1.0548402 1.0302827 0.89739525 0.9166608

encoder_block1.norm1.bias f4 [64]
000000 3a 65 34 3d f3 b8 88 3c 93 f7 b3 3c 9b fd 7d 3d
       0.04404185 0.016689753 0.021968639 0.062009435
000010 b3 17 12 bd 8f ea 28 bc ed ab cf 3c 15 bb 73 3b
       -0.035667133 -0.010309829 0.025350535 0.0037190367
000020 66 0b fe 3c 31 9b 97 3c 98 a7 21 bd 09 22 00 bd
       0.031011295 0.018506618 -0.03946647 -0.03128246
000030 04 fc 25 bd e4 3c 96 bd 3e a1 0b bc 35 38 16 3d
       -0.040523544 -0.07335833 -0.00852233 0.036674697
000040 49 2c 9d 3c 2f f3 3d bd 8f 93 30 bd be e9 4e bd
       0.019186156 -0.046374496 -0.043109473 -0.050515883
000050 6e 50 e3 3b 3d 92 d6 bc 2e 6f 42 bd 53 c2 da bc
       0.006937078 -0.026192779 -0.04746931 -0.02670399
000060 59 5f 85 3c 48 76 a4 bb b1 c7 05 3d 97 c0 21 bc
       0.016280817 -0.005018983 0.032661144 -0.009872577
000070 22 29 ff 3b 37 d9 3e bc f0 41 5c bd 68 33 ca 3a
       0.007786886 -0.011648468 -0.05377382 0.0015426697
000080 d2 c7 6a bc 76 4c 30 bb 44 c9 d2 3c 56 e6 4c 3b
       -0.014329867 -0.0026901043 0.025730737 0.003126522
000090 9e b6 a8 bc 6c f9 e6 3c 0d d7 02 3d 21 20 e4 bc
       -0.020594891 0.028195105 0.03194337 -0.027847352
0000a0 14 99 99 bc 80 45 25 bd 62 77 f1 bc fb 71 1e ba
       -0.018749751 -0.040349483 -0.029475871 -0.0006044206
0000b0 e5 4c e8 3a f5 c5 b8 3b a2 ac dd bc 10 0a 34 3a
       0.0017723112 0.0056388327 -0.027059857 0.00068679545
0000c0 d4 3e 87 3d cb ff 5a bc 03 e9 91 3c 20 51 48 bb
       0.066037804 -0.01336665 0.017811304 -0.0030565932
0000d0 a4 e3 f2 3c 49 ad d4 bc 58 f9 a9 3d fa f8 6f bd
       0.029649563 -0.025961535 0.08299512 -0.058587052
0000e0 5c 47 45 3c 84 7b 03 bd 7a 77 f3 3d 0c fe e5 3b
       0.012040939 -0.032100216 0.11888023 0.00701881
0000f0 5b ef 38 bc 4b 8e cc bc 18 f6 4a 3d 68 46 29 bd
       -0.011287536 -0.024970194 0.0495511 -0.04132691
