models/error_encoder_all_state_dict.pth (torch, 279959 bytes, 125 tensors)

embedder.dim_up.weight f4 [64, 8]
0	0xbcf3c580	-0.029757261
1	0x3e57166e	0.2100465
2	0x3e8481cb	0.25880274
3	0x3e91c9c3	0.28474244
4	0x3e94984f	0.29022452
5	0xbe9cf5cd	-0.3065628
6	0xbe62c7e8	-0.2214657
7	0xbe604504	-0.21901327
8	0x3e9327a1	0.28741172
9	0xbd0938f8	-0.033501595
10	0x3e097468	0.13423312
11	0x3ead8549	0.3389075
12	0x3e9a2ce5	0.30112377
13	0x3eae52ad	0.34047452
14	0x3e32697e	0.17423055
15	0x3ead1a4d	0.33809128
16	0x3e8bb6b9	0.27287844
17	0xbe83399e	-0.25629896
18	0xbd100b38	-0.03516695
19	0x3ddbf06c	0.10739216
20	0xbe611aac	-0.21982831
21	0xbeaf4847	-0.3423483
22	0x3dd485e8	0.10377103
23	0xbe08217e	-0.13294026
24	0x3e9e2d3f	0.30893895
25	0x3d021b48	0.0317643
26	0xbe56813a	-0.20947734
27	0x3e8367e9	0.25665215
28	0xbe558645	-0.20852001
29	0x3ea23223	0.31678876
30	0xbdeb3c9e	-0.11486171
31	0x3bf3f340	0.007444769
32	0xbe9a4309	-0.3012927
33	0xbdd6067a	-0.10450454
34	0xbd97dac4	-0.07414773
35	0x3e94800d	0.29003945
36	0xba715000	-0.00092053413
37	0xbcce0020	-0.025146544
38	0xbeb438d7	-0.35199615
39	0xbe97a44a	-0.2961753
40	0xbdf5939a	-0.119910434
41	0x3e8a7a5d	0.2704648
42	0x3e9b9cc3	0.30393037
43	0x3e51a38a	0.20472541
44	0xbd716540	-0.05893445
45	0x3dd7255c	0.105051726
46	0xbe8b3704	-0.2719041
47	0x3eb1f9bd	0.34760848
48	0x3e7ff622	0.24996236
49	0xbd7efd80	-0.062253475
50	0x3e930f93	0.2872282
51	0x3e802ebf	0.25035664
52	0xbe64af72	-0.22332552
53	0xbe31c8f3	-0.17361812
54	0x3e9d0fa1	0.30675986
55	0xbe30e600	-0.17275238
56	0x3e1bef92	0.15228108
57	0xbe5132e8	-0.20429575
58	0xbd996528	-0.07489997
59	0x3e52f9a6	0.20603046
60	0xbe5d839f	-0.2163224
61	0xbe171395	-0.14753564
62	0x3d9f52cc	0.07779464
63	0x3dfc89f8	0.12331003
64	0xbe6ed052	-0.23321655
65	0xbe44a450	-0.19203305
66	0xbe45b018	-0.19305456
67	0x3ea4d193	0.32191142
68	0xbdfdb810	-0.12388623
69	0xbe40fb27	-0.18845807
70	0x3e39a436	0.18129048
71	0x3e9d1f55	0.30687967
72	0xbe32706c	-0.17425698
73	0x3b65bd00	0.003505528
74	0xbe8d0ac0	-0.27547264
75	0xbe779e74	-0.24181539
76	0xbea83a22	-0.32856852
77	0x3e3efc76	0.18650994
78	0xbddab534	-0.10679093
79	0xbea1cc75	-0.316013
80	0x3e0f634c	0.14002723
81	0x3e5bdf8a	0.21471992
82	0xbd5ecfd8	-0.054397434
83	0x3ea79401	0.32730106
84	0xbe2cb0ef	-0.1686437
85	0x3c214b20	0.009844571
86	0xbea5592e	-0.322946
87	0x3e1f39da	0.15549412
88	0x3dd8745c	0.10569069
89	0x3e075600	0.132164
90	0x3ba0aa00	0.004903078
91	0x3db2cdfc	0.08730695
92	0xbd5b3678	-0.053518742
93	0x3e4668d2	0.19375923
94	0xbe9e73ba	-0.30947667
95	0x3e04ff9c	0.12988132
96	0x3c9f41c0	0.019440532
97	0xbdf8f060	-0.12155223
98	0x3d19f4b0	0.037586868
99	0x3eafc495	0.34329668
100	0x3c394bc0	0.011309564
101	0x3df58fd4	0.11990324
102	0x3e84ce7b	0.25938782
103	0x3e4ac202	0.1980057
104	0xbe19ab80	-0.15006828
105	0x3e99ecff	0.30063626
106	0xbcef1c30	-0.029188246
107	0xbdcb23f4	-0.09918967
108	0xbe6f304c	-0.23358268
109	0xbe013b1e	-0.12620208
110	0xbe462489	-0.19349875
111	0x3e425fce	0.18981859
112	0x3c28a960	0.010294288
113	0x3d096a20	0.033548474
114	0xbdd116d4	-0.10209432
115	0xbe08e34b	-0.13367955
116	0x3e636f9e	0.22210547
117	0xbcb103a0	-0.021608174
118	0x3ce378d0	0.027767569
119	0x3e856e9d	0.26060954
120	0xbd7c9560	-0.061665893
121	0x3ea47935	0.32123724
122	0xbe23d7df	-0.16000317
123	0xbe9960c7	-0.29956648
124	0x3eaefce7	0.34177324
125	0xbd5f83a8	-0.054568917
126	0x3e1ae0c2	0.15124801
127	0x3d3de440	0.046360254
128	0xbcee9fd0	-0.029128939
129	0x3ea7e7ed	0.32794133
130	0x3e1987fe	0.14993283
131	0x3e89d9d1	0.26923993
132	0x3e9c3971	0.30512574
133	0x3e84c5e9	0.25932243
134	0xbe9c7476	-0.30557603
135	0x3d25c408	0.040470153
136	0x3e837ce3	0.25681219
137	0xbe10179b	-0.14071505
138	0x3c8a5b40	0.016889215
139	0xbca84510	-0.020540744
140	0xbcadc6a0	-0.021212876
141	0xbe303052	-0.17205933
142	0xbe6176b2	-0.22017935
143	0x3e518382	0.20460322
144	0xbe8cad9f	-0.27476212
145	0xbe68e8a8	-0.22745001
146	0xbe3e1fbd	-0.18566795
147	0x3e8f72bf	0.28017232
148	0x3e99d6c3	0.30046663
149	0x3ddbe3d8	0.10736817
150	0xbe4cc9fb	-0.19998924
151	0xbeb1ec0a	-0.34750396
152	0xbd0c91c8	-0.034318715
153	0xbc95ce90	-0.018286973
154	0x3eb1cb63	0.34725484
155	0x3e95c9d1	0.29255536
156	0xbead27e8	-0.3381951
157	0xbe9a4afc	-0.30135334
158	0xbba2cb80	-0.0049681067
159	0xbe84f006	-0.25964373
160	0x3e9485c3	0.29008302
161	0x3dd92d04	0.10604289
162	0xbe4e736a	-0.20161214
163	0x3e64867e	0.2231693
164	0xbdc1276c	-0.09431347
165	0x3e4258da	0.18979207
166	0x3eb497ab	0.35271963
167	0xbea46659	-0.32109335
168	0xbe9b7640	-0.30363655
169	0x3d281ba0	0.04104197
170	0x3ea4a2fb	0.32155594
171	0x3e087bba	0.13328448
172	0xbe334c69	-0.17509617
173	0x3e7cca6e	0.24686596
174	0xbd86ed4c	-0.065882295
175	0x3e4413de	0.19148204
176	0x3e77e68e	0.24209043
177	0x3d2211b8	0.03956768
178	0xbe02b966	-0.12766036
179	0x3e6c3222	0.23065999
180	0x3e898acb	0.26863703
181	0x3e83218b	0.2561153
182	0x3ea07289	0.31337383
183	0xbeb3b5c5	-0.35099617
184	0xbeb28852	-0.3486963
185	0x3da66238	0.081242025
186	0xbdb876c8	-0.09007031
187	0xbe91e5f8	-0.28495765
188	0x3ea1e685	0.31621185
189	0xbeb27f44	-0.3486272
190	0xbe66a485	-0.22523697
191	0xbc31de80	-0.010856271
192	0xbe819f8a	-0.2531703
193	0x3e759f52	0.23986557
194	0xbe6bfa8d	-0.23044796
195	0xbc2324e0	-0.009957522
196	0xbdcc24a0	-0.09967923
197	0x3ea8b0dd	0.32947436
198	0xbcd99370	-0.026559561
199	0x3c08aac0	0.008341491
200	0xbd9afb34	-0.075674444
201	0x3e50e5d6	0.20400175
202	0xbe280eda	-0.16411915
203	0xbe9bedab	-0.30454764
204	0xbe90bdf2	-0.28269917
205	0xbd9143bc	-0.070929974
206	0x3e9b50fd	0.30335227
207	0xbc7ae300	-0.01531291
208	0x3eb3db09	0.35128048
209	0xbe84aa65	-0.2591125
210	0x3e14897e	0.14505574
211	0x3e885b73	0.2663227
212	0x3b74b980	0.0037342012
213	0x3eb0b439	0.345125
214	0xbe2cc3ac	-0.16871518
215	0x3d3af628	0.04564491
216	0x3e0902f8	0.13380039
217	0xbca43090	-0.020042688
218	0xbd7b26c8	-0.06131628
219	0x3dc06acc	0.0939537
220	0xbe6e672c	-0.23281544
221	0xbe64f12f	-0.22357629
222	0x3e34d6ea	0.17660108
223	0xbe9ee5c8	-0.31034684
224	0xbd603bd8	-0.05474457
225	0xbe96cbe4	-0.2945243
226	0xbe2f864b	-0.17141072
227	0xbc0fbb80	-0.008772731
228	0xbdb20d3c	-0.086939305
229	0xbdb491b8	-0.08816856
230	0xbe96ff43	-0.29491624
231	0x3e34eede	0.17669246
232	0x3df8c6e0	0.121473074
233	0x3e1fa202	0.15589145
234	0x3cc5b550	0.024134308
235	0x3e2f6286	0.17127427
236	0x3e9b7529	0.30362824
237	0x3df945dc	0.12171528
238	0xbe85d053	-0.261355
239	0xbddb55c8	-0.10709721
240	0xbd944b60	-0.07240939
241	0xbe93a5f0	-0.28837538
242	0xbe054ea1	-0.13018276
243	0xbda19788	-0.078902304
244	0x3df11924	0.11772373
245	0x3ddb81cc	0.10718116
246	0xbe14b14e	-0.14520761
247	0xbe9cfac6	-0.30660075
248	0xbd140ae0	-0.036143184
249	0x3e63ed6e	0.22258541
250	0xbe5af362	-0.21381906
251	0xbd6bac80	-0.057537556
252	0xbe3fac2f	-0.18718027
253	0xbe23f50d	-0.16011448
254	0xbe962bd6	-0.2933032
255	0xbe6ecdec	-0.2332074

embedder.dim_up.bias f4 [64]
0	0xbe875588	-0.26432443
1	0x3e56969e	0.20955893
2	0x3e17a47a	0.14808837
3	0x3e70b25e	0.23505542
4	0x3c0db400	0.008648872
5	0xbce690e0	-0.028145254
6	0xbc1630c0	-0.009166896
7	0x3e158906	0.14603052
8	0x3ea17403	0.31533822
9	0x3e303dc2	0.17211059
10	0x3e30ff7a	0.17284957
11	0xbe106cfd	-0.14104076
12	0xbe2a3d11	-0.16624857
13	0xbe733296	-0.23749766
14	0xbe9402d6	-0.28908414
15	0x3e88e215	0.26734987
16	0x3ce17030	0.027519315
17	0x3daf40f4	0.08557311
18	0xbe92e39a	-0.2868927
19	0xbe4b5629	-0.19857086
20	0xbead0239	-0.33790758
21	0xbe9561cc	-0.29176176
22	0x3e222b7e	0.15836903
23	0x3e0e6966	0.13907394
24	0xbdec48f6	-0.11537354
25	0xbe6795b0	-0.22615695
26	0x3e5e088a	0.21682945
27	0x3d5eee10	0.054426253
28	0xbe9c906d	-0.30578938
29	0x3cd69cb0	0.026197761
30	0xbe8563bd	-0.26052657
31	0x3de90514	0.11377922
32	0x3e2e07f2	0.16995218
33	0xbe754c0e	-0.23954794
34	0x3e9fe84b	0.31231913
35	0xbd3db530	-0.046315372
36	0x3de934e0	0.11387038
37	0xbe5439e6	-0.20725212
38	0xbe893a97	-0.26802513
39	0xbeb46b12	-0.35237938
40	0x3e270a9e	0.16312644
41	0xbe963ef2	-0.29344898
42	0x3e4f9a76	0.20273766
43	0xbd212a38	-0.039346904
44	0xbe9d606b	-0.30737624
45	0x3ead1a9f	0.33809373
46	0x3ea3793f	0.3192844
47	0xbe3a3384	-0.18183714
48	0xbc578e60	-0.013156503
49	0xbea446e2	-0.3208533
50	0xbd4f33f0	-0.05058664
51	0xbea7fbf9	-0.32809427
52	0xbdd2a910	-0.10286152
53	0x3e8f6207	0.28004476
54	0x3ea3e62f	0.32011554
55	0xbe565667	-0.20931397
56	0x3ea1e405	0.31619278
57	0xbe287bd5	-0.16453488
58	0x3e0e02ba	0.13868228
59	0x3e7e29d6	0.24820647
60	0xbd87e07c	-0.06634614
61	0xbe3c878d	-0.18411084
62	0x3e4f28fe	0.20230481
63	0xbea1bf8a	-0.31591445

encoder_block1.attention.w_q.weight f4 [64, 64]
0	0xbc8f5228	-0.01749523
1	0x3de1c92e	0.110247
2	0x3d82ab8e	0.06380378
3	0xbd2bb17c	-0.04191731
4	0x3d934c54	0.07192293
5	0xbda3bc2e	-0.07994877
6	0xbde653ca	-0.1124645
7	0x3df63eb4	0.120236784
8	0xbdfe5c80	-0.12419987
9	0xbd909f98	-0.0706169
10	0x3df6321c	0.12021276
11	0x3ceccb80	0.02890563
12	0x3d71cd48	0.059033662
13	0x3cf95bd8	0.030439302
14	0x3ce9b6a8	0.02852948
15	0xbde769a4	-0.11299446
16	0x3dc2c0dc	0.09509441
17	0xbd8d71e4	-0.069064885
18	0xbd4dad8c	-0.050214335
19	0xbca13100	-0.019676685
20	0xbdb633ae	-0.08896576
21	0x3cf51b28	0.029920176
22	0xbd961502	-0.07328226
23	0x3db9ccbc	0.09072253
24	0x3d053480	0.03252077
25	0x3d7f27c8	0.062293798
26	0xbda60d66	-0.08108024
27	0xbdab3cfe	-0.08361243
28	0xbd723c70	-0.05913967
29	0xbd9c6f7c	-0.076384515
30	0xbcec2638	-0.028826818
31	0x3d43709c	0.047714815
32	0xbd1a36c4	-0.037649885
33	0xbdfdc7a8	-0.12391597
34	0xbd9cddf2	-0.0765952
35	0xbda7727e	-0.081761345
36	0x3d85105a	0.064972594
37	0x3db0312e	0.0860313
38	0x3d5f8488	0.05456975
39	0xbdb21028	-0.08694488
40	0xbc6bf520	-0.014401704
41	0xbd0d4514	-0.034489706
42	0x3cfab390	0.0306032
43	0x3dce111c	0.10061857
44	0x3df1d5ea	0.11808379
45	0x3d1a508c	0.03767447
46	0xbc527dc0	-0.012847364
47	0x3daa2eb6	0.08309691
48	0x3d1c62fc	0.038180336
49	0x3cf4b5e8	0.029871896
50	0x3c48a260	0.0122457445
51	0x3d35ba48	0.044367105
52	0x3cf5b2a8	0.029992417
53	0xbdec68fc	-0.11543462
54	0x3dbb8720	0.091566324
55	0x3a294d00	0.0006458312
56	0xbc3358e0	-0.010946482
57	0xbbb84aa0	-0.0056241304
58	0xbc8bbef0	-0.01705882
59	0xbc793aa0	-0.015211731
60	0xbcbefbd0	-0.023313433
61	0xbc78fec0	-0.015197456
62	0x3b81dd00	0.003963113
63	0x3c7e8900	0.015535593
64	0xbc3be6b0	-0.011468574
65	0x3d338044	0.043823496
66	0xbc878178	-0.016541228
67	0x3c326ae0	0.010889739
68	0xbdabf56a	-0.083964184
69	0xbd82fa50	-0.063953996
70	0x3cb5f0f0	0.022209615
71	0xbcda7c68	-0.02667065
72	0xbc766fe0	-0.0150413215
73	0xbc81df00	-0.015853405
74	0xbbde3560	-0.006781265
75	0xbda83f70	-0.08215225
76	0xbddeaf2a	-0.10873254
77	0xbde61bbc	-0.11235759
78	0x3d1f7154	0.038926437
79	0x3db5b168	0.08871728
80	0x3ce2d120	0.02768761
81	0x3dd76892	0.10517992
82	0x3d3e1384	0.04640533
83	0xbd7a397c	-0.061089978
84	0x3da0d4d2	0.07853092
85	0x3c24f160	0.010067314
86	0x3db14a52	0.086567536
87	0xbd298128	-0.04138294
88	0xbce07558	-0.027399704
89	0xbdf5f188	-0.12008959
90	0xbdb1387a	-0.0865335
91	0x3d5372fc	0.05162333
92	0xbde25e58	-0.11053151
93	0xbc1d2490	-0.009591237
94	0x3c81f128	0.015862063
95	0xbcb7b388	-0.022424474
96	0x3d2f2794	0.042762354
97	0x3d41ea3c	0.047342524
98	0x3d2b9a2c	0.041895077
99	0xbdd3f1b8	-0.103488386
100	0xbcf90958	-0.030399963
101	0xbbb91740	-0.0056485236
102	0x3c1c61d0	0.009544805
103	0xbc3edcb0	-0.011649296
104	0x3c89cc68	0.016821101
105	0xbd8858d2	-0.06657566
106	0x3ab32300	0.0013667047
107	0x3d7c0940	0.06153226
108	0xbca62708	-0.020282283
109	0x3dbc499a	0.09193726
110	0x3dd6e6c6	0.10493235
111	0xbdebf9be	-0.11522244
112	0xbd4ce664	-0.050024405
113	0x3b52a0c0	0.0032139271
114	0xbdf10070	-0.117676616
115	0x3bad3f80	0.005287111
116	0x3d6a2498	0.057163805
117	0xbcaf1d68	-0.021376327
118	0xbb1c50c0	-0.0023851842
119	0xb88b1000	-6.631017e-05
120	0x3d31bc70	0.0433926
121	0xbce218a0	-0.027599633
122	0x3cdebf80	0.027190924
123	0xba84c300	-0.0010128915
124	0x3dfaa24a	0.122379854
125	0x3dccd6dc	0.10001919
126	0x3dc4e9a8	0.09614879
127	0x3a608900	0.00085653365
128	0xbd2576c4	-0.040396467
129	0x3d30b600	0.04314232
130	0xbdc3094c	-0.095232576
131	0x3de91522	0.11380984
132	0x3d86456a	0.065562084
133	0x3d18efe4	0.037338153
134	0x3d040c18	0.032238096
135	0x3b2b1a00	0.0026108027
136	0xbdb801d4	-0.08984724
137	0x3d847c82	0.064690605
138	0x3c885680	0.016642809
139	0xbdb106fa	-0.08643909
140	0x3db7005a	0.08935614
141	0x3d84e25c	0.06488487
142	0x3b1c97c0	0.002389416
143	0x3ce90678	0.028445467
144	0x3d9a751e	0.075418696
145	0xbdbc2c1c	-0.09188101
146	0xbd2b18fc	-0.041771874
147	0x3c338c80	0.010958791
148	0xbc8499d8	-0.01618664
149	0x3d35f3d4	0.044421986
150	0x3d943cec	0.072381824
151	0x3dea94b0	0.11454141
152	0x3dbf82a0	0.093510866
153	0x3db20e98	0.0869419
154	0xbdbf4c60	-0.09340739
155	0x3d26d934	0.040734485
156	0xbc53d3e0	-0.012928933
157	0xbdc21460	-0.094765425
158	0xbde68c16	-0.11257188
159	0xbceb71f8	-0.028740868
160	0x3dcc6f04	0.09982112
161	0x3db3625c	0.08758995
162	0xbcf18578	-0.029482588
163	0x3dfe2260	0.124089
164	0xbdc9d8f0	-0.09855831
165	0x3c4274c0	0.011868656
166	0x3d0aef20	0.033919454
167	0x3dcf6d28	0.10128242
168	0x3d5c0a94	0.053721026
169	0x3c934f90	0.017982274
170	0x3b988d40	0.00465551
171	0xba8f7f00	-0.0010947883
172	0x3cbef6e8	0.023311093
173	0x3d871ea8	0.06597644
174	0x3d8f8944	0.07008603
175	0x3d5420d0	0.051789105
176	0xbdafb732	-0.085798636
177	0xbd52d9d4	-0.05147727
178	0xbd0f5a20	-0.03499806
179	0xbcbbf208	-0.022942558
180	0xbd003cdc	-0.03130804
181	0xbb841940	-0.0040313303
182	0x3df6e93e	0.12056206
183	0xbca36a10	-0.019948035
184	0x3d2de1e4	0.042451754
185	0xbd9372aa	-0.07199605
186	0x3d5915c8	0.052999288
187	0xbd4ce244	-0.05002047
188	0xbd3f6e0c	-0.04673581
189	0x3dcaf3c2	0.09909774
190	0x3cf01628	0.02930744
191	0x3d14a544	0.036290422
192	0xbd00bb84	-0.03142883
193	0x3d953b04	0.07286647
194	0xbdddbb64	-0.108267576
195	0x3d473720	0.048636556
196	0x3c0a2a00	0.008432865
197	0xbdfd9f6e	-0.123839244
198	0xbc52c810	-0.012865081
199	0x3dc9574e	0.09831105
200	0x3d8af0f0	0.067842364
201	0x3d406c98	0.046978563
202	0xbcc18e00	-0.023627281
203	0x3c923c20	0.017850935
204	0xbdb4d08e	-0.08828841
205	0x3bb051e0	0.005380854
206	0x3cebf818	0.028804824
207	0x3ddc66e4	0.10761812
208	0xbca42a18	-0.020039603
209	0x3d885f24	0.06658772
210	0x3d927b34	0.071524054
211	0x3ca6bae8	0.020352796
212	0xbdb06ffa	-0.08615108
213	0xbde6e7cc	-0.112746805
214	0x3da397a8	0.079879105
215	0xbd9ae060	-0.075623274
216	0x3de39048	0.11111504
217	0xbd2588dc	-0.040413722
218	0x3ac90b80	0.001533851
219	0xbd0e1518	-0.034688085
220	0xbd00abec	-0.031413957
221	0x3d24edb8	0.04026577
222	0xbd742df8	-0.05961415
223	0xbcec74f0	-0.028864354
224	0xbdc5553e	-0.09635399
225	0x3cd5c1c8	0.026093379
226	0x3dfdfff8	0.12402338
227	0xbb344440	-0.00275065
228	0x3dd7b454	0.10532442
229	0xbd8c5766	-0.068526074
230	0x3cb97f80	0.022643805
231	0xbda6f862	-0.08152844
232	0xbce26620	-0.027636588
233	0x3d86375a	0.06553526
234	0x3d5a67a4	0.053321496
235	0xbcdcd000	-0.02695465
236	0xbd9278d6	-0.07151954
237	0x3cc93fe8	0.024566606
238	0xbdee2bda	-0.11629458
239	0x3deb8068	0.11499101
240	0x3d3d9850	0.046287835
241	0x3d8b70fa	0.06808658
242	0xbdef6622	-0.11689402
243	0xbd5806d8	-0.0527409
244	0xbda2fe5c	-0.079586715
245	0xbd62a650	-0.05533439
246	0x3db755f0	0.08951938
247	0xbd8681e2	-0.06567742
248	0x3d35d348	0.044390947
249	0xbdce68a8	-0.10078555
250	0x3d12da48	0.0358527
251	0xbdeb461a	-0.1148798
252	0x3d865042	0.06558277
253	0xbdba37d0	-0.09092677
254	0xbcf76710	-0.030200511
255	0xbd768d88	-0.06019357

encoder_block1.attention.w_q.bias f4 [64]
0	0x3de12e3a	0.10995145
1	0x3c4db510	0.012555376
2	0x3d9cffe2	0.07665993
3	0x3da54a54	0.080708176
4	0x3d9277c6	0.07151751
5	0x3d076038	0.033050746
6	0x3c908080	0.017639399
7	0xbc7fd440	-0.015614569
8	0xbdde7bc0	-0.10863447
9	0xbd6e5c88	-0.058193713
10	0xbded3796	-0.11582868
11	0x3c856848	0.016285077
12	0xbde40db0	-0.11135423
13	0xbcd29148	-0.025704041
14	0x3cd9ff48	0.026610985
15	0xbb0e2780	-0.0021691024
16	0x3d94a05e	0.0725715
17	0xbdb7409e	-0.089478716
18	0xbd1a3cc4	-0.037655607
19	0xbdbe278a	-0.09284885
20	0xbde5000a	-0.11181648
21	0xbda98672	-0.082775965
22	0xbd88eb4a	-0.06685503
23	0xbd59b2fc	-0.05314921
24	0x3da0a8f0	0.07844722
25	0xbda91b3a	-0.08257146
26	0x3d73224c	0.05935888
27	0xbd8c8424	-0.06861141
28	0x3cd01bf0	0.025403947
29	0xbdac7e04	-0.08422473
30	0xbdde3d0c	-0.108514875
31	0xbd2737ac	-0.040824577
32	0xbc6a6960	-0.01430735
33	0x3df59b46	0.11992507
34	0x3c385a30	0.011251971
35	0xbcdd60e0	-0.027023733
36	0xbca0cb58	-0.019628212
37	0xbd1d1e44	-0.03835894
38	0xbdda809e	-0.10669063
39	0xbdfec0d2	-0.12439121
40	0x3dfbcbb6	0.12294714
41	0x3d8a51f6	0.06753914
42	0xbcea6cb0	-0.02861628
43	0x3d3738a0	0.044731736
44	0xb975b400	-0.00023432076
45	0x3bd16400	0.0063900948
46	0x3d5a3e2c	0.053281948
47	0x3cf86ba0	0.030324757
48	0x3cfd5d28	0.03092821
49	0x3d18f5cc	0.037343785
50	0x3c126bc0	0.008936822
51	0xbdc4e0ac	-0.09613165
52	0x3bd343c0	0.0064472854
53	0x3dc5c150	0.09656012
54	0x3dca6c4a	0.09883936
55	0xbd98fa74	-0.07469645
56	0xbc01e1a0	-0.007927328
57	0xbddfe8a0	-0.109330416
58	0x3dda6ca4	0.10665253
59	0x3d7ebe68	0.062193304
60	0xbdfa2be0	-0.122154
61	0xbde3a55a	-0.11115523
62	0xbdac20a0	-0.0840466
63	0xbdafeef0	-0.085904956

encoder_block1.attention.w_k.weight f4 [64, 64]
0	0xbdaf539c	-0.08560869
1	0xbdb31fa2	-0.08746268
2	0x3d5744f4	0.052555993
3	0xbd3cd028	-0.04609695
4	0x3b173240	0.0023070723
5	0xbde275b6	-0.11057608
6	0xbdb58b58	-0.08864468
7	0xbdff8342	-0.12476207
8	0xbd6de71c	-0.05808173
9	0xbdf29cec	-0.11846337
10	0xbda3b5be	-0.07993649
11	0x3cf7abe8	0.030233338
12	0xbd964c30	-0.0733875
13	0x3d31055c	0.043218
14	0xbcac9ce0	-0.021070898
15	0xbdfb25e8	-0.122630894
16	0xbadef700	-0.0017010868
17	0xbd5d71c8	-0.05406359
18	0x3d260398	0.04053077
19	0x3cec65e8	0.028857186
20	0x3a8bd700	0.0010668933
21	0x3da900ea	0.082521275
22	0x3daaa656	0.08332507
23	0x3d84b68c	0.064801306
24	0x3bc0fae0	0.0058892816
25	0x3d83d040	0.06436205
26	0xbda2ac1e	-0.07942985
27	0x3de369ec	0.11104187
28	0xbdefd610	-0.11710751
29	0x3cab0760	0.02087754
30	0x3d02b310	0.03190905
31	0x3db81b1e	0.08989547
32	0xbd9282e2	-0.0715387
33	0x3dd0cd86	0.101954505
34	0x3cee6f88	0.029105917
35	0xbd98c844	-0.07460073
36	0x3d4dd000	0.050247192
37	0xbdc0ff28	-0.09423667
38	0xbd14f888	-0.03636983
39	0x3dea9b7c	0.114554375
40	0x3ce99d00	0.028517246
41	0xbdf881b0	-0.12134111
42	0x3c1ffd30	0.009764954
43	0xbdd7a7ca	-0.1053005
44	0x3d9b7de0	0.07592368
45	0x3def86e8	0.11695653
46	0xbc6ba3f0	-0.014382347
47	0xbdba39c2	-0.09093048
48	0xbd1c1e18	-0.038114637
49	0x3d9c5cc0	0.07634878
50	0xbd17e5cc	-0.037084386
51	0x3dac6d90	0.08419335
52	0x3d477d44	0.048703447
53	0xbc2740d0	-0.010208324
54	0x3dfe1ea2	0.124081865
55	0x3dd9c92a	0.10634072
56	0x3d8fe536	0.070261404
57	0x3dc6acde	0.097009405
58	0xba944080	-0.0011310726
59	0x3d8911b2	0.06692828
60	0x3d86275c	0.06550476
61	0x3d67ae14	0.0565625
62	0xbde16d42	-0.110071674
63	0xbdb9988c	-0.09062299
64	0x3c0db580	0.00864923
65	0xbb9c43c0	-0.0047688186
66	0xbd808b6a	-0.06276591
67	0xbd88cc04	-0.06679538
68	0xbc2cbe20	-0.010543376
69	0x3dd4996a	0.10380824
70	0xbd18d314	-0.037310675
71	0x3de5de5c	0.11224052
72	0x3d540e08	0.051771194
73	0xbd88c8ce	-0.066789255
74	0xbd4dd9e0	-0.05025661
75	0x3deb7328	0.11496574
76	0x3bb836e0	0.005621776
77	0xbd4b4480	-0.049625874
78	0x3d2e1378	0.042499036
79	0x3dbfb300	0.093603134
80	0x3d5ffc08	0.054683715
81	0xbcac97f8	-0.021068558
82	0xbdd831de	-0.105563864
83	0xbd769e04	-0.06020929
84	0xbd94f6b0	-0.072736144
85	0xbda2a726	-0.07942037
86	0xbdd79df6	-0.105281755
87	0x3df63218	0.120212734
88	0xbdceb62c	-0.1009334
89	0x3d832c86	0.064049765
90	0xbdaabe82	-0.08337118
91	0xbd825ad8	-0.06364983
92	0x3ba7d2a0	0.005121544
93	0x3d2993b0	0.04140061
94	0xbdcf0ef4	-0.10110274
95	0x3d2e76a4	0.042593613
96	0xbd91e692	-0.07124056
97	0x3dd81992	0.10551752
98	0x3de592b8	0.11209625
99	0xbda6683e	-0.08125351
100	0xbdd61e9c	-0.10455057
101	0xbda4251c	-0.080148906
102	0x3dc55d72	0.09636964
103	0x3da4cefc	0.08047292
104	0xbcb5ceb0	-0.022193283
105	0xbdeeb736	-0.116560385
106	0x3d710450	0.058842003
107	0xbdc7266e	-0.09724127
108	0xbd06fc68	-0.032955557
109	0x3d3e7304	0.046496406
110	0xbcfe72a0	-0.031060517
111	0x3dc2bf90	0.09509194
112	0xbdda7180	-0.1066618
113	0x3dd8fbfc	0.10594937
114	0x3cb191c0	0.021675944
115	0xbc17f070	-0.009273633
116	0xbcbb8520	-0.022890627
117	0xbb97fb80	-0.0046381354
118	0xbd033a4c	-0.032038018
119	0x3df18f3e	0.117948994
120	0xbcdf7350	-0.027276665
121	0xbdeab2b0	-0.11459863
122	0x3de05340	0.10953379
123	0xbde1eed4	-0.11031881
124	0x3de50b60	0.1118381
125	0xbba51e20	-0.0050389916
126	0xbd1cb19c	-0.03825532
127	0xbd713664	-0.05888976
128	0xbc3e2900	-0.011606455
129	0x3db6cd98	0.08925933
130	0x3d8404b4	0.064462095
131	0x3d107f1c	0.03527747
132	0x3dac4184	0.084109336
133	0xbae69d00	-0.0017594397
134	0xbcf97778	-0.030452475
135	0x3d80a112	0.06280722
136	0xbdfaf1ea	-0.12253173
137	0x3db7b606	0.08970265
138	0xbddb58c6	-0.107102916
139	0xbddfe48c	-0.10932264
140	0x3da02d4e	0.07821141
141	0x3dcf7ee4	0.10131624
142	0x3cd6f1d0	0.026238352
143	0x3d94ae3a	0.072597936
144	0x3aa6ba80	0.0012720376
145	0x3b976b00	0.0046209097
146	0xbc2b6520	-0.010461122
147	0xbca13670	-0.019679278
148	0x3dc5be22	0.096554056
149	0xbde63a28	-0.11241561
150	0xbdbe8962	-0.093035474
151	0x3d53ec28	0.051738888
152	0x3dfe24fc	0.12409398
153	0x3ae0f980	0.00171642
154	0xbccc4220	-0.024933875
155	0xbd1d4dd8	-0.038404316
156	0x3d835d52	0.06414284
157	0x3d0f03f0	0.034915864
158	0xbd97bc38	-0.07408947
159	0x3d938e66	0.07204895
160	0xbd16c6ec	-0.0368108
161	0xbdd99e62	-0.10625912
162	0xbca9d718	-0.020732448
163	0xbc645890	-0.013937131
164	0xbdb970aa	-0.09054692
165	0xbd172e28	-0.036909252
166	0xbdf81760	-0.121138334
167	0xbd535014	-0.05159004
168	0xbdb0e17c	-0.08636758
169	0xbd0146ac	-0.03156154
170	0x3dd4942e	0.103798255
171	0xbcb5fef8	-0.022216305
172	0xbdb9a7ce	-0.09065209
173	0xbcee4d78	-0.029089674
174	0xbdfc64a8	-0.12323886
175	0x3d3b4cc4	0.045727506
176	0xbca155d0	-0.019694239
177	0x3d581050	0.05274993
178	0x3c91e6a8	0.01781018
179	0xbd9aec2c	-0.075645775
180	0xbc181900	-0.009283304
181	0x3c647760	0.013944477
182	0x3bab3800	0.0052251816
183	0xbd337924	-0.0438167
184	0xbb85fbe0	-0.0040888637
185	0xbc736810	-0.014856353
186	0xbd2cae48	-0.042158395
187	0x3c0eb320	0.008709699
188	0xbda8d612	-0.08243956
189	0x3df018e4	0.117234975
190	0xbcc53ee8	-0.024077848
191	0x3da46c36	0.08028452
192	0xbdb94ac0	-0.090474606
193	0x3d788524	0.060673848
194	0x3cf39f80	0.029739141
195	0xbbf1db40	-0.007380873
196	0xbbba4c20	-0.0056853443
197	0xbc0490b0	-0.008091137
198	0xbbad2900	-0.0052844286
199	0x3cd15510	0.025553256
200	0x3d2b6c78	0.04185149
201	0x3daefdd6	0.08544509
202	0xbdc92de6	-0.098232076
203	0xbd9662c6	-0.07343058
204	0x3dc885d2	0.09791149
205	0x3dd2ab38	0.10286564
206	0xbcffbbb8	-0.031217441
207	0xbcce2110	-0.02516225
208	0x3c8eb888	0.017421976
209	0xbdad82da	-0.084722236
210	0xbdfc73ba	-0.123267606
211	0xbdbd6b02	-0.09248926
212	0x3da1ae6c	0.078945965
213	0x3d7385cc	0.05945377
214	0x3df42b5c	0.11922333
215	0xbdd4a516	-0.1038305
216	0x3d566cf4	0.05235
217	0xbd8a70a0	-0.06759763
218	0xbdbe6012	-0.09295668
219	0x3d703d7c	0.058652386
220	0xbc819378	-0.015817389
221	0xbd20f020	-0.0392915
222	0xbdfba24c	-0.12286815
223	0x3d2f0518	0.042729467
224	0xbccc4e68	-0.02493973
225	0x3cdca058	0.026931927
226	0x3d24b770	0.040214002
227	0x3c0ae610	0.008477703
228	0xbc04d150	-0.008106545
229	0x3dadc388	0.0848456
230	0xbdb7fedc	-0.089841574
231	0x3dbec176	0.093142435
232	0x3d8bab64	0.068197995
233	0x3d95e210	0.073185086
234	0xbd026810	-0.031837523
235	0x3d2854a4	0.041096345
236	0x3d19bf84	0.03753616
237	0x3dbbf576	0.09177677
238	0xbd8b7d32	-0.068109885
239	0xbd9df156	-0.07712047
240	0xbd02e4ec	-0.0319566
241	0x3d56cf2c	0.05244367
242	0x3d303028	0.043014675
243	0x3df8540e	0.12125407
244	0xbd6a304c	-0.057174966
245	0xbd91d270	-0.07120216
246	0xbd972f7e	-0.07382105
247	0x3bc71040	0.006074935
248	0x3d88025e	0.066410765
249	0x3bd20940	0.006409794
250	0x3d2e31b4	0.04252787
251	0x3ddedfdc	0.108825415
252	0xbde0d64c	-0.10978374
253	0x3dc6bfa6	0.09704523
254	0xbcb0ab88	-0.021566167
255	0x3dbecec4	0.09316781

encoder_block1.attention.w_k.bias f4 [64]
0	0xb9fc2e00	-0.00048099458
1	0xbc1b7600	-0.009488583
2	0x3dbb8482	0.09156133
3	0x3d592944	0.05301787
4	0x3d84187e	0.06449984
5	0x3d116e4c	0.035505578
6	0xbaefef00	-0.001830548
7	0xbdadb60e	-0.0848199
8	0xbcb5ae78	-0.02217792
9	0xbd420760	-0.047370315
10	0x3d9f7dfa	0.077877
11	0x3ddfb700	0.10923576
12	0x3dc4be9a	0.09606667
13	0xbdc735ba	-0.097270444
14	0xbc08c150	-0.008346871
15	0xbbaa3f20	-0.0051955134
16	0xbd7cb860	-0.06169927
17	0x3dd10cf8	0.10207552
18	0x3d73249c	0.059361085
19	0xbde73190	-0.1128875
20	0x3cdd13e8	0.026987031
21	0x3ddb1fa8	0.10699397
22	0xbd8c88c4	-0.068620235
23	0x3d61e594	0.055150583
24	0xbdd944a0	-0.10608792
25	0xbcd9acf0	-0.02657172
26	0x3af19a80	0.0018432885
27	0x3ddaccee	0.106836185
28	0xbd13c6e4	-0.03607835
29	0xbdb4d252	-0.08829178
30	0x3d860576	0.0654401
31	0x3ca2e458	0.019884273
32	0xbdc70a22	-0.097187296
33	0xbcd8d968	-0.026470855
34	0x3d2d70d4	0.04234393
35	0xbd342ae0	-0.0439862
36	0xbddaad04	-0.10677531
37	0xbdf07c90	-0.117425084
38	0xbcbb5848	-0.022869244
39	0x3a011a00	0.0004924834
40	0xbd88d232	-0.066807166
41	0x3c366c30	0.011134192
42	0x3c73b340	0.0148742795
43	0xbca79788	-0.020457998
44	0xbd97e61c	-0.07416937
45	0x3d894a7a	0.067036584
46	0x3d36ecec	0.04465954
47	0xbdef9e50	-0.117001176
48	0x3dbba0da	0.091615394
49	0xbdc76268	-0.097355664
50	0x3da7bbb0	0.081900954
51	0xbd6ebd1c	-0.058285818
52	0xbd0d5f64	-0.0345148
53	0x3dd2a70e	0.102857694
54	0x3cf7cda0	0.030249417
55	0xbdc23ffc	-0.0948486
56	0x3d843e2a	0.06457169
57	0xbdda3a62	-0.10655667
58	0x3dcb38cc	0.099229425
59	0xbdffb3ee	-0.12485491
60	0x3c316660	0.010827631
61	0x3d5422ac	0.05179088
62	0x3d528964	0.051400557
63	0xbd994a40	-0.07484865

encoder_block1.attention.w_v.weight f4 [64, 64]
0	0xbc110060	-0.008850187
1	0xbde2cfde	-0.11074804
2	0x3dbf0d84	0.0932875
3	0xbde0f67c	-0.10984513
4	0xbc39b950	-0.011335686
5	0xbdfe0c00	-0.124046326
6	0xbce7f8a0	-0.028316796
7	0xbd882be2	-0.06648995
8	0x3d9fc734	0.07801667
9	0x3d826382	0.06366636
10	0xbd4eb3b0	-0.050464332
11	0x3da68a7c	0.081318825
12	0xbdaec572	-0.085337535
13	0x3d414ab0	0.04719037
14	0x3dff2090	0.12457383
15	0x3d520d24	0.051282063
16	0xbd4d7eb4	-0.05016966
17	0xbdc00cc8	-0.09377438
18	0x3c6ba180	0.014381766
19	0x3da23c0c	0.07921609
20	0xbbdc1940	-0.006716877
21	0x3de84eac	0.113431305
22	0x3dd1b082	0.10238744
23	0x3db745e6	0.08948879
24	0x3cd0eb48	0.025502816
25	0xbda90a7a	-0.08253951
26	0xbdb8f864	-0.09031752
27	0xbdc3055a	-0.09522505
28	0x3db16238	0.08661312
29	0xbd4f17e4	-0.050559893
30	0xbd0768b0	-0.033058822
31	0xbd9dda7c	-0.07707688
32	0x3dca7fec	0.098876804
33	0x3d314530	0.043278873
34	0xbdbf7f18	-0.09350413
35	0x3dc4edae	0.09615646
36	0xbdaf9d02	-0.08574869
37	0x3ba48740	0.005021006
38	0xbc596950	-0.013269737
39	0x3d76dcc0	0.060269117
40	0xbd291b30	-0.041285694
41	0x3de24642	0.11048557
42	0x3c8a42a0	0.016877472
43	0xbcb93258	-0.022607014
44	0xbca06008	-0.019577041
45	0x3def34fa	0.11680026
46	0xbd89ac54	-0.06722322
47	0xbbd47d20	-0.0064846426
48	0x3d65e558	0.056126922
49	0xbcbe2370	-0.023210257
50	0xbce63170	-0.028099746
51	0x3d38a4b0	0.045078933
52	0xbd6ea87c	-0.058266148
53	0x3d3f46bc	0.046698317
54	0x3cd7d530	0.026346773
55	0x3d752740	0.059851885
56	0x3cf796e8	0.030223325
57	0xbdcd7ba8	-0.10033351
58	0x3cfae480	0.030626535
59	0xbcbcc0b0	-0.0230411
60	0xbca85828	-0.020549849
61	0xbd8ccc16	-0.06874864
62	0x3d98d528	0.07462531
63	0x3cb2a9e0	0.021809518
64	0x3d9f72d2	0.07785572
65	0xbd99cdfa	-0.0750999
66	0x3dd8693a	0.105669454
67	0x3cdc4cc8	0.02689208
68	0xbdcbb514	-0.09946647
69	0xbdff57c8	-0.12467915
70	0xbdd49b3a	-0.103811696
71	0x3d89fc0c	0.06737527
72	0xbda5139a	-0.08060379
73	0x3db6af72	0.08920182
74	0xbda9fff6	-0.08300774
75	0x3de105a2	0.109874025
76	0xbdaca2fc	-0.08429524
77	0x3d70f35c	0.058825836
78	0xbd466198	-0.048432916
79	0xbcae6728	-0.021289423
80	0x3d9f290e	0.077715024
81	0x3d7abf14	0.061217383
82	0xbd6ab020	-0.057296872
83	0xbd8c0bb2	-0.06838168
84	0xbdded3aa	-0.108802155
85	0xbdfa7d7e	-0.12230967
86	0x3d8efe98	0.06982154
87	0x3d80a7b6	0.06281988
88	0x3cb31560	0.021860778
89	0x3df5b6da	0.11997767
90	0xbd8beff6	-0.06832878
91	0x3dc43958	0.0958125
92	0x3d97a35c	0.07404205
93	0xbdbac332	-0.09119262
94	0xbd0e3998	-0.034722894
95	0x3d01d5bc	0.031697974
96	0x3c662bd0	0.014048532
97	0x3da4e904	0.08052257
98	0x3dda2268	0.10651094
99	0xbd6f925c	-0.05848919
100	0x3cada6a0	0.021197617
101	0xbbe2f900	-0.006926656
102	0x3c65bc80	0.014021993
103	0x3d30f5c4	0.04320313
104	0xbd7cfd1c	-0.06176482
105	0x3db609ec	0.08888611
106	0x3c8460a0	0.016159356
107	0x3d6f07c8	0.05835703
108	0x3d281738	0.041037768
109	0x3dc19c6c	0.09453663
110	0xbd1625e4	-0.03665723
111	0xbdcbdc1e	-0.099540934
112	0xbbeb3aa0	-0.0071786195
113	0xbdbe1d4a	-0.0928293
114	0x3d70bb2c	0.05877225
115	0x3ba3d660	0.0049999207
116	0xbd62c304	-0.055361763
117	0x3cd39df0	0.025832146
118	0xbda6ec50	-0.08150542
119	0xbd3adee0	-0.045622706
120	0xbdfd3eb2	-0.12365474
121	0xbc5c08f0	-0.013429865
122	0x3db7c9f0	0.089740634
123	0x3df8793a	0.12132497
124	0x3c342360	0.010994762
125	0xbdc9bf40	-0.09850931
126	0x3df46e4e	0.119351014
127	0x3d3a89b0	0.045541465
128	0xbcba9188	-0.022774473
129	0x3d652188	0.05594018
130	0xbdd39742	-0.103315845
131	0xbd81a0e2	-0.06329514
132	0xbda6d1d0	-0.08145487
133	0x3db70ba8	0.0893777
134	0xbd7fdaa4	-0.06246437
135	0xbd9f8782	-0.07789518
136	0x3de03f44	0.10949567
137	0x3de886b2	0.11353816
138	0x3b2fcf80	0.002682656
139	0x3ad70480	0.0016404539
140	0xbc298ea0	-0.010348946
141	0x3d2f062c	0.042730495
142	0x3db7e06a	0.089783505
143	0xbdbb70f8	-0.091524065
144	0xbdac1f4e	-0.084044084
145	0xbd77095c	-0.06031166
146	0xbd713cd4	-0.0588959
147	0x3caa0580	0.020754576
148	0x3c5f9980	0.013647437
149	0x3dc959e2	0.09831597
150	0xbdc8fe5a	-0.09814139
151	0x3de9829a	0.114018634
152	0xbd2c1188	-0.042008907
153	0x3d78ac94	0.06071146
154	0x3d2096d0	0.039206326
155	0x3da0b8ce	0.07847749
156	0xbc526760	-0.012842029
157	0x3dd7d0e6	0.10537891
158	0xbc418a50	-0.011812761
159	0x3d8a3ba8	0.0674966
160	0xbd562f00	-0.052290916
161	0x3d96fb92	0.07372202
162	0x3d826274	0.06366435
163	0xbd344b88	-0.044017345
164	0x3ca23350	0.019799858
165	0x3dd50e70	0.10403144
166	0xbdbaf122	-0.09128024
167	0xbc5a9280	-0.013340592
168	0x3cd394d8	0.02582781
169	0xbde0a01c	-0.109680384
170	0xbc286590	-0.010278121
171	0x3dfb066a	0.12257083
172	0xbdc90d84	-0.09817031
173	0xbbb5c0c0	-0.005546659
174	0x3de5e5f4	0.11225501
175	0xbdaa75e0	-0.08323264
176	0xbcbe50e8	-0.023231938
177	0x3d441644	0.047872797
178	0xbd9b0740	-0.07569742
179	0x3dcdfd50	0.10058081
180	0x3d4d8358	0.050174087
181	0x3ce80320	0.028321803
182	0x3d30ed68	0.04319516
183	0x3ddd7a0e	0.10814296
184	0xbdbc5224	-0.091953546
185	0xbd2cd8e4	-0.04219903
186	0x3cb9d3f8	0.022684082
187	0x3c164e90	0.009174004
188	0xbb6ea680	-0.003641516
189	0xbda67052	-0.08126892
190	0x3dbf1a3a	0.09331174
191	0xbdd21e94	-0.102597386
192	0xbcd0e028	-0.025497511
193	0x3dff4e08	0.12466055
194	0x3dfc6908	0.123247206
195	0xbdf88490	-0.12134659
196	0xbd70f7dc	-0.058830127
197	0xbdf915bc	-0.12162349
198	0x3dd01e34	0.10162011
199	0x3d9373cc	0.07199821
200	0x3d194c18	0.037426084
201	0x3d597a78	0.05309531
202	0x3b8855e0	0.0041606277
203	0xbd04fb24	-0.03246607
204	0x3de6bdbe	0.11266659
205	0x3d5b3a30	0.05352229
206	0xbc751db0	-0.014960691
207	0x3d0d4d58	0.03449759
208	0x3d89f032	0.06735267
209	0xbd96511e	-0.073396906
210	0xbc3b7920	-0.011442453
211	0xbd54af78	-0.051925153
212	0x3dd32be8	0.10311109
213	0xbd6f5e80	-0.05843973
214	0xbd327534	-0.043568805
215	0xbc957200	-0.018242836
216	0x3d6d5d88	0.057950526
217	0xbd80d7ea	-0.06291182
218	0x3d7c0b50	0.061534226
219	0x3da4a0ae	0.0803846
220	0x3df8dc80	0.12151432
221	0xbdd488f0	-0.10377681
222	0xbcae21e0	-0.021256387
223	0xbd7dd750	-0.061972916
224	0x3dc43f60	0.095824
225	0xbdf26368	-0.118353665
226	0xbcf64910	-0.030064136
227	0xbd911eb4	-0.07085934
228	0x3d381060	0.04493749
229	0xbdcd61f0	-0.10028446
230	0xbd34c5c0	-0.0441339
231	0xbcbef510	-0.023310214
232	0xbd44e234	-0.048067287
233	0x3b61fbc0	0.003448233
234	0x3d5b7628	0.05357948
235	0x3dfa226a	0.12213595
236	0x3dc3bd62	0.09557606
237	0x3de6024a	0.11230905
238	0xbda02c74	-0.07820979
239	0xbdc0f2a4	-0.0942128
240	0x3dfa4f9a	0.12222214
241	0xbce5ee10	-0.028067619
242	0xbd8dbe7a	-0.06921096
243	0x3d90cc32	0.07070197
244	0xbdd684ae	-0.104745254
245	0x3d9658e6	0.07341175
246	0xbd52fbac	-0.051509544
247	0xbd92a674	-0.07160655
248	0x3ca8ca80	0.020604372
249	0xbdc03c26	-0.093864724
250	0x3dc7d986	0.09758286
251	0x3d345f08	0.04403594
252	0xbd9c845e	-0.076424345
253	0xbdc9d9e4	-0.098560125
254	0x3d75fc14	0.060054854
255	0x3d693cb8	0.05694267

encoder_block1.attention.w_v.bias f4 [64]
0	0x3db26458	0.08710545
1	0xbd637ef4	-0.055540994
2	0x3dd3e78c	0.103468984
3	0xbd9fa408	-0.07794958
4	0x399a6200	0.00029446185
5	0x3c5f9800	0.0136470795
6	0xbd7ac0f0	-0.061219156
7	0xbd5eeb98	-0.0544239
8	0x3dd92b5a	0.10603972
9	0x3ad43980	0.0016191453
10	0xbd5e9fe8	-0.054351717
11	0x3ca70be8	0.02039142
12	0xbd9511a4	-0.07278755
13	0xbca5ad58	-0.020224258
14	0x3d8fe186	0.07025437
15	0xbd8d3744	-0.06895307
16	0x3dbfe472	0.09369744
17	0xbd019928	-0.0316402
18	0x3d583938	0.052788943
19	0xbdfd48d2	-0.12367405
20	0xbdf8be10	-0.121456265
21	0xbda4830a	-0.08032806
22	0x3d158404	0.036502853
23	0x3cc338d0	0.023830801
24	0x3d8f9792	0.070113316
25	0xbdb47514	-0.088113934
26	0x3c9fa4a0	0.019487679
27	0xbd0cc6b0	-0.03436917
28	0xbd661db8	-0.056180686
29	0xbd8eca8a	-0.06972225
30	0x3d25738c	0.040393397
31	0x3d943f6e	0.07238661
32	0xbd719034	-0.058975413
33	0xbdacb70c	-0.08433351
34	0xbd71fd28	-0.05907932
35	0xbb95cf40	-0.0045718253
36	0xbd8e3aca	-0.06944807
37	0xbc5b42a0	-0.013382584
38	0xbb86f140	-0.0041181147
39	0xbdc1782e	-0.094467506
40	0x3c227ec0	0.009917915
41	0xbddbb398	-0.10727614
42	0xbd714758	-0.05890593
43	0x3d83661e	0.06415962
44	0xbd7cc178	-0.061707944
45	0x3d25dbcc	0.040492818
46	0xbd1ac74c	-0.03778772
47	0x3cc8c4a0	0.02450782
48	0xbc8444b0	-0.016146034
49	0xbdc575a6	-0.0964158
50	0xbd30a6c8	-0.043127805
51	0xbd116c7c	-0.03550385
52	0xbc5c7810	-0.0134563595
53	0xbdbf60b8	-0.093446195
54	0x3d44189c	0.04787503
55	0xbdb03c6c	-0.086052746
56	0x3dee4376	0.11633961
57	0xbdd41eac	-0.10357413
58	0xbdd666dc	-0.104688376
59	0xbd832288	-0.06403071
60	0x3d691d08	0.056912452
61	0xbc4ecb60	-0.012621731
62	0xbdde01a6	-0.10840158
63	0x3c52c400	0.012864113

encoder_block1.attention.w_concat.weight f4 [64, 64]
0	0x3dbf58b0	0.09343088
1	0xbd155328	-0.036456257
2	0xbdc0ef6a	-0.094206646
3	0x3db1c4c4	0.08680108
4	0xbd355b68	-0.044276625
5	0x3dc5c810	0.096572995
6	0x3ca2c980	0.019871473
7	0xbdc40604	-0.0957146
8	0x3def84ae	0.116952285
9	0xbdf8ed70	-0.121546626
10	0x3c81da70	0.01585123
11	0x3df75462	0.120766416
12	0x3d856466	0.0651329
13	0x3dda5212	0.10660185
14	0x3d95c3ac	0.07312712
15	0x3d857d38	0.06518024
16	0xbbfe7ea0	-0.0077665597
17	0x3d79e25c	0.06100689
18	0x3d51fa30	0.051263988
19	0x3d798b9c	0.060924158
20	0x3dc8b508	0.09800154
21	0xbcf75a88	-0.030194536
22	0x3c7d69e0	0.015467137
23	0xbbb96460	-0.0056577176
24	0x3de31336	0.110876486
25	0xbd9d1f06	-0.07671933
26	0xbb89cc20	-0.004205242
27	0xbd5f1574	-0.05446382
28	0xbd8ee992	-0.06978144
29	0x3d3710c8	0.04469374
30	0x3d809bac	0.06279692
31	0xbc990a00	-0.018681526
32	0x3d91f34a	0.07126482
33	0x3de22d78	0.11043829
34	0xbdfa9d6a	-0.122370556
35	0xbbb5b120	-0.0055447966
36	0xbddb37a0	-0.10703969
37	0x3dd146ec	0.102186054
38	0x3d1c9e80	0.038237095
39	0xbd3ccc68	-0.046093374
40	0x3a895480	0.0010477453
41	0xbdfa92da	-0.12235041
42	0x3d8adee6	0.06780796
43	0xbb8c5560	-0.0042826384
44	0xbddbbcca	-0.10729368
45	0xbd0e29f0	-0.034707963
46	0x3d83fc68	0.06444627
47	0xbdc18486	-0.09449105
48	0xbdb1a586	-0.08674149
49	0xbda0ee6a	-0.07857974
50	0xbd85b11e	-0.06527923
51	0x3d15aa18	0.036539167
52	0x3def82fa	0.11694904
53	0xbdeda358	-0.11603421
54	0xbc22b3f0	-0.009930596
55	0xbcf12058	-0.029434368
56	0x3c08b650	0.008344248
57	0xbc72b320	-0.014813215
58	0xbdffdb5a	-0.1249301
59	0x3d14af10	0.036299765
60	0xbdce91d8	-0.10086411
61	0xbc0bc840	-0.00853163
62	0xbc398370	-0.011322841
63	0xbd994dd8	-0.07485551
64	0xbcdfe280	-0.027329683
65	0xbb70ea80	-0.0036760867
66	0xbdf4a45a	-0.1194541
67	0x3df5ea24	0.120075494
68	0x3d4acbe4	0.04951085
69	0x3dd57c20	0.104240656
70	0x3d1c85b4	0.038213447
71	0x3d8f3bd8	0.06993836
72	0xbc95c8c0	-0.018284202
73	0x3de64252	0.11243118
74	0xbd6b0c58	-0.05738482
75	0xbde6b0f8	-0.11264223
76	0x3d881fae	0.066466674
77	0x39f27200	0.00046242774
78	0x3d758948	0.059945375
79	0x3dde8eb8	0.10867065
80	0x3daeab18	0.08528727
81	0x3cdfe6c8	0.027331725
82	0xbda33df2	-0.079707995
83	0x3d463e88	0.04839948
84	0xbdcbbd7a	-0.09948249
85	0x3d9cf266	0.07663421
86	0x3d6afae4	0.057368174
87	0xbc872f90	-0.016502172
88	0x3d20cf3c	0.039260134
89	0x3d9bcdc6	0.076076075
90	0xbded7af2	-0.115957156
91	0x3d74a4a8	0.05972734
92	0xbde5acb8	-0.11214584
93	0xbddccf9a	-0.10781784
94	0xbd359540	-0.04433179
95	0x3d7e9ea4	0.06216301
96	0x3d1bd888	0.038048297
97	0x3cd204c0	0.02563703
98	0x3ca20ce8	0.019781545
99	0x3df009bc	0.11720607
100	0xbdca16fe	-0.09867667
101	0xbd7df514	-0.062001303
102	0xbd09ebd8	-0.033672184
103	0x3d6325d0	0.055455983
104	0x3de48c08	0.11159521
105	0x3c5808f0	0.013185725
106	0x3df4f54a	0.11960848
107	0xbd609098	-0.054825395
108	0xbc510d80	-0.012759566
109	0x3d801b98	0.06255263
110	0x3cdface8	0.027304128
111	0xbddc1840	-0.10746813
112	0x3cc566c8	0.024096861
113	0x3df501d8	0.11963242
114	0x3d6974ac	0.056996033
115	0xbc7f5540	-0.01558429
116	0x3db34ff6	0.08755486
117	0xbdc3e83a	-0.09565778
118	0xbdc079ee	-0.09398256
119	0xbd8f6466	-0.07001571
120	0xbd656d14	-0.056012228
121	0xbdf0ff18	-0.11767405
122	0x3c653370	0.013989314
123	0x3d790a34	0.060800746
124	0x3b487440	0.0030586869
125	0x3c0e5ce0	0.008689135
126	0xbc7faae0	-0.015604705
127	0xbb5bb200	-0.0033522844
128	0x3d408244	0.04699923
129	0xbc3176d0	-0.01083155
130	0x3dc3ce96	0.095608875
131	0x3dc4a858	0.096024215
132	0xbcebb9d0	-0.028775126
133	0xbcae4d60	-0.02127713
134	0x3d574a64	0.05256118
135	0xbd6c65f8	-0.057714432
136	0x3cc14b50	0.023595482
137	0xbd8bb65e	-0.06821893
138	0x3bd18660	0.0063941926
139	0xbdaa2384	-0.08307555
140	0x3db52ef4	0.08846846
141	0xbdf0d94a	-0.117601946
142	0xbda67c7c	-0.08129212
143	0x3da2ff4e	0.07958852
144	0x3d8179f2	0.06322087
145	0x3db84266	0.089970395
146	0xbd2cc5b0	-0.042180717
147	0x3dd5859c	0.104258746
148	0x3cb2cb60	0.021825492
149	0x3cbe91c0	0.023262858
150	0x3d912104	0.07086375
151	0x3d547780	0.051871777
152	0xbddfb0e8	-0.10922414
153	0xbd649198	-0.05580291
154	0x3dd13b7e	0.10216425
155	0x3dd7849e	0.105233416
156	0xbd5f7e40	-0.05456376
157	0x3d820e38	0.06350368
158	0xbda3c07a	-0.07995696
159	0xbde53cc0	-0.11193228
160	0xbd568498	-0.052372545
161	0xbb6b4cc0	-0.00359039
162	0xbd490e9c	-0.0490862
163	0x3da5910e	0.080843076
164	0x3d68b1dc	0.056810245
165	0xbd04f36c	-0.032458708
166	0x3ca4b818	0.020107314
167	0xbd278acc	-0.04090385
168	0x3da8ecf8	0.08248323
169	0xbd42d10c	-0.047562644
170	0xbdb109dc	-0.08644459
171	0x3d1b8740	0.03797078
172	0x3cd75490	0.02628544
173	0x3d14541c	0.036213025
174	0x3dc63002	0.096771255
175	0x3da986b8	0.08277649
176	0xbdfb7cee	-0.12279688
177	0x3d1d6ca0	0.03843367
178	0x3d5cc62c	0.05389993
179	0x3db523d8	0.08844727
180	0xbddcbf28	-0.10778648
181	0x3da67392	0.08127512
182	0x3d9f7a0e	0.07786952
183	0xbd945a2e	-0.07243763
184	0x3dd76078	0.10516447
185	0x3daea05e	0.08526681
186	0xbd4876f0	-0.048941553
187	0x3bb9b7e0	0.0056676716
188	0xbbdcb1e0	-0.0067350715
189	0xbd0fb994	-0.03508909
190	0x3ceb6ce8	0.028738454
191	0xbdd1772a	-0.10227807
192	0x3db554cc	0.08854064
193	0x3de2b290	0.11069214
194	0xbd6852fc	-0.056719765
195	0xbd8f5b6e	-0.06999861
196	0xbcb7dfc0	-0.02244556
197	0xbcf03c80	-0.029325724
198	0x3c3fd2d0	0.011707976
199	0x3d38be40	0.04510331
200	0xbda791e4	-0.08182123
201	0x3cc5fd90	0.02416876
202	0xbd2b5adc	-0.041834697
203	0xbde0a31c	-0.10968611
204	0x3d3c62d8	0.045992702
205	0x3ca81cb8	0.020521507
206	0x3cf70fb0	0.030158848
207	0x3dd1af14	0.102384716
208	0xbdf013d4	-0.11722532
209	0xbddf90f8	-0.109163225
210	0x3de739e0	0.11290336
211	0xbd8d5264	-0.069004804
212	0x3cbeac48	0.02327551
213	0x3d99ddb2	0.07512988
214	0x3c41a520	0.011819154
215	0x3de34d00	0.11098671
216	0xbda4d074	-0.08047572
217	0x3d8c1a76	0.068409845
218	0xbd434e20	-0.047681928
219	0x3c7b3620	0.015332729
220	0x3d8cfea8	0.06884509
221	0x3cbdbc48	0.023161069
222	0x3deb40f0	0.11486995
223	0xbd7241cc	-0.05914478
224	0x3c4d1320	0.012516767
225	0x3d79455c	0.060857162
226	0xbdecf658	-0.11570424
227	0xbd2c6484	-0.042088047
228	0x3dab88de	0.08375715
229	0x3d89ab1e	0.06722091
230	0xbdf8272e	-0.12116848
231	0x3daffea4	0.08593491
232	0xbd068fb0	-0.032851875
233	0x3c30d6a0	0.010793358
234	0x3bb57640	0.005537778
235	0xbdb47306	-0.088110015
236	0x3d4f767c	0.050650105
237	0x3d1bc7ac	0.03803222
238	0x3db6b53e	0.08921288
239	0xbdc1fb62	-0.094717756
240	0x3da6bb68	0.08141214
241	0x3db7e900	0.08979988
242	0x3d57ab38	0.05265352
243	0x3d2f4338	0.042788714
244	0xbca537a8	-0.02016814
245	0xbd01141c	-0.03151332
246	0x3d32cc64	0.043651953
247	0x3dcbf34e	0.09958516
248	0x3de9c5b2	0.114146605
249	0xbd7fad34	-0.06242104
250	0x3d2c697c	0.042092785
251	0xbd90e596	-0.0707504
252	0x3c400ed0	0.011722282
253	0x3a119800	0.0005553961
254	0xbd238d58	-0.039929718
255	0x3da8ac60	0.08236003

encoder_block1.attention.w_concat.bias f4 [64]
0	0xbc779cf0	-0.0151131
1	0xbdb25636	-0.0870785
2	0xbba742e0	-0.0051044077
3	0x3dbf3a10	0.093372464
4	0x3d313a14	0.04326828
5	0xbdf81ad4	-0.12114492
6	0xbd8440c4	-0.064576656
7	0xbdaa8fc0	-0.083281994
8	0x3d02a1f0	0.031892717
9	0x3ddc145c	0.10746071
10	0x3d2b6408	0.041843444
11	0x3d961f9e	0.07330249
12	0xbdf3f69e	-0.11912273
13	0x3d773e50	0.06036216
14	0xbde8316a	-0.1133755
15	0x3d9ea472	0.07746209
16	0xbd7e578c	-0.06209521
17	0xbde45ec6	-0.11150889
18	0x3de55a80	0.11198902
19	0x3c9e1d50	0.019301087
20	0xbdad272a	-0.084547356
21	0xbdf7d02a	-0.12100251
22	0xbdc8c322	-0.09802844
23	0xbd6fa9bc	-0.05851148
24	0xbb9777e0	-0.0046224445
25	0xbde6397e	-0.112414345
26	0x3c833770	0.016017646
27	0x3dc5ee98	0.09664649
28	0x3df0bb60	0.11754489
29	0xbd8e928e	-0.06961547
30	0x3d97d210	0.07413113
31	0xbd501878	-0.050804585
32	0xbddef3f2	-0.108863726
33	0x3d093f34	0.03350754
34	0xbdf53066	-0.11972122
35	0x3dd84b26	0.105612084
36	0x3df1dcf2	0.1180972
37	0xbd1dcb10	-0.038523734
38	0x3d0f6e14	0.035017088
39	0xbdebf7dc	-0.11521885
40	0xbdc4d7d4	-0.096114784
41	0x3dc2c446	0.095100924
42	0xbdcacb0e	-0.09902011
43	0xbdf79974	-0.12089816
44	0x3d1f363c	0.03887008
45	0xbcde7a08	-0.027157798
46	0xbd003ba0	-0.031306863
47	0x3d1723cc	0.036899373
48	0xbdec40a2	-0.11535765
49	0xbc9ee578	-0.019396529
50	0x3dc1bcf8	0.09459871
51	0x3d11504c	0.035476968
52	0x3a3bd600	0.00071653724
53	0xbd9e2cde	-0.077234015
54	0xbca6c888	-0.020359293
55	0x3dd5a852	0.10432495
56	0xbd8c4450	-0.06848967
57	0x3d81a298	0.063298404
58	0x3d13123c	0.03590606
59	0x3dfc6508	0.12323958
60	0xbdaf337c	-0.08554742
61	0xbd46cd44	-0.0485356
62	0x3ca20ed0	0.019782454
63	0xbdd56ad8	-0.104207695

encoder_block1.norm1.weight f4 [64]
0	0x3f800000	1.0
1	0x3f800000	1.0
2	0x3f800000	1.0
3	0x3f800000	1.0
4	0x3f800000	1.0
5	0x3f800000	1.0
6	0x3f800000	1.0
7	0x3f800000	1.0
8	0x3f800000	1.0
9	0x3f800000	1.0
10	0x3f800000	1.0
11	0x3f800000	1.0
12	0x3f800000	1.0
13	0x3f800000	1.0
14	0x3f800000	1.0
15	0x3f800000	1.0
16	0x3f800000	1.0
17	0x3f800000	1.0
18	0x3f800000	1.0
19	0x3f800000	1.0
20	0x3f800000	1.0
21	0x3f800000	1.0
22	0x3f800000	1.0
23	0x3f800000	1.0
24	0x3f800000	1.0
25	0x3f800000	1.0
26	0x3f800000	1.0
27	0x3f800000	1.0
28	0x3f800000	1.0
29	0x3f800000	1.0
30	0x3f800000	1.0
31	0x3f800000	1.0
32	0x3f800000	1.0
33	0x3f800000	1.0
34	0x3f800000	1.0
35	0x3f800000	1.0
36	0x3f800000	1.0
37	0x3f800000	1.0
38	0x3f800000	1.0
39	0x3f800000	1.0
40	0x3f800000	1.0
41	0x3f800000	1.0
42	0x3f800000	1.0
43	0x3f800000	1.0
44	0x3f800000	1.0
45	0x3f800000	1.0
46	0x3f800000	1.0
47	0x3f800000	1.0
48	0x3f800000	1.0
49	0x3f800000	1.0
50	0x3f800000	1.0
51	0x3f800000	1.0
52	0x3f800000	1.0
53	0x3f800000	1.0
54	0x3f800000	1.0
55	0x3f800000	1.0
56	0x3f800000	1.0
57	0x3f800000	1.0
58	0x3f800000	1.0
59	0x3f800000	1.0
60	0x3f800000	1.0
61	0x3f800000	1.0
62	0x3f800000	1.0
63	0x3f800000	1.0

encoder_block1.norm1.bias f4 [64]
0	0x00000000	0.0
1	0x00000000	0.0
2	0x00000000	0.0
3	0x00000000	0.0
4	0x00000000	0.0
5	0x00000000	0.0
6	0x00000000	0.0
7	0x00000000	0.0
8	0x00000000	0.0
9	0x00000000	0.0
10	0x00000000	0.0
11	0x00000000	0.0
12	0x00000000	0.0
13	0x00000000	0.0
14	0x00000000	0.0
15	0x00000000	0.0
16	0x00000000	0.0
17	0x00000000	0.0
18	0x00000000	0.0
19	0x00000000	0.0
20	0x00000000	0.0
21	0x00000000	0.0
22	0x00000000	0.0
23	0x00000000	0.0
24	0x00000000	0.0
25	0x00000000	0.0
26	0x00000000	0.0
27	0x00000000	0.0
28	0x00000000	0.0
29	0x00000000	0.0
30	0x00000000	0.0
31	0x00000000	0.0
32	0x00000000	0.0
33	0x00000000	0.0
34	0x00000000	0.0
35	0x00000000	0.0
36	0x00000000	0.0
37	0x00000000	0.0
38	0x00000000	0.0
39	0x00000000	0.0
40	0x00000000	0.0
41	0x00000000	0.0
42	0x00000000	0.0
43	0x00000000	0.0
44	0x00000000	0.0
45	0x00000000	0.0
46	0x00000000	0.0
47	0x00000000	0.0
48	0x00000000	0.0
49	0x00000000	0.0
50	0x00000000	0.0
51	0x00000000	0.0
52	0x00000000	0.0
53	0x00000000	0.0
54	0x00000000	0.0
55	0x00000000	0.0
56	0x00000000	0.0
57	0x00000000	0.0
58	0x00000000	0.0
59	0x00000000	0.0
60	0x00000000	0.0
61	0x00000000	0.0
62	0x00000000	0.0
63	0x00000000	0.0
